gru_model.pth (torch, 41715 bytes, 9 tensors)

gru.weight_ih_l0 f4 [96, 1]
000000 fe f6 11 be 34 fa 95 3d ac e1 7f 3e a3 8d f1 3c
       -0.14254376 0.07323113 0.2498843 0.029486483
000010 ac 70 57 3e fe 24 86 bc 79 89 83 3e 1d af 15 3d
       0.21039075 -0.016375061 0.2569082 0.036543954
000020 0b 54 1f 3e e5 be 37 be 99 c8 28 bc 85 07 9c bb
       0.15559404 -0.17943914 -0.010301732 -0.0047616386
000030 50 47 b2 3d 24 28 51 3e e9 1f 70 3d b6 92 42 3d
       0.08705008 0.20425469 0.058624182 0.047503196
000040 44 70 06 3d a7 46 49 be 4b 73 6b 3e 3a fb 49 be
       0.03282191 -0.19655858 0.229932 -0.19724742
000050 99 09 ca 3d 85 2d cd 3c db 58 fd 3d 81 17 ab 3d
       0.09865112 0.02504612 0.123704635 0.083540924
000060 e6 9b d7 bd f5 af 5a 3d 7f 8f 1b 3e 45 59 ae 3d
       -0.10527782 0.053390462 0.15191458 0.085131206
000070 f4 72 a2 3c 61 9f 4a be 16 12 36 3e 75 93 fa 3d
       0.019830205 -0.1978736 0.17780337 0.122351564
000080 47 3d a7 3d c5 2a 4c 3c fd c8 eb bd 34 cb 2e 3e
       0.081659846 0.012461369 -0.11512945 0.17069703
000090 6c 29 e2 3b cc 1b 59 bd f9 52 68 bd cf a1 5a bc
       0.0069019105 -0.053005025 -0.056719754 -0.013344242
0000a0 b5 ee 24 3e 2a 2c 10 be 6c 97 0c be f9 d5 10 bc
       0.16106685 -0.14079347 -0.13729638 -0.008840078
0000b0 c9 df c3 bd ea fe 44 3d 43 da 4c ba c5 f8 28 3e
       -0.09564168 0.048094667 -0.0007814506 0.16501148
0000c0 f3 50 9d 3d 9e eb 13 3e f5 37 f5 3d 44 cb c8 bd
       0.076814555 0.1444535 0.119735636 -0.09804395
0000d0 18 c5 6b be c6 c1 1a 3d 1d 98 0d 3e 55 8b 9c 3d
       -0.23024404 0.037782453 0.13827558 0.07643763
0000e0 8c 81 b8 3c 28 eb 31 3e fa 9d 83 bc 9f b7 07 3e
       0.02252271 0.17374861 -0.01606654 0.1325364
0000f0 bd 87 12 be b3 51 39 3e 35 62 34 3d fb 3a 10 3e
       -0.14309593 0.18097572 0.04403897 0.14085
000100 0c 16 52 3c 8a 07 2d be 6c 7a 32 3e e9 8c 31 3e
       0.012822639 -0.16897407 0.17429513 0.17338909
000110 3c 18 93 3d 62 ac 19 3e f0 47 6c 3e 35 38 74 3e
       0.07182357 0.15007165 0.23074317 0.23849566
000120 48 cf 98 3e 84 5d 32 be 88 69 1a bd fb a1 b2 bc
       0.29845643 -0.17418486 -0.0376983 -0.021805754
000130 b4 0a 7b be ef 82 74 be f0 52 31 be 0e 99 b9 3c
       -0.24515802 -0.23878072 -0.17316794 0.02265599
000140 b7 8f 55 3e b4 4f 33 be 0d 32 60 be 1d fd 9f 3d
       0.20855604 -0.17510873 -0.21894093 0.078119494
000150 ea e1 9a bd c0 7e cf bd ea 34 88 be c1 9f 1c be
       -0.07562621 -0.101315975 -0.2660287 -0.15295316
000160 31 f1 8f be 54 75 3d be 57 81 85 be 18 0f 62 be
       -0.28113702 -0.18501788 -0.2607524 -0.2207607
000170 17 02 50 bd 01 f2 90 3e 27 6d 73 3e fb 48 db bd
       -0.050783243 0.28309634 0.23772107 -0.10707279

gru.weight_hh_l0 f4 [96, 32]
000000 b5 65 04 bd 33 1e 03 3e 80 33 c7 3d 77 af 8f bc
       -0.032323558 0.12804489 0.0972662 -0.017539723
000010 55 2e 43 3e 30 cb c4 bd 7f f7 6d 3d 37 0a 2f 3e
       0.19060643 -0.096090674 0.05809736 0.1709374
000020 a4 ca 1c 3e 56 ba ee bd d6 06 3e 3d bf fa 18 be
       0.15311676 -0.116566345 0.046393238 -0.14939402
000030 87 4a 36 be 06 a4 13 3e 19 c4 e9 3d 1c b0 22 be
       -0.17801867 0.14418039 0.11414356 -0.15887493
000040 72 15 36 3e 15 ef 5f be f1 cb d5 bd 1e 3b 64 bc
       0.17781618 -0.21868546 -0.10439289 -0.01393011
000050 be ec d9 bd f1 1b 36 3d 29 a9 db 3d f0 4a 44 bd
       -0.10640858 0.04446024 0.10725624 -0.04792303
000060 28 c3 e2 bc 96 d4 b2 bd c8 b6 25 3d 69 14 9f bd
       -0.027680948 -0.08731954 0.040457517 -0.07767565
000070 49 28 e8 bb 2e ca b6 3d 1c dd e9 3d b0 40 8a bc
       -0.0070848805 0.089252815 0.114191264 -0.016876549
000080 02 ec 0f bd ef 27 ed bd 20 2d b5 3d f8 3f fd 3d
       -0.035137184 -0.11579882 0.088464975 0.12365717
000090 5d cb a3 3c 26 cd 17 3d ae b0 41 be b9 af 9d bd
       0.019994432 0.03706088 -0.18915054 -0.07699532
0000a0 6f a4 4e 3d b1 2d 32 bd 50 15 d9 3d 95 a1 8d b9
       0.050449785 -0.043500606 0.10599768 -0.00027014004
0000b0 a6 07 ef 3d 3d 27 00 be 96 70 1b 3e 7c ff 0e be
       0.11671381 -0.12514968 0.15179667 -0.13964647
0000c0 95 6d 25 3e 10 c8 d2 bb 3d ef a2 bd 04 c8 8b 3d
       0.16155083 -0.0064325407 -0.07955787 0.06825259
0000d0 2b 61 bb 3d c6 1c 2f be 3b 79 1b bd 03 93 27 be
       0.09149393 -0.1710082 -0.03795741 -0.16364674
0000e0 53 19 e2 3c de 3c 04 3d 93 8a b2 3c d7 a5 29 3e
       0.027599966 0.03228461 0.021794593 0.16567169
0000f0 98 e0 8b 3d 51 94 46 be 77 3a d4 3d 0e e1 f0 bc
       0.06829947 -0.19392516 0.10362714 -0.02940419
000100 db 0d 6e 3e fa a5 12 3e 1c 26 d3 bd 6f 52 71 3d
       0.23247473 0.14321128 -0.10310003 0.058916505
000110 92 95 45 3d b6 3a c4 bd 4a 25 2e 3c 43 20 a4 3d
       0.048238344 -0.09581511 0.010629008 0.08013966
000120 1e 06 de bd e1 81 87 bd 2b 84 a9 3c f1 9b 16 3e
       -0.108410105 -0.06616569 0.020692905 0.14707924
000130 8c e2 66 3d c0 ea 16 3d 59 44 a1 3d 2a c1 9f 3d
       0.056368396 0.03684497 0.078743644 0.07800515
000140 1c b1 74 3d 23 28 63 3d 1d b0 9f 3d fe af 05 3e
       0.059739217 0.0554582 0.07797263 0.13055417
000150 a3 8e c5 bc 46 67 42 be 07 93 2d bd 38 1a 05 be
       -0.024115866 -0.18984708 -0.042376544 -0.12998283
000160 ce a1 f3 3d a7 a8 21 3e 46 9d 0f 3c ce b2 8f bd
       0.11896096 0.15786992 0.008765524 -0.07016526
000170 f6 2b 0f 3c 29 ec 36 be 12 4d e9 3d 18 71 6e 3e
       0.008738508 -0.17863525 0.11391653 0.2328533
000180 d7 7f 96 bd c2 38 34 3e cf 97 30 3b e4 e5 ae bd
       -0.07348602 0.17599776 0.0026945954 -0.08539942
000190 8f dd 1f 3c 8d 1b 6e bd 44 1d b2 bd d4 ed 0e be
       0.0097574135 -0.058131743 -0.08696988 -0.13957912
0001a0 12 8f df 3d e5 6f 6f 3d ed e8 34 be 9e 3a 1a 3d
       0.1091596 0.05845632 -0.17666979 0.037653558
0001b0 18 8e c1 bd 44 3b 58 3e 91 cf 96 3d c3 67 67 be
       -0.0945093 0.21116358 0.07363809 -0.22598176
0001c0 bc 05 71 bc 11 3c 51 bd 23 4f 87 be d8 39 17 3d
       -0.01471084 -0.051082674 -0.26427564 0.0369204
0001d0 86 2f a9 bb be a9 0e bd 4c cd 30 bc 65 30 90 3d
       -0.005163136 -0.034829848 -0.010791134 0.070404805
0001e0 4a 44 52 be a0 54 83 3e e7 cd 1e 3e 1f 03 1a 3e
       -0.20533863 0.256505 0.15508233 0.15040253
0001f0 ae 39 21 bc fc 56 c1 3d 57 47 ec bc be 93 9e bd
       -0.009840412 0.09440419 -0.028842611 -0.07743023
000200 1b d5 04 be ef bc ca bc c7 79 07 be 3d 27 22 be
       -0.12971918 -0.024748294 -0.13230048 -0.1583528
000210 3a 53 d2 bd 16 c4 f3 3d 4f 3c 3b be c8 a2 84 bd
       -0.102697805 0.11902635 -0.18284725 -0.064763606
000220 d7 49 36 be ef 0f 39 3d 76 d3 06 be 4a b9 c0 bd
       -0.17801605 0.04518121 -0.13166603 -0.09410341
000230 7e d1 10 bd e6 6a 53 3d fc 5c 2e bd cd 40 22 be
       -0.035356037 0.05161562 -0.042569146 -0.15845032
000240 2e 10 d7 bd b8 52 f0 bd e4 2b 0c 3e 9f ae 35 be
       -0.10501133 -0.11734527 0.13688618 -0.17742394
000250 e0 13 13 be 0c 1b 0f 3e a3 97 04 be 74 93 39 3e
       -0.1436305 0.13975161 -0.1294847 0.18122655
000260 c9 84 2a bc e1 36 e4 3d 4e 34 7f 3d 6e 11 4f bd
       -0.010407635 0.1114328 0.06230574 -0.05055373
000270 fa f1 8d 3d 1f 97 fe 3d 9b 7e ba 3c 58 f3 04 3e
       0.06930919 0.12431168 0.022765448 0.12983453
000280 50 51 d3 bd 3a fc 1e bc 1e 12 1c be f1 19 35 be
       -0.103182435 -0.00970369 -0.15241286 -0.17685677
000290 a1 b3 ff 3d 47 6d b6 bd ca 3c 0b be d9 a2 1f be
       0.12485433 -0.08907562 -0.13597408 -0.15589465
0002a0 38 4b ee 3b 09 bf de bd b7 05 47 be b6 7e e1 3d
       0.0072721504 -0.10876281 -0.19435774 0.11010496
0002b0 e8 37 62 3d b7 62 d4 3d 54 e3 cb 3d 53 e1 47 be
       0.055229098 0.10370391 0.09955469 -0.19519548
0002c0 36 bc 2b 3e b4 7c 67 bd 25 13 f2 3c 70 8d fb bd
       0.16771016 -0.05651541 0.029550144 -0.122828364
0002d0 71 21 02 be 92 c3 13 be da 18 6d 3e 75 8a 65 3d
       -0.1270807 -0.14430073 0.23154011 0.056040246
0002e0 f2 ce e5 bd ac 02 49 3e cd ca b8 bd 82 0f a7 bc
       -0.11221112 0.19629925 -0.09023056 -0.020393137
0002f0 3c db b7 bd 5b 03 d4 3d 04 b6 a8 bd b1 95 18 3d
       -0.089773625 0.103522025 -0.08237842 0.03725213
000300 b0 88 50 3b 0c 42 13 3d de 77 9e bd b0 9b 65 3d
       0.0031819753 0.03595166 -0.077377066 0.05605668
000310 02 cc dc 3d 19 e3 29 be f4 72 12 be d5 7c 25 be
       0.10781099 -0.16590537 -0.14301664 -0.16160901
000320 7f fa d5 bd 00 34 1a 3d 95 7a 6e 3e 65 45 c0 bd
       -0.10448169 0.037647247 0.23288949 -0.09388236
000330 6b 6d 6b bd 77 2b 48 3e 60 c4 37 bb d3 be 2d be
       -0.057477396 0.1954783 -0.0028040633 -0.16967325
000340 04 dc 57 bd ae 39 47 3e 26 91 1c be 1a 95 1e 3e
       -0.052700058 0.19455597 -0.15289745 0.15486565
000350 4d 26 b2 3c b6 22 0e be 8a 53 06 3e df e9 2e 3e
       0.021746779 -0.13880429 0.13117805 0.17081402
000360 d3 0b fe bb 3e fd aa bd 89 4b 4a 3d 6b ec bd 3d
       -0.0077528744 -0.08349083 0.049388442 0.09273609
000370 4b a5 cd 3d 3f db 4e be e3 34 04 3b 89 2b e1 3d
       0.10041293 -0.20200823 0.0020173125 0.10994632
000380 ef 35 3c 3e 04 93 cb 3d 82 6c 22 bd 2e 61 9e 3c
       0.18379949 0.099401504 -0.039654262 0.019333448
000390 6c f8 0e be 36 8f 43 3d 9b 7e b3 3b 9e 96 3e bd
       -0.13961953 0.047744 0.005477739 -0.04653036
0003a0 9d 38 bb bd 08 6f 3a be 89 77 41 3e 5a 5a 8a bc
       -0.091416575 -0.18206418 0.18893255 -0.016888786
0003b0 90 b2 f2 3d b9 18 01 3e 68 8c 00 3e 03 a2 14 be
       0.11850464 0.12607087 0.1255356 -0.14514928
0003c0 41 ce 09 be 02 28 de 3d 2e 8d 95 bb 93 84 07 be
       -0.13457586 0.10847475 -0.004563949 -0.13234167
0003d0 8b b9 04 3d bd d7 f7 bc 65 9d 81 3d 82 33 15 bc
       0.03240351 -0.03025424 0.06328849 -0.009106519
0003e0 bc c7 59 bd 36 d3 30 3e 94 86 55 3e 65 46 1e bc
       -0.053168997 0.1726807 0.20852119 -0.009660338
0003f0 e6 a8 19 3e a3 95 02 be 18 14 f0 3d 73 af bd 3d
       0.15005836 -0.12752394 0.117225826 0.0926198

gru.bias_ih_l0 f4 [96]
000000 da 80 0f 3d e6 fe 71 3d 11 f1 ea 3d 40 37 80 be
       0.03503499 0.05908098 0.11471761 -0.25042152
000010 95 33 47 3d f1 c2 e5 3d b1 4b 91 3d b2 d6 01 be
       0.048633177 0.11218823 0.07094515 -0.12679556
000020 7c 12 80 be d3 e0 10 be d3 84 1c 3e e4 bd 4a 3b
       -0.25014102 -0.14148264 0.15285043 0.0030935938
000030 87 9c 80 3d 3d 4b 73 bd 04 d3 e9 bd 0f 05 0a 3e
       0.06279855 -0.059397925 -0.11417201 0.13478492
000040 19 31 83 3d 5b 1f 86 3c 06 e0 17 be b6 7f 91 3d
       0.06405849 0.016372373 -0.14831552 0.07104437
000050 a0 3f 7f 3d df 8e 08 3e e5 0b 84 3d 08 a1 95 3d
       0.062316537 0.13335751 0.06447581 0.07306105
000060 a0 2c a9 bd ae c6 18 bd 4a 47 a0 bd 88 e3 9c 3c
       -0.08260465 -0.03729885 -0.07826097 0.019151464
000070 5c 54 af 3d 26 af 26 be ef 41 75 3d c3 15 43 3c
       0.08561012 -0.16277751 0.059877332 0.011907044
000080 53 2d 31 bd 40 8a 88 be f9 78 91 be 1f 1c 38 be
       -0.043256115 -0.26667976 -0.28412607 -0.17979477
000090 6d f6 05 bd 0f b0 93 be 80 2a 08 be 81 8c 81 be
       -0.032705713 -0.2884526 -0.13297462 -0.25302508
0000a0 1d 2f b7 be 3f 0e 0c be b0 fd c5 3c dc ca 41 be
       -0.35778132 -0.1367731 0.02416882 -0.18925041
0000b0 9b 44 cd bd 09 9b 24 be 72 56 83 be 2f 3c a6 3d
       -0.10022851 -0.16074766 -0.2565189 0.08116948
0000c0 c4 7f 16 bf 0b 8d f4 bd f0 80 87 be d1 87 f7 3c
       -0.58788705 -0.11940964 -0.2646556 0.03021613
0000d0 f2 b5 31 3e d6 24 91 bd 62 d0 a2 be d0 af 03 be
       0.17354563 -0.07087104 -0.31799608 -0.12860036
0000e0 a3 e4 c3 be 65 0e b4 be db fb ad be 96 73 88 bd
       -0.38260373 -0.35167232 -0.33981213 -0.06662671
0000f0 bb c9 27 3e 3a 29 b5 be 74 a3 28 be cb ae a5 be
       0.16385548 -0.35383016 -0.16468602 -0.3235992
000100 8a 1f 3e bd d7 f1 f2 bd 3f ca 7f bd 5a 54 9a bc
       -0.046416797 -0.118625335 -0.062448736 -0.01883905
000110 6e 09 99 bd 49 98 19 3e 28 ca 34 3c ca 81 96 bc
       -0.07472502 0.14999498 0.011034526 -0.018372435
000120 f6 78 e4 3b c5 27 b5 3d a5 99 45 3d 93 ef 6c bd
       0.0069724275 0.08845476 0.04824223 -0.057845663
000130 35 5b 28 3e 61 6a 7e bd 11 9f 54 39 12 43 c3 3d
       0.16441043 -0.06211317 0.00020277152 0.09534277
000140 33 85 ad bd 65 fd ae bd bf bc 23 3e 0c c3 1c be
       -0.08472671 -0.08544425 0.1598997 -0.1530878
000150 e4 99 f1 3d 67 51 97 3c 66 34 85 bd 56 76 02 3e
       0.117969304 0.018471433 -0.06504135 0.12740454
000160 fe 51 9f 3d 7f a0 76 bd 09 7e fa 3c 9d a8 3a be
       0.07779311 -0.060211655 0.030577676 -0.18228383
000170 28 e3 08 3d c8 66 ed 3d a3 32 e1 bd 78 ac f8 3d
       0.033419758 0.115918696 -0.10995986 0.12142271

gru.bias_hh_l0 f4 [96]
000000 4a e0 1a be 1c 79 a3 bd 9b 8d 66 be 83 e9 74 be
       -0.15124622 -0.07982084 -0.22514956 -0.23917203
000010 bd 49 97 bd bb f6 58 3d 83 57 06 3c e1 fe 00 3e
       -0.07387111 0.052969676 0.008199575 0.12597229
000020 a5 bc e8 bb 5f 34 07 bc 2e 29 9e bd 36 95 47 3e
       -0.0071025663 -0.008252232 -0.07722698 0.19490513
000030 57 4d fa 3d cd c5 db bb 1b 97 3b be d6 76 52 bd
       0.12221783 -0.0067069293 -0.18319361 -0.051382862
000040 bc d6 05 be c6 9a 19 be 64 02 93 bd df d2 a2 bd
       -0.13070196 -0.15000448 -0.0717819 -0.07950377
000050 d1 6f 92 bd b5 d3 9c bd 96 67 9b 3d ed d5 f8 3d
       -0.071502335 -0.076575674 0.07588117 0.12150178
000060 c7 5e 83 be 74 94 17 bd d5 fd c6 3d 7c 16 65 3b
       -0.25658247 -0.03700681 0.09716383 0.0034956029
000070 e6 0c 72 bd b1 79 6d bd e6 3d 41 be 38 2d f9 3d
       -0.059094332 -0.057977382 -0.18871269 0.12166828
000080 2e 9c ea 3d 44 ca 44 be a7 e1 e5 be fb ec 50 be
       0.1145557 -0.19217783 -0.44898722 -0.20402901
000090 35 1a b1 3a 94 78 98 3c 6c ae b5 be 84 e7 f0 bd
       0.0013511839 0.018612184 -0.35484636 -0.11762908
0000a0 0f 4a f8 be 7e ac 19 3c b5 f0 14 be 26 8b e9 bc
       -0.48494002 0.009379504 -0.14544947 -0.028508734
0000b0 eb 6d a1 be a4 ba a6 be 4e 1f da bd 0e b1 34 3d
       -0.31529173 -0.3256427 -0.10650502 0.044114165
0000c0 ff 6d f0 be 88 99 84 bd 52 9e 9b be 04 3d b9 bb
       -0.4695892 -0.06474596 -0.30394226 -0.0056530256
0000d0 c5 49 ef bd 40 ff 1b 3e 0d 99 45 be af 4f 7c be
       -0.11683992 0.15234089 -0.19296665 -0.24639772
0000e0 3e 78 ae bd 9c c1 51 bd a4 50 5b be f7 84 7f bd
       -0.08519028 -0.05121003 -0.2141748 -0.062382665
0000f0 ed 4a be bd e2 ee 29 bf 05 31 d0 be 8a 3f 45 be
       -0.09291635 -0.6638013 -0.406624 -0.1926252
000100 e0 21 f4 bd 5a b6 90 bc 6f 4d 54 3c 42 3c 21 3c
       -0.11920524 -0.017665077 0.012957915 0.009841027
000110 35 a0 d4 3d 2c e7 25 be 1c 5f eb 3d 41 e7 c2 3d
       0.103821196 -0.16201466 0.1149275 0.095167644
000120 d8 19 27 3e d1 61 00 3d 30 82 11 be a1 f9 8a bc
       0.16318452 0.031343285 -0.14209819 -0.016964735
000130 24 1b 1c be 53 a4 0a be c0 6e 01 be a4 c0 45 bc
       -0.15244728 -0.13539247 -0.12639904 -0.012069855
000140 10 89 91 3d 86 0f f8 3d 7b d7 33 be 0f 43 a8 bd
       0.07106221 0.12112336 -0.17562668 -0.082159154
000150 b5 55 38 be d3 e1 16 3d 39 05 9a bd 29 c3 4a bd
       -0.18001445 0.036836457 -0.075205274 -0.049502525
000160 7b d5 09 3e af 7f 13 3d 6f 98 21 be e2 f8 6b bd
       0.13460343 0.03601044 -0.15780805 -0.0576104
000170 ec 69 e9 bd 80 f1 a4 bd c5 d7 fb ba 41 ad 02 be
       -0.11397156 -0.08053875 -0.0019214085 -0.12761404

gru.weight_ih_l1 f4 [96, 32]
000000 e5 c5 ee 3c ab 1f 83 3d 75 47 9f bd e3 5a 8e bc
       0.029147098 0.064025246 -0.07777301 -0.017377323
000010 13 28 f7 bd 4b 15 2b be d7 c2 03 be 82 1a c4 3d
       -0.120681904 -0.16707341 -0.12867294 0.095753685
000020 49 b8 39 be c8 7b d8 bc ce 1e df 3b a9 ed b4 bd
       -0.18136705 -0.026426211 0.006809092 -0.088343926
000030 a9 5b b3 bd b5 bd 29 bd 6d eb 74 3e a3 c7 20 be
       -0.08757717 -0.041440684 0.23917933 -0.15701155
000040 92 4a 03 ba 8a 31 0c 3e 55 3b 04 3e 27 4a 63 bc
       -0.0005008365 0.13690773 0.12913258 -0.01387266
000050 d8 b9 a6 bd 1b 3d c7 bd b6 9c 96 3e e7 49 3a bb
       -0.08140916 -0.09728452 0.29416436 -0.0028425397
000060 a5 67 0d 3e ab d8 0b 3e b2 49 3b 3c 58 a0 9b 3e
       0.13809069 0.13656871 0.011431145 0.3039577
000070 15 a2 02 be e0 bc a2 bd 55 cc fb 3d 8f b5 1f 3e
       -0.12757142 -0.07946181 0.122948326 0.15596603
000080 12 33 9d 3d 70 f3 ac 3c 8d df 68 be eb 29 76 be
       0.076757565 0.021112174 -0.22741528 -0.24039428
000090 3d 1b b6 bd e7 87 12 bd f5 20 d5 bd 71 9a 60 be
       -0.08891914 -0.035774138 -0.10406677 -0.21933915
0000a0 dc 02 4e be e6 3b 43 3e b4 5a ad 3d 2c 51 33 3e
       -0.20118278 0.19065818 0.08464566 0.17511433
0000b0 c6 6c 01 3e d0 5e bc 3d b5 be 8e 3d ae 58 d0 bd
       0.1263915 0.091977715 0.06969968 -0.10173164
0000c0 e8 3b a1 3d fa 4b 6c 3b 73 2a 68 3d ae d9 30 bd
       0.07872754 0.0036056028 0.056681108 -0.043176346
0000d0 6e eb 57 3d 60 94 ba 3d 54 64 28 bc 4f 13 29 be
       0.052714758 0.091103315 -0.010277826 -0.16511272
0000e0 d1 86 fa 3b ed 8d c1 3d 3d ac 36 3e 1b f4 5e 3e
       0.007645466 0.09450898 0.17839141 0.21772806
0000f0 0e ad 47 3e ce 24 8c be 0f 84 06 be 71 e4 2a bd
       0.19499609 -0.2737183 -0.13136314 -0.041721765
000100 ec 13 3e be 78 ae fa 3d a8 3a b2 bd c2 0e 3c bd
       -0.18562287 0.122403085 -0.08702594 -0.04591251
000110 08 5b 44 bd 12 72 14 be bc 01 69 be 71 df 9f bc
       -0.047938377 -0.1449664 -0.22754568 -0.019515725
000120 55 08 f5 bd 01 18 2c 3d a6 48 ef bd b1 25 61 3b
       -0.1196448 0.04201508 -0.116837785 0.0034354741
000130 53 c0 a8 bc 77 d3 82 bb 1e a8 d5 bd 21 84 2a be
       -0.02059952 -0.0039924937 -0.104324564 -0.16651966
000140 fb 7f a3 3d d2 f0 a0 3d 4b 15 65 bd 7c 45 e9 3d
       0.07983395 0.07858433 -0.05592851 0.11390206
000150 17 08 48 bd 88 45 21 3e f5 c2 bd 3c 0d db 1f 3e
       -0.04883584 0.1574918 0.023164252 0.15610905
000160 7e 8f ff bc 56 b7 10 3d 4c b5 45 3e 28 9f 1e 3a
       -0.031196352 0.035331093 0.1930744 0.0006050938
000170 dd 03 e9 3b 7e ca 57 3a 63 a6 7c be 9e bc 3d 3d
       0.0071110562 0.0008231773 -0.24672846 0.046322457
000180 e1 0f 53 bd af 5f 9d bc c5 9c 79 3d 71 d0 9b 3d
       -0.051528815 -0.019210665 0.060940523 0.076081164
000190 a8 6d 31 be 9e c9 e4 3b 49 ff 31 bd e4 5a 04 3c
       -0.17326987 0.0069820425 -0.04345635 0.008078311
0001a0 1c 68 cd 3c a2 b7 09 3e 4d 05 3a 3c 60 4e 71 bd
       0.025074057 0.13448957 0.011353803 -0.058912635
0001b0 4d b1 80 bd 1b db 77 3d b0 a5 0e 3e f4 65 0a 3d
       -0.062838174 0.06051169 0.13930392 0.033788636
0001c0 6f 3d c0 bd d5 07 21 3e 0b eb 27 bd 45 b6 a5 bd
       -0.093867175 0.15725644 -0.04099564 -0.08091406
0001d0 9a 6d e7 bd 77 65 26 3e c8 18 51 3d 73 fd 7a 3d
       -0.11300202 0.16249643 0.051049024 0.061276864
0001e0 12 e7 73 3a 41 7a 90 3d b4 ef cc bc e5 b2 9b 3d
       0.00093041465 0.07054568 -0.025016643 0.07602481
0001f0 63 51 e4 3d c8 11 86 bd 79 f6 85 3d 7d a6 53 3e
       0.11148336 -0.0654636 0.065411516 0.20668979
000200 c1 ba 02 3e 35 59 a6 3d a9 04 1f bd 48 ad 79 be
       0.12766553 0.08122484 -0.038822804 -0.24382508
000210 32 21 96 bd 1d 7b bd ba 30 3e f7 bd 72 75 c0 bc
       -0.0733055 -0.0014456246 -0.12072408 -0.023493502
000220 d4 bc 34 be 02 8a cc bd de 4d 57 bc 96 6f 33 be
       -0.17650157 -0.099872604 -0.013141124 -0.17523035
000230 73 9e 18 3d 62 24 01 be 5c dc 64 3c c0 2c 3c bd
       0.037260484 -0.12611535 0.013968553 -0.045941114
000240 ca d0 88 be 92 62 86 3e 8b b4 5d 3e 02 58 c6 3d
       -0.26721793 0.26247078 0.21650903 0.09684755
000250 bd fc 88 bd af f4 12 be 65 e3 91 3e cb 4e fa bc
       -0.06688831 -0.14351152 0.284938 -0.03055515
000260 e6 aa 69 bd fd b4 b4 bc 5f 8a 3c bd 67 57 3d 3e
       -0.057047747 -0.022058958 -0.0460304 0.18490373
000270 74 89 2e be 2f de 9f 3b ce 0f eb 3c 2a c8 06 bc
       -0.17044622 0.0048787813 0.02869406 -0.008226434
000280 dd 09 43 3e 92 d1 90 3e 3f 5b bf 3d 4c 0b 96 39
       0.19046731 0.2828489 0.09343576 0.00028618646
000290 5a 04 02 3d 22 36 d1 3b e6 5e ec bd 82 39 9b bd
       0.03174243 0.006384627 -0.11541538 -0.07579328
0002a0 89 9b 18 3d b2 7a d0 3d d5 a4 b0 3d 2e 2c 48 3e
       0.037257705 0.10179652 0.08625189 0.19548103
0002b0 2d a4 ab bd 9a a2 4b bd 9b 36 4e 3e b1 57 9b 3d
       -0.083809234 -0.049715616 0.20138018 0.07585085
0002c0 b1 3c aa bd 4c 6b 24 bb e3 ea 98 3d fb 17 04 be
       -0.08312357 -0.0025088368 0.07466676 -0.12899773
0002d0 9c 54 2c be 46 d3 ba bd 50 4f 59 bd 7d eb ea 3b
       -0.16829151 -0.091223285 -0.053054154 0.0071691857
0002e0 77 e1 14 3e 96 9b 8f bd fa 46 46 3e 8c a6 de 3c
       0.14539133 -0.070120975 0.19363013 0.027179025
0002f0 a4 7f be bd 90 1e f7 bd 29 a7 62 ba 3f 86 16 bc
       -0.09301689 -0.12066376 -0.00086461246 -0.00918728
000300 5b 01 1e 3d b3 b3 e9 bd 05 6e 4f bd 76 ba 85 be
       0.03857551 -0.11411228 -0.050642032 -0.2611882
000310 0d cd a2 bd 15 30 1e 3e 1a 2d 05 3d 42 40 a1 bd
       -0.079492666 0.1544803 0.032513715 -0.07873584
000320 af ab 9e be 16 63 a8 bd 09 18 8d 3d 6c af 86 bd
       -0.3099036 -0.08222024 0.0688935 -0.06576428
000330 53 47 8f 3e 8a e6 e1 3c 7a 4d 5e 3e 4e a7 85 3d
       0.27984104 0.02757575 0.21709242 0.065260515
000340 d1 b9 c0 be 50 78 e6 3d 19 90 e4 3d b9 9f 03 be
       -0.37641767 0.112534165 0.11160297 -0.12853898
000350 43 d9 3f bd e2 84 41 3e a5 02 a3 bd 08 0f 3f bd
       -0.046838056 0.18898347 -0.07959489 -0.046645194
000360 9d d7 b8 3e 47 05 b3 3d 8f 42 e3 bb 5e f7 e2 3c
       0.36102 0.08741241 -0.0069354246 0.027705844
000370 d1 6c c5 bb b4 4a 87 be c5 4c 4e be 32 ee 8c bd
       -0.006024935 -0.2642418 -0.20146473 -0.0688137
000380 0f 27 94 bd cb 0b a0 3d cc c3 1e be 2c 64 fb bc
       -0.07234012 0.07814749 -0.15504378 -0.030687414
000390 80 ba 8a 3d c3 b9 ca bd fc 9d b2 bc 9d eb 1d bd
       0.06773853 -0.098987125 -0.021803848 -0.038554776
0003a0 dc 71 92 be 85 ca 45 3d cb 87 c0 3d 61 06 ab 3d
       -0.28602493 0.04828884 0.094009005 0.08350826
0003b0 17 27 04 3e 20 43 84 3d 80 a5 43 3e d8 99 4d be
       0.12905537 0.064581156 0.19106102 -0.20078218
0003c0 4d 5f 8a 3d b0 9a bc 3c 84 eb 87 3b 76 c2 65 3c
       0.067564584 0.02302298 0.0041479487 0.014023414
0003d0 25 d3 db 3d 5a 45 59 be e1 22 60 3e 63 d1 f4 bd
       0.10733632 -0.21217862 0.21888305 -0.11954
0003e0 87 c0 c2 bd e2 d5 5b 3d 8f b0 1c 3e 2e 38 00 3c
       -0.09509378 0.05367077 0.15301727 0.007825894
0003f0 d2 4d d6 bd 7f 16 47 bd 58 e6 cd bd 5e df eb 3d
       -0.10464062 -0.04860544 -0.100537 0.11517213

gru.weight_hh_l1 f4 [96, 32]
000000 5c 87 9d bd ae 23 bb 3d f5 fd 19 be b1 10 50 3d
       -0.076918334 0.09137665 -0.15038283 0.05079717
000010 b9 26 fc 3c ea 08 cf 3d ab 92 ee 3d 88 fb ee 3d
       0.030780183 0.10109122 0.116490684 0.116690695
000020 79 ce ab bd e2 8e a7 bd 16 01 1a 3e 12 ba a5 bd
       -0.08388991 -0.081815496 0.15039477 -0.08092131
000030 b5 a7 99 bc 3f 68 09 be 6b 8c ae bc f0 9f 87 bd
       -0.018756727 -0.13418673 -0.02130719 -0.066223025
000040 f4 73 d6 bc 97 49 04 be 46 e0 c9 bd 65 fa cf 3d
       -0.026178338 -0.12918697 -0.0985723 0.10155181
000050 79 1b 93 3d 63 79 08 3e fe 9a 29 be ce 44 08 3e
       0.07182974 0.13327555 -0.16563031 0.13307497
000060 b9 32 a5 3d 9a 65 84 3d af 5d ab bc 69 94 06 be
       0.08066315 0.064646915 -0.020918695 -0.13142551
000070 1d 62 cd 3c 1f 76 1e 3e 48 1b 19 be 62 d0 2b be
       0.025071198 0.15474747 -0.14951813 -0.1677871
000080 67 89 22 bd 5a 16 af 3d 75 0f bb bd fb 73 28 bd
       -0.03968182 0.08549185 -0.091338076 -0.041126233
000090 d9 9f 1c b9 88 9d ab 3d 44 d9 c9 3d 98 36 56 be
       -0.00014936867 0.08379656 0.09855893 -0.20919263
0000a0 d4 e9 02 3e 36 2d ab bd 17 fb 20 3e af dd 94 3a
       0.12784511 -0.08358233 0.15720783 0.0011357571
0000b0 58 2d 71 3e 69 b1 f4 bd c0 c6 9c 3d 2a 8a 89 bd
       0.23552454 -0.11947901 0.07655096 -0.06715806
0000c0 cb 40 4e bd fb 72 55 3e 4f 80 fc 3c 18 2c 1a bd
       -0.05035476 0.20844643 0.030822901 -0.037639707
0000d0 6e d6 c1 bc d2 28 4c bc 99 e4 36 3d e6 c9 bd 3d
       -0.023661818 -0.012460904 0.0446516 0.09267025
0000e0 de ed 8b bd 25 dc 0d be aa 4f 0a be 0c 29 1e be
       -0.06832479 -0.1385351 -0.13506952 -0.15445346
0000f0 36 0f f8 bd 4a 0b 45 bd 26 1c a4 3d 6c 9a 4d 3d
       -0.12112276 -0.04810647 0.080131814 0.050196096
000100 6b 95 1f bc d2 00 93 3d cf 0f 03 be b9 92 83 3c
       -0.009740214 0.07177891 -0.12798999 0.016061174
000110 b6 00 6f be f8 45 29 be a8 bf 94 3d b9 88 db 3c
       -0.23340115 -0.16530597 0.07263118 0.026798593
000120 11 47 9e bd f6 23 e3 bd 70 d7 75 3c 14 3a d7 3d
       -0.077283986 -0.110908434 0.015004978 0.105091244
000130 42 f9 c5 3d 19 25 98 3d 8b f1 bf 39 94 d0 9a 3d
       0.09666683 0.07428951 0.00036610322 0.07559314
000140 84 11 c7 bd 16 0a 6f 3e b6 4d e4 bd 0a ab 47 3e
       -0.09720138 0.23343691 -0.11147635 0.1949884
000150 f0 44 d2 3d 79 cb a6 bc e1 00 8d 3d 04 70 68 bd
       0.10267055 -0.020360695 0.06884933 -0.05674745
000160 d1 b2 b8 3d 1e 9b 03 3e ca 14 03 3e b6 66 5f be
       0.090184815 0.12852141 0.12800899 -0.21816525
000170 e8 8f 80 3d 25 d0 15 bd 53 b0 3e bb 22 45 7b 3d
       0.06277448 -0.036575455 -0.0029096797 0.061345227
000180 a7 91 1a bb 9e f7 f1 3b 2e 1a f9 3d bd 59 11 3e
       -0.002358535 0.0073842546 0.121631965 0.14194389
000190 9f e9 4a be c5 1b 0c be ce 22 ab 3c 87 2f 03 bd
       -0.19815682 -0.13682468 0.02089062 -0.032027747
0001a0 2f 7d ec bc 87 5e af bb 68 1a fb bd 2b 8c e2 bd
       -0.028868286 -0.0053518447 -0.12260896 -0.11061891
0001b0 55 f3 9e bd 8d 4f e6 3d ee c9 ab bd 5f e1 44 be
       -0.07761256 0.11245642 -0.083881244 -0.19226597
0001c0 4d 07 25 bd bf 75 20 bc c2 b0 b0 3c 60 33 0c 3e
       -0.040290166 -0.009793698 0.02156866 0.13691473
0001d0 76 70 99 3d 5c e1 89 3c 8b a6 f6 3d df 9f da 3d
       0.07492153 0.016831093 0.12043484 0.10675024
0001e0 5c 70 9f bd dc 60 a0 3d 0c fc 3d 3d 7d a6 00 bd
       -0.07785103 0.078309745 0.04638295 -0.031408776
0001f0 32 59 73 3d 9f 35 13 3e 22 32 36 bd 6b 86 00 be
       0.059411235 0.14375924 -0.044481404 -0.12551276
000200 33 c1 10 3e 3a f5 26 be ee d9 aa be 61 8c be bc
       0.141362 -0.16304484 -0.33369392 -0.023260297
000210 53 5f df bd 83 16 85 3e d9 f2 a6 be f8 da 46 3e
       -0.109068535 0.25993738 -0.32607153 0.19419467
000220 f8 40 9f 3e 3c 51 f7 3d df 40 26 be cc 16 1e be
       0.31104255 0.12076041 -0.16235684 -0.15438384
000230 91 ad 36 bc 4c f2 5a 3e 94 2d 0b 3e 1b 31 92 3e
       -0.01114978 0.21381491 0.13591605 0.2855309
000240 12 67 99 be 37 ec b6 bd d3 64 5e 3e d3 ac c4 bd
       -0.2996145 -0.08931773 0.21718149 -0.09603276
000250 11 62 15 be ec 3a 1f 3e 25 2a ed 3d f0 fe 9a 3d
       -0.1458819 0.1554982 0.11580304 0.07568157
000260 ce 8b f8 3c 15 a9 a3 3e e1 de 84 3e c4 4b a8 bd
       0.030340102 0.31964937 0.25951293 -0.08217576
000270 76 13 72 3e c5 6a 52 3d 45 c1 7a 3e 79 87 8e bc
       0.23640236 0.051371355 0.24487789 -0.017398583
000280 76 2d cb bd ba 7e ed bd c0 20 31 bd 31 26 de 3d
       -0.0992078 -0.11596437 -0.043244123 0.10847128
000290 8d 6e 08 3d f9 80 8e 3c a5 6c 19 be b4 36 d3 3d
       0.033308554 0.017395483 -0.14982851 0.10313168
0002a0 11 06 c5 3c 04 30 12 3a 73 e3 22 be 91 67 6b be
       0.024050744 0.0005576613 -0.15907077 -0.22988726
0002b0 26 8f 8c bc a1 64 9e 3d 9c ba 04 be 0f 26 04 3e
       -0.017158102 0.07734037 -0.12961811 0.12905143
0002c0 87 18 e8 bd b6 60 10 3e e2 bd 00 be 7f d4 b2 bd
       -0.11332803 0.14099392 -0.12572435 -0.08731937
0002d0 5c 87 9f bd e9 fb 33 3e 52 59 40 3e 64 a4 e4 3d
       -0.077894896 0.17576565 0.18784073 0.111641675
0002e0 d3 0d d4 3d 8f c7 cb bc ca 22 14 3c 85 29 d4 bd
       0.10354199 -0.02487543 0.0090414975 -0.10359482
0002f0 12 57 f6 3c 79 46 59 3e 87 59 8e bc c1 88 b8 bd
       0.030070815 0.2121829 -0.017376674 -0.09010459
000300 59 6f a7 3d 56 7f 5f 3e 0a a3 d3 bd 79 16 45 3d
       0.08175535 0.21825919 -0.103338316 0.048117135
000310 84 2b b7 bd 52 cb da bd d0 a9 f3 3c 53 96 b8 bd
       -0.08943847 -0.106833115 0.029744059 -0.09013047
000320 62 85 2c 3d 51 31 6b bb c5 fc 13 3e 00 ce 51 3e
       0.04211939 -0.003588755 0.14451893 0.20488739
000330 27 80 e4 3d 2f 63 10 bd cb 56 bc 3a 59 86 c2 bd
       0.111572556 -0.03525084 0.0014369128 -0.09498281
000340 fc b0 1f 3e 56 ec c9 bd 3e 4e 56 3d 78 46 9e 3c
       0.15594858 -0.09859531 0.05232071 0.019320711
000350 fd ab 1b 3d 03 c6 1b 3d 5f ec 13 be ca 18 fb bd
       0.038005818 0.038030636 -0.14445637 -0.122605875
000360 27 11 07 3e 95 6e a3 3d b6 9f 46 be 39 6b a0 bc
       0.13190137 0.07980076 -0.19396862 -0.019582378
000370 52 ee a7 bd 42 b4 25 be 0c 24 af bd f6 11 13 3e
       -0.08199753 -0.16182044 -0.08551797 0.1436232
000380 ed ef 1d bd a9 02 38 3d d3 26 f4 3d ab 82 2b bd
       -0.03855889 0.044924412 0.11921468 -0.04187266
000390 76 6f 8a bc 22 4c f9 bc c3 16 8f bd 71 7f 1a bc
       -0.016898852 -0.03043181 -0.06986763 -0.009429798
0003a0 92 d0 0e be 89 af 85 3e c4 b1 21 3e 28 81 72 bd
       -0.13946751 0.26110485 0.15790468 -0.059205204
0003b0 f7 36 7c bd 8a ce 04 3d f5 e4 98 bd 74 41 be bc
       -0.061575856 0.032423533 -0.07465545 -0.02322457
0003c0 ad 28 2d 3e f1 1d ed 3d 98 41 0e bd b2 23 b8 3d
       0.16910048 0.115779765 -0.034730524 0.08991183
0003d0 e8 40 2f 39 99 3b f9 3d 22 0d 2c be 81 e0 48 be
       0.0001671348 0.121695705 -0.16801885 -0.19616891
0003e0 e6 56 83 3d f8 3e 81 bd be 70 6a bd cd 01 88 be
       0.06413059 -0.063108385 -0.057236426 -0.26563874
0003f0 25 0c 87 be 1f dc 2c 3d 08 05 bc 3d 76 ac 3e be
       -0.26376453 0.04220211 0.09180647 -0.18620476

gru.bias_ih_l1 f4 [96]
000000 32 55 94 bb 59 91 e6 bc e6 96 b5 bd 15 63 50 3b
       -0.0045267576 -0.028145479 -0.08866672 0.0031797339
000010 83 c4 4d bd a0 82 cc bb 20 90 d8 bd ec a3 21 be
       -0.050236236 -0.0062411577 -0.10574365 -0.15785187
000020 34 b0 af 3d e8 f2 a7 bd b8 90 a3 ba 8c fb 1e be
       0.0857853 -0.082006276 -0.0012479043 -0.15525645
000030 3b 7e eb bd 8e af bd bd 2f 80 b6 3d b7 a8 b0 3d
       -0.11498686 -0.09262 0.08911168 0.0862593
000040 5c 4a 4b 3e 64 87 04 3e 4a ad c1 bd 0f c1 bd 3d
       0.19852585 0.12942272 -0.094568804 0.09265339
000050 5d 49 9b bd b4 da 02 3e bf 7f 2c 3c 1f 6f 12 3c
       -0.07582352 0.12778741 0.010528504 0.008937626
000060 3a ce 48 be be f0 db bd 62 95 34 be a2 2d 8e 3d
       -0.19609919 -0.10739277 -0.1763511 0.069422975
000070 12 71 4a be 82 85 97 bc f9 38 b5 3d 41 b5 3b be
       -0.19769695 -0.018496279 0.08848757 -0.18330862
000080 58 94 9f be de 77 a5 be 3f 86 68 be 9d 64 6b be
       -0.31167865 -0.32318014 -0.22707461 -0.229876
000090 92 bc 7f bd 4f ff 22 be b1 76 06 bf af 1a 1d be
       -0.062435694 -0.15917705 -0.5252486 -0.1534221
0000a0 88 6d cd be 8c a1 a7 3d 4d 3e 2e be 97 36 1a be
       -0.40122628 0.081851095 -0.17015953 -0.15059887
0000b0 9a 66 2b be f9 01 bf be 14 af 52 3d 28 73 52 be
       -0.16738358 -0.37306193 0.0514365 -0.20551741
0000c0 9c 1b 91 be 91 73 00 bd 59 59 76 be 6a 05 9d be
       -0.28341377 -0.031360213 -0.24057521 -0.30668193
0000d0 8a ec 22 be a0 e5 ec be 6a c7 09 be 13 1f 07 3e
       -0.15910545 -0.4626894 -0.13454977 0.13195448
0000e0 1c 58 a8 be 3c ea 1c be 49 1b f6 bb e5 0f 07 be
       -0.32879722 -0.15323728 -0.007510577 -0.13189657
0000f0 c7 bd 90 be b1 f0 b9 be ff 76 81 bd 0d 4b f2 be
       -0.2826979 -0.36316445 -0.06321525 -0.47322884
000100 40 4d 3e 3d 29 68 38 bd 4e 07 8e 3d 82 37 c8 3c
       0.04646039 -0.04502121 0.06934987 0.02444053
000110 29 52 d4 3c 72 76 f0 bc 5e c1 a7 3d 62 1d 28 3e
       0.025918083 -0.029353354 0.08191179 0.16417459
000120 bd e7 b2 3d 0b 85 02 be 0d b7 6d bc 54 5e a5 3d
       0.08735607 -0.12746064 -0.014508975 0.08074632
000130 b6 df 25 3e 21 a1 7f bd af ba 1a 3e ab 1c ec 3c
       0.1619862 -0.062409524 0.15110277 0.028822264
000140 36 d8 d9 3d de 4c 1b 3e 88 ed 22 3e 1f d7 1b 3e
       0.10636942 0.15166041 0.15910923 0.15218781
000150 6c d3 8c 3d 24 60 f0 bd 84 af 0f be 8d 81 88 3d
       0.06876263 -0.11737087 -0.14031798 0.06665335
000160 25 c5 25 be 59 c8 df bc cf 52 42 3d 3a 7f 78 3d
       -0.16188486 -0.027317213 0.047442254 0.060668208
000170 cb 07 29 3e e1 c9 e8 bd a4 e2 4b bd e6 b2 d0 3d
       0.16506879 -0.1136663 -0.04977669 0.10190372

gru.bias_hh_l1 f4 [96]
000000 63 34 5e be be b5 d8 bb 11 49 79 bc 4d 6b 0d 3e
       -0.21699671 -0.006613462 -0.015215174 0.13810463
000010 c2 bc 57 ba 88 a8 68 bc f5 18 b0 bc 59 19 6e be
       -0.0008229726 -0.014200337 -0.021496275 -0.23251857
000020 7c b9 07 be d4 31 34 3d b9 bf 57 bd 22 41 5a be
       -0.1325435 0.043992832 -0.052673075 -0.21313909
000030 04 9d ec bd 3a 7e 51 bc 9c 1a 2b 3e 5f 4a 1a be
       -0.11553386 -0.012786442 0.1670937 -0.15067433
000040 51 43 95 3d 8b b3 2c 3e 1c 38 39 be c4 20 9a bd
       0.0728823 0.16865365 -0.1808781 -0.07525781
000050 5f 06 ce bd 05 c5 23 be fc 14 c3 3d af 88 64 3d
       -0.10059809 -0.15993126 0.09525487 0.055794414
000060 de dd 9a 3d 6d 58 c0 3d 7b 38 04 3d ea be da bd
       0.07561849 0.09391866 0.032280426 -0.10680945
000070 46 6f db 3d f7 3d 8d 3d 05 5d 9d 3d 1b 08 1f be
       0.10714583 0.068965845 0.07683758 -0.15530436
000080 f8 3f 06 3c 3d 31 f0 bd d0 a3 93 bd e5 bd c4 bc
       0.008193962 -0.117281415 -0.07208979 -0.02401633
000090 70 ce 1f 3e 13 e5 74 be 28 2d 34 bf a9 ff d9 bd
       0.15606093 -0.2391551 -0.703814 -0.106444664
0000a0 e6 c0 d5 be c3 56 36 bd fb 09 44 bd df 52 cb be
       -0.41748732 -0.044516336 -0.04786108 -0.39711663
0000b0 20 8d 1e 3e e7 ea ae be 79 ab e2 bd 5a 9a 85 be
       0.15483522 -0.3416359 -0.11067862 -0.26094323
0000c0 43 0b 9c be 30 d7 2d be 94 de 78 be 6a a0 94 be
       -0.30477342 -0.16976619 -0.24303657 -0.29028636
0000d0 cb 0a 63 bc 62 13 70 be 42 76 7b be d2 b6 7c bd
       -0.013857554 -0.23444894 -0.2455683 -0.06169779
0000e0 db e3 42 be 24 c7 6a be 0b d4 98 be c0 80 91 be
       -0.19032232 -0.22927529 -0.29849276 -0.2841854
0000f0 c8 d5 d6 bd be b6 7c be f1 0d 65 3d b8 7c 5b be
       -0.10489994 -0.24679086 0.0559215 -0.21434295
000100 fa 05 0d 3e 26 68 2e be 4c b0 09 be 70 49 8a bd
       0.13771811 -0.17031917 -0.13446158 -0.06752288
000110 43 49 eb 3d 2f d3 c1 bc 30 72 1b be 49 a7 2d 3d
       0.11488583 -0.02366027 -0.15180278 0.042395864
000120 69 8e dd bc 45 e6 29 be cc 58 cc 3c 24 4b 1e 3e
       -0.027045446 -0.16591747 0.024944685 0.15458351
000130 39 f5 35 be 3a ee 13 3e ef ac 09 be a6 2e 18 3e
       -0.17769326 0.14446345 -0.13444875 0.14861545
000140 df dc 34 3d 09 ef 42 be f1 8d 1f 3e 47 89 a9 3d
       0.04415595 -0.19036497 0.1558149 0.08278137
000150 cd 76 c7 3d 0a e8 0f be 71 a1 d6 ba ee c3 ba bc
       0.09739456 -0.1405336 -0.0016375018 -0.022798505
000160 25 a0 87 3d 8c 84 67 bd 96 d0 a0 bd ab 60 35 3e
       0.06622342 -0.05652289 -0.078522846 0.17712657
000170 8e 6e 97 bd b5 f1 7b 3c 3c 70 b3 3d 63 7c af 3d
       -0.073941335 0.015377452 0.087616414 0.08568647

fc.weight f4 [1, 32]
000000 43 e7 d2 bd 5e fa 1f 3e f7 a3 f2 3d 91 45 7e 3d
       -0.10298016 0.15622851 0.1184768 0.062078062
000010 63 10 6c bc 21 a2 3d be de 1d 0e 3e 91 c3 0f be
       -0.014408204 -0.18518879 0.13878581 -0.14039446
000020 d8 71 cd bd be 4a 5b 3d 79 9b 7a 3c 1e 4c 33 3e
       -0.100314796 0.053538077 0.015295857 0.17509505
000030 5c 76 9e 3c 95 f9 dc bd e4 1b dc bc 46 b3 5b be
       0.019343548 -0.107897915 -0.026868768 -0.21455106
000040 89 7d 18 3e 8b ca d8 3d b2 7b a3 bd 6c 31 f6 3d
       0.14891638 0.10585507 -0.079825774 0.12021145
000050 e2 ba 2c 3d 0b 8d bb bd 79 c5 71 be 32 b8 28 3d
       0.042170413 -0.09157761 -0.23610486 0.041191287
000060 ea 61 cd 3d b6 8c 06 be 27 1b ba bd e8 34 2a be
       0.10028441 -0.13139614 -0.0908721 -0.16621745
000070 16 2b 54 be d7 28 a7 bd 33 28 fc bd 4c 71 53 3e
       -0.20719561 -0.081620865 -0.12312355 0.20648688
