gru_model.pth (torch, 41715 bytes, 9 tensors)

gru.weight_ih_l0 f4 [96, 1]
00000000: cc90 a13e 477b 27bd 467e a53c 2447 1cbe
00000010: c311 5b3e 61eb 03be 3fb7 443e 29bd 0f3e
00000020: 4de6 3b3e 22fc 9e3b 8c5e 0d3e 827d 413e
00000030: a046 c5bd 4a19 18be 9ada edbd 5870 f4bd
00000040: 3458 e53d 5b14 d23d 52b6 d9bd f105 0cbe
00000050: 62df 9dbd c21c 74be f981 c7bc cef5 42be
00000060: 3743 8abe 66be 14be 84d4 6c3d 6a03 533d
00000070: 9b16 d7bd 2b54 b5bd 632b 01bc 89ba 87be
00000080: 3a5b cdbc 3bd0 5e3d 7134 163e 7946 6abd
00000090: ad07 0bbd 25e9 ecbd 8e9d 40be aff1 29be
000000a0: a3ab 21be f85c 15bd 78d1 93be e7f1 95bd
000000b0: 0e16 febd e0aa 433d 23d2 5d3d 1bd7 ccbd
000000c0: a6c8 d9bd 873a 02be e006 45bd f1af 40bd
000000d0: a9e4 50be 41b4 7abd 6df0 5dbd 95ec ac3d
000000e0: e6cc f83d 7509 dabd c6d9 03be 791b a93c
000000f0: cd86 873d 42f1 ebbd 31a2 b73d 8ae6 85bd
00000100: eb60 043e 30e1 f23d 4ec7 49be 39eb 4bbe
00000110: 2f8d 49be 9e51 32bb 05ad 733e 70bb 6d3e
00000120: 588a 563e 589d 103d 7936 44be bea4 2dbe
00000130: 308a 51bc 271a 2c3e 7914 a0bd 7b52 c33c
00000140: 8dd0 7bbe 1b03 12be cdbb 4d3e ef0d 05be
00000150: e016 1ebe ef98 523e c9df 493c daa3 303e
00000160: 7c1a a73d 75ba fcbd 886c 473e 9ea2 29be
00000170: 067c 623e ab9b 4dbe 5b81 1cbe 3806 83be
0.31555784 -0.04088905 0.020201813 -0.15261513 0.21393494 -0.12882759 0.19210528 0.14037003
0.18349572 0.004851834 0.13805598 0.18895534 -0.09632611 -0.14853397 -0.116139606 -0.1193549
0.11198464 0.10257789 -0.10630478 -0.13674141 -0.077086225 -0.23839095 -0.024353968 -0.1903908
-0.27004406 -0.14525756 0.05781986 0.051516928 -0.105023585 -0.088539444 -0.007883879 -0.26509503
-0.025067914 0.054397803 0.14668442 -0.057196114 -0.033942867 -0.11567906 -0.18810102 -0.16596101
-0.1578813 -0.036465615 -0.2887075 -0.0732153 -0.1240655 0.04777038 0.05415548 -0.100019656
-0.10633974 -0.12717639 -0.04810226 -0.04704279 -0.20399727 -0.06120706 -0.054184366 0.08443562
0.12148456 -0.10646335 -0.12876043 0.020642983 0.06617508 -0.11520626 0.089664824 -0.065381125
0.12927596 0.11859357 -0.19704935 -0.19913949 -0.19682764 -0.0027209292 0.2379647 0.23216033
0.20951211 0.035306305 -0.19161405 -0.16957375 -0.012789294 0.16806851 -0.07816405 0.02384304
-0.24591275 -0.14258997 0.20091172 -0.12993596 -0.15438414 0.20566152 0.012321421 0.17250004
0.08159348 -0.12340251 0.19474995 -0.1656594 0.22117624 -0.20078914 -0.1528372 -0.25590682

gru.weight_hh_l0 f4 [96, 32]
00000000: 4953 dcbc ea5c 313e 221a 22bd 6954 283e
00000010: 9075 003e 215f 893d 118a 133e 1e73 1a3e
00000020: 3e1e 043e 42c7 1bbd 074a 043e 46ab 6ebd
00000030: e26a c0bd 4c3f d23d 5241 253e 9626 593c
00000040: 2864 a2bd 719f 5e3d af4b a3bd a6b5 dc3d
00000050: 9c61 2fbd 41db ef3d d966 0fbd 525f edbd
00000060: 5a16 fd3c 395b 863c 83d9 0b3e 9060 0ebe
00000070: 64ba 07be b2ad 703d ee70 de3c 6a36 363e
00000080: cb51 17be 4570 e63c ba73 013e 2b85 90bd
00000090: d8e0 dbbc 05ec e53d dbca d9ba 78c9 fc3a
000000a0: 5f8c f73c cc64 0e3e 7cca ccbc 83cb 11be
000000b0: fc10 153e 554a 6a3d ea08 0fbe f6df dbbd
000000c0: 9490 103e 0650 c9bd 6615 34be f1f9 163e
000000d0: 97f7 0bbe 6873 b23d f500 223e 1696 c53c
000000e0: d826 e43d 5186 223e 966d cd3c 8b04 083d
000000f0: 69b8 863d 7528 00be 0755 5b3d 4830 4b3d
00000100: c70d fabd f7dd 27bd 561d 31bd 4941 7d3e
00000110: 8798 0e3e d524 4abc 82e4 553d 7838 70bd
00000120: 5f14 8c3d 972e 0fbe d694 4c3e 396d f53d
00000130: 48a1 e7bd 815f 0dbd d20f 253e ea11 fabd
00000140: 52f0 d03c efe5 e5bd 4287 29bd 448a 0dbe
00000150: cdca 743e cf6e 1cbd b186 2ebd fe74 653c
00000160: 0583 19bd 004e b5bc 9ccc ffbb 07f3 013e
00000170: ac23 debd 6fe7 fa3d c452 483e 7b25 bab9
00000180: 39a2 43be 22cb 03be 795d 84bc 75fc 233e
00000190: c0af 013e d19a 01be fd80 313d a1ae 65be
000001a0: 4bc7 243d 538c 5e3e 7ced 153e f2f1 ca3d
000001b0: df4c c93d 68d9 7dbd 3000 bd3d dbb3 98bd
000001c0: f68d 643d 50b2 a83d bc6d 5abe ae48 a2bd
000001d0: 5520 593e f61f 9fbc f376 ffbd b00d d4bd
000001e0: 4bb3 093e b122 e13d c60c 533d 66fa 213e
000001f0: aa36 cabc 6572 f7bd 7c13 163e 455f ee3d
00000200: 4d97 69be 2093 3f3d 57c1 033e dc04 b7bd
00000210: 6037 8f3d 7114 b3bd 85d7 08be 812a 963d
00000220: a825 15bc 753f 603c a2ee f9bd c228 84bd
00000230: 066d 8f3d feba 243e a60c 343e 3eca 15bc
00000240: 6bd7 f9bd c479 9bbd 4340 26bd 2624 0dbe
00000250: 9d57 00be dd4c a83d 5137 d2bd 19c0 12be
00000260: e1b2 45bd 31e1 0b3e b8bc 013d 747e 22be
00000270: d254 633d c621 9e3c 3423 2f3e b5e3 07be
00000280: bc2f 29be 558c 21be ba7f a8bd 0f97 1f3e
00000290: 43b7 813d 405a 1bbd 1102 7f3d 82b2 763d
000002a0: e9bb 46be 9964 b0bd b6f0 bb3d 762a 90bd
000002b0: c9ee 093e 13ab 003d e250 0f3e 0cbc 0b3e
000002c0: de0c 04be e9f5 a0bc b0dc 49be b3bf 153e
000002d0: 1c88 1cbd 60d5 d13d d991 90bd f8d3 eb3d
000002e0: d3ba d13d 6dc1 8fbd b2c0 2bbe c76d 81bd
000002f0: 19d4 7cbc 93d9 1c3e 10ed e83d 31aa f93d
00000300: ee07 103d 8f6a d6bd f3a4 893d b71e 693d
00000310: 3228 e73d c9c8 4a3b 86f7 2cbd 93bc d33d
00000320: a38f 34be 1332 dbbd 3aa6 21bc 0a36 613e
00000330: 4672 43bc 865b 9ebd dff3 d73d 6ce0 3c3c
00000340: 4711 e53b a449 663d 4216 d83d 2c0b febd
00000350: db26 333e c0b7 b0bd 607b 5d3d 5679 3e3e
00000360: 9ff6 133d 4d67 b13d 9932 54be 9b5a dd3d
00000370: 08e5 773d ad8d 873c 6387 5b3d c579 0cbe
00000380: f29c 44be 731d 133e 57aa 973d 7b8b 693d
00000390: f85b 9cbd 6fe8 b03c f29b 03be 7d1f 033e
000003a0: eb4d 7e3d d7bb ff3d e6de babc b92e 6cbc
000003b0: 6d89 dc3d 4533 bf3d 5489 d5bc 2aac 35bd
000003c0: ccf1 d1bd de20 cfbd f343 c6bd e36f be3d
000003d0: c020 343e 87c7 8e3d 1397 593d 8a81 cbbd
000003e0: 3081 963c d2a0 383e cb95 e5bc 52c9 c3bd
000003f0: 6966 003d 00ae 3d3e 68da 17be 7740 21be
-0.026895182 0.173206 -0.039575703 0.1643845 0.12544847 0.067075975 0.14408137 0.15082976
0.12902161 -0.038031824 0.12918864 -0.058268808 -0.09395386 0.10265979 0.16138199 0.0132538285
-0.079292595 0.054351274 -0.0797342 0.10776834 -0.042817697 0.11711741 -0.035010193 -0.115904465
0.030894447 0.01640092 0.13657193 -0.13904023 -0.13254696 0.0587594 0.027153458 0.17794195
-0.14777295 0.028129706 0.12641802 -0.0705665 -0.026840612 0.11226658 -0.0016616242 0.0019286117
0.030218301 0.13905638 -0.024998896 -0.1423779 0.1455726 0.057199795 -0.13968244 -0.107360765
0.14117652 -0.098297164 -0.17586288 0.14743783 -0.13668667 0.08713418 0.15820678 0.024119418
0.11140221 0.1587155 0.025076669 0.033207458 0.06578142 -0.12515433 0.053547885 0.04960659
-0.12209659 -0.040983167 -0.043240868 0.24731936 0.13925372 -0.012337883 0.052219875 -0.058647603
0.06839823 -0.13982616 0.19978651 0.11983723 -0.11310059 -0.034514908 0.16119316 -0.12210448
0.025505219 -0.11225497 -0.041388758 -0.13822275 0.23905487 -0.038191613 -0.04260892 0.014004944
-0.037478466 -0.02213192 -0.0078063738 0.12690364 -0.108466476 0.12251174 0.19562823 -0.0003550461
-0.19104852 -0.12870458 -0.016157852 0.16014273 0.126647 -0.12656714 0.043335903 -0.22429897
0.040229123 0.21733217 0.14641374 0.09909429 0.09829115 -0.061974913 0.092285514 -0.0745618
0.055799447 0.082371354 -0.21330923 -0.07924019 0.2120374 -0.01942442 -0.1247386 -0.10354173
0.13447301 0.10992945 0.051525854 0.15818176 -0.024684269 -0.12082366 0.1465587 0.11639265
-0.22811623 0.04677117 0.12866722 -0.08936474 0.06992984 -0.08744133 -0.13363464 0.07332326
-0.009103216 0.013687004 -0.12203719 -0.064530864 0.070032164 0.16086957 0.1758295 -0.009142457
-0.12199291 -0.07591584 -0.04058863 -0.13783321 -0.12533422 0.082177855 -0.10264457 -0.14331092
-0.048266295 0.13660122 0.031674117 -0.1586855 0.055500813 0.019303214 0.17103273 -0.13270457
-0.16522115 -0.15776189 -0.08227487 0.15584968 0.063337825 -0.037927866 0.06225783 0.060228832
-0.1940762 -0.086129375 0.09176771 -0.07039349 0.13469996 0.03141315 0.13995698 0.13645953
-0.12895533 -0.01964851 -0.19713092 0.14623909 -0.03821574 0.10245776 -0.07059068 0.11515039
0.10240712 -0.07019315 -0.16772726 -0.063197665 -0.015431427 0.15317373 0.11373341 0.121906646
0.035163812 -0.10469543 0.06720915 0.056914058 0.112869635 0.0030942431 -0.042228244 0.10338702
-0.17632918 -0.1070291 -0.009866292 0.2199327 -0.0119291 -0.077323005 0.105445616 0.011528116
0.006990585 0.056222573 0.1055112 -0.124044746 0.17495291 -0.086287975 0.054072738 0.18600973
0.036123868 0.08662281 -0.20722426 0.10808297 0.060521156 0.016547048 0.05359591 -0.13718326
-0.19200495 0.14366703 0.074055366 0.057017785 -0.07634729 0.021595208 -0.12852457 0.1280498
0.062086027 0.124869995 -0.022811364 -0.014415436 0.107683994 0.09335951 -0.02606646 -0.04435364
-0.10251197 -0.10113691 -0.09680929 0.092986844 0.17590618 0.069716506 0.05312259 -0.09936817
0.018372148 0.18030098 -0.028025528 -0.09559883 0.031347666 0.18523407 -0.14829409 -0.15747248

gru.bias_ih_l0 f4 [96]
00000000: 3a21 28be f35c 2c3e 2c7e 2ebe ab4b 3cbe
00000010: 8f57 79bd 893b c1bd 61df a3bd bd74 7b3d
00000020: aa6b babd 9f52 8e3d d6d9 4fbb 5a39 093e
00000030: af29 00bd 5e95 103e 0994 07be 55a5 c83d
00000040: 1e4a 76bc 9b0f 883d 6371 fb3d 1315 343d
00000050: 0a6a 133c 1ce1 9ebd ab9f c63d 8541 973d
00000060: 016b 2bbe dc56 15be d917 0c3d d6c8 29be
00000070: 4420 05be 4e0e 023e 623b 09bd d9ed 0a3e
00000080: 633d e6be b7a1 90be 648f 2ebe 5804 86be
00000090: aab5 30be f86e f23d 148d 3abe 4d40 cbbd
000000a0: 8e1f 95bd 31a8 ce3d e6b9 c2be 29f2 bebd
000000b0: 454f a43d 6e50 24bc 656d 1ebe 8a0f 9bbd
000000c0: edd7 6dbe 1459 b0be 5d77 9fbc 44df 89be
000000d0: c0b1 e8bd 09e5 a5be 631a 183e 8142 5cbd
000000e0: b884 a8be b24c cfbd 9196 24bb 9e11 153d
000000f0: 7139 8bbe cc3d bcbe ce1e edbd e5d2 edbe
00000100: 8a65 08bc f8dd 553d 1198 3d3d 8938 98bd
00000110: 6204 45bc 1a5a 473e 2bb2 093e 83c2 623d
00000120: 6fbe e53d e2e1 05be 3fe8 443d 7a84 52bd
00000130: 8eec 9abc 0584 48be 3bae 4cbc 7a6e 233e
00000140: 6a5b af3d d883 333e 1f78 2bbc 53fc a73d
00000150: fce4 9a39 e2df 103e 750f eb3d 5fbd 87bd
00000160: ea31 c6bd 02eb 83bd bd6d a23d d5cd e8bd
00000170: 8d69 0cbc fc96 2bbd 1f59 a1bc 4eda 663c
-0.16418925 0.16832332 -0.17040318 -0.1838824 -0.060874518 -0.094351836 -0.080015905 0.061390627
-0.091025665 0.069493525 -0.0031715534 0.13400784 -0.031289753 0.14119479 -0.13240065 0.097971596
-0.015032319 0.066436015 0.12277486 0.04396541 0.00899745 -0.0775778 0.09698423 0.07385544
-0.16740038 -0.14583915 0.03420243 -0.16580519 -0.1300059 0.1270077 -0.033503897 0.13567294
-0.4496871 -0.2824838 -0.17046887 -0.2617519 -0.172568 0.11837572 -0.1821788 -0.09924374
-0.07281409 0.10090674 -0.38032454 -0.09323532 0.08022932 -0.010028942 -0.15471418 -0.07571323
-0.232269 -0.3444296 -0.019466097 -0.2692815 -0.11362028 -0.32401302 0.14853816 -0.05377436
-0.32913756 -0.1012205 -0.0025114159 0.036393754 -0.27192262 -0.36765897 -0.11578141 -0.46449962
-0.00832499 0.05221364 0.0462876 -0.07432658 -0.012024971 0.19467965 0.13446872 0.055361282
0.11217963 -0.13074449 0.04807305 -0.05139587 -0.018911626 -0.19581611 -0.012492712 0.15960112
0.08562358 0.17530763 -0.010465651 0.08202424 0.00029543776 0.14147905 0.114775576 -0.066279165
-0.09677489 -0.064413086 0.07931087 -0.11367384 -0.008570087 -0.041892037 -0.019695817 0.014090134

gru.bias_hh_l0 f4 [96]
00000000: ae00 4138 e871 393e 5769 b5bd ca2f 0dbe
00000010: fe6c 37be 2508 c93b b2e8 8fbd 46a9 6ebd
00000020: 8573 993d f165 9dbd 29b2 27be c57f 1abe
00000030: 15e6 2a3d a401 30be 3ad9 f13d 0033 98bd
00000040: b0ed 4fbe bddd fdbc 505d 4bbe ddd4 65bd
00000050: 0102 123e a4e7 62bd d19b e93d 49a9 25bc
00000060: 790c e33c ccc0 043e 8f71 d9bd 9e1f 19be
00000070: 3172 e5bd f1a2 393d f6ef 2abb 4ba3 c1bd
00000080: e141 8ebe 7c2a d0bc ea8e 5ebe f898 e7bd
00000090: cbe6 57be 50a5 c33d e5d8 63be 079b 8cbe
000000a0: f618 28be c467 45be 2845 87be 146f 74be
000000b0: e056 103e 74bb 4bbe 9680 5dbd 7778 033e
000000c0: 4553 d4bd 0d59 a5be da89 f8bd 6842 a7be
000000d0: 8b07 30be 9b63 39be 98d3 d93d f761 87be
000000e0: b321 8fbe 8446 babd 3790 00bd e2eb 793c
000000f0: 93d6 89be ac8e 34be 10ed ccbd b5cd c2be
00000100: 6f6e ab3d 68ab 0a3d a2e8 ee3c 8c63 183d
00000110: cad5 5ebd 8bb8 bc3d ab0b 903d ac60 dc3d
00000120: e7ca 0d3e a0da 06bc 0397 babd 07a4 9abd
00000130: 66a5 07be 5f34 c9bd 6b54 633d b7f8 52bd
00000140: 157d 053c 023d c6bd 03fd 073e de29 153e
00000150: f573 0ebe 5489 2cbe 442f 013e 3d12 a7bd
00000160: f91d 38be b925 063e e5eb 363d 1aca f33d
00000170: 511a dc3d 55dd 573d 8501 aabd 67d1 cf3d
4.601542e-05 0.18109858 -0.088579826 -0.13787761 -0.17912671 0.006135004 -0.07026805 -0.0582669
0.07492737 -0.076854594 -0.16376556 -0.15087803 0.04172333 -0.17188126 0.11809011 -0.074316025
-0.20305514 -0.030989522 -0.19859815 -0.056111205 0.14258577 -0.05539669 0.11406673 -0.0101111615
0.027715908 0.12964171 -0.10617363 -0.14953467 -0.11203421 0.04532141 -0.002608297 -0.09454974
-0.27784637 -0.025410883 -0.21734205 -0.11308473 -0.21084134 0.09553015 -0.22250707 -0.27462026
-0.16415772 -0.19277865 -0.2641995 -0.23870498 0.1409564 -0.19895726 -0.054077707 0.12838922
-0.10367445 -0.32294503 -0.12135668 -0.3266785 -0.17190377 -0.18104403 0.106360614 -0.2644193
-0.27955398 -0.09095481 -0.031387534 0.015253993 -0.2692152 -0.1763255 -0.100061536 -0.38047567
0.08370673 0.033854872 0.029163662 0.03720431 -0.054403104 0.09214886 0.070334755 0.10760626
0.13846932 -0.008230835 -0.091108344 -0.07550817 -0.13246688 -0.09824442 0.05550043 -0.051506724
0.008147498 -0.09679605 0.1328011 0.14566752 -0.13911422 -0.16849262 0.12615687 -0.081577756
-0.17980184 0.13100328 0.04465856 0.11903782 0.10747207 0.052701313 -0.08301071 0.10147362

gru.weight_ih_l1 f4 [96, 32]
00000000: a455 8d3e 9f28 42bc a6c9 89be e6b7 a4be
00000010: bc3b 8ebe 4014 3a3e ef6a 723e fbed 3d3e
00000020: a22a a03d 2242 25be 60a7 52be 7be8 b4be
00000030: f168 3bbe 4b55 483e 54eb 99be b01b 493e
00000040: 948a a93b f416 35be d743 103e d37d 25be
00000050: af5a 42be 694d 623e f947 bebd f3e5 083e
00000060: 0b62 89bc cded aebd 4f22 853d 48ee 923d
00000070: cd56 663d ad3a 99be 4276 6fbe 6963 81bd
00000080: 8999 8cbd b07a 7cbd c6ee 383e 94f8 193e
00000090: 20f4 193e abee 17be 2926 96bd eeaf 37be
000000a0: 6082 1dbe 5315 ab3c 82cb 4c3d fa08 f73d
000000b0: 7595 1b3e 5981 803d 8961 1e3e 33a4 6dbe
000000c0: 860d 6cbd fc94 33bb e87e 1bbd f3c3 003e
000000d0: f240 fb3d f5ab 55be b4fd 24be 01bc 60be
000000e0: 78f1 d33c 0b71 323e 9a52 55bd 9a9d 493d
000000f0: 807e 823d 6ba2 c93b 7832 b63c e51d a23c
00000100: 105c c93d 9844 d43c e58e 16be e0f7 e13d
00000110: 76db bc3d 7fd3 00be 4c35 56bd 125d 113e
00000120: db37 17be 9348 5e3c f936 57bc 68e4 30be
00000130: ab1c b2bd ba79 d83c 754a 99bd 76a5 e23d
00000140: 561f 02be e6a3 dc3d d002 273e 43b3 2bbe
00000150: fe89 b33c 7d10 303d 008b 93bc 6897 50bc
00000160: 98b2 eebd 0252 48bc 44bc c0bd 24eb dbbd
00000170: 0a15 30bd 09c0 88ba c14d 86bd c7ff 1cbe
00000180: 0ba6 0abe fc2f 8bbe 2069 593d 4abf 1c3e
00000190: 7609 fabc 079d e4bd ea0b 86be a205 81be
000001a0: feb7 46bd 09bd 353c cd29 493e 82d5 3a3c
000001b0: f618 6dbd ee8a 1b3d e8eb 733e 6730 903d
000001c0: 4a89 1bbd 35b7 973d 6fdb 89be 31e6 ad3d
000001d0: 1122 a53d 273b 1f3d 2108 1dbd ec24 3ebe
000001e0: e20f 8fbc 7888 543d dc3c 15be fa2d cdbb
000001f0: 3f19 303d 5968 bc3d f5c0 ffbb 0323 863e
00000200: 0fd6 2ebc 7dfc 2bbe 4ab5 40bd 13b8 583e
00000210: 196d 523e e652 b7bd 3058 96bd 665e a63d
00000220: 6aca c7bc f9fa f8bd 6e2e 793e a367 fdbd
00000230: a9c7 1a3e e153 c9bd 80fa 013e 6dc8 ccbb
00000240: 77e8 b3bd fa8a ac3d bf6f f43c 5e73 c3bd
00000250: 7d58 ef3d 5407 dd3d 3e36 f9bd 345f c0bd
00000260: 4a03 febd d2a5 353e 34c9 f63c 5518 32bb
00000270: ba15 783d 38bc 593e d5da 9bbd 9ca9 5c3e
00000280: 6243 d8bd a109 1ebe 5ee6 063e e542 f5bc
00000290: 97c9 f53d 70a7 82bc ac50 9abd 38c1 00be
000002a0: 1f5d 20be 6a47 01be cfde 883e fe86 813d
000002b0: 2c88 b33d bbf1 873d 346e a23d c604 053e
000002c0: dd30 8a3e 8bcb 98bd 69ec 9cbd f219 743e
000002d0: 3a8b b83d 8bf5 acbd fa8e eebc 30e8 54be
000002e0: 9cb7 1dbc 966c 88bd 2f64 55bd dfcf 763e
000002f0: b099 0bbd 29ca aabc a1ba 013e c5d1 4b3e
00000300: 21ca ed3d 6f99 293d 6f55 063d 68bd 903c
00000310: 955a 6dbd 291c 05be 5bc6 d3bb d097 8b3c
00000320: 56e7 56bd 9118 463e 9cdb 723e 2074 253e
00000330: c84b 0d3e 85e6 2f3e a644 5f3d 42f8 1dbe
00000340: f275 2d3e 3075 10be 0049 f7bd e15c 0e3e
00000350: 7338 893d 9a92 9b3d 4580 f4bd 8bf7 9fbd
00000360: e731 eb3d dc89 da3c a591 af3d b96f 4d3e
00000370: b1a1 bdbd 9da9 913d 66ac 073c 02c8 273d
00000380: f500 323d 48ac acbd 8dbe 28be 30cb 4c3d
00000390: 67f8 423d 6d06 26be a3bc 193e 14e8 113e
000003a0: 83f8 9c3d 525c f33c 4c02 43be 1302 2abd
000003b0: 585d 363e de29 38bd 5790 81bc 5b40 f33b
000003c0: 3e04 65be 58a5 cfbd 4e25 243e ad6c eebd
000003d0: 2936 b6bd 4bd9 483e eb01 d93c 326a 1a3e
000003e0: dee6 2a3e c596 4bbe 37f8 cfbd 54ac c83d
000003f0: 7d2f 063e f4fe 45be 8293 b139 ebe5 913b
0.276044 -0.011850505 -0.26911658 -0.32171553 -0.2777995 0.18171787 0.23673604 0.18547814
0.078206316 -0.16138509 -0.20571661 -0.3533362 -0.1830175 0.19563787 -0.30062354 0.19639468
0.0051739905 -0.17684537 0.14088379 -0.1616128 -0.18979906 0.22099842 -0.092910714 0.13368969
-0.016770383 -0.08541451 0.065006845 0.07174355 0.056235123 -0.2992758 -0.23384956 -0.06317789
-0.06865222 -0.06164044 0.18059835 0.15036231 0.15034533 -0.14837138 -0.07331497 -0.17938206
-0.15381765 0.020884192 0.049998768 0.12062259 0.15193732 0.06274671 0.15466894 -0.23207168
-0.057630084 -0.0027402034 -0.037962824 0.12574749 0.12268247 -0.20866378 -0.16112405 -0.21946718
0.025871977 0.17425935 -0.052080728 0.049222566 0.06371784 0.006153395 0.022240862 0.019789645
0.09832013 0.025911614 -0.14702947 0.110336065 0.09221546 -0.1258068 -0.05229692 0.1419566
-0.14767401 0.013567108 -0.013135665 -0.1727463 -0.08696874 0.026425231 -0.07484905 0.110667154
-0.12707266 0.10773449 0.16309667 -0.16767602 0.021916386 0.042984474 -0.018010616 -0.012731411
-0.11655158 -0.012226583 -0.09410909 -0.10738209 -0.042988814 -0.0010433207 -0.06557799 -0.15331946
-0.13539903 -0.27185047 0.05307877 0.15307346 -0.03052209 -0.11162763 -0.26180965 -0.2519961
-0.048515312 0.011092433 0.19644852 0.011403443 -0.057885133 0.03797429 0.2382046 0.07040482
-0.037972726 0.07407991 -0.26925227 0.08491171 0.08063138 0.03887477 -0.03833783 -0.18568772
-0.017463628 0.05188796 -0.14573997 -0.0062615843 0.042992827 0.0919959 -0.0078049847 0.26198587
-0.010671153 -0.16795535 -0.04704789 0.21163969 0.2054943 -0.089513585 -0.07341039 0.08123474
-0.02438851 -0.12157244 0.24334118 -0.12373283 0.15115227 -0.09830452 0.12693214 -0.0062494786
-0.087845735 0.08424945 0.029838441 -0.09543489 0.116868 0.10792413 -0.12168549 -0.093931586
-0.12402971 0.17739037 0.030125238 -0.0027175148 0.060567595 0.21263206 -0.07610098 0.21549076
-0.10559727 -0.1543336 0.13173816 -0.029939124 0.12001341 -0.015948981 -0.07534918 -0.12573707
-0.15660523 -0.12624899 0.2673249 0.06324576 0.08766207 0.06637903 0.07931176 0.12990102
0.26990405 -0.07460698 -0.07662279 0.23838022 0.0901093 -0.08445271 -0.02912091 -0.20791698
-0.009626295 -0.06661336 -0.052097496 0.24102734 -0.034082115 -0.02084835 0.1266885 0.1990424
0.11610819 0.04140609 0.03279632 0.017668441 -0.057947714 -0.12999023 -0.006462855 0.017040163
-0.052466713 0.19345309 0.23716587 0.1615758 0.1379844 0.1717778 0.054508828 -0.15426734
0.16939524 -0.14107203 -0.120744705 0.13902618 0.0670022 0.075963214 -0.11938528 -0.07810887
0.114841275 0.026677065 0.08572701 0.2006215 -0.09259356 0.07112429 0.008280849 0.040962227
0.043457944 -0.084312975 -0.1647894 0.049998462 0.047600176 -0.16213389 0.15013365 0.14248687
0.07664587 0.029707108 -0.19043845 -0.041505884 0.17809045 -0.044961803 -0.015815897 0.0074234433
-0.223649 -0.10138959 0.16029856 -0.11641822 -0.08897049 0.1961414 0.026490172 0.15079573
0.16689631 -0.19881733 -0.10154765 0.09798494 0.13104053 -0.19335538 0.00033869973 0.004452457

gru.weight_hh_l1 f4 [96, 32]
00000000: 599e 8c3d 1374 b3bd e4de e5bd fbae 2c3e
00000010: 413a 313e 465a 2dbd c04a 1dbe f51a e6bb
00000020: c872 34be 2bbe 4c3d 3a2b 363e 9d8e 0d3e
00000030: 3c2a 56be 3754 f3bc 34c6 8e3d fed0 81be
00000040: 941f cebd dc13 0abe 2a71 c73d e919 e33d
00000050: 2f1f 783d 198b 903d e3b6 503d 5f24 1bbe
00000060: cc88 f03c ba57 033c f676 ecbd e7cd 01bd
00000070: a02a 5e3d 3686 2abe ae78 8cbd 091a d93d
00000080: c126 7f3e 618d 57bb d39e e33b 6b54 233e
00000090: 6fe6 c2bd c45e 5e3e 1eb8 193e 2fbb 58bb
000000a0: 749c 483e a4c4 b93c 6adb 21bd 94be 5a3d
000000b0: 3741 0d3e 46cf 563d 1af4 72bd d9f7 ea3b
000000c0: e521 003e 6ee8 9d3c aea1 e8bd 9bab 93bd
000000d0: b8b5 2fbe d7e6 e23d ca7e a33c 3f44 ccbd
000000e0: d43a 47bd d214 3e3e 71b9 cb3b 1101 e4bc
000000f0: 6678 093e 015d f4bd 9883 173e 080f 733e
00000100: c47f f3bd 739a b03d 1c59 2b3d a315 04be
00000110: 1abb 23bc 3be7 d1bd ed4d 8abd bd96 adbd
00000120: 723e 193d 8659 e33d fe80 2f3d c118 aa3d
00000130: 0e35 b53d 5f14 0b3c f8f7 f83d a034 04be
00000140: 8212 1f3e 595f a63d cffb ccbd d99f 06be
00000150: 2b23 b8bd 365e 3c3e 5d92 1e3e 2c55 40bd
00000160: 243c 36bd 934a 033e 23eb b03c fc7a 203e
00000170: 86d8 d83d 981d b8bd 00a2 e6bd 397e 1bbd
00000180: b77a 663c 6bd3 67bd dd23 2ebe e80e 05be
00000190: a49e ce3c 17ac df3d bb8d d73d 0014 2b3e
000001a0: 37fe 35bd 8263 bdbc 0cb9 e03d 73e1 093d
000001b0: d9c3 c03d 15db 03be bed6 e53c 116c 333e
000001c0: 94df 12be 5f14 f63d 2897 f1bd 9f1a d2bc
000001d0: a399 0e3e b1b1 d63c b9cb 013e 6d0b fe3d
000001e0: 1fdf 1a3e 29f5 8c3d 5090 95bd 3bae 333e
000001f0: 8c98 cabd 202e e0bd 545a 063d 460b 1fbd
00000200: 532d fb3c 83be 5ebe 059c 1abe 763f 063e
00000210: d65e 903d 325d 593e 65c7 b9bd a1c0 eebd
00000220: c71c 003e 0f58 0abd c273 9fbd f3e2 c6bd
00000230: aac8 003e 85bc 2f3d 3acf 933d fbdd 013e
00000240: cebc 3fbd ae1b 5a3a 5526 3fbe 3d51 1f3e
00000250: 1577 6f3a 9f1f ab3d 9c24 e6bd 7815 aa3b
00000260: 1654 283e 62b2 c7bd 8c20 4a3c bd5d 1bbe
00000270: 1122 2dbd d68c c7bd 9fec 9abd 7024 89bd
00000280: 368a 153e f5b9 efbc 035d 0b3d a395 4dbd
00000290: ab9d 73bc ef23 7bbd 2bb3 003e 1225 a8bd
000002a0: 2317 f8bd b6ae a63d 4194 1b3d c43e 2ebd
000002b0: 0f0f e73a 8ed9 0b3e 1046 49bd 87c0 043d
000002c0: 3179 1ebd 1744 663d ab80 a23d 8719 35be
000002d0: 204c 0e3d 8a07 e1bd ec38 6fbd c82c 003e
000002e0: eb4c c2bc 7882 a0bc 3149 eb3c 8019 cebb
000002f0: 8bf9 aebc f774 7b3d 163f 6b3e 3fbf 213e
00000300: 373e 2b3d cd4f db3d 2225 f7bd d5e2 30bd
00000310: 2b2f e6bc 4712 993b 2915 e2bd f788 46be
00000320: 4567 433e e2c9 163e 680b c6bd 831c 4a3d
00000330: c6ee 073e 5598 e03d efab 113e 15fb d0bd
00000340: cbcf f83d d64f abbd 102d 7cbd 5467 143e
00000350: 2a67 0bbe bd6a 693e f695 f93d ff93 95bd
00000360: ba40 4b3e 9905 2c3e e167 c53d d33c eb3d
00000370: 511b 113d 89f5 323d 2d43 eabc 6e56 a13d
00000380: c35c 63be 4365 babd a2bc 1abd 352d 5e3d
00000390: 89fd f6bd bf03 9fbd 9afd e03d 1151 f43d
000003a0: 4a69 87bd cfe2 1e3d d1c7 8bbd f3be 313d
000003b0: 3288 dd3d 22bb e5bc f2a5 343d 4b7f 003e
000003c0: b43c 9a3d ee8b f43d e055 cdbd 913e 0dbe
000003d0: a6d3 833c e0cd 453e f922 dd3c 3871 a73c
000003e0: 7a9d e63c 8e7d b8bc 57d5 fa3d 6916 26be
000003f0: 77a6 b2bd eed0 ea3d 13ff 53be 49a9 7dbd
0.0686614 -0.08762374 -0.11224154 0.16863625 0.17307378 -0.04232242 -0.15360546 -0.0070222565
-0.1762191 0.049986046 0.17789927 0.13823934 -0.20914549 -0.029703243 0.06971398 -0.2535476
-0.10064617 -0.13484138 0.09738381 0.11088926 0.060576614 0.07057781 0.050955664 -0.15150593
0.029362105 0.008016521 -0.115461275 -0.031690504 0.05423987 -0.1665276 -0.06858955 0.10600669
0.24917127 -0.0032890665 0.0069464236 0.15950172 -0.09516608 0.21715838 0.15011641 -0.0033070554
0.19590932 0.022676773 -0.03951589 0.053404406 0.13794409 0.052443765 -0.059314825 0.007170659
0.1251293 0.01927587 -0.11358963 -0.072104655 -0.17159164 0.110791855 0.019957919 -0.099739544
-0.048640087 0.1856263 0.0062171747 -0.02783254 0.13424835 -0.119318016 0.14796293 0.23736203
-0.11889604 0.08623209 0.04183303 -0.12898879 -0.009993339 -0.10249182 -0.067531444 -0.08476017
0.037413068 0.111010596 0.042847626 0.08305503 0.0884801 0.008488744 0.12156671 -0.129107
0.15534404 0.08123655 -0.10008966 -0.13146915 -0.08991083 0.18395314 0.1548552 -0.046956226
-0.04449095 0.12821417 0.021596497 0.15671915 0.105881736 -0.089900196 -0.11261368 -0.037962172
0.014067343 -0.05659811 -0.17005868 -0.12993968 0.02522213 0.109214954 0.1052508 0.16706848
-0.04443189 -0.023118738 0.10972795 0.03366227 0.09412355 -0.12876542 0.028056499 0.17521693
-0.14343101 0.12015604 -0.11796409 -0.02564746 0.13925795 0.026207777 0.1267537 0.12404523
0.15124176 0.06882698 -0.07302916 0.17546932 -0.09892377 -0.10946298 0.032800987 -0.03882911
0.03066126 -0.21752362 -0.15098579 0.13110146 0.070493385 0.21226957 -0.090712346 -0.11657835
0.12510978 -0.033775385 -0.07785751 -0.09711256 0.12576547 0.042904396 0.0721726 0.12682335
-0.046810918 0.00083201646 -0.18666966 0.15558334 0.0009134871 0.083556406 -0.112374514 0.0051905476
0.16438326 -0.09750821 0.012336861 -0.15172477 -0.042268816 -0.09743659 -0.07564663 -0.06696403
0.14603505 -0.029263476 0.03402425 -0.050191533 -0.014869134 -0.061313566 0.12568347 -0.082101956
-0.12113788 0.08138792 0.037983183 -0.042540327 0.0017628389 0.1365721 -0.049139082 0.03241017
-0.038689796 0.05621728 0.07934698 -0.17685519 0.034740567 -0.10987766 -0.058403894 0.12517083
-0.023718318 -0.019593462 0.028721424 -0.006289661 -0.021359226 0.061390843 0.22973284 0.15795611
0.04180738 0.1070858 -0.120676294 -0.043185074 -0.028098663 0.0046713683 -0.11039192 -0.19388185
0.19082363 0.1472545 -0.09670144 0.049343597 0.13274679 0.10966555 0.14225744 -0.1020414
0.12149008 -0.08364837 -0.061566412 0.14492542 -0.13613573 0.22794624 0.12186806 -0.07303619
0.1984891 0.1679901 0.09638954 0.11486211 0.03542644 0.04369119 -0.028596485 0.07877813
-0.22203355 -0.091013454 -0.03777755 0.05424233 -0.12060077 -0.077643864 0.10985871 0.11929525
-0.06611879 0.03879052 -0.06825221 0.043394994 0.10816993 -0.028043333 0.04410357 0.12548558
0.075311095 0.11940752 -0.10026145 -0.13793398 0.016092133 0.19316816 0.026994215 0.02043973
0.028151263 -0.022520807 0.122477226 -0.16219486 -0.08723157 0.114656314 -0.20702772 -0.06192902

gru.bias_ih_l1 f4 [96]
00000000: 0804 bb3d 51c5 51be 754b 343d 0305 cd3d
00000010: d948 153e a7fa 12be c8bc c33d 9b31 1d3e
00000020: 8004 5dbd ce0f f53d c1c9 a2bd 4660 14be
00000030: cd09 523d ec4c ef3d a9dd 05be eb38 113e
00000040: d9f9 b3bc d19c 19be 550c f2bd 70ed 173d
00000050: 94ed 7a3c 5c48 0c3e af64 813d a5c7 623d
00000060: fe39 afbd 2716 e63d f417 a23d 0468 44bd
00000070: 2f3c ca3d e161 363e 3fbc cabc d1b2 9ebc
00000080: c1ad 9bbe c712 47be eebf 903d 2abd c5be
00000090: 4808 9fbe c0f9 88be ef1e 98bd a0da c03d
000000a0: d5ca 8cbd 034f 133d 9806 3abe 7241 0fbc
000000b0: 9e96 16be e46e f5bd 5010 c7bc c127 ed3d
000000c0: fcec 87be 0926 abbe a403 1fbe ec69 c43c
000000d0: 0d77 a2be 5a51 8fbe c50b 1ebd 991d a9be
000000e0: 334d a5bd 4505 e1be be51 afbe 82d6 9fbe
000000f0: 59a1 36be e7ed 52bc 4ff6 4cbe 5f05 a8be
00000100: fc83 d0bd 3b4a 163e 0cd8 aebd 3d84 0d3e
00000110: 25cb a33c f02a 183c ed88 b3bc a59e f73d
00000120: 94fe d3bd cef4 a63c 4753 043d 561a 18bd
00000130: e940 b3bd b7da 82bd 50bc 43bd ef32 28be
00000140: a0de d6bd fe3c 46be 23e8 593d 2499 e1bd
00000150: 36bf 513d fa6c c5bd 5349 8c3d 75ac ac3d
00000160: c7de 9abd 8ab2 d63d 70d5 3b3d 61bb 1fbe
00000170: 59e6 60bd 34df 18bd 6ff6 c03c 97f9 33be
0.09131628 -0.20485426 0.044017274 0.100107215 0.1457857 -0.14353429 0.095574915 0.15350954
-0.05395937 0.11965905 -0.07948638 -0.1448985 0.051278878 0.116845936 -0.13072838 0.14181869
-0.021969723 -0.15001227 -0.118187584 0.037091672 0.015315432 0.13699478 0.06318032 0.055366177
-0.08555983 0.11234694 0.07914725 -0.04795076 0.0987476 0.17810775 -0.024747966 -0.019372376
-0.30406 -0.19440757 0.07067858 -0.38620883 -0.31061006 -0.26753044 -0.07427775 0.094166994
-0.06874625 0.035964023 -0.18166578 -0.008743631 -0.14705893 -0.11984041 -0.02429977 0.11579848
-0.26547992 -0.33427456 -0.15528733 0.023976289 -0.31731454 -0.27991754 -0.038585443 -0.33030394
-0.08071365 -0.43949333 -0.34242052 -0.31218344 -0.17834987 -0.012874103 -0.20015834 -0.32816598
-0.10181424 0.14676754 -0.085373014 0.13819976 0.019994328 0.009287581 -0.021915877 0.12090806
-0.10351291 0.020380404 0.032305982 -0.03713449 -0.08752615 -0.06389373 -0.04778701 -0.1642568
-0.10491681 -0.19359204 0.0531999 -0.110155374 0.051207744 -0.09639926 0.06849923 0.08431331
-0.07562023 0.104832724 0.045857847 -0.15598823 -0.054907177 -0.037322238 0.023555009 -0.1757568

gru.bias_hh_l1 f4 [96]
00000000: b4f0 573d 605a 87bd ccd7 043e 202c dbbc
00000010: f061 e4bd 386d b33d c2db 463d fc69 b7bd
00000020: 25bf 08be b5cb 323e 0405 973d 58ab 463d
00000030: 3efc 17bd b8d3 4d3c 92a1 42be b533 133e
00000040: 1976 8b3d 8279 ec3d 0d0b 963c c753 f5bb
00000050: 0a53 1cbe 40f5 89bd 00e8 b13d 74af ff3d
00000060: f6da 2fbe 4ab8 e73d a945 ce3c 48bb 2b3e
00000070: 33aa f43d bc74 143e d670 33bd 5c18 9d3d
00000080: be47 c4be 012f 9bbe 30db abbd 4464 acbe
00000090: 4215 d5be c870 9cbe d2ae cabe 458a dabc
000000a0: c86c 8abe 9d1e bd3d 118d 93be f93d 2dbe
000000b0: 34cd 2dbe e365 80bb 0e7e 2bbe 9002 6d3c
000000c0: 0071 9fbe 64fe 27be 526f 52be d641 09bc
000000d0: 657e c8bd bf5c 59bd a98e 10bc 4fbe 02be
000000e0: 97c2 f4bd ddf4 93be 6ccb 65be f1b5 b5be
000000f0: ce8d a7be f154 cbbd 5731 06be aff3 5ebe
00000100: 6abe 1a3e b77a 0ebd 860e 0fbe 16fb 4bbe
00000110: 62a5 6ebb 14c7 48be f866 8c3d f492 013e
00000120: 5d70 dfbd 9f82 c5bd 985d eb3d 811d 6bbd
00000130: 3e24 0cbc b6c3 583c f252 10bd 945d 3cbe
00000140: 5992 e2bd 41f0 7ebd 3a9f 213c b8a7 dcba
00000150: c544 3a3e 137b 2a3d 9ff7 69bd 2923 54bd
00000160: 2c3d 11be 547f 5cbd c6ab af3d e1fe 443e
00000170: 1b61 02bd 6181 1c3e 32ae f0bc c099 cfbc
0.052719787 -0.066090345 0.12972945 -0.026754439 -0.111514926 0.08761066 0.04854942 -0.08955762
-0.13354166 0.1746052 0.073740035 0.04850325 -0.03710579 0.012562685 -0.19006947 0.14375193
0.06809635 0.11546613 0.018315816 -0.0074867937 -0.15266052 -0.06736231 0.086868286 0.12484637
-0.1717337 0.11314447 0.0251797 0.16770661 0.119465254 0.14497656 -0.04380878 0.07670662
-0.38335985 -0.303093 -0.08391416 -0.33670247 -0.4161778 -0.30554795 -0.39586502 -0.02667726
-0.27036119 0.09234355 -0.28818563 -0.16918172 -0.1697281 -0.003918396 -0.16747305 0.014465943
-0.311409 -0.16405636 -0.20550278 -0.008377513 -0.09789733 -0.053066965 -0.008823075 -0.1276791
-0.119511776 -0.28897753 -0.2244088 -0.35490373 -0.32725376 -0.09928311 -0.13104759 -0.21772645
0.151117 -0.034785 -0.13970384 -0.1992 -0.0036414494 -0.19607192 0.06855577 0.12653714
-0.109101035 -0.096440546 0.11492461 -0.057401184 -0.008553563 0.013230255 -0.035235353 -0.18395072
-0.1106307 -0.062240843 0.009864623 -0.0016834652 0.18190296 0.04162128 -0.057120916 -0.051791344
-0.14183491 -0.053832367 0.08577685 0.19237854 -0.03183089 0.15283729 -0.029379938 -0.025341868

fc.weight f4 [1, 32]
00000000: 0c12 0a3e eba0 8dbd f063 a4bd 6ab7 4d3e
00000010: 70ed 5c3e 34c6 2f3e 1910 58be b7a5 003e
00000020: 781d 2a3e b2e2 f43d 8fef cf3d 7c9d e6bb
00000030: c88b 38be 717a 783d c7ad 343e 9a8f 8b3d
00000040: ca4f bebd a4c7 f73d 1120 d2bd 6638 adbd
00000050: eed4 0fbe bfdc ac3d ab44 4c3d 694b 59be
00000060: 2b31 a03d 4f5d 1abe 8b44 f53d ab5a 5cbe
00000070: cc06 2bbe 50c4 b3bd c0c7 3a3e 2e2f 543e
0.13483447 -0.06915458 -0.08026874 0.20089498 0.2157495 0.17165452 -0.21099891 0.12563215
0.16612804 0.11957301 0.10153114 -0.0070378166 -0.18022072 0.060663644 0.17644416 0.06814499
-0.09292562 0.12098625 -0.102600224 -0.08458023 -0.1404607 0.084405415 0.049870174 -0.21220173
0.07821878 -0.15074657 0.11975964 -0.21518962 -0.16701812 -0.08777678 0.18240261 0.20721123
