gru_model.pth (torch, 41715 bytes, 9 tensors)

gru.weight_ih_l0 f4 [96, 1]
00000000: 9555 2ebe 30c2 ec3c d154 983d b11a dd3d
00000010: 5f15 48be b72e 953b 7240 c93d 3fb3 c93d
00000020: 8900 5b3e 42c7 bc3d 57f8 c7bd 8f94 693c
00000030: 2954 69be 1fa5 2fbd c89b a6bd 4407 343e
00000040: 2756 0bbe 177e ff3d 0ef1 7cbd d9f4 903a
00000050: b8db 2f3e 656c e4bc 8ca4 6d3d 4415 0fbe
00000060: 5795 39bd 94f8 25bd ce43 40bd 06c4 d33d
00000070: ca1a a93c 9e5c 9b3d d668 11bd 4297 bbbd
00000080: 3a30 7e3d 4bfe 3a3c 09e7 abbb 9130 003e
00000090: c598 febd b87b ab3d 59c2 333e 6d72 173e
000000a0: 942d b53d cda7 e93d b807 5a3d 5aec 0d3e
000000b0: 4a44 76bd 6a2f 3cbd bf4d 01be f0f7 27be
000000c0: 5387 c0bd 370d 2abe f22f a8bd a370 10bb
000000d0: b9c6 34be 43f2 b13d 5dcc 813d 7f22 d43d
000000e0: 278f c5bd 3a2b 7fbd b8bf 7bbd 122e acbc
000000f0: 694d f1bd e102 653d f6e1 df3c 7785 02bd
00000100: aa87 97bd fa3c 833b d24b 673e 710d 2a3e
00000110: cc81 45be 0714 c6bd 4367 e2bd 10ab 503e
00000120: f40e 203e 9989 c6bd 1d04 66bd 055b 25be
00000130: 4b6b 6b3e 7817 ad3d 8cad d3bd 17fa 2f3e
00000140: f597 c9bd 1437 5e3e 643e 193e 66b4 533e
00000150: 59b6 08be 3f9b 023e 11a2 75be 748e 7b3d
00000160: ee32 e43c bf1d 323d 6862 fabd 269f 0ebe
00000170: 3119 8d3e d240 7d3e 78ae 273d ee0f 30bd
-0.17024834 0.02890119 0.074380524 0.107961066 -0.19539402 0.004552688 0.09826745 0.098486416
0.21386923 0.09217693 -0.09764164 0.014256611 -0.22786011 -0.04288208 -0.08135182 0.17580897
-0.13607083 0.124752216 -0.061753325 0.0011059298 0.1717366 -0.027883718 0.058018252 -0.13972956
-0.045308437 -0.040520266 -0.046939664 0.10340123 0.020642657 0.07586025 -0.03550037 -0.091597095
0.06205771 0.011413167 -0.0052460474 0.12518527 -0.12431482 0.08373207 0.17554606 0.14789744
0.08846584 0.114089586 0.053230017 0.13859692 -0.06012372 -0.045943655 -0.12627314 -0.16403174
-0.09400811 -0.16606604 -0.0821227 -0.0022039793 -0.17653932 0.08688786 0.06337807 0.10358142
-0.09646445 -0.062297083 -0.061462134 -0.021018062 -0.11782343 0.05591095 0.027329426 -0.031865563
-0.07398923 0.0040050717 0.22587517 0.1660669 -0.19287795 -0.09671789 -0.11054852 0.20377755
0.15630704 -0.096942134 -0.056156266 -0.16148002 0.22990148 0.08451742 -0.10335836 0.17185245
-0.09843437 0.21700698 0.14965206 0.20674285 -0.1335081 0.12754534 -0.23987605 0.06141515
0.027856316 0.0434854 -0.12225801 -0.13927898 0.27558282 0.24731758 0.04093787 -0.04298394

gru.weight_hh_l0 f4 [96, 32]
00000000: f8e9 e13c 09c4 a73d 3b60 27bd 0bc0 27be
00000010: 0f86 d2bd fc7d 7dbd 3c82 343e 0abc 0c3e
00000020: cb44 a03d 6ac0 b2bb 4a95 013e cc36 c63d
00000030: e0e7 083d d6f9 12be 278c 0b3d fa93 ce39
00000040: a0eb 82bd ae27 c3bb 75a1 82bd 4b2e f73d
00000050: 6f19 133e e25f 34bb 77e3 16be 436e 0dbe
00000060: 1ae9 8e3d 8e7e d63d 9c3b e13d 15ec 013e
00000070: 1c96 bf3c 7c13 663d f05f 4c3d 790f 27bc
00000080: 3bbc 223e b9d1 8abd 7498 aa3d dd5c 1c3d
00000090: 88c6 9dbd e710 9cbd 6fdb 363e 7a7c 5c3d
000000a0: 449e ec3d 06ae 713d 4f19 1d3e 8a9c 133e
000000b0: 3759 b0bd 91b5 44be 13ae f63c 5f64 2a3e
000000c0: 5b16 503d 623b 20be a684 433e beab b5bc
000000d0: 352a ef3d 97cb 303d bebf 613d 9796 1f3e
000000e0: e2a1 33be 7d06 3c3e 3281 94bd 47b7 5e3c
000000f0: 6015 05bd c7a4 0c3e 5476 e5bc e417 433e
00000100: 6c8c 87bd 61bd b13b 8d38 d5bd 6573 e33d
00000110: 5c6f 543e 5470 dd3d ca1d 563d 3d9f 813d
00000120: 7ba4 39bc edb7 293e dc93 673d 072a 083e
00000130: e4fa 423b e99a 01be 4e76 d33d 209c cc3d
00000140: eb31 ef3d 61e2 0b3e 66a0 09be ecde 65bd
00000150: 013c abbd cf0b 17be d14e 0a3e 046d 51be
00000160: f1b3 a13d 2625 e0bd 1c5d 91bd f6d6 de3d
00000170: ea8d aebd da14 023e 93d0 743d 9ea6 b7bd
00000180: cc4b 013e 2485 1a3e ed39 c4bc 3f8d c63d
00000190: 7b6c 23be 33e4 ed3d 52e1 733d 9ec1 a2bd
000001a0: ee55 1a3e e83c 06be fe7c 5bbd 8eb5 b7bd
000001b0: 2355 053e 5680 003d a8fd b4bc d142 f03d
000001c0: dd20 df3d f8fa 1c3e 85de febd 9d49 963d
000001d0: f92f 8dbd 4053 a43d 5351 273e 9d7b b93d
000001e0: 154c eabd 5891 89bc 6c4b 033b c101 e43d
000001f0: 265c cd3d 6cbb dabd f00a ec3d d0c6 453e
00000200: c767 31be 8174 1b3e 1179 acbd 2415 943d
00000210: d109 ee3d e129 13be f49b 73bd f84e 513d
00000220: ae0f afbc 6d8d 14be af1f 0a3d ab10 a6b9
00000230: e8d2 29bd ab6e ec3d 78c4 c93d e857 793d
00000240: 4f1d dabd 52d2 8cbd f86b d93c 81a7 5b3b
00000250: dd99 0c3e c707 dcbd c844 c7bd 9ca9 08be
00000260: 49c1 bbbc 2b0d b83c 6c14 7bbb 3fc7 64bb
00000270: 493c ce3d 203b 12be 8802 0ebe 50a5 743d
00000280: 6aab 47bd 762d 313d ff0d f63d c7de 29be
00000290: 03d6 4b3e d53d 023e 6496 46bd 7870 9f3d
000002a0: 87e0 3bbe 61ae 603e 5a6c 303d ed6e 8c3d
000002b0: 717b 3d3d 5a75 3a3c 0d05 dc3d daf3 0fbe
000002c0: eabf b03d 9f55 d7bd 4727 e0bd 228a e6bd
000002d0: e4e5 c83d 9ca2 4abe f4c7 1b3e 8cd9 0c3e
000002e0: b49b 2cbe 2402 273e 966c 333d 0109 003e
000002f0: 2b85 3abe 536a 023e 6123 c6bd 10b1 f93d
00000300: 1a71 4c3d d2bd 1abd af12 eabd dd9f 893c
00000310: 3ae1 f73d ea87 09bd f9b5 7abb 6cc5 1a3e
00000320: cf31 02be ed0c 143e 1597 1e3e ce74 9c3d
00000330: f5f6 f53b 52ff d33d abcd 46be a4d0 5bbd
00000340: 473d d83d 8a77 833d 34e2 e43d 0a3a 04be
00000350: 39a9 033e 4756 33be 2c1e 443e d5ad 753d
00000360: c86c 333e fab4 1f3e 9004 0d3d 11e7 af3d
00000370: 6000 92bd 7827 fbbd 79d9 34be f5f8 4bbb
00000380: 83bf abbd 7a1c 0fbd cbfd 113d 6b2f 5cbd
00000390: 2288 f83c 6a62 003e 47af 19be 5920 80bc
000003a0: 22c7 e93d 9134 04bc 7d6e 77bd ef03 fd3d
000003b0: 2129 183e d78b b03d b053 af3d 2250 da3d
000003c0: 2173 143d 9d49 22be b6ac 073e 09d7 09bd
000003d0: 8d20 57bd 76ff b63d 19ff 473d ba0c dcbb
000003e0: fa77 40bd d439 acbd 4c2d 093e 67e4 153d
000003f0: 5205 333e 1d96 a53c f260 db3d 5bd2 573c
0.027577385 0.081916876 -0.040863257 -0.16381852 -0.10279476 -0.061887726 0.17627805 0.13743606
0.07825621 -0.0054550664 0.12654606 0.096784204 0.03342426 -0.14353117 0.034069207 0.00039401633
-0.06392598 -0.005955658 -0.06378452 0.120693766 0.14365171 -0.002752297 -0.14735208 -0.13811593
0.06978054 0.10473357 0.10997698 0.12687714 0.023387007 0.056170925 0.04989618 -0.01019656
0.15892117 -0.06778283 0.083298594 0.0381745 -0.077038825 -0.07620411 0.17857145 0.053829648
0.11553624 0.059003852 0.15341686 0.14415184 -0.086107664 -0.19209887 0.030112302 0.16639851
0.05080257 -0.15647653 0.1909357 -0.02217662 0.11677972 0.04316291 0.0551145 0.15584789
-0.17542222 0.1836185 -0.072512046 0.013593501 -0.032491088 0.13734733 -0.028010525 0.19052082
-0.0661858 0.005424187 -0.10411177 0.11105994 0.20745605 0.108124405 0.052274503 0.063292004
-0.011330719 0.16574068 0.056537494 0.13297282 0.0029751593 -0.1265675 0.10325299 0.09990716
0.11679443 0.13660575 -0.13440093 -0.056120798 -0.08361054 -0.14750598 0.13506629 -0.20451742
0.07895649 -0.109445855 -0.07097837 0.10880844 -0.08523162 0.12703267 0.059769224 -0.089673266
0.1262657 0.15089852 -0.023953402 0.09694909 -0.15959351 0.11615791 0.059541054 -0.07947086
0.15071842 -0.13109171 -0.053586 -0.08970176 0.13020758 0.03137239 -0.022093609 0.11731494
0.1089494 0.15330112 -0.12444786 0.07338259 -0.06893916 0.08023691 0.16339616 0.090567805
-0.11440293 -0.016792938 0.0020033969 0.11133147 0.100273415 -0.10680279 0.11525524 0.19314122
-0.17324744 0.15181161 -0.08421529 0.07230595 0.11622966 -0.14371444 -0.0594749 0.0511007
-0.021369781 -0.14507075 0.033721622 -0.00031674406 -0.0414609 0.11544546 0.098519266 0.06087485
-0.106501214 -0.06876053 0.026540741 0.0033516588 0.13730569 -0.10743671 -0.09729916 -0.13345951
-0.022919314 0.022467216 -0.0038311733 -0.00349088 0.10070092 -0.14280367 -0.13868153 0.059727967
-0.048747458 0.043256246 0.12014388 -0.16588889 0.19905858 0.127189 -0.048483267 0.077851236
-0.18347369 0.2194152 0.043072082 0.06857095 0.0462603 0.011380518 0.10743151 -0.14057866
0.08630355 -0.10514378 -0.109449916 -0.112568155 0.09809473 -0.19788593 0.15212995 0.13754863
-0.16856271 0.1630941 0.043804727 0.12503435 -0.18214862 0.12735872 -0.09674717 0.12191975
0.04991255 -0.037778683 -0.11429345 0.016799862 0.121035054 -0.033576883 -0.0038255437 0.15114373
-0.12714313 0.14458056 0.1548732 0.07639466 0.007506246 0.10351433 -0.19414394 -0.053665772
0.10558563 0.06419285 0.11175957 -0.12912765 0.12857522 -0.17513381 0.19152135 0.059980232
0.17521966 0.15596381 0.03442818 0.08588994 -0.07128978 -0.122633874 -0.17661084 -0.0031123732
-0.08386137 -0.034939267 0.035642426 -0.05375616 0.03033835 0.12537542 -0.15008269 -0.015640425
0.11414935 -0.008069173 -0.060408104 0.12354266 0.1485944 0.08620422 0.08560884 0.10659815
0.036242608 -0.15848394 0.13249478 -0.03365234 -0.052521277 0.08935444 0.048827264 -0.0067153843
-0.04698942 -0.08409467 0.13396186 0.036594775 0.17482498 0.020213181 0.1071185 0.013172711

gru.bias_ih_l0 f4 [96]
00000000: 4b57 1f3e d92a d8bc f30c 233e 1757 53bd
00000010: b1cc aa3c 95cd 01be 7c0f 2b3e bdf0 0bbd
00000020: cb99 e5bd 0de0 a63d c2eb 12be d8df 0f3e
00000030: e63d fa3c c97d 233e 4a8d efbd 9f8d a13d
00000040: 779f 093c 62cc 7abd aba3 04be be9a aa3d
00000050: f7ec 1d3d 798d f63d ac8a 41bc ed1f 683d
00000060: 1e64 f6bd ece5 ff3d 98c6 193e b754 db3d
00000070: 08ed 623d 4be4 0c3c 4359 8dbc 9117 d23d
00000080: 1caf 1fbe 3ef1 803d 73e5 9ebe 98cb a0bc
00000090: 5b7b 55be a559 5f3d 8c1d 76be 334d 08be
000000a0: d5f7 a9be 12c8 c6bd 69d8 67bc bd32 6abe
000000b0: 4e3c a1be bbf4 36bd e5de c73d 4765 e2bd
000000c0: b647 6abe 7b4b 48be b78c 3fbe 0602 0fbc
000000d0: 36b6 0cbe 41b4 c5be bf27 f3be 1339 62be
000000e0: bdcf 75bd cb68 263d a179 fcbd 72c6 8fbe
000000f0: d2b6 41be 3990 d8be 9bef 9cbc f22e cdbd
00000100: 697a 263e 28e7 333e 6954 70bd 1606 cf3c
00000110: 3314 e2bd 9599 9dbd 2576 2d3e 7710 a3bd
00000120: b4a9 a7bd a0d9 21bd 0510 2e3e 9a25 5b3d
00000130: 8f3c efbd 61a8 24be 3fc6 013d b8ea 163e
00000140: 81d5 953c 0d4b 633c 5289 2c3e 44fd c03d
00000150: 4ce4 f93c 7387 ca3c f1a6 c1bd db4f c53d
00000160: 5676 e2bd af3a ed3d f462 173d 8f57 99bd
00000170: 4f3e 3fbd 79f0 13bd ee8d 2e3e 15a4 2f3e
0.15560643 -0.026387619 0.15922908 -0.051596727 0.020849558 -0.1267608 0.16705126 -0.034165133
-0.11210974 0.08148203 -0.14347747 0.14050233 0.030547094 0.15965952 -0.116968706 0.0788834
0.008399836 -0.06123007 -0.1295306 0.08330296 0.038556065 0.120387025 -0.011812847 0.05667107
-0.120308146 0.12495026 0.15017164 0.107095174 0.055401832 0.008599351 -0.017254477 0.10258401
-0.15594143 0.06296013 -0.3103443 -0.019628331 -0.20847838 0.05452885 -0.24034709 -0.13310699
-0.33196893 -0.09706129 -0.014150717 -0.22870918 -0.3149132 -0.044666987 0.09759311 -0.11054473
-0.22878918 -0.19560044 -0.18706022 -0.00872851 -0.13741383 -0.38614085 -0.4749126 -0.22092085
-0.060012568 0.040627282 -0.123278864 -0.2808109 -0.18917397 -0.42297533 -0.019157222 -0.1001872
0.16257633 0.17568648 -0.05867425 0.025271457 -0.11039009 -0.07695309 0.169396 -0.07962125
-0.08186665 -0.039514184 0.16998298 0.053502657 -0.116814725 -0.16079856 0.031683203 0.14737976
0.018290283 0.013872874 0.16849259 0.094233066 0.030504368 0.02472279 -0.0945567 0.09634372
-0.11057727 0.11583459 0.036959603 -0.074874036 -0.04669028 -0.036118004 0.1704633 0.17152436

gru.bias_hh_l0 f4 [96]
00000000: 9481 0bbe 83e9 f2bd 91af 37be 5639 b1bc
00000010: 40d2 bebc 8671 17bd b041 b8bb 1667 a33a
00000020: 9c31 e4bd a4b7 06be ad68 4abe c8d2 4a3c
00000030: ba20 dfbd af00 343e 0f06 9e3d e503 ab3d
00000040: 2cb1 0f3e aa56 b8ba 12b0 99bd 3eea 1bbd
00000050: c9b7 b93c 248d fb3d a25f 82bd 678e 8f3b
00000060: ccf9 22be 342d f4bd 4f01 9a3d 6041 4abd
00000070: 9ca3 2bbe db00 ff3d fcb0 82bd 7fd7 47bd
00000080: a5c8 24be dd0d bfbd e548 30bd 047e 9abe
00000090: 44fa babe 68fc f8bd 3290 1a3d c1d7 8bbe
000000a0: 91e0 5bbe a0ba 89be f43a f83d 1011 88be
000000b0: f334 6ebe 0e66 52be 1a42 39be b98e d7bd
000000c0: 7499 a6bc 7080 00bf 412f 6abe 118c bebd
000000d0: 370b 17bd a7fd 38be 7023 d2be 836b 5abe
000000e0: 6be3 d4bd 24aa 183e 018c c6bd 1fca 11be
000000f0: 8a07 3ebe 7ec1 e6be 19d4 7d3d ca58 c23d
00000100: f63f 1b3e 573c 62bd 3acd 6ebd 9e8f 2d3e
00000110: 3ea5 ad3d 8027 cdbd 2c33 24be aaca 313e
00000120: fbba d63d 130c a63d b444 83bd c5c2 263e
00000130: c1e5 0ebe 2352 b93d 5b2c 353d 3525 feba
00000140: 061d 10be 3e58 c7bd af6b b7bd c376 53bd
00000150: afdd 0ebe d1bb 02be 2588 713d 205d 113e
00000160: 9d18 1dbe dd5f bd3c a595 ecbd 5ae8 ac3c
00000170: 7e8b c0bc 8157 f33d f732 10bd dfba 22bd
-0.13623649 -0.11860945 -0.17938067 -0.021633785 -0.023293614 -0.0369735 -0.005623065 0.0012466635
-0.11142275 -0.13155991 -0.19766493 0.012379356 -0.10894914 0.17578386 0.07715999 0.08350352
0.1403243 -0.0014063914 -0.07504286 -0.038065188 0.022670643 0.1228278 -0.06365897 0.0043809894
-0.15915602 -0.11922684 0.07519781 -0.049378753 -0.16761631 0.12451335 -0.06381413 -0.048789497
-0.16092165 -0.09328816 -0.043038268 -0.30174267 -0.36519063 -0.12157518 0.03773517 -0.27313045
-0.21472384 -0.26900196 0.121206194 -0.26575518 -0.23262386 -0.20546743 -0.18091622 -0.10525269
-0.020336844 -0.5019598 -0.22869588 -0.09304059 -0.03687593 -0.1806551 -0.41042662 -0.21330075
-0.10394939 0.14908653 -0.096946724 -0.1423726 -0.18557563 -0.45069498 0.06196985 0.094895914
0.15161118 -0.055233326 -0.058301188 0.16949317 0.08478783 -0.100173 -0.16035146 0.17362466
0.104848824 0.08107772 -0.064095885 0.16285236 -0.13954832 0.090488695 0.044231754 -0.0019389751
-0.14073572 -0.09733628 -0.08956086 -0.051626932 -0.13951753 -0.12766959 0.05896773 0.1419568
-0.1534142 0.023117 -0.1155198 0.021106888 -0.023504015 0.118819244 -0.035204854 -0.039728995

gru.weight_ih_l1 f4 [96, 32]
00000000: bcb0 14bc 2665 f7bd 26f2 1b3e 5465 513d
00000010: 2963 23bd 0438 28bc 8e47 e23d f0e3 01be
00000020: f01f 253d c0fd 56bd 1b21 08be f9a2 a7bc
00000030: d8ab 4e3e b0ca b13d fc37 30be 48cc 0dbe
00000040: c852 13bc 25ad 39bd 90af 1c3e c97a 16be
00000050: 0985 a53b 5ad6 0d3e ae39 f23c 9006 ba3d
00000060: 3ff4 95bd defa 26be 74c8 21be d08f 6d3d
00000070: 9a53 263e c572 89bc 6102 75bd b65f d4bd
00000080: ee22 64bb 2b03 013e f05d 26bd 9da8 d13d
00000090: dc17 ccbd 2a4c 143e 39cb ee3d 72a8 a1bc
000000a0: 6d61 0bbe fbf0 123e 5942 b2bd 433c 2a3e
000000b0: 1a3c 2cbe 00b9 8abd ebad 373e 4230 9ebd
000000c0: 9c14 d93d bc66 77be 35e6 17be df09 873d
000000d0: ca94 eb3c 6b66 1ebe 4f56 73bd 0c7c cfbd
000000e0: 41f9 a33d d9e6 44bd fd62 aa3d e1dc acbd
000000f0: a364 13be 53dd 0bbe 3457 c9bd 2323 2b3d
00000100: 6dc3 57bd 74e2 fb3b 851c c3bd 8ce5 143e
00000110: 60fa 323e 06ee 733e 9d59 35be b4f2 3cbc
00000120: 428f 03be c766 213e 00f1 4abe a62a 0f3e
00000130: 383b 903c 3b90 063e d304 23bd ebdf 253d
00000140: c303 c6bd f1ca 0f3e ca4c f5bd ed8f 2bbc
00000150: fafd 75bd 81fd 0c3e 42bc 36be 5abc 29bd
00000160: 619e fa3d 18d4 b33c 9fe6 db3d afc1 f5bd
00000170: f13c fa3d 9d77 2a3e 7778 0abd a949 c33d
00000180: 7bf0 1ebe 6ca9 b4bd 591d 35be 2bcc 35be
00000190: e081 473e 0519 e3bc 949a 2dbd 2660 af3c
000001a0: 8f25 25be 209e fbbb 9ea1 1bbe 2e9e 1a3c
000001b0: 2eb0 093a ce4b 09be 51e6 b4bd 3f56 56bd
000001c0: 776a c33d 5d0b a23d 866e a43d ee83 b23d
000001d0: aec1 0e3e cf3e 2fba e165 063e 132d 223d
000001e0: d719 d8bc 4c9c 0dbd d07f 323e 24df 0bbc
000001f0: a39c 333b 481c f73d 4395 1cbe 250b ce3d
00000200: b6d8 e33d 63df 003d c459 13be c178 e33c
00000210: c654 683e 3d23 ccbc b30e c7bd e20f f3bd
00000220: a589 debb 005b 243e 60c8 893d fdbd 3c3e
00000230: 5ab0 42bc 2dce f2bc 5b00 cf3d 2652 edbd
00000240: 5396 303e f9fe 10bd c9b2 5ebe 1f8d b2bc
00000250: ecb1 6bbb b19b af3d 19a4 323e 54e5 dd3d
00000260: 96de 203d de19 03bd 84f0 cebc dad4 213a
00000270: 70e9 c0bd e40f 5bbe a9e7 42be 192e f23d
00000280: 419b 1cbe d118 ce3d 222f 84bd ecda ff3d
00000290: e1e4 0fbe 730d b23d e1ad d2bd 3b39 f53d
000002a0: acb9 933d d41c c83d 8880 38be 3681 61bd
000002b0: 7074 ffbc bc05 c0bd 3f27 02bd de53 c83d
000002c0: c774 d23d 22be 293e a7dd 24bd 7b1d 81bd
000002d0: a6b7 9cbd d52f 4b3e b264 5fbe fe0e 9d3d
000002e0: 67ac 52bc 4ad9 dfbd e3d0 9a3d ebba c13d
000002f0: 1419 313e fe67 833c 02da c5bd cca9 afbd
00000300: 424f 20bd ae7e 5bbd fe15 1d3e b603 933b
00000310: 20e3 bd3d 4ed8 9fbd 7101 0abe dc6f 24be
00000320: b1e1 6cbd 5203 453e 5aca 963c 5ec0 aa3a
00000330: 8244 babd 566a fa3d ce56 c8bb aa7e 4fbe
00000340: ca7a 87bd 88b9 c03d d346 fabb 795a 053e
00000350: effc c03c 6e71 6fbb 1bb3 f5bd a93c 1cbe
00000360: 4ecd f73d 1178 4f3d e409 f63d 92b5 00be
00000370: 68c3 35be e644 543b 826d 8bbd ccc2 0fbe
00000380: fd2f 1b3d b602 41be a152 003e c3a8 95bd
00000390: ef36 d7bd 2b63 5fbd b6a0 0fba 93ab 08be
000003a0: 3af7 b13a 9c6c 963d d771 883d e55b 70bd
000003b0: 9304 6d3d ac47 b63d 9a2b c8ba ef4c 43be
000003c0: 5cce b4bd 4f4d 913d ab25 e63c b0db 52bd
000003d0: c2de 3abd c509 6f3e 32d7 f33d 8a68 d7bd
000003e0: 949e 993d 50d7 353d ae92 62be 1c58 82be
000003f0: 793e 423e 6555 bcbd 439e 0bbe 2834 22be
-0.00907534 -0.120798394 0.15229091 0.051122025 -0.03988949 -0.010267261 0.11048804 -0.12684608
0.04031366 -0.05248809 -0.13293879 -0.020463454 0.2018274 0.08681238 -0.17208856 -0.13847458
-0.008991905 -0.04533114 0.15301347 -0.14695276 0.0050512594 0.138513 0.02956852 0.09083283
-0.07321977 -0.16306636 -0.15799123 0.05799848 0.16242829 -0.01677836 -0.05981672 -0.10369818
-0.0034810859 0.12598865 -0.04061693 0.102372386 -0.09965488 0.1448218 0.116598554 -0.019733641
-0.13611384 0.14349739 -0.08704061 0.1662455 -0.16819802 -0.06773567 0.17937438 -0.07724048
0.10599634 -0.24160284 -0.14833911 0.0659368 0.028757472 -0.15468757 -0.059408482 -0.10131082
0.08006526 -0.048071716 0.08319662 -0.08440567 -0.14393859 -0.13658647 -0.09831086 0.041781556
-0.052676607 0.0076869074 -0.09526924 0.1454069 0.17478323 0.23821267 -0.17709966 -0.011532474
-0.12847617 0.15761863 -0.19818497 0.13981113 0.017606363 0.13140957 -0.039799523 0.040496748
-0.09668686 0.1404226 -0.11977537 -0.010471326 -0.060056664 0.13768579 -0.17845252 -0.04143939
0.1223724 0.02195172 0.10737347 -0.11999833 0.12218655 0.16647191 -0.03380629 0.09535534
-0.15521424 -0.08821377 -0.17686976 -0.17753665 0.19483137 -0.027721891 -0.042383745 0.021408152
-0.16127609 -0.007678762 -0.15198371 0.009437127 0.0005252388 -0.13407823 -0.08832992 -0.052328344
0.09541791 0.079123236 0.08028893 0.0871657 0.1394107 -0.00066850794 0.13124801 0.039593767
-0.026379509 -0.034572884 0.17431569 -0.008537088 0.0027406595 0.12065941 -0.15291314 0.100607194
0.11125319 0.03146304 -0.14389712 0.02776754 0.22688589 -0.024919147 -0.097196005 -0.11868264
-0.006791311 0.16050339 0.067276716 0.1843185 -0.011882866 -0.029639328 0.1010749 -0.11587934
0.17244844 -0.03539941 -0.21747889 -0.021795807 -0.0035964204 0.08574618 0.17445411 0.108347565
0.039274774 -0.03200709 -0.025261171 0.000617338 -0.09419525 -0.2139278 -0.19033684 0.11825199
-0.152936 0.10063327 -0.06454302 0.12492928 -0.14052154 0.086939715 -0.10287071 0.119738065
0.072131485 0.097711235 -0.18017781 -0.055054866 -0.031183451 -0.09376094 -0.03177571 0.097816214
0.1027618 0.16576436 -0.040250447 -0.06304451 -0.07652216 0.19842465 -0.21815756 0.07668875
-0.012858487 -0.109301165 0.07559373 0.0945948 0.17294723 0.016040798 -0.09660722 -0.08577308
-0.039138086 -0.053587608 0.1534042 0.0044865264 0.09271836 -0.07804929 -0.13477112 -0.16058296
-0.057832424 0.19239548 0.018407036 0.0013027301 -0.09095098 0.12227313 -0.0061138636 -0.20263162
-0.06615217 0.09410387 -0.0076378374 0.13022794 0.023558108 -0.0036536115 -0.11997052 -0.15257515
0.12099706 0.050651614 0.12013605 -0.12569264 -0.17750323 0.00323897 -0.06807996 -0.14039153
0.037887562 -0.1884869 0.1253152 -0.07307579 -0.105085246 -0.054537933 -0.0005478965 -0.133467
0.0013577708 0.07344934 0.06662338 -0.058681387 0.05786569 0.08900389 -0.0015271783 -0.19072317
-0.088284224 0.070948236 0.028094133 -0.05147904 -0.045622595 0.2334357 0.119062796 -0.10517986
0.075009495 0.04439479 -0.22126266 -0.25457847 0.18969144 -0.09195975 -0.13634591 -0.15840209

gru.weight_hh_l1 f4 [96, 32]
00000000: 968e 4e3c 8dcc 0d3e 69f3 b7bd cd85 453e
00000010: 421a e7bd bac7 a1bb 8ef4 23be 506b 60be
00000020: d548 d3bd 6620 bebc dfe2 28be 8aa9 71ba
00000030: e28e 18be 1ac0 23be bc7b d03c caae af3d
00000040: b03e 08bd 864e 45bc 9553 cfba 013f 26bd
00000050: bb6b ec3d b130 1cbe 5d20 fdbd 2a6f 4abe
00000060: c4cb 3e3e 27b4 8dbd 2fba 2abe 815e 133c
00000070: 6086 5cbe 67a5 c8bc 2028 0ebe 0ca0 afbd
00000080: 723a 113e a733 f93c b2a7 223d c4a8 28be
00000090: a327 5cbd 3702 813d 5120 17be b0e8 8b3d
000000a0: 8cfc 093e 8099 53bd 029e cbbd 846a 00be
000000b0: 6bf0 d43d 0a7d 283e 42d3 febd 59b5 c5bd
000000c0: 7801 093e 3b8c 8f3a 9446 fcbd 00e5 29be
000000d0: 2cfc 933d 2dfa 5bbc 4500 c2bc eb93 1c3e
000000e0: 05fd 90bd 31b5 ad3c 9311 dbbd 1be9 e1bd
000000f0: 1bfd 6bbd 0cd9 3f3e e9a6 a2ba 18d2 1fbe
00000100: 1f45 44be dd0c babd 9b94 adbd 49da 08bd
00000110: bb7c 29bd cd36 de3d 0aa5 95bd aa28 f03d
00000120: 48d5 023e 063e 363d b79e ecbd 9bf5 ab3c
00000130: 44ba 1b3e 6179 3dbe 90fb 96bd 7107 2fbe
00000140: 4cc6 343e 2616 b0bd 9ba1 233c 6bc2 a23d
00000150: 0c94 21be da8b 0a3e e29d bebd 8817 07bd
00000160: 5d71 0c3e 3ce7 8f3c d3f4 eabd 4df8 573d
00000170: 4f4a 4fbe e755 01be 648b 28be 74bb 01bd
00000180: c53b 44be cef4 05be 7c3d 1fbe 74a0 c3bc
00000190: a1f3 b13d 2328 47be 8dde 843d e72c b93d
000001a0: e8d4 15bd d16c c53d 114a 65bd ec6a 29be
000001b0: a678 4d3d 59d3 763d 2193 87bd 49fd e03d
000001c0: 54ae 083e f56c 183e feb2 553e 84e0 b4bd
000001d0: 0e5b af3d d050 f43d 817d c83d b6ba 4bbe
000001e0: c650 a7bc 52fb c63d 2a12 b43d b0c3 163e
000001f0: ed86 22be 83b2 443e b3f8 053e 6639 2fbd
00000200: cd6b 093e f1d3 cf3c 420f b93d 5bb3 d13d
00000210: dc5f 883c 42e9 153e 2f40 543d 4555 153e
00000220: 3584 37be 6ed6 94bd 32dd 2dbd 0e46 65bc
00000230: 4ace 26be b0d9 0abd 9d61 503d fb7d 883d
00000240: 2b29 29bd 76e5 fb3d 7dfb b4bd 9a9f 39bd
00000250: 59a6 d03d d000 b8bd 4d3a 40be f551 ebbd
00000260: bfba d8bd 4606 88bd 0e45 cfbd 4b7a cfbd
00000270: a636 443e c8af e63d d432 1abe 5de5 1cbe
00000280: 5e19 26be bb2f f63c e062 133d 68b7 92bd
00000290: 732f 47bc c2a9 353e f784 df3b 61cd 09bd
000002a0: 001f a53d eb8c ce3d 42c7 d9bc 0e33 2b3e
000002b0: 8fd9 163e 7f1a 0e3e 460f f4bd 0896 1ebe
000002c0: ab9a 14be 1b8c 7a3d c228 b3bd d0e5 433e
000002d0: f830 e73c 7c3e 863d 46d6 cb3a b482 23be
000002e0: a40c e93d 7510 5ebd b799 cfbd c953 3bbe
000002f0: 0073 30be 90db 1fbd 1bb5 443d c46d babc
00000300: 1ebb e3bc 4f0a f7bc d07e 7dbe a1e4 0f3e
00000310: 7e7c a7bd c795 cbbd 05c6 e5bd 4fb5 31be
00000320: 9646 14bd ba3b 1abe 8bc8 2ebd 61dd c0bd
00000330: 8da1 aabc 46ee 7dbd 589f a73c 20ab 98bd
00000340: 869a 92bd fdc5 fbbd 0ffc 433e c46d 3a3e
00000350: 6655 c3bd 1e51 d9bd 1baa 3a3c 4afc 29be
00000360: 3aaa 063e 37b1 103e f784 36be 009c a43b
00000370: b1a3 c43d c733 8dbb 4985 133d 6d82 1bbd
00000380: 7e65 7bbd 773e 4abe 94db 2bbe 8b37 b3bb
00000390: 3101 963d cfb7 063e 3b04 32be 0a1c a9bd
000003a0: fc5c 873d c15e 58be 9b79 29be 8ffd 3fbe
000003b0: 82c3 fabd 7eea 62bc a8e9 acbd 148c ae3c
000003c0: 94f5 c53c 0a76 87bd f41b 40bd 97b9 5c3e
000003d0: 2966 a63d 911e f63a 0092 e5bc 2bd4 cb3d
000003e0: 8099 62be 6a5e 1b3e ba25 9cbd 51a2 13be
000003f0: bd63 36bc 00bc 0bbc 6e80 2bbc 0cc0 febd
0.012607237 0.13847561 -0.08981974 0.19289322 -0.11284305 -0.0049371393 -0.16011259 -0.21915936
-0.10316626 -0.023208808 -0.16492794 -0.00092186837 -0.14898255 -0.1599125 0.025449626 0.0857826
-0.03326291 -0.012042647 -0.0015817756 -0.04058743 0.115439855 -0.1525295 -0.123596884 -0.19768968
0.18632418 -0.06919127 -0.16672586 0.008994699 -0.21535635 -0.024492932 -0.13882494 -0.085754484
0.14182451 0.030420138 0.039710708 -0.16470629 -0.053748738 0.062992506 -0.14758421 0.06831491
0.13475245 -0.05166006 -0.09942247 -0.12540632 0.103974186 0.16453949 -0.12442638 -0.0965373
0.13379467 0.0010951826 -0.12318149 -0.16591263 0.07225832 -0.013426346 -0.02368177 0.15290801
-0.0707951 0.021204563 -0.106967114 -0.110307895 -0.057614427 0.1873514 -0.0012409362 -0.15607488
-0.19166993 -0.09084485 -0.0847561 -0.033411298 -0.041378718 0.10850296 -0.07306869 0.11726506
0.12776673 0.044492744 -0.1155371 0.020991137 0.15207773 -0.18503334 -0.073722005 -0.17092682
0.17653769 -0.085979745 0.00998726 0.079472385 -0.15779132 0.13529912 -0.093074575 -0.032981426
0.1371512 0.017566316 -0.11472478 0.052727032 -0.2024319 -0.12630425 -0.16459423 -0.03167291
-0.19163425 -0.13081667 -0.15550798 -0.023880221 0.08689047 -0.19448905 0.06487761 0.090417676
-0.036579996 0.09639896 -0.05597884 -0.16544694 0.050163887 0.06026015 -0.066198595 0.1098581
0.13347751 0.14885314 0.20869061 -0.088318855 0.08562289 0.11929476 0.09789563 -0.19895443
-0.020424258 0.09715904 0.08792527 0.14723086 -0.15871783 0.19208722 0.13083152 -0.04277935
0.13420029 0.025369616 0.09036113 0.102392875 0.016647272 0.14639762 0.051819023 0.14583309
-0.17921527 -0.07267462 -0.042447276 -0.013993753 -0.1628963 -0.03389901 0.05087434 0.06664654
-0.041299026 0.122996256 -0.0883703 -0.045318224 0.10187978 -0.0898453 -0.1877224 -0.114902414
-0.10582494 -0.066418216 -0.10120593 -0.101307474 0.19161472 0.11263996 -0.15058452 -0.1532187
-0.16220614 0.030052057 0.035982966 -0.07163888 -0.012157309 0.17740539 0.0068212706 -0.03364313
0.080625534 0.10085472 -0.026584271 0.16718695 0.1473143 0.13877295 -0.11916976 -0.1548692
-0.14512126 0.06116877 -0.08748008 0.19130635 0.028221592 0.06554887 0.0015551529 -0.15967828
0.11379364 -0.054214913 -0.10136741 -0.1829368 -0.17231369 -0.03902775 0.048024278 -0.022757418
-0.027799185 -0.030156283 -0.24755406 0.14052059 -0.08178042 -0.09940677 -0.1121941 -0.1735432
-0.03620013 -0.15061846 -0.04267172 -0.09417225 -0.020828987 -0.061994813 0.020461723 -0.074545145
-0.07158379 -0.12293623 0.19139121 0.18205935 -0.09537773 -0.10611175 0.011393095 -0.16600147
0.13150874 0.14130102 -0.1782416 0.0050234795 0.09601534 -0.004309151 0.036015783 -0.03796618
-0.061376087 -0.19750391 -0.16782981 -0.0054692677 0.07324446 0.13156055 -0.17384426 -0.08257301
0.06609532 -0.21129896 -0.16550295 -0.18749069 -0.122443214 -0.013849853 -0.08443004 0.021307029
0.024164952 -0.06614311 -0.04690166 0.21555172 0.08124954 0.001877742 -0.02802372 0.09952577
-0.22128868 0.15172735 -0.07624383 -0.14417388 -0.011132178 -0.008528709 -0.010467632 -0.12438974

gru.bias_ih_l1 f4 [96]
00000000: c425 15be 767e a7bd 1476 c33d 96c8 51be
00000010: 3427 2cbe 2807 37bd 0bdb a7bd 8504 183d
00000020: be8a bd3d fa3e c4bd 8eb5 33bd f3e7 8fbd
00000030: 68f4 993d 7955 c53d e51a 86bd ee68 11be
00000040: 65e6 433e d9f4 c8bd 4efe 2cbe 1785 8dbd
00000050: 68af 2d3d 3192 d6bd d8ae 00bd 89d7 d0bc
00000060: 5183 b93b d514 3fbe 9846 49be 2c1b a13d
00000070: 4f3d f6bd 8666 283d 925c dfbd b4b6 2a3d
00000080: 34f8 e3bd 654f d0bd 2b2d e9bd 8c27 fabd
00000090: 28d9 d9be 34b7 45be 4de3 69bd ff4f 35be
000000a0: 0754 3d3d 1fe6 62be 5f88 1b3e 7abc 83be
000000b0: 1e3e a8be 4e8a 8ebe a810 05bf 508e e1bd
000000c0: 41c9 9cbd ca90 253d ec70 08be b629 babc
000000d0: d6b6 fbbc cf68 2bbe 44a9 8bbe c829 b9be
000000e0: a120 58be f5b0 fabc 893c e3be dc0a 5ebe
000000f0: 35b6 d8bc 74cd 3cbd 354d 7fbe 9edc 0fbe
00000100: 000b 063e 9ec7 233e 3e2e 1a3e 0908 16be
00000110: 8a53 01bd fc37 85bd 7dac 923d 416b aa3c
00000120: 7e21 043d a507 f8bb 1945 083e a25c 15bd
00000130: 3d72 b9bb 5dad 2f3e ab33 63bc e829 083d
00000140: 17e4 9c3d 6b62 003e 4d27 633d 70f9 29be
00000150: eaaa e83d f727 093e cf13 5abd 813f f9bc
00000160: ab47 913d 005c 6a3d 70e7 da3d 415a 293e
00000170: ef0d 8cbd 2b76 e6bd 5397 dd3d 6bd2 2dbd
-0.14565188 -0.081784174 0.09544006 -0.20486674 -0.1681183 -0.04468456 -0.08196076 0.037113685
0.092549786 -0.09582324 -0.043874316 -0.07026663 0.0751732 0.09635443 -0.065480985 -0.14200184
0.19130857 -0.09812326 -0.16893885 -0.069101505 0.04240361 -0.104771025 -0.031416744 -0.0254934
0.005661406 -0.1866029 -0.19655836 0.07866511 -0.120234124 0.0411134 -0.10906328 0.041678146
-0.11131325 -0.10171393 -0.11385568 -0.12214574 -0.4254849 -0.19308168 -0.057101537 -0.17706297
0.046222713 -0.22158097 0.1518874 -0.25729734 -0.32859892 -0.27839893 -0.5197854 -0.11013472
-0.07655574 0.040421285 -0.13324326 -0.022724967 -0.030726831 -0.167392 -0.27277577 -0.3616469
-0.21106197 -0.030601958 -0.44382122 -0.2168383 -0.02645407 -0.046094373 -0.24931796 -0.14049003
0.13090134 0.15994117 0.15056702 -0.14651503 -0.03157381 -0.06504819 0.07161806 0.020803096
0.032258503 -0.0075692707 0.13307609 -0.036465295 -0.00565937 0.17155977 -0.013867299 0.03324309
0.07660692 0.12537543 0.055457402 -0.16599059 0.11360724 0.13394152 -0.053241547 -0.030425789
0.07093748 0.057216644 0.106886744 0.16538335 -0.06838595 -0.112530075 0.108198784 -0.042437

gru.bias_hh_l1 f4 [96]
00000000: 50df 52be b41b 40bd a492 0fbe 6000 bf3c
00000010: 7741 82bd 185a c83d 4a89 3ebe c27d 4abe
00000020: e7aa 1dbe 3ca9 0a3c 2646 dfbd 7a99 273c
00000030: 4155 23be d9b4 203c cd65 5d3d 8c20 2bbe
00000040: cc43 f83d de06 943d 3ca2 0abe 4bff 66bd
00000050: af3d 77bd c165 f8bd 6cdd 3e3d d722 1c3e
00000060: 2c31 24be 967e 2a3c de25 66bd 7cd9 03be
00000070: 5703 43be c5e0 0a3d c8de 483d e8b0 7ebc
00000080: edf8 19be f794 4ebe a73b 8bbe 33b8 cabe
00000090: 00ab ebbe 02e3 87be 9d5b 84bd a951 96be
000000a0: 540f 813d fe0b 3abe 441e 0dbe ebcd 93bd
000000b0: 4819 d4be 7095 ebbd 2d44 80be dcb9 30be
000000c0: fe29 40be 7c3e 833d f551 59be 9106 63be
000000d0: 90ad b7be 2e3f a9be 16d5 acbe 3af2 31be
000000e0: 3907 90be 5edd 023e ca48 dbbe 473d 99be
000000f0: 89e3 37be 976f 16be 79fd c1bd 9747 b13b
00000100: 402a b53d e8af a53d adbc 05be 7de0 0ebe
00000110: b605 e33d b3a3 b33d bb7c 62bc c8be 983d
00000120: 3eb7 b63d 8bba 8a3d af6f c43d cf1f 5fbd
00000130: ecda 393e ffbc e8bd 40b7 1e3e deb3 f7bd
00000140: 7de3 abbd 7e31 22bd add6 c63b 88ad 1dbe
00000150: dab9 163e a276 0a3e 1489 ee3d 62a5 cebc
00000160: edcc 01bd 647b fcbd 4e28 babd 5ce0 6bbd
00000170: 4fb7 0b3e 8601 3ebe 1c77 f7bd dae9 b93d
-0.20593 -0.04690142 -0.14020783 0.023315609 -0.06360143 0.09782809 -0.18607059 -0.19774535
-0.15397225 0.0084632 -0.10902052 0.010229463 -0.1595049 0.009808742 0.054052163 -0.16711634
0.12122306 0.07227872 -0.1353845 -0.05639581 -0.06036156 -0.12128783 0.046597883 0.15247665
-0.16034383 0.010406157 -0.056188457 -0.12875932 -0.19044243 0.033905763 0.049040586 -0.015545107
-0.15036364 -0.20174013 -0.2719395 -0.39593658 -0.460289 -0.2654038 -0.06462786 -0.29359177
0.06301752 -0.18168637 -0.13781077 -0.0721701 -0.41425538 -0.11503112 -0.25052014 -0.172584
-0.18766019 0.06408402 -0.2122267 -0.22170474 -0.35874605 -0.33056015 -0.33756322 -0.17377558
-0.2813051 0.12779757 -0.4282897 -0.29929563 -0.17957892 -0.14691006 -0.09472174 0.0054101455
0.08845949 0.08090192 -0.13060255 -0.13952823 0.11085074 0.087714575 -0.013823683 0.07458264
0.089216694 0.067738615 0.095916145 -0.054473694 0.18149918 -0.11364173 0.15499592 -0.12094854
-0.08392999 -0.03959798 0.006068072 -0.15398228 0.14719334 0.13521817 0.11647239 -0.025225345
-0.031689573 -0.123282224 -0.09089719 -0.057587013 0.13644145 -0.18555269 -0.12083265 0.09077807

fc.weight f4 [1, 32]
00000000: 6082 333e e1d3 e6bd 221a af3d f68f 0bbe
00000010: 0927 5bbe 6d23 733e e70d a4bd 5796 df3d
00000020: fa0d b9bd 9cec 173e aebc cebd b048 3e3e
00000030: 847d 3ebe 3a07 f03d 15e4 813e e40a 363e
00000040: 82a0 29bc b2cf 72bd e96d 42be f70e 243e
00000050: d035 05be 59af 28be 2053 5fbe b2ec 0c3e
00000060: 259e 8bbd aa2c 9bbd 5e04 813e bbde b6bd
00000070: a7de 603d 67a3 ec3c 69fb 71bd 7f2f 7bbd
0.17530203 -0.112708814 0.08549906 -0.13629135 -0.2140161 0.23743983 -0.08010464 0.10917347
-0.09035869 0.14836353 -0.100945815 0.18582416 -0.18602568 0.11720128 0.25369325 0.17777592
-0.010353209 -0.059280105 -0.1898724 0.16021334 -0.13008809 -0.1647314 -0.21809053 0.13762167
-0.06817273 -0.07576878 0.25198644 -0.08929201 0.054899838 0.02888651 -0.059077654 -0.061324593
