gru_model.pth (torch, 41715 bytes, 9 tensors)

gru.weight_ih_l0 f4 [96, 1]
0	0x3e9a27e1	0.3010855
1	0x3df3a857	0.11897343
2	0x3d57425f	0.05255353
3	0xbe3837e7	-0.17990075
4	0x3df54c6e	0.119774684
5	0xbd338fa8	-0.043838173
6	0xbdfc4c4a	-0.123192385
7	0x3e244d1c	0.1604504
8	0xbc6f667d	-0.014611837
9	0x3d9f8b0a	0.077901915
10	0x3e23fd73	0.16014652
11	0xbe273ccf	-0.1633179
12	0x3df97fb7	0.12182563
13	0x3e805154	0.25062048
14	0xbe336060	-0.17517233
15	0x3e1078d0	0.14108586
16	0xbe465d1d	-0.19371457
17	0x3d89d377	0.06729787
18	0xbd917507	-0.07102399
19	0xbcf26078	-0.029587016
20	0xbe503bee	-0.20335361
21	0x3e0fb06b	0.14032142
22	0xba65de3d	-0.0008768773
23	0xbe06bb38	-0.13157356
24	0x3dae1f75	0.08502094
25	0x3e82b308	0.25527215
26	0xbe0e3497	-0.13887249
27	0xbd4a43b5	-0.049380977
28	0xbd0b21fd	-0.03396796
29	0x3e7e776f	0.24850248
30	0x3e0ccfc6	0.13751134
31	0xbd17f9c3	-0.037103426
32	0x3e2c2166	0.16809615
33	0xbe3ff24b	-0.18744771
34	0xbdae2214	-0.08502594
35	0x3e2242c7	0.15845786
36	0xbd7c0097	-0.061524
37	0xbdd3c663	-0.10340574
38	0x3de080d9	0.10962076
39	0xbd5a1241	-0.053240065
40	0x3e430a1d	0.19046827
41	0x3c7420d3	0.014900404
42	0xbde2f1e0	-0.1108129
43	0x3e118189	0.1420957
44	0xbe4077e4	-0.18795735
45	0x3d9eafa1	0.07748342
46	0x3d0cb5c8	0.034353048
47	0xbde21fa7	-0.110411935
48	0x3e05e383	0.1307507
49	0x3de5bd7f	0.11217784
50	0xbdbd2731	-0.09235991
51	0x3cce5135	0.025185207
52	0x3b6ba779	0.0035957976
53	0xbd8075a5	-0.06272439
54	0x3d5cd148	0.053910524
55	0x3e23b323	0.15986304
56	0xbe24daf1	-0.16099145
57	0xbd86a6a3	-0.06574752
58	0x3d9757fd	0.07389829
59	0xbd5f48b1	-0.054512683
60	0xbdbcafae	-0.09213196
61	0x3de7b014	0.11312881
62	0x3d33cbc6	0.043895505
63	0xbd9804dc	-0.07422802
64	0xbe88def7	-0.2673261
65	0x3d35511c	0.044266805
66	0x3e093a8e	0.13401243
67	0xbda18449	-0.078865595
68	0x3e607602	0.21920016
69	0x3d7f0135	0.06225701
70	0xbdab69e0	-0.083698034
71	0x3e44fb35	0.19236453
72	0xbe57ff8b	-0.21093576
73	0xbe002f10	-0.12517953
74	0x3e91bb88	0.28463387
75	0x3bb1fc8f	0.0054317187
76	0x3ea1ced7	0.3160312
77	0x3e15c30e	0.14625189
78	0x3e362a86	0.17789659
79	0xbe84c7d0	-0.25933695
80	0x3e83dee1	0.2575598
81	0x3e899829	0.268739
82	0xbe67f268	-0.22651064
83	0x3de0bff5	0.10974113
84	0xbe244621	-0.16042377
85	0x3e7c5aa8	0.24643958
86	0xbe4ec38a	-0.2019178
87	0x3d23497c	0.039865002
88	0x3e37afb2	0.17938116
89	0xbe21abd0	-0.15788198
90	0x3e669da7	0.22521077
91	0x3db901fa	0.0903358
92	0x3e853602	0.26017767
93	0xbe422899	-0.189608
94	0xbd462926	-0.048379086
95	0x3e02c599	0.1277069

gru.weight_hh_l0 f4 [96, 32]
0	0x3d31aad9	0.043375824
1	0xbe25feba	-0.16210452
2	0xbdc3cd02	-0.095605865
3	0xbdacb986	-0.08433823
4	0xbda34efe	-0.07974051
5	0xbc2adf77	-0.010429255
6	0xbdca60d6	-0.09881751
7	0xbdd68ba3	-0.10475852
8	0x3c4ddc5c	0.012564745
9	0x3e0c1258	0.13678873
10	0xbe02748c	-0.12739772
11	0xbc05cdc9	-0.008166739
12	0xbe4414bd	-0.19148536
13	0xbd4b2fe7	-0.04960623
14	0xbe132a22	-0.14371541
15	0xbdb34fb8	-0.087554395
16	0xbdf8f45f	-0.12155985
17	0x3df0eaa2	0.11763503
18	0x3e2cf71c	0.1689114
19	0xbe073fe5	-0.13207968
20	0x3e461881	0.19345285
21	0x3d3c5927	0.04598346
22	0x3d921b56	0.0713412
23	0x3d4ad823	0.04952253
24	0x3dcd5023	0.100250505
25	0x3e14c9d9	0.14530124
26	0x3d59fe86	0.053221248
27	0xbdfa1254	-0.12210527
28	0xbdc67396	-0.09690015
29	0xbd96d74d	-0.07365284
30	0xbe2f1479	-0.17097653
31	0xbe87c57b	-0.26517853
32	0xbd76e4f9	-0.06027696
33	0xbc038b6b	-0.008028845
34	0x3e24455c	0.16042084
35	0x3de78c7a	0.11306091
36	0xbd4ff333	-0.050769042
37	0xbde1e862	-0.11030652
38	0xbe3c47e8	-0.18386805
39	0x3d1badb9	0.03800747
40	0xbcb1374a	-0.02163281
41	0x3d7f226b	0.062288683
42	0x3e228c38	0.15873802
43	0xbe0525df	-0.13002728
44	0x3e265338	0.16242683
45	0x3d857df7	0.065181665
46	0x3e43f147	0.19135009
47	0x3d14a1d7	0.036287155
48	0x3dc9c2ff	0.09851646
49	0xbcecc7f5	-0.02890394
50	0x3da3d587	0.079997115
51	0x3cbf827b	0.023377648
52	0x3d41df8f	0.047332343
53	0x3da55fdd	0.08074925
54	0x3d8c091a	0.068376735
55	0xbe0230ed	-0.12713976
56	0x3e0b4059	0.13598765
57	0xbe2b2517	-0.16713367
58	0x3e328d28	0.1743666
59	0x3d8e8049	0.06958062
60	0x3df7364b	0.120709024
61	0xbdaad635	-0.08341638
62	0x3d0d38da	0.034478046
63	0x3e305fa4	0.17223984
64	0x3d680330	0.056643665
65	0x3dd7a06e	0.105286464
66	0x3b95f81f	0.0045766975
67	0x3dc080ed	0.09399591
68	0x3c882184	0.016617544
69	0x3db75bac	0.08953032
70	0x3d9a3658	0.075298965
71	0xbdcb9548	-0.099405825
72	0x3e1b8061	0.15185691
73	0xbc82938c	-0.015939496
74	0xbdefe510	-0.11713612
75	0x3ca6f8db	0.020382335
76	0xbd9ebc7d	-0.07750795
77	0xbdf6a7b8	-0.120437086
78	0xbc875551	-0.016520174
79	0xbd8c2f77	-0.06844991
80	0xbd819938	-0.06328052
81	0xbe31b8a5	-0.17355593
82	0xbe290a73	-0.16507892
83	0xbd843cfe	-0.06456946
84	0xbe2bd0a8	-0.16778815
85	0xbdb5e462	-0.08881451
86	0x3b55aebc	0.003260537
87	0x3d5499a4	0.051904336
88	0xbe28b29d	-0.16474386
89	0xbe24a11c	-0.16077083
90	0xbe078046	-0.13232526
91	0x3d94c16c	0.07263455
92	0xbdb69626	-0.08915357
93	0x3e1efdb6	0.1552647
94	0x3e0320e3	0.12805514
95	0x3dc4d9d5	0.09611861
96	0xbdc8e24c	-0.09808788
97	0xbe3347a7	-0.17507802
98	0xbd99a239	-0.07501645
99	0x3df9e4ef	0.12201869
100	0x3d8bd49a	0.0682766
101	0x3d50f924	0.05101885
102	0xbde159d6	-0.11003463
103	0x3df08366	0.11743812
104	0xbdbbff16	-0.09179513
105	0xbe283ef5	-0.16430266
106	0xbe1ad3fb	-0.15119927
107	0xbbac96d1	-0.005267002
108	0xbd7ac632	-0.06122417
109	0xbe004f3d	-0.12530227
110	0x3dd0a5ed	0.10187898
111	0x3d9d0ce3	0.076684736
112	0x3d6f90bf	0.05848765
113	0xbe863a60	-0.26216412
114	0x3dada177	0.084780626
115	0xbdbd84a6	-0.09253816
116	0xbdfc3b95	-0.12316052
117	0x3cb0c912	0.021580253
118	0x3c1759a7	0.009237683
119	0xbdf90703	-0.121595405
120	0xbca0d6e5	-0.01963372
121	0x3e1d81e5	0.15381582
122	0x3dca9b73	0.09892931
123	0x3dd44cf2	0.10366239
124	0xbe17dee8	-0.14831126
125	0xbd1be1ce	-0.03805714
126	0xbe249ffc	-0.16076654
127	0xbe2c5491	-0.16829135
128	0xbca6eec8	-0.020377532
129	0xbd10f476	-0.035389386
130	0x3e35529c	0.17707294
131	0x3d301413	0.042987894
132	0xbb61cdba	-0.0034454898
133	0xbd95a9c8	-0.07307774
134	0x3d0e5f1f	0.034758683
135	0xbd225caf	-0.03963917
136	0x3deeb74d	0.116560556
137	0xbe7710be	-0.2412748
138	0x3dddb88f	0.108262174
139	0xbc85159e	-0.01624566
140	0x3d243b35	0.040095527
141	0x3e2c07f6	0.16799912
142	0x3e667082	0.22503856
143	0x3e097789	0.13424505
144	0xbce258e9	-0.027630286
145	0x3e0fc7a0	0.14040995
146	0xbd80ba15	-0.06285492
147	0xbd35ec97	-0.044415083
148	0xbd07e7e6	-0.03318014
149	0xbd739e46	-0.059477113
150	0xbdd576c5	-0.10423044
151	0xbcf10885	-0.029423008
152	0xbda9751d	-0.08274291
153	0xbe775599	-0.24153747
154	0x3e2bf9e0	0.16794538
155	0xbe8e4299	-0.27785185
156	0x3e8df8a1	0.2772875
157	0xbc548f0d	-0.012973559
158	0xbd41ba30	-0.047296703
159	0x3e11812e	0.14209434
160	0x3cb5eddf	0.022208152
161	0xbe29cf85	-0.16583069
162	0xbd3189c0	-0.04334426
163	0x3cd33305	0.025781164
164	0xb9cfdb9e	-0.00039645744
165	0xbcfef187	-0.031121029
166	0xbd92ceea	-0.07168372
167	0xbd6d1958	-0.057885498
168	0x3d2d5de2	0.04232586
169	0x3c038bb8	0.008028917
170	0xbe13f3b2	-0.14448431
171	0xbe2deb72	-0.16984347
172	0x3bb9be48	0.0056684352
173	0xbd7ca8a0	-0.06168425
174	0xbe15e770	-0.14639068
175	0xbd179e60	-0.037016273
176	0xbd5eb718	-0.05437383
177	0xbda1e596	-0.07905118
178	0xbc601648	-0.013677187
179	0xbcfa3ed0	-0.03054753
180	0xbe2b7a3b	-0.16745846
181	0x3d38168b	0.044943374
182	0x3d359786	0.044333957
183	0x3dd3fdf4	0.10351172
184	0x3dc52438	0.09626049
185	0x3dafea8f	0.085896604
186	0x3dec8b8d	0.11550055
187	0x3db2c493	0.087289
188	0xbbea595c	-0.0071517657
189	0x3d7c6330	0.06161803
190	0xbe3ab6f0	-0.18233848
191	0xbd3df1dc	-0.046373233
192	0x3d4c9341	0.04994512
193	0xbe2141a8	-0.15747702
194	0x3e0e9069	0.13922276
195	0x3e0eadb0	0.13933444
196	0xbdc37289	-0.0954333
197	0x3bb4ce06	0.005517724
198	0xbda6db2e	-0.08147274
199	0x3dc51334	0.09622803
200	0x3dca79bf	0.098865025
201	0x3d9b0a6c	0.07570347
202	0xbdfb2e00	-0.12264633
203	0xbe1bc6f1	-0.15212609
204	0x3d7c9ae6	0.06167116
205	0x3dbd4f07	0.09243589
206	0x3d39af55	0.045333225
207	0x3dd761dc	0.10516712
208	0xbdf7f61b	-0.12107488
209	0x3d9d97ba	0.07694955
210	0x3e23a77d	0.1598186
211	0xbde9668b	-0.11396512
212	0x3e1518bd	0.14560218
213	0xbd8655e0	-0.06559348
214	0x3dffe10d	0.12494097
215	0xbd1e56f1	-0.038657133
216	0xbdefc858	-0.117081344
217	0xbdf1a73e	-0.11799477
218	0x3dee91b5	0.11648885
219	0xbd4df1b2	-0.050279327
220	0x3d5f9a3b	0.054590445
221	0xbd09067a	-0.033453442
222	0xbe0d7b5e	-0.13816592
223	0xbde17623	-0.11008861
224	0x3e240a8d	0.1601965
225	0x3e151047	0.1455699
226	0x3e35cb44	0.17753321
227	0x3e0fc590	0.14040208
228	0xbe241f0c	-0.16027468
229	0x3d8946f5	0.06702987
230	0xbe06ec9c	-0.13176197
231	0x3db271f6	0.087131426
232	0xbe26e46d	-0.16298075
233	0xbe425668	-0.18978274
234	0x3d09eb0f	0.033671435
235	0x3dcffa66	0.101551816
236	0x3e0479d5	0.129371
237	0xbd67bea6	-0.0565783
238	0x3e2f1fd0	0.1710198
239	0xbe09ba2c	-0.13449925
240	0xbe03f600	-0.1288681
241	0xbe1b52aa	-0.15168253
242	0x3db4ad9d	0.088221766
243	0x3c0a3d27	0.008437431
244	0xbdc581e2	-0.09643914
245	0x3d153b21	0.036433343
246	0xbd571457	-0.052509632
247	0xbd7ca744	-0.061682954
248	0xbe5173e2	-0.20454362
249	0xbdda3aa9	-0.1065572
250	0xbdc2261f	-0.09479927
251	0x3acddf86	0.0015706874
252	0x3e08b023	0.13348441
253	0x3dca8bd9	0.09889955
254	0x3dd76697	0.10517614
255	0xbda43aeb	-0.0801905

gru.bias_ih_l0 f4 [96]
0	0x3d20a808	0.039222747
1	0xbcd95cc4	-0.026533492
2	0xbe338e1f	-0.17534684
3	0x3ca65ef1	0.020308943
4	0xbe331c52	-0.17491272
5	0xbe181cab	-0.14854686
6	0xbdbb9e67	-0.09161072
7	0x3d965927	0.07341223
8	0xbce618c2	-0.028087977
9	0x3dab3934	0.0836052
10	0xbd96cd93	-0.07363429
11	0xbd2fd7d1	-0.042930428
12	0x3d49b67e	0.049246304
13	0x3e2c881f	0.16848801
14	0xbe56aaec	-0.20963639
15	0x3d8e37ea	0.069442585
16	0xbe3f575c	-0.18685669
17	0xbe0c961f	-0.13729142
18	0xbe3cd9d5	-0.18442471
19	0x3d368f0e	0.04457002
20	0xbd04dc47	-0.032436635
21	0x3bf3aa01	0.0074360375
22	0xbe0009bb	-0.12503712
23	0x3d844152	0.06457771
24	0xbc533e13	-0.012893218
25	0xbe8a5f32	-0.27025753
26	0xbdecd533	-0.11564102
27	0x3de7f8a0	0.11326718
28	0x3dd44fbe	0.10366772
29	0x3d26140c	0.040546462
30	0xbe262fd9	-0.1622919
31	0xbe2ac721	-0.16677524
32	0xbe388a1b	-0.18021433
33	0xbe3d6643	-0.18496041
34	0x3d46130b	0.048358005
35	0x3d39595f	0.045251247
36	0xbe54948a	-0.20759788
37	0xbdc0e047	-0.094177775
38	0xbe4e123e	-0.20124146
39	0xbe8cabb6	-0.27474755
40	0xbcebd707	-0.028789056
41	0xbe5552c4	-0.20832354
42	0xbe6286d7	-0.2212175
43	0xbd807661	-0.06272579
44	0xbea72e9a	-0.32652742
45	0xbefc61ce	-0.4929337
46	0xbdc56a46	-0.09639411
47	0xbd18704a	-0.037216462
48	0xbe27c81f	-0.16384934
49	0xbe753d17	-0.23949085
50	0xbedcca76	-0.43123215
51	0xbdf88987	-0.12135606
52	0xbcfc798e	-0.03081968
53	0xbe506fdd	-0.20355172
54	0xbe2b43cc	-0.16725081
55	0xbdbfe407	-0.09369665
56	0xbbf580bd	-0.0074921534
57	0xbec046c1	-0.3755398
58	0xbea66e04	-0.3250581
59	0x3dbd2109	0.092348166
60	0xbebafdd4	-0.3652178
61	0xbe094186	-0.13403901
62	0x3bbca8bd	0.00575742
63	0xbc303ee0	-0.010757178
64	0x3c87c6a3	0.01657421
65	0x3d8b912d	0.068147995
66	0xbdee6567	-0.11640435
67	0x3da1bf03	0.07897761
68	0x3ddbd7d5	0.10734526
69	0x3e06e09e	0.13171622
70	0x3e03b305	0.1286126
71	0xbdf8362f	-0.1211971
72	0xbd8ac961	-0.06776691
73	0x3dda4c0f	0.10659038
74	0xbcf4aee4	-0.02986855
75	0x3d2516df	0.040305015
76	0x3d4c6f7b	0.049911004
77	0xbd96ddde	-0.073665366
78	0xbe0c305c	-0.13690323
79	0xbdc93868	-0.09825212
80	0xbdbf049b	-0.0932705
81	0xbc00e88f	-0.007867946
82	0x3d3864f5	0.045018155
83	0xbd0134ec	-0.03154461
84	0x3b465745	0.003026442
85	0xbe09f7c6	-0.13473424
86	0x3cfe1a72	0.03101847
87	0x3dec0346	0.11524062
88	0x3e0c8b2b	0.13724963
89	0xbbd85b64	-0.0066026915
90	0xbdce2ee3	-0.10067537
91	0x3de728ed	0.11287103
92	0xbd951c63	-0.07280805
93	0x3d5a0f21	0.053237084
94	0x3e07becc	0.13256377
95	0x3d00d05f	0.03144872

gru.bias_hh_l0 f4 [96]
0	0xbd54a5be	-0.051915877
1	0x3dcb4678	0.0992555
2	0xbe27c13f	-0.16382311
3	0xbdb2c357	-0.08728664
4	0xbdfef52f	-0.12449109
5	0x3df344df	0.118783705
6	0xbdc8e10a	-0.09808548
7	0xbc7385e3	-0.014863464
8	0xbe24277f	-0.16030692
9	0x3d147f40	0.036254168
10	0xbdde8a8e	-0.10866271
11	0xbe47977e	-0.19491383
12	0x3d37cc95	0.04487284
13	0x3de2d3a2	0.11075522
14	0x3df6cbb3	0.12050571
15	0x3d840267	0.06445771
16	0xbdd75b2a	-0.10515435
17	0x3cce3289	0.025170581
18	0xbe4fe536	-0.20302281
19	0xbd57a1c5	-0.05264451
20	0x3cf956fa	0.030436981
21	0xbaf43434	-0.001863128
22	0x3dd91e1b	0.10601445
23	0xbd39c8c8	-0.045357496
24	0x3d9802ab	0.07422384
25	0x3c1fb873	0.009748566
26	0x3dc16cb8	0.094445646
27	0xbdde951f	-0.10868286
28	0x3dd59bf1	0.10430134
29	0x3d95c4ea	0.07312949
30	0xbdcf13bf	-0.10111188
31	0x3ca20ec2	0.019782428
32	0xbd7dc4dd	-0.06195532
33	0xbe15345c	-0.14570755
34	0xbdade3a1	-0.084906824
35	0xbe13a793	-0.14419393
36	0xbeacc0f5	-0.33740965
37	0x3e112ef6	0.1417807
38	0x3d88086a	0.0664223
39	0xbed7cae5	-0.42146984
40	0xbe079464	-0.132402
41	0xbd1e92e3	-0.0387143
42	0xbedcf315	-0.43154207
43	0x3df49c2b	0.11943849
44	0xbed7f6c3	-0.42180452
45	0xbeffc3d1	-0.49954084
46	0xbd2d4576	-0.04230257
47	0xbe8972c1	-0.26845363
48	0xbb80aa4c	-0.003926551
49	0xbe2b07b1	-0.16702153
50	0xbe8b6a64	-0.27229607
51	0xbe208e67	-0.15679322
52	0xbdb46e33	-0.08810081
53	0xbe41f0f4	-0.18939573
54	0xbdfc6a6f	-0.12324988
55	0x3e3a3c75	0.18187125
56	0xbe8b0e8a	-0.2715953
57	0xbec69984	-0.38788998
58	0xbdc3ccd5	-0.09560553
59	0x3d7fec4e	0.062481217
60	0xbee18bf7	-0.44052097
61	0xbeaa2d94	-0.33237898
62	0xbda77cdf	-0.08178114
63	0x3d5c69a4	0.053811684
64	0xbe1df7b2	-0.1542652
65	0xbde57c35	-0.11205331
66	0xbd94938d	-0.072547056
67	0xbb71ea5b	-0.0036913368
68	0xbcdfd778	-0.027324423
69	0xbbe313ab	-0.006929835
70	0x3da73cc8	0.0816589
71	0x3d1483f9	0.03625867
72	0x3d9c5fa2	0.07635428
73	0x3dcaef5c	0.099089354
74	0x3e2696b7	0.1626843
75	0xb99f36e3	-0.00030367737
76	0x3d317520	0.04332459
77	0x3dd0b8ce	0.10191499
78	0xbcaeda1e	-0.02134424
79	0xbd7e7eab	-0.06213252
80	0xbd983063	-0.07431104
81	0x3e37e09d	0.17956777
82	0x3c62c126	0.0138399955
83	0xbdcfb4c4	-0.101419
84	0x3dd7c149	0.10534913
85	0x3c596e4d	0.013270927
86	0x3dadf992	0.084948674
87	0x3d910e11	0.07082761
88	0xbe326f76	-0.17425331
89	0x3b486ca5	0.0030582335
90	0xbdd8591c	-0.10563871
91	0x3e199466	0.14998016
92	0xbdedcb80	-0.1161108
93	0xbe43717c	-0.1908626
94	0x3d5f1cc1	0.05447078
95	0x3d5047e7	0.05084982

gru.weight_ih_l1 f4 [96, 32]
0	0x3c9b9577	0.018992169
1	0xbccad0e4	-0.02475781
2	0xbc5c619e	-0.013451008
3	0x3e2fa581	0.17152978
4	0x3ea8ad39	0.32944658
5	0x3e52fa0e	0.20603201
6	0x3d2c9630	0.042135417
7	0x3e177d05	0.14793785
8	0xbe633362	-0.2218757
9	0xbde62ca5	-0.11238984
10	0x3d93e77b	0.07221886
11	0x3de8f2a3	0.11374404
12	0x3e574179	0.2102107
13	0xbdabad62	-0.083826795
14	0xbe10f0bd	-0.14154334
15	0xbd5007a0	-0.05078852
16	0x3ddaf864	0.10691908
17	0x3e43f285	0.19135483
18	0x3db2ba07	0.08726888
19	0x3dc47196	0.09591977
20	0x3e25a891	0.16177584
21	0xbc95479f	-0.018222628
22	0x3df78a46	0.120869204
23	0x3d805709	0.06266601
24	0xbd03474e	-0.032050423
25	0x3dc23da4	0.09484413
26	0x3c038fce	0.008029891
27	0xbd415f20	-0.04720986
28	0xbde9b50d	-0.11411486
29	0xbd5bf96d	-0.053704668
30	0x3d85a63d	0.06525848
31	0xbd5449c1	-0.05182815
32	0xbc84cbca	-0.016210455
33	0x3e30fae2	0.17283204
34	0x3d70c386	0.058780216
35	0x3dc8181f	0.09770226
36	0xbd8c2dfb	-0.068447076
37	0x3beb1bf7	0.0071749645
38	0x3dc484b3	0.09595623
39	0x3e22c435	0.1589516
40	0x3ce2b3d3	0.027673637
41	0xbd5b19b6	-0.053491317
42	0x3bf37abd	0.007430403
43	0xbdd3a433	-0.10334053
44	0x3e59ffe2	0.21289018
45	0x3dda30b7	0.10653823
46	0xbde7d2b7	-0.113194875
47	0xbe0a3f52	-0.13500717
48	0x3d18f176	0.03733965
49	0x3e31050e	0.17287084
50	0x3b041c66	0.0020158528
51	0x3ca5ecce	0.020254519
52	0xbd2ccf86	-0.042190097
53	0x3e2bfa7f	0.16794775
54	0x3cbebc4f	0.023283152
55	0xbdecff84	-0.11572173
56	0x3e5886cd	0.21145172
57	0xbd674aab	-0.056467693
58	0xbd26916f	-0.04066604
59	0x3d01a4d1	0.03165132
60	0x3d28f668	0.041250616
61	0xbe1b8b81	-0.15189935
62	0xbdcc2294	-0.09967533
63	0x3e147589	0.14497961
64	0xbe20b37d	-0.1569347
65	0xbd3cd072	-0.046097226
66	0x3e09b446	0.13447675
67	0x3cecb40f	0.028894452
68	0x3cae93a1	0.02131063
69	0xbdc5c948	-0.09657532
70	0x3b9410c7	0.0045186016
71	0xbd33b846	-0.04387691
72	0x3caa4e56	0.020789307
73	0xbddc70c3	-0.10763695
74	0x3c23d5f8	0.009999745
75	0xbdb77a69	-0.08958895
76	0xbd870148	-0.06592041
77	0xbe1f2f50	-0.15545392
78	0x3dbd22eb	0.09235176
79	0x3df3b098	0.11898917
80	0xbdac088b	-0.08400067
81	0xbd82e5ee	-0.06391512
82	0x3dcb0da1	0.09914709
83	0xbb9719a4	-0.004611211
84	0xbdcf13fe	-0.10111235
85	0x3d297374	0.04136987
86	0xbd9f958e	-0.07792197
87	0xbcf02d58	-0.029318497
88	0xbda3be9b	-0.079953395
89	0x3c707d05	0.0146782445
90	0x3d6a2dff	0.05717277
91	0x3da82665	0.08210448
92	0x3cf32ec5	0.029685387
93	0xbde11c45	-0.1099172
94	0x3e00f4ff	0.12593459
95	0x3d32dccb	0.043667596
96	0x3e742994	0.23843986
97	0x3d80737c	0.06272027
98	0x3cc81c9b	0.024427703
99	0x3d5e789b	0.054314237
100	0x3d9004fa	0.07032199
101	0x3d9f5a91	0.07780946
102	0x3d2b0b93	0.041759085
103	0xbd90a6ac	-0.0706304
104	0x3cf2ccfd	0.029638762
105	0xbdabb17c	-0.08383462
106	0x3cd036d6	0.025416773
107	0x3d7c6a5f	0.06162488
108	0xbd9dad29	-0.07699043
109	0xbda6afc4	-0.081389934
110	0xbe4440d5	-0.19165356
111	0x3e38f4f1	0.18062188
112	0xbe05b671	-0.13057877
113	0xbdc1a9c7	-0.094562106
114	0xbdaefc2d	-0.085441925
115	0xbd94abb9	-0.07259316
116	0x3ca715d7	0.020396156
117	0xbe500785	-0.20315368
118	0xbc0065b6	-0.00783675
119	0xbe39e94b	-0.181554
120	0xbe2a9eb5	-0.16662104
121	0xbd6c1be4	-0.057643786
122	0x3d6295e2	0.05531872
123	0xbc1dae5c	-0.00962409
124	0xbe4ff4ff	-0.20308302
125	0x3d47d35e	0.04878556
126	0xbd1dfa32	-0.038568683
127	0xbd98871a	-0.074476436
128	0xbe5d2f18	-0.21599996
129	0x3d68653e	0.056737177
130	0x3c63b3c8	0.013897844
131	0x3e05d792	0.13070515
132	0x3e8460be	0.25855058
133	0x3e0aa864	0.13540798
134	0x3e1768a3	0.1478601
135	0x3e3bcb01	0.18339159
136	0x3cdb0f74	0.026740767
137	0x3d89f360	0.06735873
138	0x3deca5d4	0.11555067
139	0x3def885d	0.11695931
140	0xbd474d2c	-0.04865758
141	0xbd8a13af	-0.067420356
142	0x3d47d628	0.04878822
143	0xbe41732e	-0.18891594
144	0x3cb3a93f	0.021931289
145	0x3e5b23ac	0.21400326
146	0xbd82adac	-0.063807815
147	0xbdb0f13c	-0.08639762
148	0x3c7661bd	0.015037951
149	0xbd9e2f60	-0.0772388
150	0xbdb27851	-0.08714355
151	0xbd0eaad9	-0.0348309
152	0x3d68709e	0.056748025
153	0x3d2ce27b	0.042208176
154	0x3cc7e679	0.02440189
155	0xbe1cc5b4	-0.15309793
156	0x3e136900	0.14395523
157	0xbe340993	-0.17581777
158	0xbd808613	-0.06275573
159	0x3da075fa	0.07835002
160	0x3c51a2c4	0.012795154
161	0x3bbc238b	0.0057415417
162	0x3d8bb55c	0.06821701
163	0xbe29aa26	-0.16568813
164	0xbd1d0b71	-0.03834099
165	0xbd54ef35	-0.051985938
166	0x3dc8f12e	0.098116264
167	0x3e340235	0.17578967
168	0x3db80754	0.08985773
169	0xbd4a9e7c	-0.04946755
170	0xbe367969	-0.17819752
171	0xbe459c22	-0.19297841
172	0x3d86f79f	0.06590199
173	0xbe24660c	-0.16054553
174	0xbc96e894	-0.018421449
175	0xbc8dedba	-0.01732527
176	0xbdface9d	-0.122464396
177	0x3d510583	0.051030647
178	0xbe048519	-0.12941398
179	0x3d52793c	0.05138515
180	0x3d9a68b5	0.075395025
181	0x3d4b380f	0.04961401
182	0xbcf2ea6d	-0.029652799
183	0xbe3bb3d5	-0.18330319
184	0x3e1f032f	0.15528558
185	0xbdec9fef	-0.115539424
186	0x3d2fec24	0.04294981
187	0xbd49533a	-0.049151637
188	0x3deb9ca4	0.11504486
189	0x3dbe304d	0.092865564
190	0x3d2fa5f1	0.042882863
191	0x3e09ad2f	0.1344497
192	0x39e22f0c	0.00043141132
193	0xbb9293fe	-0.0044732084
194	0x3d4f42bf	0.050600763
195	0x3e2ef65f	0.1708617
196	0x3c83a8ae	0.016071644
197	0x3d26b413	0.040699076
198	0xbe19da88	-0.1502477
199	0xbd785d88	-0.060636073
200	0x3d7ad806	0.061241172
201	0x3e36d265	0.17853697
202	0xbe0e0d83	-0.13872342
203	0xbe3449a0	-0.1760621
204	0xbcc47fa8	-0.023986652
205	0xbd980b87	-0.07424074
206	0x3cd7eaa7	0.026357008
207	0x3d485ede	0.048918597
208	0x3d5929ed	0.0530185
209	0xbd63e629	-0.05563942
210	0x3dde7a9d	0.108632304
211	0x3de2a036	0.11065714
212	0x3d4a5d2d	0.049405266
213	0xbe5c32e9	-0.21503796
214	0xbdd0e31b	-0.10199567
215	0xbd6a58e5	-0.057213683
216	0x3d246a81	0.040140633
217	0xbc9c2d98	-0.01906471
218	0xbe194deb	-0.1497113
219	0xbcb5fd49	-0.022215502
220	0x3d24f3d4	0.040271595
221	0x3e5a95bb	0.2134618
222	0xbc3d6b97	-0.011561296
223	0x3d6d7369	0.05797139
224	0x3c3afa14	0.011412162
225	0x3d1b6e54	0.037947014
226	0xbc39fa1a	-0.011351133
227	0xbe1b774a	-0.15182224
228	0x3e620cfd	0.22075267
229	0x3d2a0e93	0.041517805
230	0x3d783950	0.060601532
231	0x3d9a6592	0.07538904
232	0xbdaa5a34	-0.08317986
233	0xbe1cbc7f	-0.1530628
234	0x3c13cf14	0.009021539
235	0xbe35ee86	-0.1776677
236	0x3e21c8bd	0.15799232
237	0x3e16dfb3	0.14733772
238	0x3d89b00d	0.06723032
239	0x3d1a050a	0.037602462
240	0xbdd6778c	-0.104720205
241	0x3e15cc2a	0.14628664
242	0xbd8382dc	-0.06421444
243	0x3ddf53ef	0.10904681
244	0x3d441373	0.04787011
245	0x3dfd7303	0.12375452
246	0xbd3dcd20	-0.0463382
247	0x3d8612c1	0.06546546
248	0xbdcc1d38	-0.099665105
249	0x3d1adc0e	0.037807517
250	0xbdef7d40	-0.116938114
251	0x3db876f7	0.09007066
252	0x3d9ddfde	0.07708715
253	0xbe07cd21	-0.13261844
254	0x3cffcfae	0.03122696
255	0x3e834086	0.25635165

gru.weight_hh_l1 f4 [96, 32]
0	0x3e84cfb8	0.25939727
1	0x3dbad9e3	0.0912359
2	0xbe423547	-0.18965636
3	0xbc9cba64	-0.019131847
4	0x3d0fcdf0	0.035108507
5	0xbd51bd2a	-0.05120579
6	0xbd92711b	-0.071504794
7	0x3de6fc6e	0.11278616
8	0x3ce7e1e0	0.028305948
9	0xbe2089ec	-0.15677613
10	0x3e6c9e21	0.23107196
11	0xbe26d2cf	-0.16291355
12	0xbcc9367a	-0.02456211
13	0x3e09a1d5	0.1344064
14	0xbe313c6e	-0.17308208
15	0x3e81b327	0.25331995
16	0xbc8a518a	-0.016884584
17	0xbd916ac0	-0.07100439
18	0xbe814db9	-0.2525461
19	0x3e237062	0.1596084
20	0x3e742d0d	0.2384531
21	0x3d01a487	0.031651046
22	0xbd516600	-0.051122665
23	0xbce8df25	-0.028426716
24	0xbd9788e2	-0.07399155
25	0x3de22e8d	0.11044035
26	0x3c9ea86d	0.019367421
27	0xbc54844b	-0.012970994
28	0xbccebb71	-0.025235863
29	0xbe171423	-0.14753775
30	0x3de03458	0.10947484
31	0x3e5463de	0.20741221
32	0x3dec541a	0.115394786
33	0x3b81c876	0.0039606644
34	0xbe0114e7	-0.1260563
35	0x3dcf5a09	0.10124595
36	0x3e45bc99	0.19310226
37	0xbe0b9eff	-0.13634871
38	0x3c969a72	0.018384192
39	0xbe251e96	-0.16124949
40	0xbd6a1c2c	-0.057155773
41	0xbe16d2f7	-0.14728914
42	0xbe16358f	-0.14668868
43	0x3cd290e0	0.025703847
44	0xbcb9808e	-0.022644307
45	0x3e2862b9	0.1644391
46	0xb9c11906	-0.00036830473
47	0xbd3da559	-0.046300266
48	0x3dae1680	0.08500385
49	0x3d545fc7	0.051849153
50	0x3d2aadd3	0.041669678
51	0xbc1053a3	-0.008809003
52	0xbdfd14d7	-0.123574905
53	0xbc6b7e6a	-0.014373401
54	0xbe73ca17	-0.2380756
55	0xbda3a2a7	-0.07990008
56	0x3dd12b62	0.10213353
57	0x3e112c0d	0.1417696
58	0x3e253deb	0.16136901
59	0xbd2d7e7f	-0.042356964
60	0x3d73da74	0.059534505
61	0xbde37f5c	-0.11108276
62	0xbdcf34c4	-0.10117486
63	0xbdeb82e9	-0.114995785
64	0xbda6f4ed	-0.08152185
65	0xbd264db2	-0.04060144
66	0xbdc6af73	-0.09701433
67	0x3e774ad1	0.24149634
68	0x3e55954f	0.20857738
69	0x3da8a7b3	0.08235111
70	0x3d91139f	0.070838206
71	0x3da65cd1	0.08123172
72	0x3d26186c	0.040550634
73	0xbe381d3f	-0.17979906
74	0xbc8ebefa	-0.01742505
75	0xbdb5f8ab	-0.0888532
76	0x3e7fc62f	0.24977945
77	0xbd658fb5	-0.056045253
78	0xbe8a17dc	-0.26971328
79	0x3c7d348f	0.0154544255
80	0xb562d9ae	-8.4508326e-07
81	0xbe5b0b8c	-0.21391124
82	0xbe4ed013	-0.20196562
83	0xbdb20c59	-0.086937614
84	0x3e590af1	0.2119558
85	0x3db05d48	0.08611542
86	0x3d79eb62	0.061015494
87	0xbda42cbd	-0.08016346
88	0xbd74ae13	-0.059736323
89	0xbd38438d	-0.044986296
90	0xbdbdc5fd	-0.09266279
91	0x3c95421b	0.018219998
92	0x3d49a86d	0.04923289
93	0xbe2cf84a	-0.1689159
94	0x3d54906a	0.051895536
95	0x3e26bfaf	0.16284059
96	0xbe45fc05	-0.19334419
97	0xbcfd2069	-0.030899243
98	0x3d2d0095	0.042236883
99	0xbdce54ca	-0.10074766
100	0xbd205490	-0.039143145
101	0x3e32171f	0.17391632
102	0xbb68c335	-0.0035516743
103	0x3e0f42b5	0.1399029
104	0xbd28ceb0	-0.041212738
105	0xbdb8e642	-0.09028293
106	0xbd8e9684	-0.06962302
107	0x3d9e5361	0.07730747
108	0xbe1774ef	-0.147907
109	0xbe6db0aa	-0.23211923
110	0x3db243af	0.08704316
111	0x3dababc2	0.083823696
112	0x3e10df5c	0.14147705
113	0x3d8e46f5	0.06947128
114	0x3e31f4a8	0.17378485
115	0xbde0bddc	-0.10973713
116	0x3d39bc1d	0.045345414
117	0x3dce4512	0.10071768
118	0x3d550f60	0.052016616
119	0xbc0903fe	-0.008362768
120	0x3de295e8	0.110637486
121	0x3d988f14	0.07449165
122	0xbda630f8	-0.08114809
123	0xbe1ad32c	-0.15119618
124	0xbd7ce7f2	-0.061744638
125	0xbc6de78e	-0.014520539
126	0x3d4b14a9	0.04958025
127	0x3e08fa0d	0.13376637
128	0x3d721ff5	0.059112508
129	0xbddd38ae	-0.108018264
130	0x3e23ddad	0.16002531
131	0x3de0fb96	0.10985486
132	0xbdf5dc4b	-0.12004908
133	0xbdc395a2	-0.095500246
134	0x3d84b715	0.064802326
135	0x3de845e2	0.11341454
136	0x3da3ceea	0.0799845
137	0xbd864570	-0.06556213
138	0xbe206949	-0.15665163
139	0x3bc5876b	0.006028106
140	0xbde65051	-0.11245788
141	0x3d123771	0.035697404
142	0x3d6d10d4	0.057877377
143	0xbdde0cdf	-0.10842299
144	0xbd39ea4b	-0.045389455
145	0xbdcfef5b	-0.10153075
146	0xbe5ec395	-0.21754296
147	0x3e1259dc	0.14292091
148	0x3da7ee3a	0.08199735
149	0x3cc0758a	0.023493547
150	0xbdd5cd8e	-0.10439597
151	0xbe6e0ee6	-0.23247871
152	0xbd27a925	-0.040932793
153	0x3ca2b9d1	0.019863995
154	0x3e1ef554	0.15523273
155	0x3e0a391e	0.13498351
156	0xbe06a8dc	-0.13150352
157	0x3d3d2aec	0.04618351
158	0xbe188165	-0.1489311
159	0xbde4ebfa	-0.111778215
160	0xbd7dc59a	-0.061956026
161	0xbd0298d0	-0.031884015
162	0xbd1bd71c	-0.03804694
163	0xbdce189d	-0.10063288
164	0x3de36d43	0.111048244
165	0xbadcd28b	-0.0016847415
166	0xbbc4070a	-0.0059822844
167	0x3db9a2f9	0.09064288
168	0x3cd21ce8	0.02564855
169	0x3bddbd8c	0.0067669805
170	0x3e1fa877	0.15591608
171	0x3e1d77dc	0.15377754
172	0xbd97dd90	-0.074153066
173	0x3e4015fc	0.18758386
174	0x3dda08db	0.1064622
175	0xbe07908f	-0.13238738
176	0xbe00862a	-0.1255118
177	0x3dfa2f99	0.1221611
178	0xbabfd8cb	-0.0014636753
179	0x3ceb12c9	0.02869548
180	0xbd108b01	-0.035288814
181	0xbe261432	-0.16218641
182	0x3e09d871	0.13461472
183	0x3ca879e6	0.020565938
184	0x3df52f8f	0.11971962
185	0x3cfb6c17	0.03069119
186	0xbdcc053d	-0.099619366
187	0xbe3c43fd	-0.1838531
188	0xbcc6f756	-0.02428786
189	0xbe0d440b	-0.13795488
190	0xbd415db0	-0.047208488
191	0x3cc06c36	0.023489099
192	0xbd83688d	-0.06416426
193	0x3ddaf967	0.10692101
194	0x3db96415	0.09052292
195	0x3e17c450	0.14820981
196	0xbe2a7de6	-0.16649589
197	0xbdcf9814	-0.101364285
198	0xbd9dcccc	-0.077050775
199	0xbde94704	-0.11390498
200	0xbdad6c8d	-0.0846797
201	0xbbc2c387	-0.005943719
202	0x3d814330	0.06311643
203	0x3c937ac9	0.018002884
204	0xbbb95567	-0.0056559327
205	0xbcaa9d3f	-0.020826934
206	0xbcc5dd31	-0.024153324
207	0xbdd837af	-0.10557496
208	0xbd3818ce	-0.04494553
209	0xbc8e19ba	-0.017346252
210	0x3e14a086	0.1451436
211	0xbda9dba9	-0.0829385
212	0x3e1927d5	0.14956601
213	0x3e0e940e	0.13923666
214	0x3db13458	0.08652562
215	0x3e286dcc	0.16448134
216	0x3e1800a3	0.14843993
217	0x3dea6c57	0.114464454
218	0xbc1e5150	-0.009662941
219	0xbde8a39b	-0.1135933
220	0xbdee74c5	-0.11643366
221	0x3d03b950	0.03215915
222	0xbdab2582	-0.083567634
223	0xbdeefb16	-0.116689846
224	0x3d95cf62	0.07314946
225	0x3e6acb13	0.22929029
226	0x3de21180	0.11038494
227	0xbe49bea4	-0.1970163
228	0xbe6a948a	-0.22908226
229	0x3e3910ce	0.18072817
230	0xbe4434fc	-0.19160837
231	0x3c486fe2	0.012233706
232	0x3d27ee3c	0.040998682
233	0xbc15d7bc	-0.009145673
234	0xbe25b3e7	-0.16181909
235	0xbd1c9e4f	-0.038236912
236	0xbe6b5d37	-0.22984777
237	0xbe151b09	-0.14561094
238	0x3e32c36c	0.1745736
239	0xbd8b4732	-0.06800689
240	0xbe66e5e7	-0.22548638
241	0x3e3f8e6f	0.18706678
242	0x3e7df98d	0.24802227
243	0xbe07fb81	-0.13279535
244	0xbcb1420d	-0.02163794
245	0xbd1f2293	-0.038851332
246	0xbc3892ff	-0.011265515
247	0xbbda4cc1	-0.006661982
248	0x3e19591f	0.14975403
249	0x3cc062ba	0.023484576
250	0xbdf91b6b	-0.12163433
251	0xbde32223	-0.110904954
252	0xbd5b03b9	-0.053470347
253	0x3e6653e4	0.22492939
254	0x3e5fb889	0.21847738
255	0xbd9f09d2	-0.07765545

gru.bias_ih_l1 f4 [96]
0	0x3d778d78	0.06043765
1	0x3de731fc	0.11288831
2	0xbce67aa9	-0.02813466
3	0xbda02d71	-0.07821167
4	0xbde41669	-0.11137087
5	0xbd183651	-0.037161175
6	0xbcb89ee5	-0.022536704
7	0x3e1b130f	0.15143989
8	0xbb759504	-0.0037472853
9	0x3d9a2db1	0.07528246
10	0xbd1add05	-0.037808437
11	0x3e1e4698	0.15456617
12	0xbd80f578	-0.062968194
13	0xbe471b29	-0.19443955
14	0xbe4b3250	-0.19843411
15	0x3dcb13b2	0.09915866
16	0xbe3604f0	-0.17775321
17	0x3e36c3b7	0.17848097
18	0xbe06655a	-0.131246
19	0xbd28eb7a	-0.041240193
20	0xbe1a1141	-0.15045644
21	0xbdb6dc72	-0.08928765
22	0xbe39f958	-0.18161523
23	0x3d32d6b8	0.043661803
24	0xbd676482	-0.056492336
25	0x3d93b13b	0.072115384
26	0xbd2186ca	-0.039435185
27	0x3dd09d59	0.10186262
28	0x3e6f9438	0.23396385
29	0x3ae65cca	0.0017575261
30	0xbe52532e	-0.20539543
31	0xbe17ece0	-0.14836454
32	0xbd272f64	-0.04081668
33	0xbea135ef	-0.3148646
34	0xbbd177f7	-0.0063924748
35	0xbec2b1c3	-0.38026246
36	0xbeb21aa4	-0.3478595
37	0xbd987d66	-0.07445793
38	0xbeb9384a	-0.36175758
39	0xbe218a65	-0.1577545
40	0xbf03ef05	-0.5153659
41	0xbe70a56e	-0.23500606
42	0x3ca6efb0	0.020377964
43	0xbf01aad2	-0.50651276
44	0xbedcbc13	-0.4311224
45	0xbdaba16a	-0.08380397
46	0xbecc084c	-0.3985008
47	0xbd3b28ad	-0.04569309
48	0xbebc548f	-0.36783263
49	0xbee67561	-0.45011428
50	0xbea05360	-0.3131361
51	0xbdc10583	-0.094248794
52	0xbd865a25	-0.065601625
53	0xbe504a46	-0.20340833
54	0xbefa42b7	-0.48879024
55	0xbe4b7cf9	-0.19871892
56	0xbe884e3c	-0.26622188
57	0x3cc7d9cd	0.024395848
58	0xbdba3c9a	-0.0909359
59	0x3dfa200c	0.12213144
60	0xbe83ea2e	-0.25764602
61	0xbe88f5fc	-0.2675017
62	0xbe95e13e	-0.2927341
63	0xbea40ffa	-0.3204344
64	0x3d96ccde	0.07363294
65	0xbe160679	-0.14650907
66	0xbe07b479	-0.13252439
67	0xbd973700	-0.07383537
68	0xbdf59c1d	-0.11992667
69	0xbc7fe7ed	-0.01561926
70	0xbdfe955a	-0.1243083
71	0x3ddf3250	0.10898268
72	0xbd7c371f	-0.061576005
73	0x3d8ff001	0.07028199
74	0x3e235450	0.15950131
75	0xbe147469	-0.14497532
76	0xbdbbf7b7	-0.09178107
77	0xbd90f1d4	-0.07077375
78	0xbd98f290	-0.0746814
79	0xbbcad4f2	-0.006189936
80	0x3db6d139	0.08926625
81	0x3dad27b1	0.08454836
82	0x3dbe10a2	0.09280516
83	0xbd016c7f	-0.03159761
84	0x3e2abaac	0.16672772
85	0x3da3bf9e	0.079955325
86	0x3d765485	0.060139198
87	0xbe3aa7c2	-0.18228057
88	0xbda078fc	-0.07835576
89	0x3d8c213e	0.06842278
90	0xbdf808ea	-0.12111075
91	0x3e33fa21	0.17575885
92	0xbe01f657	-0.12691627
93	0x3dd9fb72	0.106436625
94	0x3dd68fdd	0.104766585
95	0x3e2651a3	0.1624208

gru.bias_hh_l1 f4 [96]
0	0x3d4074f9	0.046986554
1	0xbe058de9	-0.13042416
2	0x3de9dde3	0.11419275
3	0x3d76f350	0.060290635
4	0x3b815a0f	0.0039475034
5	0xbda3364e	-0.07969342
6	0x3d50618c	0.050874278
7	0x3e28cfbb	0.16485493
8	0x3da73f09	0.0816632
9	0x3e148092	0.1450217
10	0xbdc8ce59	-0.09804983
11	0x3caa0d95	0.02075843
12	0xbe341b93	-0.17588644
13	0xbd03454e	-0.032048516
14	0x3e0cb697	0.13741527
15	0xbe2ca8b7	-0.16861235
16	0xbd87b327	-0.066259675
17	0xbdd68664	-0.10474852
18	0x3d50084c	0.050789163
19	0xbe0192a6	-0.12653598
20	0xbe4209fe	-0.18949124
21	0xbd9d0c99	-0.076684184
22	0xbe121a78	-0.1426791
23	0x3e066425	0.1312414
24	0xbd4dcba4	-0.050243035
25	0xbc3a3390	-0.0113648325
26	0x3ddcd41a	0.10782643
27	0x3dbe09a5	0.09279183
28	0x3d95b327	0.07309561
29	0xbe1e1aae	-0.15439865
30	0xbdc9b264	-0.098484784
31	0xbe2581fc	-0.16162866
32	0xbdee6c95	-0.11641804
33	0xbe00ef7c	-0.12591356
34	0xbe09bf56	-0.13451895
35	0xbdbcd69d	-0.09220622
36	0xbd0b24aa	-0.033970512
37	0xbe6c8de1	-0.23100998
38	0xbe8e1c86	-0.27756137
39	0xbe4144d7	-0.18873917
40	0xbf0baf2b	-0.5456416
41	0xbe6ee3ba	-0.23329058
42	0xbd553f23	-0.052062165
43	0xbefe7fd1	-0.4970689
44	0xbf13b5c5	-0.57699233
45	0x3c297f85	0.010345344
46	0xbed3cb41	-0.41366008
47	0xbe2ffc2e	-0.17186043
48	0xbef4f6ec	-0.47844636
49	0xbedf3a58	-0.435992
50	0xbe8b2ef3	-0.27184257
51	0xbd747736	-0.059684
52	0xbd76cc9c	-0.060253724
53	0x3db5bd16	0.08873956
54	0xbeebe972	-0.46076542
55	0xbedc6b85	-0.4305078
56	0xbe148936	-0.14505467
57	0xbdaab845	-0.08335928
58	0x3e1325a0	0.14369822
59	0xbddc1b3f	-0.10747384
60	0xbe1586be	-0.14602181
61	0xbe2772fa	-0.16352454
62	0xbea71cfc	-0.326393
63	0xbed1dc7b	-0.40988526
64	0x3d10bb80	0.035335064
65	0x3e129a01	0.1431656
66	0x3d9d65fe	0.07685469
67	0x3e476720	0.19472933
68	0xbc7ea589	-0.015542396
69	0x3c7f302a	0.015575448
70	0x3c51adc1	0.012797774
71	0xbde73066	-0.11288528
72	0xbd3dddb4	-0.04635401
73	0xbcd9f425	-0.026605675
74	0xbbfa77fc	-0.007643698
75	0x3dfd2d68	0.12362176
76	0xbc1284e7	-0.008942819
77	0x3d8f1b39	0.06987614
78	0xbb96cd58	-0.0046021156
79	0xbd0e903e	-0.03480553
80	0x3d88efe4	0.066863805
81	0xbdc7ff20	-0.09765458
82	0xbe282f01	-0.1642418
83	0x3d8b57a3	0.06803825
84	0xbdaa23d5	-0.08307616
85	0x3bb97fa6	0.005660969
86	0x3df9cdc8	0.12197453
87	0x3da7b96e	0.08189665
88	0xbde00466	-0.10938339
89	0x3dd9d1da	0.10635729
90	0xbcc9918a	-0.024605531
91	0xbc5821c5	-0.013191645
92	0x3dc29d3b	0.095026456
93	0x3de2e970	0.11079681
94	0xbd7e443e	-0.0620768
95	0xbd993338	-0.07480472

fc.weight f4 [1, 32]
0	0xbd94ef25	-0.07272176
1	0x3d6026e5	0.054724593
2	0x3e1c71ec	0.15277833
3	0xbe6bf999	-0.23044433
4	0xbe25c129	-0.16186966
5	0x3e2ea54d	0.17055245
6	0xbe1947c2	-0.1496878
7	0xbbf2d025	-0.0074100667
8	0xbe3fdcae	-0.18736526
9	0x3db0e534	0.08637467
10	0xbd7f3dda	-0.062314846
11	0x3e401a15	0.1875995
12	0xbe53c0d6	-0.2067903
13	0xbe1e3a5a	-0.15451947
14	0x3e629592	0.22127369
15	0xbe16309d	-0.14666982
16	0xbe1d85cb	-0.15383069
17	0x3dc081bb	0.09399744
18	0x3e39dcb5	0.181506
19	0xbe35c33e	-0.1775026
20	0xbca31fc2	-0.019912604
21	0xbd36ceb7	-0.044630732
22	0x3e36cea3	0.17852263
23	0x3e35bb7e	0.17747304
24	0x3dd15b2c	0.10222468
25	0xbca0af0a	-0.019614715
26	0xbbbe0b32	-0.0057996744
27	0xbdb60340	-0.08887339
28	0x3d5dfee6	0.05419817
29	0x3df35af7	0.118825845
30	0x3da2668b	0.07929715
31	0xbe3c81ac	-0.18408841
