gru_model.pth (torch, 41715 bytes, 9 tensors)

gru.weight_ih_l0 f4 [96, 1]
0	0xbd44a721	-0.04801095
1	0xbd0c62ab	-0.034273785
2	0x3e53b251	0.20673491
3	0x3d7ed2c7	0.06221273
4	0x3ecd06d3	0.4004427
5	0xbaa3e5ae	-0.0012504363
6	0x3e9d1b84	0.30685055
7	0xbd709d70	-0.058743894
8	0x3d50fbdc	0.05102144
9	0xbe64bc9e	-0.22337577
10	0xbdbf9c48	-0.0935598
11	0xbdfe11fb	-0.12405773
12	0x3cbf99b7	0.023388727
13	0x3e7cb732	0.24679258
14	0xbd5ba231	-0.053621475
15	0x3e902a93	0.28157482
16	0xbe749a1e	-0.23886916
17	0x3e1b1313	0.15143995
18	0x3d37a026	0.044830464
19	0xbc4d582a	-0.012533227
20	0x3df72cff	0.12069129
21	0xbe1cc77f	-0.15310477
22	0xbe41f5b9	-0.18941392
23	0x3d4462f7	0.047945943
24	0xbb3d4ab7	-0.0028883645
25	0xbd90bfea	-0.07067855
26	0x3e8f8104	0.2802812
27	0x3e9903eb	0.29885802
28	0x3d3dcdc1	0.0463388
29	0x3dd93921	0.106065996
30	0xbd3a2e3a	-0.04545424
31	0x3e00d0d5	0.12579663
32	0x3df474a8	0.11936313
33	0x3d4b7654	0.049673393
34	0xbe0f3d62	-0.1398826
35	0x3e485cc5	0.19566639
36	0x3c74486d	0.014909846
37	0xbeae442a	-0.3403638
38	0x3c2995c3	0.010350647
39	0x3dc5268a	0.09626491
40	0x3c7c19f1	0.015387044
41	0x3e5f9241	0.21833135
42	0xbdaba0f9	-0.083803125
43	0xbb1232c8	-0.00223081
44	0xbd92399a	-0.07139893
45	0xbbf1d158	-0.007379692
46	0x3e0bd1e4	0.13654286
47	0xbda1c939	-0.07899708
48	0x3e250ae0	0.1611743
49	0x3d66d6df	0.05635726
50	0x3e52ca51	0.2058499
51	0x3e16b461	0.14717247
52	0x3ca5a12a	0.02021845
53	0x3e16711a	0.14691582
54	0x3e3594f5	0.17732604
55	0xbd83bbf5	-0.06432334
56	0xbc68ba5b	-0.014204587
57	0x3dcf3cc8	0.10119015
58	0xbc0bf4e6	-0.008542275
59	0xbc9c01ae	-0.01904377
60	0xbdbbed18	-0.091760814
61	0x3da4955b	0.080363
62	0x3e27708f	0.16351531
63	0x3d842885	0.06453041
64	0xbdd11558	-0.10209149
65	0x3e88e2bd	0.26735488
66	0x3d4cbf21	0.049986962
67	0xbe9a9bd7	-0.3019702
68	0x3e8d1240	0.27552986
69	0x3d6c0b23	0.05762781
70	0xbe683bb5	-0.22679026
71	0x3e60e3ff	0.21961974
72	0x3e270562	0.16310647
73	0x3e967b29	0.2939084
74	0x3b7096ba	0.0036710934
75	0x3e722570	0.23647094
76	0x3e332724	0.174954
77	0x3e85ead6	0.26155728
78	0x3de27354	0.11057153
79	0x3e5de941	0.2167101
80	0xbdd6e690	-0.10493195
81	0xbe47ef96	-0.19524989
82	0xbe882c98	-0.26596522
83	0xbcec3f7f	-0.028838871
84	0xbe5e0341	-0.21680929
85	0xbd0f813a	-0.03503535
86	0x3e31dea1	0.17370082
87	0xbd86ac8b	-0.06575879
88	0xbdfab908	-0.12242323
89	0xbe80327e	-0.25038522
90	0x3e16c1d1	0.14722373
91	0xbe91db43	-0.28487596
92	0x3e3e51a6	0.18585834
93	0x3e823830	0.25433493
94	0xbd5ce198	-0.05392608
95	0x3daa102b	0.08303865

gru.weight_hh_l0 f4 [96, 32]
0	0x3e3a306e	0.18182537
1	0x3d9329fd	0.07185743
2	0x3e149b46	0.14512357
3	0xbd677981	-0.05651236
4	0x3e174e41	0.14775945
5	0x3d799bc1	0.060939554
6	0x3e4bc7cf	0.1990044
7	0xbc83045c	-0.01599329
8	0x3d76ddbb	0.060270052
9	0x3db4db28	0.08830863
10	0x3de94aaf	0.11391198
11	0xbdead86d	-0.11467061
12	0x3d016a65	0.031595606
13	0x3cae2e3d	0.021262283
14	0x3cd0855c	0.025454216
15	0xbdbd9c66	-0.09258346
16	0x3e0d6305	0.13807304
17	0x3dad5859	0.084641166
18	0xbd9e7c4a	-0.0773855
19	0xbdd635c7	-0.10459476
20	0xbd97997b	-0.07402321
21	0x3cbdfad2	0.02319089
22	0xbd41e7e7	-0.0473403
23	0xbe189874	-0.14901906
24	0xbc4624f6	-0.012093773
25	0xbdf113b1	-0.11771334
26	0xbdb77e0e	-0.0895959
27	0xbd92ab4b	-0.07161578
28	0x3db99b6e	0.09062849
29	0xbe49c180	-0.1970272
30	0xbb540fdb	-0.0032358083
31	0x3daf22fe	0.08551596
32	0xbb694887	-0.0035596208
33	0x3e1cef52	0.15325668
34	0xbd14e2b3	-0.03634901
35	0xbd53be78	-0.051695317
36	0x3dfd99e9	0.12382872
37	0x3d2c49e8	0.04206267
38	0xbd89f296	-0.06735723
39	0xbdd7c5bf	-0.10535764
40	0x3d38bbef	0.045101102
41	0xbd899c4f	-0.067192666
42	0x3e23620a	0.15955368
43	0xbe31489a	-0.17312852
44	0x3e468da5	0.1938997
45	0x3dd442b2	0.103642836
46	0xbd9e1d97	-0.077204876
47	0x3db8544c	0.09000453
48	0x3d095c1c	0.033535108
49	0xbbd82e84	-0.006597342
50	0xbd533fa6	-0.05157437
51	0xbe5cee3e	-0.21575257
52	0x3db191b7	0.08670371
53	0x3d3d1f32	0.04617233
54	0x3c2da7f9	0.01059913
55	0x3dadaf63	0.08480718
56	0x3d840df8	0.06447977
57	0xbdd6e287	-0.104924254
58	0x3c4845f3	0.012223708
59	0xbd550bd5	-0.052013237
60	0xbe342baa	-0.17594782
61	0x3d88f5a8	0.0668748
62	0xbc8db6a6	-0.017299008
63	0x3cd8b2e2	0.026452485
64	0x3d9f2d22	0.0777228
65	0x3dc0fed0	0.094236016
66	0xbcc851f4	-0.02445314
67	0xbe7aabcf	-0.24479602
68	0xbcd07db3	-0.025450563
69	0x3dc15915	0.09440819
70	0x3b14294d	0.0022607625
71	0x3dc0a861	0.09407116
72	0xbe0b14a4	-0.13582093
73	0xbda09996	-0.07841794
74	0x3d0800f4	0.033204034
75	0x3e0d726d	0.13813181
76	0x3d97d597	0.07413786
77	0x3e29b624	0.16573387
78	0x3d2d0e13	0.04224975
79	0xbd1e5398	-0.03865394
80	0x3d67283f	0.056434866
81	0xbcff0ac0	-0.031133056
82	0x3d711b60	0.058863997
83	0xbdd4cba1	-0.10390402
84	0xbdfb3744	-0.122664005
85	0x3dc3e335	0.09564821
86	0xbb89a86b	-0.004200985
87	0x3cd9943b	0.02655994
88	0xbe21c53c	-0.15797895
89	0xbe27daf9	-0.16392125
90	0x3c1ed880	0.009695172
91	0x3d0158ed	0.031578947
92	0x3c7666fc	0.015039202
93	0x3e402c26	0.18766841
94	0x3e0ca635	0.13735278
95	0x3d04a2d6	0.032381855
96	0x3e0995cd	0.1343605
97	0x3e5c46f0	0.21511436
98	0x3db54290	0.088505864
99	0x3ba03913	0.0048896163
100	0xbb846a5a	-0.0040409984
101	0xbda798c4	-0.081834346
102	0xbd999565	-0.07499198
103	0x3e019bbd	0.12657066
104	0xbe0c8e93	-0.13726263
105	0x3bed8d29	0.0072494936
106	0x39c29a82	0.0003711768
107	0xbd2aa740	-0.04166341
108	0xbd22cd61	-0.039746646
109	0xbe0d38f1	-0.13791253
110	0x3d82a248	0.06378609
111	0x3d95eac2	0.07320167
112	0xbd221e2b	-0.03957955
113	0x3e263552	0.16231278
114	0x3e1dfcd3	0.15428476
115	0xbcc82046	-0.024429452
116	0xbd808200	-0.062747955
117	0xbe1cd659	-0.15316142
118	0xbd95ae63	-0.07308652
119	0xbbcaf31f	-0.006193533
120	0x3d9c59d8	0.07634324
121	0xbd767725	-0.06017222
122	0x3d52e1d6	0.051484905
123	0xbdbbb8c6	-0.09166102
124	0xbdb3232b	-0.08746942
125	0x3d8503ee	0.0649489
126	0xbdc7c2ca	-0.0975395
127	0xbe8d40cd	-0.27588502
128	0x3dd1eff4	0.102508456
129	0xbe13e416	-0.14442477
130	0x3e09ebb4	0.1346882
131	0x3c40897c	0.011751529
132	0x3a0e9c80	0.00054401904
133	0xbe706d44	-0.23479182
134	0x3e43e86d	0.19131632
135	0x3d33319f	0.043748494
136	0xbde22ee0	-0.11044097
137	0xbc05a8b9	-0.008157902
138	0x3b5b4054	0.003345509
139	0xbda261d5	-0.07928816
140	0x3de29f95	0.11065594
141	0x3c9aa6c5	0.01887835
142	0xbd8c9a5e	-0.06865381
143	0xbdd754df	-0.10514235
144	0x3d1cd5d6	0.038289867
145	0x3db61a12	0.08891691
146	0xbaeeda78	-0.0018223068
147	0xbdaa4937	-0.08314746
148	0xbdad3ead	-0.0845922
149	0xbdcc871f	-0.0998671
150	0xbcc13d2e	-0.023588743
151	0x3e1ab4b4	0.15107995
152	0xbd45443d	-0.04816078
153	0xbdd32f9d	-0.10311816
154	0xbd8b88fc	-0.06813237
155	0xbdd946ca	-0.10609205
156	0x3dff0eef	0.1245402
157	0xbb031d2c	-0.0020006401
158	0xbda6b064	-0.081391126
159	0xbd923091	-0.071381696
160	0xbdd8ff37	-0.10595553
161	0x3e8090ee	0.25110573
162	0xbe24e8ea	-0.16104475
163	0x3cb60a44	0.022221692
164	0x3e97c867	0.29645082
165	0x3d98a004	0.074523956
166	0xbd0cca3e	-0.03437256
167	0xbd15195f	-0.03640115
168	0x3e25312c	0.16132039
169	0x3e48505b	0.19561903
170	0xbb5600f4	-0.0032654377
171	0xbcabdd31	-0.020979496
172	0x3e168b79	0.14701642
173	0xbc8b44d1	-0.017000588
174	0x3d50b565	0.05095424
175	0x3e523013	0.20526151
176	0xbe4302ec	-0.19044083
177	0x3db8d9c5	0.09025911
178	0xbe80ad2b	-0.25132117
179	0x3d5d41b5	0.05401774
180	0x3cfde46d	0.030992711
181	0x3ddc4ed4	0.10757223
182	0x3e4a3b22	0.1974912
183	0xbdfa7e82	-0.12231161
184	0xbceabe7e	-0.028655287
185	0x3b7a4835	0.0038190011
186	0x3e0193da	0.12654057
187	0xbd50a157	-0.050935116
188	0x3d3b57f7	0.045738187
189	0x3e0e0b89	0.13871588
190	0x3deaea2d	0.11470447
191	0x3cef32f5	0.029199103
192	0x3e42c7af	0.19021486
193	0xbc13c141	-0.009018243
194	0x3e337850	0.17526364
195	0xbe06020d	-0.1308672
196	0x3d8304c1	0.06397391
197	0xbe2b024f	-0.167001
198	0xbe2dfa36	-0.16989979
199	0x3e17bb11	0.14817454
200	0xbdb2beac	-0.08727774
201	0x3e283d32	0.16429594
202	0xbe6154ea	-0.22005048
203	0xbd0884ae	-0.03332966
204	0x3e11c9bd	0.14237113
205	0xbdef9090	-0.11697495
206	0x3d969ec3	0.073545
207	0xbd42583e	-0.047447436
208	0xbde9847c	-0.114022225
209	0x3e2ade83	0.16686444
210	0xbd295d9a	-0.04134903
211	0x3e02231b	0.12708704
212	0x3d2d4c7f	0.04230928
213	0x3d32a324	0.043612614
214	0x3de3d583	0.111247085
215	0x3e17c2e2	0.14820436
216	0xbadb8221	-0.0016747155
217	0xbb243c8c	-0.0025060503
218	0xbe1296e2	-0.1431537
219	0x3c896e63	0.01677627
220	0xbd558a2e	-0.05213373
221	0x3dd3f5d8	0.10349625
222	0xbe2043fe	-0.15650937
223	0xbb4d5feb	-0.003133769
224	0x3e4b9f83	0.19885068
225	0x3dfe044d	0.12403164
226	0xbcb27806	-0.021785747
227	0x3d119318	0.03554067
228	0xbe0c04da	-0.13673726
229	0xbd379433	-0.04481907
230	0x3b9c1359	0.0047630486
231	0xbdc3ee2d	-0.09566913
232	0xbdbecb4e	-0.09316121
233	0xbdcae82f	-0.09907567
234	0x3d8fcb93	0.070212506
235	0x3d2976dc	0.04137312
236	0x3dd1d546	0.10245757
237	0x3d704ad0	0.058665097
238	0x3dc048f3	0.09388914
239	0xbe76bda5	-0.24095781
240	0x3e013310	0.12617135
241	0x3d30daba	0.043177344
242	0x3e09e025	0.1346441
243	0xbe4a962a	-0.19783846
244	0xbda63c38	-0.081169546
245	0xbc7671c5	-0.015041773
246	0xbdc13a44	-0.094349414
247	0x3d94f6e0	0.0727365
248	0xbdaebccc	-0.08532104
249	0xbdaf007f	-0.085450165
250	0xbd18029d	-0.037111867
251	0x3ddc807d	0.10766695
252	0xbcbe363f	-0.023219226
253	0x3c8b5374	0.017007567
254	0xbe1088eb	-0.1411473
255	0xbd4e62d1	-0.050387207

gru.bias_ih_l0 f4 [96]
0	0x3dd56df3	0.10421362
1	0xbdf04775	-0.11732379
2	0x3df0ef87	0.11764436
3	0xbe6afd7e	-0.22948262
4	0xbdb35a8e	-0.08757506
5	0xbc910086	-0.017700445
6	0xbddca858	-0.107742965
7	0xbdb70a8f	-0.08937561
8	0xbe428889	-0.18997397
9	0x3e013919	0.12619437
10	0xbc401711	-0.011724249
11	0xbd3ea78b	-0.0465465
12	0xbe5d8af9	-0.21635045
13	0xbd81298e	-0.06306754
14	0xbe357533	-0.17720489
15	0x3d84db90	0.06487191
16	0x3e2cfd3d	0.16893478
17	0xbe1b897c	-0.15189165
18	0xbcd7ca68	-0.026341632
19	0xbde56864	-0.112015516
20	0xbdc46f30	-0.0959152
21	0x3e092674	0.13393575
22	0xbe7895fd	-0.24275966
23	0xbe0fd695	-0.140467
24	0x3dea66d5	0.11445395
25	0xbb62f4b5	-0.003463072
26	0xbd7550c4	-0.059891477
27	0x3ce21a08	0.027600303
28	0xbd2c1ef6	-0.042021714
29	0x3a5065fb	0.00079497666
30	0xbdadecb4	-0.08492413
31	0xbe1bfb86	-0.15232667
32	0x3e176f42	0.14788535
33	0xbecf7848	-0.40521455
34	0x3e23f26c	0.16010445
35	0xbe8e4fe3	-0.27795324
36	0xbeada0c6	-0.33911723
37	0xbcf2bce2	-0.029631082
38	0xbeffcfde	-0.49963278
39	0xbe0260b3	-0.127322
40	0x3dead0ad	0.11465583
41	0xbeea785a	-0.45794946
42	0x3cdebfce	0.027191069
43	0xbeed0f1f	-0.463006
44	0xbc781225	-0.015141045
45	0xbd040257	-0.032228794
46	0xbd2f3969	-0.04277936
47	0xbe9984d8	-0.29984164
48	0xbc5fd0d0	-0.013660625
49	0xbeba8819	-0.3643196
50	0xbd91c5f6	-0.07117836
51	0xbe44567b	-0.19173615
52	0xbe9abcce	-0.30222172
53	0x3e12597f	0.14291953
54	0xbe5041c0	-0.20337582
55	0xbbbc2209	-0.005741362
56	0x3da6d1d6	0.08145492
57	0xbed6af94	-0.4193083
58	0xbd5b17ff	-0.05348968
59	0xbecd2b57	-0.40072128
60	0xbdd0ce9f	-0.1019566
61	0xbea56c1e	-0.3230905
62	0x3dfc280f	0.12312328
63	0xbe0f86c0	-0.14016247
64	0xbb3cf65d	-0.0028833367
65	0x3be0ade7	0.0068566683
66	0xbd3c7e73	-0.04601903
67	0xbe0bbe17	-0.13646732
68	0xbe2827b5	-0.16421397
69	0xbcc1ea4d	-0.023671294
70	0x3db1be53	0.086788796
71	0xbe03966e	-0.12850353
72	0x3dfcc3dd	0.123420455
73	0x3d10b48c	0.035328433
74	0x3dac6c63	0.084191106
75	0x3d99bf68	0.07507211
76	0xbde7585e	-0.112961516
77	0x3e100c12	0.14067104
78	0xbdadd824	-0.08488491
79	0x3e17f725	0.14840372
80	0xbbc3035b	-0.0059513277
81	0xbdbe9a1e	-0.09306739
82	0xbd0a6a93	-0.033793043
83	0x3e1d2103	0.15344624
84	0x3d63c561	0.055608157
85	0x3df324ab	0.11872228
86	0xbdbc99c1	-0.09209014
87	0xbe1a109b	-0.15045397
88	0x3d68ad20	0.05680573
89	0x3e2ea844	0.17056376
90	0xbe0f140e	-0.13972494
91	0x3d3e1339	0.04640505
92	0x3e0ac321	0.13550998
93	0x3e0f594b	0.13998906
94	0xbce93860	-0.028469265
95	0x3e2ddba7	0.16978322

gru.bias_hh_l0 f4 [96]
0	0xbdd2856e	-0.10279356
1	0xbe1ac716	-0.15115008
2	0x3d6cfd75	0.057858903
3	0xbdd4ed30	-0.103968024
4	0xbdb59f9c	-0.08868334
5	0xbe41ddfd	-0.18932338
6	0xbd7525b7	-0.05985042
7	0xbe5cfd0e	-0.21580908
8	0xbe03095c	-0.12796539
9	0xbe282d14	-0.16423446
10	0x3e1dca62	0.15409234
11	0xbdd80e55	-0.105496086
12	0xbc8225f3	-0.015887236
13	0xbd818743	-0.06324627
14	0xbd3f371c	-0.046683416
15	0x3e0f4531	0.13991238
16	0xbe0f67ea	-0.14004484
17	0xbb12ff8d	-0.0022430152
18	0xbe658d37	-0.2241715
19	0x3e1978cf	0.14987491
20	0xbdbb99c0	-0.09160185
21	0xbda1f5a5	-0.07908181
22	0xbd94bbce	-0.072623834
23	0x3e0041cf	0.12525104
24	0xbe05eb85	-0.13078125
25	0xbe5816aa	-0.21102396
26	0x3b0719bc	0.0020614704
27	0xbd129563	-0.035786998
28	0xbd6ef181	-0.058335785
29	0xbdaf3610	-0.085552335
30	0x3bbfc174	0.005851919
31	0xbd56e72d	-0.05246656
32	0x3ddd96f9	0.108198114
33	0xbeb4097a	-0.3516348
34	0x3e084c6b	0.13310401
35	0xbe68b449	-0.22725023
36	0xbdb8df1c	-0.0902693
37	0xbe24843d	-0.1606607
38	0xbe8f486b	-0.27984938
39	0xbea0fabe	-0.314413
40	0x3c0a5fd0	0.008445695
41	0xbebdd739	-0.37078264
42	0x3dc13588	0.094340384
43	0xbec0a50d	-0.37625924
44	0xbeb0bb4f	-0.34517905
45	0xbe891522	-0.26773936
46	0xbe5f97b5	-0.21835215
47	0xbe7e25de	-0.24819133
48	0xbc2d2fb2	-0.0105704535
49	0xbeaa0878	-0.33209586
50	0xbec687df	-0.38775536
51	0xbe71f62c	-0.23629063
52	0xbe9c431a	-0.30519944
53	0x3e2d03fe	0.16896054
54	0xbd47e91a	-0.048806287
55	0x3dc79310	0.09744847
56	0x3dcdfacc	0.10057601
57	0xbed63002	-0.41833502
58	0xbe2a2aa6	-0.16617832
59	0xbea0bbf0	-0.31393385
60	0xbe8ff676	-0.28117722
61	0xbe5894a7	-0.21150456
62	0xbd1ac430	-0.037784755
63	0xbe0aa00c	-0.13537616
64	0xbe08abd2	-0.13346794
65	0xbe17ac85	-0.14811905
66	0xbdd9a07c	-0.10626313
67	0xbbd2ea2a	-0.006436606
68	0x3d8e66a5	0.06953172
69	0x3e017520	0.12642336
70	0x3b7c4550	0.0038493462
71	0x3dd82a6d	0.10554967
72	0x3e01eca8	0.12687933
73	0xbcd21825	-0.025646279
74	0xbe056d90	-0.13030076
75	0xbd825ecb	-0.063657366
76	0x3db1f566	0.08689384
77	0xbd99ff18	-0.075193584
78	0x3e100006	0.14062509
79	0xbc25fd9a	-0.010131264
80	0x3e2c279b	0.16811983
81	0xbddb1cbc	-0.1069884
82	0x3d2073e0	0.039173007
83	0xbdb31c6f	-0.08745658
84	0xbdbacd7d	-0.09121225
85	0x3d8d6de6	0.06905727
86	0xbc99ad40	-0.01875937
87	0x3baa799e	0.005202486
88	0xbc908808	-0.01764299
89	0x3d4ba5e1	0.04971874
90	0xbb6db763	-0.0036272637
91	0xbdbff0fd	-0.09372137
92	0xbe0bcd0a	-0.13652435
93	0x3d33dab7	0.043909755
94	0x3da3ba2f	0.07994496
95	0xbe309b89	-0.17246832

gru.weight_ih_l1 f4 [96, 32]
0	0xbd19e995	-0.037576277
1	0xbe14bfc3	-0.14526276
2	0x3cd676da	0.02617972
3	0x3dc63227	0.096775346
4	0xbd17dec4	-0.03707768
5	0xbc5b12c2	-0.013371171
6	0x3e2e5e95	0.17028268
7	0x3e0540d6	0.13013014
8	0xbe2c23d1	-0.16810538
9	0xbe1b9a9b	-0.15195696
10	0x3de372e7	0.111059
11	0xbd484218	-0.048891157
12	0x3e07d9da	0.13266698
13	0xbe6aca22	-0.2292867
14	0xbe16623b	-0.1468591
15	0xb9b3632f	-0.00034215438
16	0x3d8ef36c	0.06980023
17	0xbe0519bc	-0.12998098
18	0x3dd121a0	0.102114916
19	0x3d06a04b	0.03286771
20	0x3e3a3c2a	0.18187013
21	0x3c01cc21	0.007922203
22	0xbd9cd007	-0.076568656
23	0xbe15a205	-0.14612587
24	0x3db255a9	0.08707745
25	0xbe0e74c0	-0.13911724
26	0x3dfb8f9c	0.12283251
27	0x3e0f05d7	0.13967071
28	0xbe2076bf	-0.15670298
29	0xbe517a1e	-0.2045674
30	0x3dea55a0	0.11442113
31	0x3e07bec0	0.13256359
32	0x3d6ef8f6	0.058342896
33	0x3c488796	0.012239357
34	0xbe250c64	-0.16118008
35	0x3d204ec6	0.039137624
36	0xbe5b85c5	-0.21437748
37	0xbe2027d5	-0.15640195
38	0x3e41366e	0.1886842
39	0xbda28d89	-0.07937152
40	0xbda3f508	-0.080057204
41	0x3d2bb56d	0.041921068
42	0xbe030e9f	-0.12798546
43	0x3dc3a45e	0.09552835
44	0xbe1a0265	-0.15039976
45	0x3d7257a2	0.059165604
46	0xbd1f791a	-0.03893385
47	0xbe21cca0	-0.15800714
48	0xbc66b8be	-0.014082132
49	0x3e38ceed	0.18047686
50	0xbdf2fa16	-0.11864106
51	0x3dd1962c	0.10233721
52	0x3d5633ad	0.052295376
53	0xbe05bbec	-0.13059968
54	0xbdf3f005	-0.119110145
55	0x3e092191	0.13391711
56	0xbdcae1cd	-0.09906349
57	0xbd700f4f	-0.05860835
58	0x3d75701e	0.059921376
59	0xbc547975	-0.012968411
60	0x3d20e10e	0.03927713
61	0xbe0fbb1b	-0.14036219
62	0x3e344d4b	0.1760761
63	0xbe0d2f64	-0.1378761
64	0x3dff5c7a	0.124688104
65	0x3d9a5e7d	0.075375535
66	0xbe0dd2f4	-0.13850003
67	0x3e360fcc	0.17779464
68	0xbd89ca07	-0.06727987
69	0xbe26bf6d	-0.1628396
70	0xbcdf28c2	-0.027241115
71	0xbdc66cd4	-0.09688726
72	0x3da469ee	0.08028017
73	0xbd86a924	-0.0657523
74	0x3b84b92b	0.004050394
75	0xbe474665	-0.19460447
76	0xbe30253b	-0.17201702
77	0xbe6000fc	-0.21875376
78	0xbd86cd4c	-0.06582126
79	0xbe59fb34	-0.21287233
80	0xbd9fd84d	-0.07804928
81	0x3ce1ec32	0.027578447
82	0xbd499621	-0.04921544
83	0xbe0c758c	-0.13716716
84	0x3e700acf	0.23441623
85	0xbd733735	-0.05937882
86	0x3e09e3f0	0.13465858
87	0x3e334cf9	0.17509831
88	0x3e64ef5b	0.22356932
89	0x3dd0d1c4	0.101962596
90	0xbe4cce58	-0.20000589
91	0xbdb4723b	-0.0881085
92	0x3d35de9f	0.04440176
93	0xbded1585	-0.1157637
94	0xbd89cfed	-0.06729112
95	0x3ddc98a7	0.107713036
96	0x3caba110	0.020950824
97	0x3e455ce3	0.19273715
98	0xbdcf00ee	-0.10107599
99	0xbd1feecc	-0.039046094
100	0x3de284bf	0.110604756
101	0x3dad08ea	0.08448966
102	0xbe45578c	-0.19271678
103	0xbcc1f5d1	-0.023676785
104	0x3e0642c4	0.13111407
105	0x3e26a366	0.16273269
106	0xbbd12bbc	-0.0063833874
107	0xbd8a4448	-0.06751305
108	0xbd26fe82	-0.04077006
109	0x3e264406	0.16236886
110	0xbdb8b471	-0.090187915
111	0xbd8d8fb8	-0.06912178
112	0xbe030c57	-0.12797676
113	0x3e2b895f	0.16751622
114	0xbd62b377	-0.055346932
115	0x3dbc839b	0.09204789
116	0x3da0dc62	0.07854535
117	0xbd4a8d3f	-0.04945111
118	0xbe0ec03a	-0.13940516
119	0x3ca03bbd	0.019559735
120	0xbe1380b8	-0.14404571
121	0x3df976d6	0.12180869
122	0x3dab55ac	0.0836595
123	0x3cdb969e	0.026805218
124	0xbd5af92c	-0.053460285
125	0x3d611945	0.05495574
126	0xbbcad815	-0.0061903098
127	0xbdd5dc28	-0.10442382
128	0x3d6c264d	0.057653714
129	0xbe2afa35	-0.16697009
130	0x3d81ecb1	0.063439734
131	0x3be46390	0.0069698766
132	0xbe1019d4	-0.14072353
133	0x3e0ac40a	0.13551345
134	0xbe03b297	-0.12861095
135	0x3e24755f	0.16060399
136	0x3d4f18ec	0.050560877
137	0x3db67ff9	0.089111276
138	0xbd0cd529	-0.034382973
139	0xbc8653ff	-0.016397474
140	0x3d81b500	0.06333351
141	0xbd79a3a9	-0.060947094
142	0xbde1df62	-0.11028935
143	0x3ddebbff	0.10875701
144	0xbd9ab954	-0.0755488
145	0xbdb65c71	-0.089043505
146	0xbd7b50ce	-0.06135636
147	0x3e125908	0.14291775
148	0xbdaa9b8a	-0.08330448
149	0xbe206a44	-0.15665537
150	0x3db34390	0.08753121
151	0xbe130b93	-0.14359884
152	0x3d2063f2	0.039157815
153	0xbd779c1f	-0.060451623
154	0x3e07234c	0.13197058
155	0x3e25e070	0.16198897
156	0x3d2bf43a	0.04198096
157	0x3c08e5bc	0.008355554
158	0x3d18a17d	0.037263382
159	0x3d3339d9	0.04375634
160	0x3bd7cb38	0.006585505
161	0xbe26e5ae	-0.16298553
162	0x3c6d9949	0.014501878
163	0x3c24c178	0.010055892
164	0x3d83a534	0.06427994
165	0x3ce8573e	0.028361913
166	0x3d1b2d48	0.03788498
167	0xbdea010b	-0.1142598
168	0xbdacc91c	-0.08436796
169	0x3c45aa4b	0.012064527
170	0x3cb275af	0.021784632
171	0xbde37e0a	-0.111080244
172	0x3c8084b9	0.015688287
173	0x3da62f5c	0.08114502
174	0xbdc6adf6	-0.09701149
175	0xbd130824	-0.035896435
176	0xbc2d8cd4	-0.010592658
177	0x3dc9b38d	0.098487
178	0x3e1d5e24	0.15367943
179	0x3c38ef2a	0.01128749
180	0xbc4deab4	-0.012568165
181	0xbc7b8cfc	-0.0153534375
182	0xbde39bd8	-0.11113709
183	0xbc814f52	-0.015784893
184	0x3de8b818	0.11363238
185	0xbe0ace49	-0.13555254
186	0x3e1a5619	0.15071906
187	0x3e4287cf	0.1899712
188	0x3b6aa195	0.0035801877
189	0xbe39a929	-0.18130936
190	0x3e2dfce8	0.16991007
191	0xbe112ec3	-0.14177994
192	0x3e0dd454	0.13850528
193	0x3d9c755c	0.07639572
194	0xbceff03b	-0.029289356
195	0x3d830e29	0.06399185
196	0xbdbe4322	-0.09290148
197	0x3ba25f43	0.0049552037
198	0xbdc40598	-0.095713794
199	0xbd8f2a55	-0.06990496
200	0xbe2d47e8	-0.16921961
201	0x3d8fa7eb	0.0701445
202	0xbdfe13e1	-0.12406135
203	0xbd177089	-0.036972556
204	0x3e09b935	0.13449557
205	0xbe121357	-0.1426519
206	0xbe1b951b	-0.15193598
207	0xbe2dee5d	-0.1698546
208	0xbdafcd39	-0.08584065
209	0xbb754eed	-0.0037431077
210	0x3dbce575	0.09223453
211	0x3da8145f	0.082070105
212	0xbd4fb73f	-0.050711866
213	0xbe0159d8	-0.12631929
214	0x3e02e8a4	0.12784058
215	0x3e74584c	0.23861808
216	0x3e1080c7	0.14111625
217	0x3ccb550b	0.024820825
218	0xbdfd8a83	-0.12379935
219	0xbde05b87	-0.109549575
220	0x3d8365dc	0.064159125
221	0xbe0c61d7	-0.13709198
222	0xbe003e63	-0.12523799
223	0xbe2ae9c8	-0.16690743
224	0x3db4cb27	0.08827811
225	0xbbaf4b3a	-0.005349544
226	0xbde00c47	-0.10939842
227	0xbd1cedf0	-0.038312852
228	0x3e013882	0.12619212
229	0xbd179a0c	-0.037012145
230	0xbd6888cb	-0.05677108
231	0xbd9a08cd	-0.0752121
232	0xbe4e8dd2	-0.20171288
233	0xbe077f5a	-0.13232175
234	0x3e22e61d	0.15908094
235	0xbdbbe58d	-0.09174643
236	0x3cc459a8	0.023968533
237	0xbe2eb57e	-0.17061421
238	0xbcf423b9	-0.02980219
239	0xbe55d6ec	-0.20882767
240	0xbe16249d	-0.14662404
241	0x3e1190a7	0.14215337
242	0xbdc164e7	-0.09443074
243	0x3d93f984	0.07225326
244	0x3dd8880b	0.10572823
245	0xbd08f606	-0.03343775
246	0x3de4e749	0.11176927
247	0x3d18dfa0	0.03732264
248	0x3e21b665	0.15792234
249	0x3db0e6d8	0.0863778
250	0x3e2038e0	0.15646696
251	0x3e4b6c8a	0.19865623
252	0xbe334b31	-0.17509152
253	0xbe408831	-0.18801953
254	0x3e064b35	0.13114627
255	0x3dbe303c	0.09286544

gru.weight_hh_l1 f4 [96, 32]
0	0xba621335	-0.0008624078
1	0xbd976083	-0.07391455
2	0xbdc761ab	-0.097354256
3	0xbe162751	-0.14663436
4	0x3e0dbff9	0.13842763
5	0x3d44c004	0.048034683
6	0xbcbf98cd	-0.02338829
7	0x3ddcd89f	0.10783505
8	0x3db0fba0	0.08641744
9	0xbe06ea9d	-0.13175435
10	0xbdf275b0	-0.11838853
11	0x3d282fe4	0.041061297
12	0xbd6011e4	-0.05470456
13	0xbd810bae	-0.06301056
14	0x3e32b52c	0.17451924
15	0xbdd2b9f1	-0.10289372
16	0xbbba5a45	-0.0056870305
17	0x3da05e3d	0.078304745
18	0x3d8103d3	0.062995575
19	0xbdac76a4	-0.084210664
20	0xbdb8d058	-0.090241134
21	0xbe0cfe22	-0.13768819
22	0xbd7316f1	-0.05934805
23	0x3e330eb9	0.17486085
24	0xbd55a3fa	-0.052158333
25	0x3d01eba9	0.031718884
26	0x3e1fa051	0.155885
27	0xbdeac148	-0.11462647
28	0x3d9584b3	0.07300701
29	0xbe38d81f	-0.18051194
30	0x3e09a472	0.13441637
31	0x3ddb45b5	0.10706655
32	0xbcbb8e6d	-0.022895062
33	0xbe33e4af	-0.17567705
34	0xbe3159c4	-0.17319399
35	0xbcf86713	-0.030322587
36	0x3e24e886	0.16104326
37	0xbe5473af	-0.20747255
38	0x3e401fe1	0.18762161
39	0xbda15bca	-0.078788355
40	0x3d3e8332	0.046511836
41	0x3e050b21	0.12992527
42	0xbd9bf173	-0.07614412
43	0xbc332236	-0.0109334495
44	0x3e44a81e	0.19204757
45	0x3e54f153	0.20795183
46	0x3d14570f	0.036215838
47	0xbe338daf	-0.17534517
48	0x3ccae91f	0.024769364
49	0x3e45cde5	0.19316824
50	0x3e41f844	0.18942362
51	0xbd01fd78	-0.031735867
52	0xbce2e014	-0.02769474
53	0xbe42c4b6	-0.19020352
54	0x3d16d154	0.036820725
55	0xbe193b98	-0.1496414
56	0xbe268b76	-0.16264138
57	0xbcf7ba3c	-0.03024017
58	0xbd316588	-0.04330972
59	0x3d6124a5	0.054966588
60	0x3dc5c4b8	0.09656662
61	0x3d61677d	0.055030335
62	0xbe608a94	-0.21927863
63	0xbdf7cc92	-0.120995656
64	0x3e12b057	0.14325081
65	0x3ca4b0d6	0.020103853
66	0xbac327e4	-0.0014889208
67	0x3bf1665d	0.007366939
68	0xbda7b09b	-0.08187982
69	0xbd05b451	-0.032642666
70	0xbe3be233	-0.18348007
71	0xbe161970	-0.14658141
72	0xbd863755	-0.065535225
73	0x3d0107ff	0.031501766
74	0xbe20c3ba	-0.15699664
75	0xbd8c77a2	-0.06858756
76	0x3d8894b0	0.06668985
77	0xbe020b86	-0.12699708
78	0x3c9f83a2	0.019471947
79	0x3d8894e4	0.06669024
80	0x3df06171	0.117373355
81	0xbd458df8	-0.048231095
82	0xbdf4647e	-0.1193323
83	0xbd2add38	-0.041714877
84	0xbd9827be	-0.07429455
85	0xbe0beabb	-0.13663761
86	0xbcbe18ce	-0.023205187
87	0x3e2ce2a8	0.16883337
88	0x3e10e55c	0.14149994
89	0x3c843f65	0.01614351
90	0xbd9bf515	-0.07615105
91	0x3dcc8d19	0.0998785
92	0xbbce9d46	-0.0063053695
93	0x3dac4c8c	0.08413038
94	0xbc1d5ed3	-0.009605127
95	0x3ddad899	0.10685844
96	0x3d7a29dc	0.061075076
97	0xbd2623de	-0.04056155
98	0x3d445797	0.047935095
99	0xbdbb187a	-0.09135528
100	0xbd9373fc	-0.07199857
101	0x3da425de	0.08015035
102	0x3e20f903	0.1571999
103	0x3da75152	0.081698075
104	0xbde9151b	-0.11380979
105	0xbdada174	-0.0847806
106	0xbc071d13	-0.008246678
107	0x3e3dd0db	0.18536703
108	0x3e2409a5	0.16019304
109	0xbcbf5c5f	-0.023359476
110	0x3dcb8f64	0.09939459
111	0xbd67719e	-0.05650484
112	0xbcb9c87f	-0.022678612
113	0x3dfa6758	0.122267425
114	0x3d0e0798	0.03467521
115	0x3df0da70	0.11760414
116	0xbc620a0e	-0.013796343
117	0xbde73e48	-0.11291176
118	0xbe18b5e9	-0.14913143
119	0xbc70bac2	-0.014692964
120	0xbde527ba	-0.11189218
121	0x3c028f39	0.007968717
122	0x3d5a0dde	0.05323588
123	0x3d24eb45	0.040263433
124	0xbdadb69c	-0.084820956
125	0x3de959bb	0.11394068
126	0xbd8bd51e	-0.06827758
127	0x3de73b5b	0.11290618
128	0xbdd45a0e	-0.10368739
129	0x3e8588a4	0.2608081
130	0x3e18661c	0.14882702
131	0xbc90e994	-0.017689504
132	0x3dbc63e8	0.09198743
133	0x3e3a547d	0.18196292
134	0xbc3ee103	-0.011650327
135	0xbd8a5bf7	-0.06755822
136	0xbdf5f27e	-0.12009142
137	0x3e1dc1aa	0.15405908
138	0xbdff8485	-0.12476448
139	0x3de60e99	0.11233253
140	0x3b9cb515	0.004782329
141	0x3e2e942c	0.1704871
142	0xbe065a36	-0.1312035
143	0x3e193b3a	0.14964
144	0x3e3491c7	0.17633735
145	0x3df0713b	0.11740347
146	0xbe1292f9	-0.14313878
147	0xbc9e8e93	-0.019355094
148	0x3dd372cf	0.103246324
149	0x3ddb7506	0.1071568
150	0xbe1abc6e	-0.15110943
151	0x3dd45177	0.10367101
152	0x3e061fc9	0.13098063
153	0x3cc7d370	0.024392813
154	0x3e1a3bde	0.150619
155	0x3e26d77d	0.1629314
156	0x3df840d1	0.12121738
157	0xbe20b759	-0.15694942
158	0x3e17c8d6	0.14822707
159	0xbe016b0f	-0.12638496
160	0x3e63eab5	0.22257502
161	0x3d878d2d	0.06618724
162	0x3e22b078	0.1588763
163	0xbdc73071	-0.09726036
164	0x3d5ba8c7	0.053627755
165	0xbdef6199	-0.11688537
166	0xbdf442e2	-0.119268194
167	0xbdedb071	-0.11605919
168	0xbde3adcc	-0.111171335
169	0x3df73400	0.12070465
170	0xbdc9696f	-0.09834563
171	0xbdfdff6d	-0.12402234
172	0xbd532eda	-0.051558353
173	0xbde4442d	-0.11145816
174	0xbba252b3	-0.004953706
175	0xbdf9388b	-0.12168988
176	0xbd74ed6a	-0.05979673
177	0x3e13ff70	0.1445291
178	0xbe0ddbe2	-0.1385341
179	0x3d8473c9	0.06467397
180	0x3e084088	0.13305867
181	0x3deb7588	0.11497027
182	0x3d2cb937	0.042168822
183	0x3e243169	0.16034473
184	0x3c03b332	0.008038329
185	0x3da638e0	0.08116317
186	0xbd784275	-0.060610253
187	0x3e322329	0.17396225
188	0xbe0c29e8	-0.13687861
189	0x3c902c67	0.017599298
190	0xbd88846c	-0.066658825
191	0xbdba7811	-0.09104932
192	0x3e1b4a9e	0.15165183
193	0x3d8dd4c9	0.06925351
194	0xbc7352ea	-0.014851311
195	0xbdd719ed	-0.10502992
196	0xbe544b88	-0.20731938
197	0x3d8fff50	0.07031119
198	0x3e18859c	0.14894718
199	0x3c9e10aa	0.019295055
200	0xbddd8670	-0.108166575
201	0xbe43b7cb	-0.1911308
202	0x3dd3b8d8	0.103379905
203	0x3db24997	0.087054424
204	0xbca218db	-0.019787243
205	0xbd8b53a4	-0.068030626
206	0x3e3d6024	0.18493706
207	0x3c8cd2de	0.017190393
208	0x3df5860f	0.1198846
209	0x3da022ee	0.07819162
210	0xbdc0d0fc	-0.094148606
211	0x3e00ba50	0.12571073
212	0xbd28b66a	-0.04118959
213	0x3d44f9ed	0.04808991
214	0xbc1f8ad1	-0.009737686
215	0x3e0acbe0	0.13554335
216	0x3d063d99	0.032773588
217	0xbcbaee72	-0.022818778
218	0xbdbbde39	-0.09173245
219	0x3e2fa279	0.17151822
220	0xbcea003d	-0.028564567
221	0xbc991d2a	-0.018690664
222	0xbe09a6c4	-0.13442522
223	0xbdbd3b65	-0.09239844
224	0xbde4fcb3	-0.11181011
225	0x3df38475	0.118904985
226	0x3d5d0f2c	0.053969547
227	0x3df6e075	0.120545305
228	0x3e1fb4da	0.15596333
229	0x3e2607b3	0.16213875
230	0x3e05d58b	0.13069741
231	0x3dc07f4c	0.0939928
232	0x3d358aba	0.044321753
233	0xbe1b23ec	-0.15150422
234	0x3d90f649	0.07078225
235	0x3d21017e	0.039308064
236	0xbc9bbe37	-0.0190116
237	0x3d0a7f02	0.03381253
238	0x3e0228a8	0.12710822
239	0x3d7ea101	0.062165264
240	0x3c0f16f8	0.0087335035
241	0x3d8fe44b	0.07025965
242	0x3e267eb9	0.16259278
243	0xbbee78fc	-0.007277606
244	0xbcd181b7	-0.025574548
245	0xbd96e8f3	-0.0736865
246	0x3d225ebb	0.039641123
247	0xbcafc584	-0.021456487
248	0xbc3184d9	-0.010834896
249	0xbe3e722d	-0.18598242
250	0xbd416bde	-0.04722201
251	0x3e435f77	0.19079386
252	0xbc992955	-0.018696466
253	0x3d91cdb6	0.071193144
254	0xbd109393	-0.035296988
255	0x3e069764	0.13143688

gru.bias_ih_l1 f4 [96]
0	0x3dbb43be	0.0914378
1	0xbc3eb8ba	-0.011640722
2	0x3da814c5	0.082070865
3	0xbe1bc5ec	-0.1521222
4	0x3e0af585	0.13570221
5	0x3da190c5	0.07888941
6	0xbe1a273e	-0.15054032
7	0xbddd4348	-0.108038485
8	0xbd009e27	-0.031400826
9	0x3d3ca8d2	0.046059437
10	0xbd378816	-0.044807516
11	0xbdddb816	-0.10826127
12	0xbd262c75	-0.04056974
13	0xbe4627d3	-0.19351129
14	0x3df1db3d	0.118093945
15	0xbd704e5f	-0.05866849
16	0x3d5a1a79	0.053247903
17	0xbe0af07e	-0.13568303
18	0xbcd4d086	-0.025978338
19	0xbe32720b	-0.17426316
20	0x3e237ba9	0.15965141
21	0xbd80bebc	-0.0628638
22	0xbdcdb3bd	-0.10044048
23	0xbc5d5350	-0.013508633
24	0xbe3e2685	-0.18569382
25	0xbe16ec9d	-0.14738698
26	0xbd40d2ab	-0.04707591
27	0x3e2348d8	0.15945756
28	0xbddfc150	-0.10925543
29	0x3df9b68a	0.1219302
30	0x3dac0971	0.08400238
31	0xbdb0d9a2	-0.0863526
32	0xbe7b7db8	-0.24559677
33	0xbe5d779c	-0.21627659
34	0xbe83b790	-0.25725985
35	0xbe360eb1	-0.17779042
36	0xbef9691d	-0.48713008
37	0x3d9cae0a	0.07650383
38	0xbe78a6ff	-0.24282454
39	0xbebe4960	-0.37165356
40	0xbd6e88cc	-0.05823593
41	0xbec73517	-0.38907692
42	0xbe842f62	-0.258174
43	0xbc5f2c53	-0.013621408
44	0xbe1aaed0	-0.15105748
45	0xbe925b79	-0.28585413
46	0x3c50bf2f	0.012740894
47	0xbed86bd1	-0.42269757
48	0xbea10829	-0.31451538
49	0xbe0c8af3	-0.1372488
50	0xbe1906ac	-0.14943951
51	0x3da5ac6d	0.08089528
52	0xbefa465c	-0.48881805
53	0x3da24490	0.079232335
54	0xbf1f562d	-0.6224087
55	0xbe382ff2	-0.1798704
56	0x3daa1229	0.08304245
57	0xbed8104f	-0.42199942
58	0xbdca476b	-0.09876903
59	0xbedf08b7	-0.43561336
60	0xbe74e6f5	-0.23916228
61	0xbe66ee7b	-0.2255191
62	0xbec0a551	-0.37626126
63	0xbc12de44	-0.008964125
64	0x3c8df39c	0.017328076
65	0x3c707bf0	0.0146779865
66	0x3d865ba1	0.065604456
67	0x3d020173	0.031739663
68	0x3db8dde4	0.09026697
69	0xbda91793	-0.082564496
70	0x3bbfdfab	0.0058555207
71	0xbca2337d	-0.019799942
72	0x3d866600	0.06562424
73	0x3dfc0d24	0.12307194
74	0x3d80bfac	0.062865585
75	0x3d66234f	0.056186017
76	0xbda8f00e	-0.08248912
77	0x3dff35d4	0.12461439
78	0xbce97349	-0.028497355
79	0x3e0aa1ff	0.13538359
80	0xbdd724c2	-0.10505058
81	0x3d121f7f	0.03567457
82	0xbcf09ff5	-0.029373148
83	0x3dee55ac	0.11637434
84	0xbccca9ff	-0.024983404
85	0xbe0bd358	-0.1365484
86	0x3d269b1d	0.04067527
87	0x3a485e80	0.0007643476
88	0xbda18d00	-0.07888222
89	0xbde1a56d	-0.110178806
90	0x3c75c633	0.015000868
91	0x3dfbf029	0.12301666
92	0x3e2e8d99	0.17046203
93	0xbdf0b15f	-0.11752581
94	0xbdb62550	-0.088938355
95	0xbcd8b96c	-0.026455604

gru.bias_hh_l1 f4 [96]
0	0x3e1080c7	0.14111625
1	0x3dc58cdc	0.096460074
2	0xbe0070a5	-0.1254297
3	0xbd9f986e	-0.077927455
4	0xbc026af6	-0.007960072
5	0x3e23cfe7	0.15997277
6	0xbe50a7c7	-0.20376502
7	0xbd17a04a	-0.037018098
8	0xbddb99da	-0.10722704
9	0xbd049e4d	-0.03237753
10	0xbe3c16f9	-0.18368138
11	0xbdc04c5a	-0.09389563
12	0xbd3ba3cb	-0.045810502
13	0x3d36e611	0.044653002
14	0x3e1458d1	0.14487006
15	0x3e229045	0.15875347
16	0xbd3bfa28	-0.045892864
17	0x3dce6630	0.100780845
18	0x3d279500	0.04091358
19	0xbe2ad3fa	-0.16682425
20	0x3d26eca7	0.040753033
21	0xbce3a6fc	-0.027789585
22	0x3df10e78	0.11770338
23	0x3d0e5825	0.03475203
24	0x3dd1cc71	0.10244072
25	0x3df91179	0.12161536
26	0x3b82775d	0.0039815144
27	0x3a759dfa	0.00093695486
28	0xbdfd6f51	-0.123747475
29	0x3e0f1dc2	0.13976195
30	0xbe0c3ed7	-0.13695846
31	0xbe26ce68	-0.16289675
32	0xbeca3fc5	-0.39501777
33	0x3dbd9823	0.092575334
34	0xbe194de1	-0.14971115
35	0xbed1a331	-0.40944818
36	0xbe37d88c	-0.179537
37	0x3de7daef	0.11321055
38	0xbd9bf577	-0.07615178
39	0xbe0af9db	-0.13571875
40	0xbe4bcc38	-0.19902122
41	0xbe48cf46	-0.19610319
42	0xbeb89456	-0.3605067
43	0xbd117807	-0.035514858
44	0xbd729421	-0.059223298
45	0xbe59804d	-0.21240349
46	0x3d9bdca8	0.07610446
47	0xbe064d07	-0.13115321
48	0xbc91eb6d	-0.017812455
49	0xbe8b17a8	-0.27166486
50	0x3d894841	0.067032345
51	0xbbd8a0c8	-0.0066109635
52	0xbefc400b	-0.4926761
53	0x3d43401a	0.047668554
54	0xbf0a6974	-0.5406716
55	0xbeaa4ea0	-0.3326311
56	0xbe08aad5	-0.13346417
57	0xbf27722a	-0.65408576
58	0xbd436326	-0.047701977
59	0xbecd9a85	-0.40156952
60	0xbe8a7248	-0.27040315
61	0xbd60ff1f	-0.054930802
62	0xbea2db71	-0.31808046
63	0xbe4844a9	-0.19557442
64	0xbca41942	-0.020031575
65	0x3d5987c0	0.053107977
66	0xbe32fcb9	-0.17479219
67	0xbca98505	-0.020693311
68	0x3cca71db	0.024712494
69	0xbdf07a5e	-0.1174209
70	0xbaa508e3	-0.001259115
71	0xbdc3a4a8	-0.0955289
72	0xbe0918d2	-0.13388374
73	0x3db57d81	0.088618286
74	0x3d02d7e9	0.03194419
75	0x3ba0ab06	0.0049032
76	0x3d7bb8f4	0.061455682
77	0xbd1a3703	-0.03765012
78	0xbe2a2b5d	-0.16618104
79	0xbdd13082	-0.1021433
80	0xbe033a7b	-0.12815277
81	0x3d118fb2	0.03553743
82	0x3dff798f	0.12474357
83	0x3da1efaa	0.079070404
84	0x3df8b335	0.12143556
85	0x3dd8d3b9	0.10587258
86	0xbe171b22	-0.14756444
87	0xbc859c83	-0.016309982
88	0x3ddaa158	0.10675305
89	0x3c94129c	0.01807528
90	0xbd3422e5	-0.04397859
91	0x3cca3673	0.024684167
92	0xbba43438	-0.005011108
93	0xbdabce5e	-0.08388971
94	0x3d953e3c	0.07287261
95	0x3e2ffde3	0.17186694

fc.weight f4 [1, 32]
0	0x3db1184a	0.08647211
1	0x398e2f7f	0.00027119738
2	0x3dbc735d	0.09201691
3	0xbe3c2daa	-0.18376794
4	0xbe068cf9	-0.13139714
5	0x3d5aef2a	0.05345074
6	0xbe254a8a	-0.16141716
7	0x3e6222a4	0.22083527
8	0x3e4ee0e6	0.2020298
9	0xbe2d0422	-0.16896108
10	0xbe0e96a1	-0.13924648
11	0xbd8e5ad8	-0.06950921
12	0xbe016e29	-0.12639679
13	0xbdf57845	-0.1198583
14	0x3d0df95b	0.034661632
15	0x3e105cca	0.14097896
16	0x3e29f163	0.16595988
17	0xbe5187f1	-0.20462014
18	0xbde458e4	-0.11149767
19	0xbd239267	-0.039934542
20	0xbdccfcec	-0.100091785
21	0x3ccba766	0.024860095
22	0x3e244901	0.16043474
23	0x3db57785	0.08860687
24	0x3bb23205	0.0054380917
25	0xbe16039f	-0.14649819
26	0x3d9f6432	0.077827826
27	0x3e92f719	0.28704146
28	0xbe21d08b	-0.15802209
29	0xbda15382	-0.07877256
30	0x3e668c13	0.22514372
31	0xbde5e556	-0.11225383
