gru_model.pth (torch, 41715 bytes, 9 tensors)

gru.weight_ih_l0 f4 [96, 1]
000000 de e6 1d 3e 3b 84 2a be dc 43 8c 3e 08 ed e9 3d
       0.154201 -0.16652004 0.27395523 0.11422163
000010 9d 44 c3 3e b4 e4 7e 3e 5d 14 a2 bb be c3 6f 3d
       0.38138285 0.24891931 -0.004946275 0.058536284
000020 38 cc 9b bd 82 77 7a 3e bd 46 aa be d9 67 d7 3d
       -0.07607311 0.24459651 -0.33257094 0.10517854
000030 d5 d2 47 bc 72 5e 62 3e eb ce f5 bc 9f 89 8d 3e
       -0.012196262 0.2210634 -0.030005893 0.2764406
000040 54 4c 50 bd 99 7d 98 3d d5 e9 b1 bc bf 5e 04 be
       -0.050854042 0.07445831 -0.021717945 -0.12926768
000050 ae 14 31 3a 9d 73 25 be e9 ea e7 3c a6 e3 94 bd
       0.00067550957 -0.16157384 0.028310256 -0.07269983
000060 e6 f6 35 3e 2c 47 87 3d af 8f e6 bd 8e 90 20 be
       0.17769966 0.06605372 -0.11257874 -0.15680143
000070 be 1b d0 bd 4f 43 fb 3d 8d c9 a8 bc 7a 67 8c 3e
       -0.101615414 0.122686975 -0.02060392 0.27422696
000080 68 09 03 3e 2f 5e 07 bd 56 83 07 bd e1 51 17 3e
       0.12796557 -0.033048805 -0.033084236 0.14777328
000090 8a fb b4 bd f0 be e5 3c 49 90 e6 3d 60 63 0a 3e
       -0.0883704 0.028045148 0.11257989 0.13514471
0000a0 ec d0 de bd e0 4c 73 3d e4 54 12 be 84 61 8d bc
       -0.108796924 0.059399486 -0.14290196 -0.017258413
0000b0 a4 ba 07 be f3 d9 32 bd 6a d9 95 3d f9 89 fe 3a
       -0.13254791 -0.043664884 0.07316859 0.0019419781
0000c0 77 e8 11 3d 51 73 17 be fb 86 09 bd 55 fd 62 3d
       0.035622086 -0.14790083 -0.033575993 0.055417378
0000d0 34 55 b6 bc ba 6f 4b bd 0e 40 57 3d 3f e0 8a bd
       -0.022257425 -0.049667098 0.05255132 -0.06781053
0000e0 61 f4 f1 3d 0b b7 38 3e 95 42 ca bd 9a e3 2a 3e
       0.1181419 0.18038575 -0.09875981 0.16688386
0000f0 e9 4c 38 3e e0 b1 dc 3d cb a4 d6 bd db 67 08 be
       0.17998089 0.107761145 -0.104806505 -0.13320868
000100 5c 4d fa bd cc 01 51 3e dd 91 5b 3e da 1f 8b be
       -0.122217864 0.20410842 0.21442361 -0.27172738
000110 07 06 60 3e 7a ca 5b 3e 11 db 7a 3e 9b ae ca 3d
       0.21877299 0.21463957 0.2449763 0.098965846
000120 03 a6 6d 3e 4c e7 b2 bb 78 bf 86 be d0 6a 11 3e
       0.2320786 -0.0054597016 -0.26317954 0.14200902
000130 48 c0 49 3e 68 a1 67 3e f4 93 78 be 6e 8e 3f be
       0.19702256 0.22620165 -0.2427519 -0.18706676
000140 ac 54 17 be f9 ad bd 3d 40 cf de 3d d3 cd 85 3c
       -0.14778394 0.09261698 0.108793736 0.016333496
000150 c3 b4 28 3e 6a b0 16 3e ba 39 de 3d 34 63 4c 3e
       0.16475205 0.14715734 0.10850854 0.19959718
000160 0d 7e 2c be 6b 7f 3b 3e 31 37 64 3e cf 5a 84 be
       -0.1684496 0.18310325 0.22286679 -0.2585053
000170 1c 02 85 be fe 9b b6 3d 65 d3 3e be cd 57 6b 3e
       -0.25978172 0.08916472 -0.18635328 0.22982712

gru.weight_hh_l0 f4 [96, 32]
000000 4d fd b2 bc 53 7c 63 be b0 0b cc bd 66 1a 97 bd
       -0.021849299 -0.22215395 -0.09963167 -0.07378082
000010 9b 42 2d be ed 44 85 bd 96 a4 6a bc 1b 69 bf bd
       -0.16919939 -0.06507287 -0.014321467 -0.09346219
000020 2d a1 c3 3d 7e 12 20 3e 8c dc 8c 3d 14 0a 2a be
       0.09552226 0.15632054 0.068780035 -0.16605407
000030 79 e1 45 be d8 2b cb bd cd ca 6b 3e ef 9a 75 3d
       -0.19324292 -0.09920472 0.23026581 0.05996221
000040 8c e6 aa bd a0 ee 40 bd 92 64 c1 bc a1 09 f3 bc
       -0.083447546 -0.04710257 -0.023607526 -0.029667677
000050 cd 11 e1 3d 3d c3 c2 bd 62 94 89 be 53 5e 17 be
       0.10989723 -0.09509895 -0.2687102 -0.14782076
000060 8b fc 55 3d 0c 97 a9 bc c1 0b eb bc 54 32 f2 3b
       0.052242797 -0.020701908 -0.028692128 0.0073912535
000070 15 b4 92 bd f1 1f 13 3d 02 22 4f 3c 8e 24 47 be
       -0.07163254 0.035919134 0.012642385 -0.19447538
000080 76 35 95 3d 3f 02 e9 bd 07 75 c7 3c 44 41 54 3d
       0.072855875 -0.113773815 0.024347795 0.051820055
000090 cb 88 4d bd e8 46 e9 3d 4c dc c6 3c bf 77 9e 39
       -0.050179284 0.113904774 0.024274968 0.00030225326
0000a0 e5 13 78 3d 69 bc bc bd 1f b0 ef bd c5 96 46 be
       0.060565848 -0.09215624 -0.11703514 -0.19393452
0000b0 62 da 8d 3d b9 b5 6d be 6f e5 51 3e d6 1a c2 3d
       0.06926419 -0.23213853 0.20497678 0.09477775
0000c0 2e da 02 bd f2 9e ce bd 20 21 7c bd 90 41 3c be
       -0.031946354 -0.1008891 -0.061555028 -0.18384385
0000d0 05 9b 29 bd 32 8e 13 3e 31 d3 5d bd 98 cd a6 3d
       -0.041407604 0.14409712 -0.054156486 0.08144683
0000e0 d7 71 47 3e 8f 50 f6 bd fb 1a 1b be dc 17 3a 3e
       0.1947702 -0.12027084 -0.15147011 0.18173164
0000f0 6d 6d 1e 3b fd e9 0a be 8f 79 57 bd 7b cf 0a bc
       0.002417411 -0.13565822 -0.05260616 -0.008472319
000100 8b a1 a2 bd c8 f5 e3 bd 0c ee f5 bd 71 cf e9 3b
       -0.07940968 -0.111308634 -0.120082945 0.0071353246
000110 3e c1 eb bd 69 c2 00 bd 30 7a 42 3e 8b 68 40 be
       -0.115114674 -0.031435404 0.18991923 -0.1878988
000120 c6 a9 df bd 42 49 29 be 1a b7 38 3c 6c 67 6f b8
       -0.109210536 -0.16531852 0.011274124 -5.707836e-05
000130 97 7e 1f be 5a 0a 03 3d fc 7e e2 bd d7 db a0 3d
       -0.15575634 0.031992294 -0.110593766 0.07854431
000140 52 0f 00 3e 48 d1 e5 bd 7b 88 e1 bd 80 06 53 3c
       0.12505844 -0.11221558 -0.1101236 0.012879968
000150 aa c1 0d be 6a 27 a2 3a 39 c7 63 be 6f 90 13 39
       -0.13843408 0.0012371365 -0.22243966 0.00014072818
000160 c0 5d 28 3e c2 db d3 bd d8 bf 6c 3d ea 41 d3 3d
       0.16442013 -0.1034465 0.057800144 0.103153065
000170 ea 90 bc bc 39 96 d4 3d b7 8e 46 3d 94 36 12 be
       -0.02301832 0.10380215 0.048475947 -0.14278632
000180 5d 10 d2 bd 91 c6 e5 3c a3 09 2c bd 13 4d e2 bd
       -0.10257027 0.028048785 -0.042001378 -0.11049857
000190 0b ba ab bd 3e f3 ae 3d bb 73 48 3e 4d b9 60 bd
       -0.08385094 0.085424885 0.19575398 -0.054864217
0001a0 ad e7 cb 3c bb ec 9c 3b ef 8f c7 bd 86 c9 c3 3d
       0.024890745 0.0047889627 -0.0974425 0.09559922
0001b0 82 0f e5 bc 8c 32 6f 3e da 8c 81 be e8 d8 dc 3d
       -0.027961496 0.23359126 -0.25302774 0.10783559
0001c0 19 90 ad 3d cc 16 cc bd 68 fb ad 3d c5 47 d7 3d
       0.0847475 -0.09965286 0.084952176 0.10511736
0001d0 30 72 9e bc 2e 2b 46 3e 6e cb 16 be 1c ee 48 be
       -0.019341558 0.19352409 -0.1472604 -0.19622082
0001e0 95 e1 5c 3e e2 27 12 3d 1b 8c a3 3c f3 66 09 be
       0.21570428 0.035682566 0.019964268 -0.13418178
0001f0 49 d1 33 be db eb 4c 3d 20 57 07 be 1f d0 04 3e
       -0.17560305 0.050029617 -0.1321683 0.12970017
000200 c5 64 a4 3d bc 5e 88 bd 9b f8 01 bd ba 05 41 3e
       0.08027033 -0.06658694 -0.03173123 0.18849841
000210 01 b8 c7 bd c5 6f 53 3d c1 48 1d be 0a 7f 8b be
       -0.09751893 0.051620264 -0.15359785 -0.2724536
000220 c1 8b 03 bd af 00 1d 3d f6 ba 80 3c d7 67 97 bd
       -0.0321157 0.03833073 0.01571415 -0.07392853
000230 65 33 81 bd f1 dc d6 3d c8 69 1a be 95 5b b9 bd
       -0.06308631 0.1049136 -0.15079415 -0.09050671
000240 74 cb 9d bd d2 b4 3a 3d 63 c4 81 bd c0 85 b6 bd
       -0.07704821 0.0455826 -0.06336286 -0.089122295
000250 77 5b 73 3d 99 bf 8a 3d aa b3 5d be 7e e3 76 be
       0.0594134 0.067748256 -0.21650568 -0.24110219
000260 3c 20 10 3e 3d fd 14 3d 2d 2b 6b 3d b6 b7 b0 3d
       0.14074796 0.03637432 0.057414223 0.0862879
000270 2c f5 f5 3d 24 4e 21 3e 9f 09 80 bd cb 8d 21 3e
       0.120096534 0.15752465 -0.06251835 0.15776746
000280 69 3e a0 bd 82 6b 61 bd 00 2b 9e bd a7 53 00 3e
       -0.07824404 -0.055034168 -0.07723045 0.12531911
000290 f9 94 93 bd 02 d8 9e bd b7 d9 54 3c ee 43 0e bd
       -0.07206149 -0.07756044 0.01299136 -0.03473275
0002a0 bd 1d 5d 3d 14 5a 44 bd 0c 5d 85 bd 30 f8 b2 3d
       0.05398344 -0.047937468 -0.06511888 0.08738744
0002b0 13 3f 46 3d 3b d0 cf bd 6c 95 11 be 8d 6e a9 3d
       0.048399996 -0.10147139 -0.14217156 0.08273039
0002c0 22 70 9b 3d a1 db 36 3e 5c fc 6f 3c 93 72 d1 bd
       0.07589747 0.1785722 0.0146475695 -0.102269314
0002d0 fb fc a6 bd 7a a2 ad bd 99 2e 3a be d2 5a 12 be
       -0.08153721 -0.084782556 -0.18181838 -0.14292458
0002e0 09 4a 65 bd 72 e4 ef bd c6 b4 81 bd dd 17 a9 bd
       -0.05597881 -0.11713494 -0.06333308 -0.08256505
0002f0 c4 79 bc 3d de a8 d2 bd 59 13 41 be 9e bd 61 3d
       0.092029124 -0.10286115 -0.18855037 0.055112474
000300 e5 06 24 be 50 ca f6 3c 31 8d 9e bd c5 c0 8d 3d
       -0.16018255 0.030125767 -0.07741774 0.069215335
000310 0b a5 2d be a3 12 32 be 27 59 55 bb b1 2e f1 bc
       -0.1695749 -0.17389922 -0.003255436 -0.02944121
000320 ce f3 02 be 7f d6 ca bd 76 82 97 3d 18 05 62 bd
       -0.12788317 -0.09904193 0.0739793 -0.05518064
000330 0b 69 fe 3d c8 75 cf 3c aa 45 f4 bd f5 ed ae 3c
       0.12422379 0.025324717 -0.1192735 0.021353701
000340 69 c3 e2 3c 5f 3c 97 bd 12 68 c0 bc 60 0c 8d 3c
       0.02768107 -0.07384562 -0.023487125 0.017217815
000350 a2 6a c2 bd fc 9e d3 bc a2 02 32 be 1d 2c 0c 3e
       -0.09492995 -0.025832646 -0.17383817 0.13688703
000360 cf b3 78 bd 44 84 e1 bd cf 55 3f 3e e4 34 31 bc
       -0.060718354 -0.11011556 0.18685077 -0.010815833
000370 aa 9b c9 3d d6 12 a5 3d fe b7 49 3d 2c 64 cc bd
       0.09844144 0.08060233 0.049247734 -0.09980044
000380 a0 e2 82 bc e2 39 1e 3e 46 2d 5f bc 26 e3 19 3e
       -0.015977204 0.15451768 -0.013621634 0.15028057
000390 b5 df 64 3d b8 78 13 3d 2e 6b 2d 3e 90 df f5 bc
       0.055877406 0.0360038 0.16935417 -0.03001383
0003a0 ab 65 b7 bd 35 3e c8 bd d5 51 c1 bd f7 ec 23 be
       -0.089549385 -0.0977749 -0.09439436 -0.16008364
0003b0 6e 06 04 be 14 25 40 3c 78 e6 0c be c4 7f 13 3e
       -0.12893078 0.01172759 -0.13759792 0.14404207
0003c0 1e 92 9d bc 79 7e 99 bd 7e 70 dd 3c 9b 37 09 bb
       -0.019234713 -0.07494826 0.02703118 -0.0020937684
0003d0 dc 87 af 3d ed 40 0d be a5 ec 04 be e9 0f 46 3c
       0.08570835 -0.13794298 -0.12980898 0.012088754
0003e0 a9 7a 0d be e8 a9 30 be 37 9c 1f be e6 75 fc bc
       -0.13816322 -0.17252314 -0.15586935 -0.030817937
0003f0 bf 9d c8 bd 2e f2 10 bd 8c 4d 66 3d b1 ef 88 bd
       -0.09795713 -0.03538721 0.0562263 -0.066863425

gru.bias_ih_l0 f4 [96]
000000 ab e9 2a 3e 03 27 c7 bd b7 7a 08 3c 7a aa 03 be
       0.166907 -0.09724238 0.008330039 -0.12858
000010 2c 97 d6 bd 1a db bb bc 2b 26 a4 3d 16 66 67 bd
       -0.104780525 -0.022931624 0.080150925 -0.05649384
000020 69 07 df bd b3 6f 88 3d 1e 79 45 bc 78 59 10 be
       -0.10890085 0.0666193 -0.012052802 -0.1409663
000030 60 59 a1 3d 04 e9 9f 3d 4d ea ff bd d7 30 c9 3d
       0.07878375 0.07808116 -0.12495861 0.098237686
000040 de 7e 4d 3e 97 bb e8 bd 39 60 cf bb 3d 20 80 3d
       0.20067927 -0.11363905 -0.0063286093 0.06256149
000050 12 32 15 be 7c f1 08 bc 9f bf 81 bd 7a 03 1e 3e
       -0.14569882 -0.008358356 -0.06335377 0.15431014
000060 8c 8b 42 ba 87 d4 f9 3d c3 0d 16 be e6 7c 3b be
       -0.0007421307 0.121987395 -0.14653687 -0.18309364
000070 1e 31 a3 3c f5 7f 12 be 7a e4 a3 bc 8f e4 ba bd
       0.019920882 -0.14306624 -0.020006407 -0.09125625
000080 b9 17 e7 bd ac ca 16 3c 57 3a af be 79 28 a1 be
       -0.112838216 0.009203594 -0.34224197 -0.3147619
000090 fa 72 f5 be 52 16 bb bd c7 56 dd be 86 b3 81 3d
       -0.47939283 -0.09135117 -0.43230268 0.063330695
0000a0 51 72 11 be 39 47 34 3e 5e 7a ce be 6a 04 d5 bd
       -0.14203764 0.17605294 -0.40327734 -0.104012325
0000b0 b0 01 cc be 09 f0 63 be 4b 05 0e be 50 19 22 be
       -0.39845037 -0.22259535 -0.13869207 -0.15829968
0000c0 76 27 72 be 23 97 bd be 8b c4 18 be 5d 12 a4 3d
       -0.23647866 -0.3702937 -0.14918725 0.08011315
0000d0 f8 53 90 be 9f fd 77 be 3e 31 5f bd 9a 89 ac 3d
       -0.28189063 -0.24217843 -0.05449032 0.08424683
0000e0 ed db ed bd 34 b2 2d be 7d ae a8 be d1 53 cb bd
       -0.11614213 -0.1696251 -0.32945624 -0.09928096
0000f0 ba fe d3 be 00 c9 d6 bd 70 1d f7 bd a9 f6 ce bd
       -0.41405278 -0.104875565 -0.12066162 -0.101056404
000100 53 9f b2 bd 61 eb 05 be a5 33 af 3c 1f e5 c6 bd
       -0.08721795 -0.13078071 0.02138693 -0.0971167
000110 bf 71 70 bd ad b7 b3 3d c4 cd 0b be a4 ab db 3d
       -0.058702227 0.08775268 -0.13652712 0.10726097
000120 37 e4 0e be 99 5e 28 3e 60 67 82 bd 07 bd 8a bd
       -0.13954245 0.16442336 -0.063673735 -0.06774335
000130 4c 36 11 be 5b af c5 bd 57 cc a1 3d 2c 02 c5 bc
       -0.14180869 -0.09652587 0.07900303 -0.024048887
000140 7c 37 ac bd f6 6a d5 3b da 7c 18 bc a7 59 ef bc
       -0.0840902 0.006512995 -0.009307111 -0.029217554
000150 ae cb 33 be d6 04 65 bd e1 cb 0f 3e c2 55 a4 3d
       -0.17558166 -0.055912815 0.14042617 0.080241695
000160 36 79 b3 bd 85 d0 d2 bd ac f7 94 bd 8a 6e ba bc
       -0.087633535 -0.10293678 -0.07273802 -0.022757787
000170 08 60 27 3c d6 22 1b be 16 3b ff bb e8 cb 52 bd
       0.010215767 -0.15150008 -0.007789026 -0.05146399

gru.bias_hh_l0 f4 [96]
000000 08 21 31 bb 4d 53 15 bb 2a ff ce 3d 4b f7 57 3d
       -0.0027027745 -0.0022785247 0.101072624 0.05272607
000010 08 78 c8 bd cc 8e a2 bd 98 65 f0 3d 41 c4 5e 3d
       -0.09788519 -0.079373926 0.117381275 0.05438638
000020 56 c6 64 3d e3 2c bf 3c f3 3a af bd 45 ba 3b bd
       0.05585321 0.023336833 -0.085561655 -0.045831937
000030 ba ef 1f be 53 49 e9 bb 94 41 85 bd fe f8 33 be
       -0.15618792 -0.0071193366 -0.06506649 -0.17575452
000040 51 88 d4 3d 9e c7 cc 3c 79 06 f4 bb d8 a6 5e bd
       0.10377563 0.024997529 -0.0074470607 -0.054358333
000050 ac 59 f6 3b 8c b3 72 be a8 9a ae 3d 0f ec 7a 3d
       0.007518014 -0.23701304 0.08525592 0.06126028
000060 bc 40 27 be d1 94 59 3d 75 a0 1a 3e 3b 9b 2a be
       -0.16333288 0.053120438 0.15100272 -0.16660778
000070 41 76 85 be b1 0b 95 bd e4 ab f8 bd 44 96 d1 3c
       -0.26066783 -0.072776206 -0.121421605 0.025584348
000080 3e 93 0b be 90 8f 1e bd 6c f8 cf be 2e c8 7f be
       -0.13630387 -0.03871113 -0.40619218 -0.24978706
000090 c4 d8 a3 be f7 f8 87 be a0 7c b1 be 4c 4a cf bd
       -0.32001317 -0.26557133 -0.34665394 -0.10121593
0000a0 08 64 60 be d5 c3 db bd d8 ed 21 bf 56 3e 9f bd
       -0.21913159 -0.10730711 -0.63253546 -0.077755615
0000b0 21 b6 06 bf 10 96 06 be 66 c6 07 be f0 db 7a be
       -0.52621657 -0.13143182 -0.13259277 -0.24497962
0000c0 4f 95 53 bd e4 35 f5 bc d4 c1 2c be be 81 a3 3c
       -0.051656064 -0.029932924 -0.16870815 0.019959327
0000d0 84 33 bc bd 7b f1 f3 be 35 c8 22 be bd 0f 8a bd
       -0.09189513 -0.47645172 -0.15896685 -0.06741283
0000e0 ef f4 af bd ca 16 61 bd 4a fb 9b be bb d4 ae be
       -0.08591639 -0.054953374 -0.30465156 -0.34146675
0000f0 87 00 a9 be fd ef 0b be 17 63 51 be f9 92 a5 bd
       -0.33008215 -0.13665767 -0.20447956 -0.080846734
000100 e4 3b 95 bd a2 5c 34 bb b9 6b c1 3d 05 94 8e bd
       -0.07286814 -0.0027521034 0.094443746 -0.06961826
000110 96 8c ab 3b ed 8f 3c 3d 35 ff ac 3c 38 c9 f4 bc
       0.005235265 0.046035696 0.021117786 -0.029881105
000120 e3 a8 46 bd 6a 2c 16 3e c4 99 ab 3c 57 6b ad bd
       -0.048500907 0.1466538 0.020947345 -0.08467739
000130 f7 e7 0d 3d 6f 08 e2 bc d9 f8 a3 3d d6 b1 22 3d
       0.034645047 -0.027591912 0.08006448 0.03972038
000140 82 62 56 bd 18 77 d8 bd 3c 62 9a 3d 1d 17 6c bc
       -0.052340038 -0.1056959 0.07538268 -0.0144098075
000150 d7 e8 19 3e f3 56 34 bd 89 f6 ac bd a9 18 22 3e
       0.15030228 -0.044028234 -0.0844546 0.1582972
000160 bf ac 2b be fc 90 f4 3b f4 6c e1 bd a7 48 6f bc
       -0.16765116 0.0074635725 -0.11007109 -0.014604724
000170 42 ed af bd 9c 31 6c bd c0 a1 bd 3c 55 0d da bd
       -0.08590175 -0.0576645 0.023148417 -0.10647074

gru.weight_ih_l1 f4 [96, 32]
000000 0e 91 a4 3d 05 10 b0 bd 68 34 5a 3e e4 c3 42 be
       0.080354795 -0.085968055 0.21309054 -0.19020039
000010 d1 c3 a3 3e b4 1a 43 3e 46 1a a6 3d 65 ce 98 3d
       0.31985334 0.19053155 0.0811048 0.07461242
000020 9c 06 c5 bd 4f 8c 02 be ca 6a b4 be c9 2d 8c 3d
       -0.09620401 -0.12748836 -0.35237724 0.0684467
000030 24 1b 90 3c d6 86 fd 3d 84 25 42 3d 6e 0d 01 be
       0.017591067 0.123792335 0.04739906 -0.1260278
000040 05 97 b0 bc 65 6c 33 3d 5c 70 ba bd 0d 03 07 3e
       -0.021556387 0.043804545 -0.09103462 0.13184758
000050 53 d9 bd bc b2 c7 70 3e f3 af c7 3d 2f 61 d1 bc
       -0.023174917 0.23513678 0.097503565 -0.025559036
000060 6e 22 63 3c d3 83 a1 bc 1d f6 a0 3c 7d 49 2e be
       0.013863189 -0.019716179 0.019648606 -0.17020221
000070 a9 d1 91 be 89 28 87 3d dc 17 86 be 4d 8c 2e 3e
       -0.2848027 0.06599528 -0.26190078 0.17045708
000080 c2 03 e1 3d 2f 10 ea bd b9 d8 58 be 4d 44 63 3e
       0.10987045 -0.11428868 -0.21176423 0.22194023
000090 b2 56 a2 be a0 79 8d be 84 63 7c be c3 6b f7 bd
       -0.31706768 -0.27631855 -0.24647337 -0.12081101
0000a0 f2 75 55 be ea 1f 45 3a 95 da bc 3e be de 12 bd
       -0.20845774 0.0007519709 0.36885515 -0.035856955
0000b0 59 f7 72 be 37 0c 9d be 41 42 ca 3d 08 28 8b 3e
       -0.23727168 -0.30673382 0.09875918 0.2717898
0000c0 73 66 83 3e d8 ef ab bd 0d a1 2b 3d 96 16 55 3d
       0.256641 -0.08395356 0.041901637 0.052023493
0000d0 45 3f 64 be ae 8d 1c be f2 e5 a4 bd 49 89 7c 3d
       -0.2228976 -0.15288422 -0.08051671 0.061654363
0000e0 ea 00 93 bd 40 4a 80 3d 84 85 34 bd 49 74 49 3e
       -0.07177909 0.06264162 -0.044072643 0.19673266
0000f0 80 a1 63 3d 40 cf 8f bd fb e6 49 3e e9 b1 f6 bd
       0.05557394 -0.07021952 0.19717018 -0.120456524
000100 f4 80 ec bd 90 fe 98 bc a7 e6 68 be f7 b6 1f bc
       -0.11548033 -0.018676072 -0.22744237 -0.009748212
000110 0f 00 a7 3d 9c 52 64 bd b3 0d 0c be 44 ed 39 be
       0.08154308 -0.055742845 -0.13677101 -0.18156916
000120 83 64 c4 bd 11 95 65 3d a1 4a 0c 3e 31 39 e9 bd
       -0.095894836 0.056050364 0.13700344 -0.113878615
000130 18 c1 c0 3c 01 b5 e9 bd f7 20 6b bd 67 a5 71 bd
       0.023529574 -0.11411477 -0.057404485 -0.05899563
000140 39 2d 3d 3e cc 57 52 ba a1 18 28 bc 13 28 a1 3c
       0.18474282 -0.0008023947 -0.010259778 0.01967243
000150 24 86 82 bb 1c 38 13 bd 39 c1 e8 bd 57 62 4a 3d
       -0.003983276 -0.035942182 -0.11364979 0.04941019
000160 29 4c 6c 3d 2c 37 9b 3d 46 c5 cd 3c 4e d4 da 3a
       0.05768982 0.075788826 0.025118481 0.0016695352
000170 e8 b8 91 bd 94 23 1c 3e 8a 31 cc bd 0d f9 a6 bd
       -0.07115346 0.15247947 -0.09970386 -0.081529714
000180 22 5d ec bc 2a 68 0b 3e c7 7f 6b 3e 62 fc 5d be
       -0.028853003 0.13613954 0.22997962 -0.21678308
000190 45 36 6e 3e 9a 1a 96 bd 49 5f 78 3d 61 cd 04 be
       0.2326289 -0.073292926 0.060637746 -0.12968971
0001a0 2f 84 f8 3d 82 7b 09 be 0e 25 5e 3a 1d 34 54 3e
       0.12134587 -0.1342602 0.00084741495 0.20723005
0001b0 f2 a3 4d 3e a3 e9 2c 3e 31 40 4a bd be fb 81 be
       0.20082071 0.16886 -0.049377624 -0.25387377
0001c0 0a e4 10 be 94 49 fd 3d d3 90 5e 3e 4d 18 c6 bd
       -0.1414949 0.123675495 0.21734934 -0.09672604
0001d0 57 5d 6f bd 54 4a 5d 3e 14 3f a5 3d f6 12 41 bd
       -0.058438625 0.21610385 0.08068672 -0.047137223
0001e0 64 34 08 be e0 e4 20 bd 62 7a e7 3c fe bb b7 bd
       -0.13301235 -0.039280772 0.028256599 -0.089714035
0001f0 97 42 d3 bc df 3a ec bd 74 51 24 be bf 56 58 3e
       -0.025788588 -0.11534666 -0.16046697 0.21126841
000200 a6 6f 29 be 10 2b 8f 3b 5a 2f eb 3d 01 16 29 be
       -0.16546497 0.004369147 0.11483641 -0.165123
000210 c5 52 88 3e 62 a6 94 3e 88 8a 81 3e 76 67 e1 bd
       0.26625648 0.2903319 0.25301003 -0.11006062
000220 b3 8c a8 3d ad d9 ce 3d 62 9b 4a be 7e c2 22 3d
       0.08229961 0.10100112 -0.19785836 0.039736263
000230 fd 72 bf bb 22 7b 08 3b 19 49 72 be 5b df 96 be
       -0.005842565 0.0020825346 -0.23660697 -0.29467282
000240 bc a5 c2 bd 50 48 e7 bc ca c1 60 bd 1e 0b 42 3e
       -0.095042676 -0.028232723 -0.05487231 0.18949553
000250 c1 78 18 3d fe cb c0 3d 21 f5 10 3c 0a f3 81 3d
       0.037224535 0.094139084 0.008847506 0.06345184
000260 a3 d7 d1 3d c7 a8 9f bb 09 2e 69 3e 94 7c c6 bd
       0.102462076 -0.0048724147 0.22771467 -0.0969173
000270 18 b7 89 be 3d 25 a7 bd 43 fa 54 be 8b 53 77 3e
       -0.26897502 -0.081613995 -0.20798592 0.24152963
000280 ff a2 98 bd aa ba f3 bc b5 c7 31 be 6f bf 49 bd
       -0.07452964 -0.029752094 -0.17361338 -0.04925483
000290 0b a5 3a be f1 2e 1f be 93 e5 6c be 91 b8 68 3d
       -0.18227021 -0.1554525 -0.2313445 0.05681664
0002a0 92 7b e1 3d 13 41 6a bd 93 9c 28 3e 63 b8 9b bd
       0.11009897 -0.057190966 0.16465978 -0.07603528
0002b0 19 1c 28 3d 99 7f 5a be 11 40 ee bd 8a 5b ca bc
       0.04104242 -0.21337737 -0.116333134 -0.024701852
0002c0 a4 04 7d bd 8e 7d 9f bc 1a b3 1a bd 77 ea 4b 3d
       -0.061772004 -0.019469049 -0.03776846 0.04978415
0002d0 e7 d3 da bd af 98 05 3e e0 65 03 3e 18 67 ce bd
       -0.106849484 0.13046525 0.12831831 -0.10078257
0002e0 5f ff c7 bd 80 d8 26 be 3c ca 67 bd 98 63 00 3e
       -0.09765505 -0.16293526 -0.05658935 0.12537992
0002f0 e6 18 fd 3d 56 56 30 be 2e 29 bc 3d f8 09 1e be
       0.123582646 -0.17220435 0.09187542 -0.1543349
000300 6c ab 80 3d eb 5f 3a 3e 68 29 17 bd f4 cd e5 3c
       0.06282696 0.18200652 -0.036904722 0.028052308
000310 9a c7 47 bd ee a8 3a 3d 70 79 f8 bc 7c f2 ae bd
       -0.04877434 0.04557126 -0.030331343 -0.08542344
000320 0d dd fb 3d 15 dd 11 3e dc 08 db 3b 29 e8 13 3e
       0.122980215 0.14244492 0.0066844057 0.14444031
000330 9e 82 a7 bd 7e d8 97 3c 12 1c 3f bd 14 ac 0d 3d
       -0.0817921 0.018535849 -0.04665763 0.034587935
000340 32 72 37 3d c2 46 d1 3d e8 e7 05 3e ac 59 82 3d
       0.04478664 0.10218574 0.13076746 0.0636476
000350 35 9d 5a 3d cc 42 ba bc 86 80 0c bd 67 41 70 bd
       0.05337258 -0.02273693 -0.034302257 -0.058656123
000360 5c 1f f8 bd 91 59 c6 bd 28 41 0e 3e 36 f1 22 be
       -0.12115356 -0.09685052 0.13892043 -0.15912327
000370 d5 bf 83 be e3 ff 8c bd eb b4 3f be 15 01 97 3c
       -0.25732294 -0.06884744 -0.18721358 0.018433133
000380 d5 65 a9 bd 1f ef 53 3d 96 76 cc bd 53 18 55 3d
       -0.08271376 0.051741716 -0.09983556 0.05202515
000390 d5 b4 6a 3e 56 55 e3 3d cb 8e 81 3e 0b 1b 2c ba
       0.22920544 0.11100261 0.25304255 -0.0006565309
0003a0 ca 01 33 3d 32 66 d3 bd b9 92 54 be 9c 0e 4d 3e
       0.043702878 -0.103222266 -0.20759095 0.20025104
0003b0 5b 54 18 3e 15 5b 7c 3c 92 e9 b7 3d e3 fa 48 be
       0.14875929 0.015402575 0.08980097 -0.19626956
0003c0 0c 62 29 3c f8 20 97 3d 36 d2 00 bd 74 77 f3 3d
       0.010338318 0.07379335 -0.031450473 0.11888018
0003d0 c1 a8 63 bd 9d 18 bb 3d 3e f2 8f 3d eb 0b ac 3d
       -0.05558086 0.09135554 0.07028626 0.08400711
0003e0 40 6b 57 be aa 3e ae 3d 13 7d ea 3d dd 25 ec bb
       -0.21037006 0.08508046 0.11449637 -0.007206662
0003f0 50 a6 21 be 44 fc 00 3e 94 46 f4 bd cf 83 eb 3d
       -0.157861 0.12596232 -0.11927524 0.1149975

gru.weight_hh_l1 f4 [96, 32]
000000 97 bd 89 bd 6b 15 54 be 60 99 e1 3d 98 40 b3 bc
       -0.067256145 -0.20711295 0.11015582 -0.021881387
000010 b8 69 09 3e 3f 43 c6 bd 9c ec fd bd 0b 1a 04 bd
       0.13419235 -0.09680795 -0.12398645 -0.0322514
000020 90 5f 23 be b6 4c f0 bc 3a d6 07 3e b5 7d 97 bd
       -0.15954423 -0.029333454 0.13265315 -0.073970236
000030 fb ba 81 3e 63 3f 03 be 63 e7 14 3d 36 3d 5c 3c
       0.25337967 -0.12817149 0.03635348 0.013442328
000040 9d 7a 27 3e f1 22 b7 3d fa 06 9f 3d 9b 2b d0 bd
       0.16355367 0.089422114 0.077650025 -0.10164567
000050 cd 05 81 bc 8a 88 eb 3c 9f f0 c3 bd c6 be 66 3d
       -0.015749836 0.02875163 -0.09567379 0.05633428
000060 8e 72 e5 bd d6 17 68 bc 24 05 ba bd 56 f0 0b 3e
       -0.1120349 -0.014165839 -0.09083012 0.136659
000070 29 aa 0c be 00 be 65 bd 3a c2 87 bd 93 b6 91 3d
       -0.13736786 -0.0560894 -0.06628843 0.071149014
000080 26 95 54 bd 74 bc 67 3e 6d b8 a3 bd 3c d0 6a 3e
       -0.05190005 0.22630483 -0.07994161 0.22930998
000090 b3 54 10 3e c5 99 b6 bd 16 d4 48 3d f1 1b 1b 3e
       0.1409481 -0.08916048 0.049030386 0.15147378
0000a0 0c 55 72 3e 20 e7 c2 3c 23 ef fc 3d 61 40 de bd
       0.23665255 0.02379185 0.12350299 -0.10852123
0000b0 0a 3e 04 bc 5f 49 82 3e fe 72 15 be bf dd e4 bd
       -0.008071432 0.25446603 -0.14594647 -0.11175107
0000c0 f4 90 e3 bd 6a 07 2b be 27 74 0c 3e d7 48 db bc
       -0.11111632 -0.16702047 0.13716184 -0.026768131
0000d0 e0 40 1a bd 32 7c 2e 3e 60 51 5e bd b3 97 e7 bd
       -0.037659526 0.17039564 -0.054276824 -0.11308231
0000e0 81 4a 0b 3e 43 3b c5 3c 81 58 e0 3d 84 8f ab bd
       0.1360264 0.02407611 0.10954381 -0.08376983
0000f0 d3 31 8e 3d f2 da ca 3d 80 ad eb 3a 31 0b 75 ba
       0.06943097 0.09905042 0.0017980784 -0.0009347676
000100 af b8 03 3e 9b 2b 6d 3d 26 f2 97 bd ac ff 44 3e
       0.1286342 0.057902914 -0.07419233 0.19238156
000110 c5 73 4a 3e 07 f0 a5 3b 04 8a 20 3e 7f e8 f8 3c
       0.19770725 0.005064014 0.15677649 0.0303843
000120 f6 4e e2 bd 8a 74 82 3d 85 eb 4c bd 17 fd e9 bd
       -0.11050217 0.06369884 -0.050029296 -0.11425226
000130 ad b0 1c be 44 4f 9d bb ae ee e0 bd 8a b1 0d 3e
       -0.15301771 -0.004800709 -0.109830245 0.13837257
000140 25 86 16 bd 86 2d 07 3d b6 13 b1 3d a2 32 f1 3d
       -0.036749024 0.0330024 0.08646338 0.117772356
000150 8c 27 7f bd 68 35 90 bd 83 1d 83 3c 2b d2 9c bd
       -0.062293574 -0.070414364 0.016005283 -0.07657274
000160 b9 2a 29 3e 7e e5 ab bd 35 42 28 be fd 77 c2 3c
       0.16520204 -0.083933815 -0.16431506 0.023738855
000170 1c 87 95 3d 1b 74 40 3c e9 82 7a bc 29 24 ed bd
       0.07301161 0.011746432 -0.0152900005 -0.115791626
000180 f3 b2 54 bd 48 95 12 be 01 a4 f5 bd cd c2 73 bb
       -0.05192847 -0.14314759 -0.11994172 -0.0037194968
000190 5e bf 2e 3e 62 4d fa bd bc 38 20 bd 94 ae 54 3c
       0.17065188 -0.12221791 -0.039116606 0.012981076
0001a0 16 6b 00 be b2 b4 3d 3d 4a ef 78 3c 4e 86 db bd
       -0.1254085 0.046314903 0.01519377 -0.10718976
0001b0 c4 a5 8a bd b2 d8 05 be e6 52 96 bb 61 bc 06 be
       -0.067698985 -0.13070944 -0.004587519 -0.13157798
0001c0 e0 6e be 3d 1d e9 eb 3d 9b cb d7 3d 5e 39 dd 3b
       0.092984915 0.11519072 0.105368815 0.0067512235
0001d0 43 af 71 3c 79 86 62 bd 66 c4 fe bd a7 42 1e 3e
       0.014751258 -0.055304024 -0.12439804 0.15455113
0001e0 55 eb ed 3d ba 42 69 3c 29 a8 02 be 50 fe 63 3e
       0.11617152 0.0142371 -0.1275946 0.22264981
0001f0 2b 52 2e bc 9f 52 bf 3d 88 1e 1a 3e 2c e5 0a 3e
       -0.010639708 0.093419306 0.15050709 0.13563985
000200 61 46 37 be 11 fb 10 3e bc ed 88 bc b0 08 16 be
       -0.17897941 0.14158274 -0.016714923 -0.14651752
000210 d6 59 d9 bd e4 47 39 be 10 23 03 be 67 78 60 3e
       -0.10612838 -0.1809383 -0.12806344 0.2192093
000220 24 81 20 be d6 0d 83 3b a2 f5 13 be f9 88 9d 3c
       -0.15674263 0.003999452 -0.1444917 0.019230353
000230 08 ff 34 3e ec ad a7 bd 97 60 a7 bd 1b 22 26 be
       0.17675412 -0.0818747 -0.0817272 -0.16223948
000240 92 39 b4 bd 25 26 5f 3d 57 04 44 3e 6e 9b 10 bd
       -0.08800043 0.054479737 0.1914228 -0.03530448
000250 9d aa fa 3d fd 6f a0 bd c8 54 c3 bd cf 29 2e 3e
       0.12239573 -0.0783386 -0.09537655 0.17008136
000260 61 96 88 bd d7 0f 74 3d e6 af 0f 3e 2a e8 f8 3d
       -0.066693075 0.05958542 0.14031944 0.12153657
000270 d8 bd fe 3d 6b d8 87 3d 5c b2 e2 b9 ba c2 0f 3e
       0.124385536 0.06633075 -0.00043238967 0.14039126
000280 1a 95 a1 3d c0 c5 e3 3d e4 e7 23 be a0 56 27 3e
       0.07889767 0.11121702 -0.16006428 0.16341639
000290 83 14 46 3c f4 d4 d4 bc b0 bc fb 3d 46 f9 a5 bd
       0.012089851 -0.02598045 0.12291849 -0.08104186
0002a0 a7 3b 07 3d 0a 05 c6 bd cc 6a f7 bd ea 36 b9 bd
       0.033015873 -0.0966893 -0.12080917 -0.09043677
0002b0 14 0e 33 be 56 c8 36 3e 12 c8 0b 3e d6 55 3e 3e
       -0.17485839 0.1784986 0.1365054 0.18587431
0002c0 c0 46 88 3b fa 27 fd bd 22 24 ce 3d 70 ff 14 be
       0.0041588247 -0.123611405 0.100654855 -0.14550567
0002d0 ad 41 af 3d 28 41 3f bd bc 4d 28 3d 2e f5 9d bd
       0.085574485 -0.046692997 0.04108976 -0.0771278
0002e0 bd 23 20 3d dc bf 80 bd 63 a1 07 3e e7 d7 9e bd
       0.039096583 -0.06286594 0.13245158 -0.07756024
0002f0 6e 66 bc 3d bb 0c b5 bd 6a 72 d5 bd 2e 85 87 3b
       0.091992244 -0.08840319 -0.104222134 0.0041357493
000300 3a f7 88 bc c1 3a 0b be 52 22 76 bd 32 ad 70 bd
       -0.01671945 -0.13596632 -0.060091324 -0.058758922
000310 64 04 c9 bd 87 c8 0b bd eb c6 89 3d 48 ca c6 3d
       -0.098152906 -0.034126785 0.06727394 0.09706551
000320 9b 9b ee bd c5 f5 b1 bc 8e 5b 43 be fd 98 03 3e
       -0.11650773 -0.021723637 -0.19077894 0.12851329
000330 3d af 01 3d 74 cc 05 3d 9e 90 c8 3c 4d 97 2d be
       0.03166126 0.032665685 0.024483021 -0.16952248
000340 a0 bb 7a bd fe ed d4 3a 82 d0 ad 3d 8d b9 1f 3b
       -0.06121409 0.0016245244 0.08487035 0.0024372071
000350 b7 a4 e9 bd 1e 49 da ba 5e 00 ea bd 7a 84 24 bd
       -0.1140837 -0.0016653871 -0.11425851 -0.040165402
000360 f1 54 bf 3c 69 7b 2b 3d 14 6a 27 be 1c 71 17 3e
       0.023355933 0.04186574 -0.1634906 0.14789242
000370 f7 60 14 3e de 6b 21 bd 3e 4a 0f be 1e 34 05 3e
       0.14490114 -0.03940951 -0.13993165 0.13008162
000380 4b 68 68 bc 5c b9 37 be 2d 36 cd 3c 51 69 cd 3d
       -0.014185022 -0.17941803 0.025050247 0.10029853
000390 49 22 c1 3d fc d6 1a 3e 15 b2 24 be 73 ee c3 3c
       0.094303675 0.15121073 -0.16083558 0.023917412
0003a0 e0 cb 86 3d b9 a8 1f 3c e7 15 28 3e 2f f5 b7 bd
       0.06581855 0.009744816 0.16414605 -0.08982312
0003b0 a2 a7 85 bd 33 57 23 bd d1 3c 39 be 65 11 68 3d
       -0.06526114 -0.03987808 -0.18089606 0.056657214
0003c0 cb b1 5d bd 82 54 06 be 0a 99 c6 3d 62 1e c9 3d
       -0.054124635 -0.13118175 0.09697159 0.09820248
0003d0 ee 4e 14 be 3c 0c ec 3d 62 ef a2 3d b3 99 d6 3d
       -0.14483234 0.11525771 0.07955815 0.104785345
0003e0 2d 03 3e 3e 50 63 8f bd 90 47 09 be 15 ae bd 3d
       0.18555899 -0.07001364 -0.13406205 0.09261719
0003f0 71 a8 e7 bd 2b 09 09 be f9 c2 09 be d1 65 b7 bc
       -0.113114245 -0.13382404 -0.13453282 -0.022387417

gru.bias_ih_l1 f4 [96]
000000 34 27 2a bd bf f1 e5 3d 96 ee 0a be 85 88 bb 3d
       -0.041541293 0.1122775 -0.13567576 0.091568984
000010 ba d3 3e bd cc 2c 56 3c c2 e8 2b be 46 26 d5 ba
       -0.046588637 0.013072204 -0.16788009 -0.0016262017
000020 4a 12 d7 bc 27 db 13 3e d8 41 3e be a5 73 2d 3e
       -0.026253838 0.14439069 -0.18579805 0.16938646
000030 40 db 00 bc 61 b1 92 bc d3 ca 0d 3e d9 d1 8b 3d
       -0.007864773 -0.017906846 0.13846903 0.06827135
000040 ee 43 1b be 91 7b 85 3d 49 6e 37 be 61 d5 cc bd
       -0.15162632 0.06517709 -0.17913164 -0.10001636
000050 0b 80 1d 3e a9 59 21 3b 06 99 22 be ef b5 91 3d
       0.15380876 0.0024620092 -0.15878686 0.07114779
000060 ab aa ed bd c6 74 f2 bd 89 22 60 bc 38 9d 17 3c
       -0.11604818 -0.11838679 -0.013680109 0.009253792
000070 56 d7 6d 3d 4a 48 02 be 8e 1c c0 bd 88 08 c8 bc
       0.05806669 -0.12722889 -0.093804464 -0.02441813
000080 7c 7b c7 be 09 99 b0 bd fa d8 38 be f6 f7 50 be
       -0.389614 -0.08622939 -0.1805152 -0.2040709
000090 d8 55 cc be 2f e1 3c be 1f 54 cb bd 51 82 e0 be
       -0.39909244 -0.18445276 -0.09928154 -0.43849424
0000a0 20 eb 9e be 62 79 ca be a3 5f 27 be 92 ec 4a be
       -0.3103876 -0.39545733 -0.16345076 -0.19816807
0000b0 0c 98 92 be e2 98 ac 3c da ef 66 be 4d d7 a2 be
       -0.28631628 0.021068994 -0.22552434 -0.31804886
0000c0 3c 87 70 be 3a 0d d2 be 93 f9 53 be 57 4b f6 be
       -0.23489088 -0.41025716 -0.20700674 -0.48104355
0000d0 b2 11 8a bd fd ae 4f bd c9 a3 97 be 6b 10 85 38
       -0.06741656 -0.05070399 -0.29617146 6.344992e-05
0000e0 f4 f1 16 be b6 f2 99 be 88 64 23 be bd a3 c0 bc
       -0.14740735 -0.30067986 -0.15956318 -0.023515576
0000f0 a3 2e 5b 3d 9a 8b b7 bd e2 a3 78 be c8 b3 d7 be
       0.053511273 -0.08962174 -0.24281266 -0.4212935
000100 4d 24 8e bd 8a 17 dd bc 57 26 89 3d 5d c9 78 bd
       -0.069405176 -0.026988763 0.06696766 -0.06073891
000110 7e 40 b8 bd 3f db 25 be 13 5c 9f bd 08 53 c3 3d
       -0.08996676 -0.16196917 -0.07781234 0.09537321
000120 09 a6 be bd df 7f b3 3d c1 13 30 3e 01 7e 0f be
       -0.093090124 0.08764624 0.17195036 -0.1401291
000130 e6 52 01 3e b3 83 40 3d de 3d 78 3c 4a 7b 8a 3d
       0.1262928 0.0470006 0.015151469 0.06761797
000140 a6 bb 21 3e 15 9a 2f 3e 02 ff de bd 79 25 5f bd
       0.15794238 0.17148621 -0.10888483 -0.054479096
000150 eb 0b 1e 3e 64 78 32 bb 37 d8 05 3e 72 e6 3d bc
       0.15434234 -0.0027232403 0.1307076 -0.011590587
000160 87 b8 fe bd 40 6b ae bd 51 1d 09 3c b4 37 a5 3d
       -0.124375395 -0.0851655 0.008368806 0.08067265
000170 7b 38 bc 3d cf 57 90 bd c3 49 2b 3e a4 c4 b0 bd
       0.0919046 -0.07047998 0.16727357 -0.08631256

gru.bias_hh_l1 f4 [96]
000000 1a 8a c8 bc ec b0 9b 3d 36 f1 1d 3d fb d6 c8 bd
       -0.024479914 0.076021045 0.038560115 -0.09806629
000010 10 1f 13 bd 53 5e 13 be 0c a4 c6 bd 78 9a d0 bc
       -0.035918295 -0.1439145 -0.09699258 -0.025464281
000020 5b 5c c5 bd d6 7d 15 be 15 9f f6 bd da 4b b3 ba
       -0.09636756 -0.14598784 -0.12042061 -0.0013679222
000030 ca 7b 15 3e 6d e2 f1 bd 1f b7 eb bd da de 0a 3e
       0.14598003 -0.118107654 -0.11509537 0.13561574
000040 14 99 2d 3e 96 25 3f be c6 6c 42 be 63 0f a3 bd
       0.16952926 -0.18666682 -0.18986806 -0.07961919
000050 98 d1 f9 bd 16 b1 04 3e 9a ad bb bd 84 c2 d0 3d
       -0.1219818 0.12958178 -0.09163971 0.10193351
000060 34 2a dd bd 60 ab 04 3e 24 8f ed 3d 30 51 de bc
       -0.10799065 0.12956 0.115995675 -0.027138323
000070 03 f5 2b be bb 5c 6b bc 04 07 eb 3d a5 1a f3 3d
       -0.16792683 -0.01436537 0.114759475 0.118703164
000080 ca 19 76 be 5f 15 b7 be 77 1c 28 be 41 ac a1 be
       -0.24033275 -0.35758492 -0.16417108 -0.31576732
000090 f9 3f 08 bf 47 dd a3 be 18 1e 4b be c2 a3 b3 be
       -0.53222615 -0.3200476 -0.19835699 -0.35085875
0000a0 34 17 92 bd 50 3c a6 be 69 b6 74 be 7c c7 5c be
       -0.07133332 -0.3246789 -0.23897709 -0.21560472
0000b0 c7 7b 10 be 68 77 d2 3c c6 e3 23 bd 47 a3 2a be
       -0.14109717 0.025691703 -0.040012144 -0.16663848
0000c0 79 be 64 be 67 47 21 be de c0 59 bd 4c 7f b0 be
       -0.22338285 -0.15749894 -0.053162448 -0.3447212
0000d0 ab 16 77 be 21 5e 19 be f0 92 9a be 23 73 5a be
       -0.24129741 -0.14977314 -0.3019023 -0.21332984
0000e0 f1 8b 17 bd 6f 57 8b be 2b 86 3f be cb df 2b 3d
       -0.036998693 -0.27215144 -0.18703525 0.041961472
0000f0 4a c3 0c 3c 30 b9 38 be aa 28 5f be f0 eb bb be
       0.008591482 -0.18039393 -0.21792856 -0.36703444
000100 2e 9a 20 3d 79 48 8c bc 61 8d 92 3d 9f 15 2e 3d
       0.039209537 -0.017124401 0.07155872 0.04250109
000110 0f 6a 15 be d8 59 24 bd 18 05 f3 bd cb 41 b2 bd
       -0.1459124 -0.040124744 -0.11866206 -0.08703955
000120 c1 92 0e be a5 28 c8 bd dd ba 77 3d 7a 77 8d 3d
       -0.1392317 -0.09773377 0.06048094 0.06907554
000130 22 1d 27 be 19 00 a6 bd 41 4b 7a 3d 7a 66 20 be
       -0.16319707 -0.081054874 0.061106924 -0.15664092
000140 0e b2 a7 3d 40 41 5f bc 2c 5c 01 bd 58 40 94 3c
       0.08188258 -0.013626397 -0.031582043 0.018097088
000150 5e 09 18 bc 38 32 87 3d ba d4 84 bd 05 d7 0e be
       -0.009279577 0.06601375 -0.06485887 -0.13949211
000160 75 53 27 3e d6 64 90 3d 85 fd 54 bd 29 ea 00 be
       0.1634043 0.07050483 -0.051999588 -0.12589325
000170 9e 22 1b 3e b7 b6 20 be f8 26 08 bd 1c df 00 3e
       0.15149924 -0.156947 -0.03324029 0.1258511

fc.weight f4 [1, 32]
000000 83 12 a3 3d af b3 9f 3d 67 1a cb bd ad e4 9b 3d
       0.07962515 0.07797944 -0.09917145 0.07611976
000010 56 f3 23 be 1a 1f ec 3d d0 0a 8e bd 62 13 2b be
       -0.16010794 0.1152937 -0.06935656 -0.16706613
000020 ea 49 60 3d f0 a4 11 be fb ba 07 3e a4 2d 2b 3e
       0.05475799 -0.14223075 0.13254921 0.1671663
000030 fc a3 86 bd 37 cf f6 3d 8f 39 89 bd 6e 2e 17 3e
       -0.06574246 0.12051242 -0.067004316 0.14763805
000040 90 60 5a bd b2 0d f5 3d fa 66 61 be 4f 91 6a 3e
       -0.053314745 0.11965503 -0.22011939 0.22906993
000050 b5 74 54 be 73 1b 0e 3d 7f e1 a0 3d d2 f3 c4 3d
       -0.20747645 0.034694146 0.0785551 0.096168175
000060 7a 42 2d be e7 76 09 3e f5 ed 02 bd 62 4f 49 bd
       -0.1691989 0.13424264 -0.031965215 -0.04914797
000070 87 7f 8d bc 54 f0 fb 3d 03 b6 3c be 94 90 4a be
       -0.017272724 0.12301698 -0.18428807 -0.19781715
