gru_model.pth (torch, 41715 bytes, 9 tensors)

gru.weight_ih_l0 f4 [96, 1]
00000000: 9aae 743e c90a 67be efe0 003e 5fea 1dbd
00000010: 7493 533e 04e7 0fbe 6656 223c 8675 7e3d
00000020: de41 703e 16e2 a53b f196 2d3d 5b39 77bc
00000030: 114e ae3c 665f d4bd 5902 143e 1197 04be
00000040: 681f 10be 9e4e 18be a273 b33d 01b8 db3d
00000050: 7f7f 55be 530a 36be 991f 733e fa40 fd3d
00000060: eee8 35bd 6f56 d03d e167 c6bc 80fd e43c
00000070: 2f78 0b3e 76c4 c4ba 8df9 263e eaee dd3d
00000080: 42d3 a73d 1e57 223d 2349 573e c1ba 4e3e
00000090: efcb ca3d cf30 2dbe 9edc c73d ba0a 03be
000000a0: 47ea 0d3e ac07 183e 1324 d3bd 64fc c1bd
000000b0: e25e 043e a79a 81bd c1bc 99bd d09e 91bd
000000c0: 5db1 7dbd a993 f7ba 269f 0bbd 6807 593e
000000d0: 427c 643d 08dc b23d 8c1d 073e a8f0 19be
000000e0: 9dd3 5a3d 0780 e3bc 6e5a 273e 299a 033c
000000f0: f1a3 313e 365b e83d 153b d03c 3d4b 2e3e
00000100: 967c 913e 7cf3 913d b5b3 853e 8e55 8fbe
00000110: 9ea2 84be 40af cc3d bcb6 ab3d 84be b83d
00000120: d662 83be 6a85 79be 8b9b 17be 9521 88bd
00000130: 70df 1c3d 6584 74be 4363 6d3d d293 5bbe
00000140: 6dfd 44bd ad8b 0cbd 6227 93bc c431 01be
00000150: 203f 783e 350b 9cbe 9748 8d3e 609e 02bd
00000160: 89b7 d2bd 0cf1 50be 4be1 743e 184b b93d
00000170: f738 27bd 8b16 793e 24b8 47be f17f 8c3a
0.2389473 -0.22562708 0.12585805 -0.03855359 0.20661718 -0.14052969 0.009908294 0.062123798
0.23462626 0.005062352 0.042380277 -0.015089358 0.02127746 -0.10369758 0.1445402 -0.12948252
-0.1407448 -0.1487374 0.087622896 0.10728455 -0.20849417 -0.17777376 0.23742522 0.12365909
-0.044411592 0.10172736 -0.024219455 0.02795291 0.13620065 -0.0015012163 0.16306134 0.10836585
0.08194591 0.039633863 0.21023993 0.20188428 0.099021785 -0.1691315 0.09758876 -0.1279706
0.13858901 0.14846677 -0.10309615 -0.09471968 0.1292682 -0.06328326 -0.07506705 -0.07110369
-0.061936725 -0.0018888611 -0.034087323 0.21194232 0.055782564 0.08733374 0.13194865 -0.1503321
0.053424466 -0.02777101 0.1634309 0.00803236 0.17347695 0.11345522 0.025418798 0.17020889
0.28415364 0.07126519 0.26113668 -0.2799496 -0.25905317 0.09994364 0.08384463 0.09020713
-0.25661343 -0.243673 -0.14805429 -0.0664703 0.038299024 -0.2387863 0.05795599 -0.21443108
-0.04809325 -0.034312893 -0.017963115 -0.1261664 0.2424283 -0.304773 0.27594444 -0.03188932
-0.10288913 -0.20404452 0.23914067 0.09047526 -0.04082581 0.24325006 -0.19503838 0.0010719282

gru.weight_hh_l0 f4 [96, 32]
00000000: 97ad 3cbe c900 8d3d a8e8 7ebe 8e30 0b3e
00000010: 4579 323e 1e5f 78bd 7ea6 363e 16c1 bfbd
00000020: 3bcd 323e 30c8 8a3d 1101 8d3e 0a0e b1bc
00000030: 60d3 e6bd 9e8d 013d 0c2b 863e b15c a8bc
00000040: c864 ff3c 5f60 a9be 1bac 66bd d153 98bc
00000050: 1d17 503e 067c 903e 310e a43d 0352 bfbd
00000060: b27b f4bd c80f 2f3d cc2d a93e 9961 ec3d
00000070: 727f c9bb df87 be3d a101 813e ad9a 6d3e
00000080: 7774 30bd e412 adbd 644c bfbd 21c0 f8bc
00000090: f097 66bd 329d 85bd 6fa3 013d a122 23be
000000a0: e902 a63d 1d64 293b 54ad b13d 30b4 023e
000000b0: b779 febd 3a3b cfbd a466 cbbd cd0d eebd
000000c0: 5c8f 2b3d 64f8 78bd 1137 e53d 039a 923d
000000d0: 6db8 50bc 78f5 8b3d 9a09 323d 6d26 efba
000000e0: a7bb 19be 7e45 183e d35e ae3d a8fd 273e
000000f0: e385 563e 38ac 333d ee6e 793c dccf 72bd
00000100: 4a96 febd 4b32 1ebe 1a6c ad3d 2896 5b3d
00000110: 5c72 e13d 748d 2a3d abc3 04be e71b c6bd
00000120: 5302 06be 98e4 9ebd 5451 21bc 2852 e73d
00000130: 1c46 a93d 281f 6e3d 9399 a83d 6620 f2bd
00000140: 5717 d83d 1371 803d b91c d13c fba1 963d
00000150: cb8e 3e3e a005 ce3d dd0c 75bd 4baa 9d3d
00000160: f84b eabc 292a 6e3b b8a8 233e f3b7 c73d
00000170: 1ebc 533d f0e7 50bc df85 e63d dcfd d6bd
00000180: 20f9 dcbd 8fb8 a8bc f4a2 03be eefe ae3c
00000190: db69 073e 9214 c13c e3f3 2f3e d48c 86be
000001a0: b5e6 9a3a 1748 083d f9fe 333e f672 783d
000001b0: c32b 58be 5a32 17be 64a4 8fbd 4391 36bd
000001c0: f290 633e b439 723d 97f2 21be 8d39 b3bc
000001d0: d32a e1bd e82a 5f3d 619d ef3d f2eb 68be
000001e0: f4c1 893c b8bf ee3d 3039 013e 110f cb3d
000001f0: 2181 eebc 9241 84bd e336 683c a068 e33c
00000200: 5437 a03b 6596 663e 9865 003d a180 3dbd
00000210: ae93 07bd 71d0 1dbe df28 ee3c 4fc1 1ebd
00000220: df63 e63d 1378 783d 8394 b7bd fd1d 03be
00000230: efb7 77be eb27 bf3d 7761 58bd e013 cc3d
00000240: 93fe 373e d234 01be 799d 86be 445a 433c
00000250: 6115 dcbd 56e6 5dbd f276 643d dd52 0ebe
00000260: 21b2 a9bc 8f3e 133e e208 abbd 7ce2 9ebd
00000270: 8a59 4ebd f57f 4cbe e87e e3bd df09 f93d
00000280: 1bd3 50be 3c9d d6bd fc6f 41bd a8db 1f3e
00000290: 0590 07bd d52f 06be de60 463d 53a7 33bc
000002a0: 2c4f b63d 2cc3 f73d 1581 f7bd ca9e 4d3d
000002b0: 4412 c0bc ecac c5bd a7b4 cc3c 1ebf b43d
000002c0: b976 15be 3fae 1bbd f9fb ab3d 92d6 ee3d
000002d0: d108 ffbc 84bd 343e dfae e13d 9529 0b3e
000002e0: 09e5 4b3e d3ea 6d3c ea71 9ebd eb1c e2bd
000002f0: e9ec 7dbd 998f e8bc ba08 123c 3ad7 933d
00000300: 077a 5ebe c89b 0abe db9b 073e 0d5e ddbd
00000310: d59f dfbd d22a c63c 6807 a5bc 6279 313e
00000320: c25c 753d 7f54 533c 072d b13d d6c4 b6bd
00000330: 4eaf 443c 54bb 3abd a9b2 e0bd cf64 a7bd
00000340: 97d8 41bd 542a 30be 4bf5 73bd 14bc 15be
00000350: 002f 223d cbc9 1d3e 25e1 1fbe 1b99 0b3c
00000360: f406 21be aecc b1bd 5764 aabb 7c3a 9e3d
00000370: 3ebd 23be c10a 72bd 4e25 8dbd b403 90bd
00000380: 63e7 23be 5de7 a7bd b583 0e3d b7ea e1bd
00000390: 2ee0 82bd 2996 49bc 39e9 babd 61b1 b2bd
000003a0: c7a8 b43d af90 11bd a747 94bd 9343 afbb
000003b0: 59ae 22be 91aa 163e 95a4 053e ffc9 69bc
000003c0: a989 c43d ebcf f7bd 4232 d8bd 0c6a 9c3d
000003d0: 5564 943d e0ec 3cbd 4736 f1bc 6072 aabd
000003e0: bb15 8cbd bf5d 2d3e 15d4 ff3d a07e 173e
000003f0: 915d cbbd 01fa c33d 561e f93d 39a7 3d3d
-0.18425594 0.068849154 -0.24893439 0.13592741 0.17429073 -0.060637586 0.17836949 -0.09363
0.17461102 0.06776464 0.27539876 -0.02161314 -0.11270785 0.031629197 0.26204717 -0.020552011
0.031175986 -0.33081338 -0.056316476 -0.018594654 0.20321317 0.28219622 0.08010519 -0.09341814
-0.119376555 0.04273966 0.33042753 0.11542053 -0.006149226 0.09303259 0.25196555 0.23203535
-0.04307982 -0.08450869 -0.09340742 -0.030365052 -0.056297243 -0.06524123 0.031650003 -0.15931179
0.08106024 0.0025847026 0.08675638 0.12764049 -0.12425559 -0.101187184 -0.099316865 -0.11623726
0.041884765 -0.06078376 0.11192144 0.07158282 -0.012739283 0.06833929 0.043466188 -0.0018245705
-0.1501299 0.14870259 0.0851418 0.16405356 0.20949511 0.043865412 0.015224202 -0.05928026
-0.12431009 -0.15448873 0.08467884 0.053609997 0.110081404 0.041638806 -0.12965266 -0.09673291
-0.13086824 -0.077584445 -0.00984605 0.11294967 0.082653254 0.05813518 0.08232417 -0.11822586
0.10551327 0.06271567 0.025526391 0.07355114 0.18609159 0.10059667 -0.05982672 0.076984964
-0.028600678 0.0036341047 0.1598233 0.097518824 0.051693074 -0.012750611 0.11256003 -0.104976386
-0.10789704 -0.020595817 -0.1285513 0.021361794 0.13223974 0.023569379 0.17182879 -0.26279318
0.0011818024 0.033271875 0.17577733 0.06065651 -0.21110444 -0.14765301 -0.07013777 -0.044572126
0.22223261 0.05913706 -0.15815197 -0.021878028 -0.10994496 0.054484278 0.116999395 -0.22746256
0.016816117 0.11657661 0.12619472 0.09914983 -0.029114308 -0.06457819 0.014173242 0.02775985
0.004889408 0.22518308 0.031346887 -0.04626525 -0.033099823 -0.15411545 0.029072223 -0.038758572
0.11249518 0.060661387 -0.08963873 -0.12804408 -0.24191259 0.093337856 -0.052827325 0.09964728
0.17968206 -0.12617806 -0.26292017 0.0119233765 -0.10746265 -0.054174744 0.055777498 -0.13898797
-0.020714821 0.14379333 -0.08351304 -0.07758042 -0.05037836 -0.19970687 -0.1110819 0.12160086
-0.2039303 -0.10479209 -0.047225937 0.15611136 -0.033096332 -0.13104184 0.048432223 -0.010965186
0.089018196 0.12097773 -0.12085167 0.05020026 -0.02344621 -0.09652123 0.024988486 0.08825515
-0.1459607 -0.03800797 0.08397669 0.1166202 -0.031132134 0.1765042 0.11019682 0.13590081
0.19911589 0.0145213185 -0.07736571 -0.11040672 -0.061993513 -0.028388785 0.008913213 0.072187856
-0.21726237 -0.13535988 0.13243048 -0.108089544 -0.109191574 0.02419034 -0.020145133 0.1733146
0.059902914 0.012898563 0.086511664 -0.08924262 0.0120046865 -0.045588806 -0.10971577 -0.081735246
-0.047325697 -0.17203647 -0.0595601 -0.14622527 0.039595604 0.15409009 -0.1561323 0.00852039
-0.15725309 -0.08681618 -0.0051999497 0.07725999 -0.15990159 -0.059092287 -0.06891881 -0.07031956
-0.16006236 -0.08198426 0.034793574 -0.110310964 -0.06390415 -0.012303867 -0.09126515 -0.087252386
0.08821254 -0.03553837 -0.07240229 -0.0053486316 -0.15886821 0.14713503 0.13051064 -0.014269351
0.09596569 -0.12100204 -0.10556461 0.07637414 0.07245699 -0.04612434 -0.029444827 -0.083225965
-0.06840082 0.16930293 0.12491623 0.14794397 -0.09929956 0.09569169 0.12163989 0.046302054

gru.bias_ih_l0 f4 [96]
00000000: 5f83 88be b0c9 883d 7c80 91bd d497 02be
00000010: 9133 0d3c 0194 26bd 86d6 cd3d 6c28 1fbe
00000020: 0da5 a9bd 999b 90be 05df 88bc 0c8e db3c
00000030: b361 463e 66c3 8bbd 4f10 cabd 7aba 8dbd
00000040: 3c0e 093d c20f c93d 0d44 30be 619d b5bd
00000050: 2396 cabc 78ae 50be 9259 04bd 79a0 253e
00000060: f238 9c3d 7255 973d c7e0 a23d 7909 0cbe
00000070: b035 e43d a96f 02be 2d4f f33b 8f8e e9bd
00000080: 7ff2 c7be 009c 9fbd 9407 6ebe 1a35 5cbe
00000090: 3e46 9ebe 6b7f 1f3e dbed 043d 1eaf 803d
000000a0: 3ec2 e4be 9806 95be acf8 e2bd e357 d03b
000000b0: fc2e 5ebd 4704 c3be a2db b0bd 5470 babe
000000c0: 3bc9 29bd 7a76 ccbd cf77 423e b910 7fbd
000000d0: ce1d 1ebe fb91 ebbe 9ce9 c2be 15e5 063e
000000e0: fdf1 80be b857 37be eed0 11bf 3e58 2bbe
000000f0: cb52 463e 93ee a2bd 56f6 85be 1f01 1e3e
00000100: a2f2 f53d 110e cebd b72e a1bb bdd1 9bbd
00000110: 2a88 c2bc f1ce 043e 6246 ffbd f424 cb3d
00000120: 3af7 cbbd 7ce6 4bbd 3837 1abe 4bdf c9bb
00000130: bf92 083e e69c 8fbd 739f e5bd 5dff 1f3e
00000140: f43b 16be a547 883d a399 a83c f99e dc3d
00000150: 8889 abbd 71b4 0dbe a34e a7bc 527c f43d
00000160: 2c17 243e eb4e e1bd 684b 0dbe a26b cd3d
00000170: 21a3 aabd 9114 4cbc 26e4 a9bd c979 60bd
-0.26662728 0.06679094 -0.071045846 -0.1275323 0.008618251 -0.04066849 0.10050683 -0.15542763
-0.08283434 -0.28243712 -0.016707906 0.026801132 0.19373207 -0.06824379 -0.09866392 -0.06920333
0.03346084 0.09817459 -0.1721346 -0.08867908 -0.024729794 -0.20379055 -0.032311983 0.16174497
0.07628049 0.07389344 0.07953029 -0.13675489 0.111430526 -0.12737907 0.00742521 -0.11404144
-0.39052197 -0.077934265 -0.23245078 -0.21504632 -0.30912966 0.1557595 0.0324534 0.06283401
-0.44679445 -0.29106593 -0.11082587 0.006358133 -0.054244027 -0.380892 -0.08635642 -0.36413825
-0.041451674 -0.09983535 0.18991016 -0.062271807 -0.15441057 -0.46009812 -0.38068855 0.13173325
-0.25184622 -0.17904556 -0.56959426 -0.1673288 0.1936752 -0.07955661 -0.26164502 0.15430115
0.12009169 -0.10061277 -0.004918899 -0.07608364 -0.023746569 0.12969567 -0.12464596 0.099191576
-0.09959264 -0.049780354 -0.15060127 -0.006160652 0.13337229 -0.07012348 -0.11212053 0.15624757
-0.14671308 0.0665429 0.020581072 0.10772509 -0.083758414 -0.13838364 -0.02042324 0.11937775
0.16024464 -0.110013805 -0.13798296 0.10030295 -0.083318956 -0.012456075 -0.08295469 -0.054803643

gru.bias_hh_l0 f4 [96]
00000000: f8f3 9bbe a77c 10be 1be2 e5bd d55d e3bd
00000010: 57f7 24be 1a48 1a3e e7ff bb3b 2914 9d3d
00000020: c0cb 99bd cff1 38be 3f1c 49bd db4d d739
00000030: d77b 843d 8695 17be 58b1 8bbd 25e8 ba3d
00000040: af34 2ebe 282c 79be 433b cfbd c35c ae3d
00000050: 3a0a 2dbe f26c cbbc 4551 cebc b1e9 163e
00000060: 96d3 213e dbe0 e2bd f0c1 06bd 4844 38be
00000070: d55f 903d cdd4 ec3d f0ad af3d 42fd f73d
00000080: 3913 d8be f449 97bd 61e3 bdbe ca45 cbbe
00000090: e80c 53be 4856 8f3d ec7d 72bd f030 c5bd
000000a0: 43cb 98be 0ab3 92be 948d a53d 9802 d83d
000000b0: d0e0 4dbd ae47 31bf ec87 2dbe 8d05 57be
000000c0: 4117 f3bd 03ae a7bd ef75 0ebe e96b 7fbe
000000d0: 44ad cbbe ae49 1cbe d9c1 a4be 3181 32be
000000e0: e0e9 19be 60ce 22be 448c 1cbf f0d8 7bbd
000000f0: 20a5 f8bd ea3d bebd 47ec 21be 4d86 43bd
00000100: 96c1 d43d c395 213d 382d 1f3e 15f8 3d3b
00000110: 3ed6 b7bd 2403 c43d 2b03 e9bd 008e 10be
00000120: ef1e a8bd 5cf9 e3bc b2d2 a8bc 5f26 ed3d
00000130: ae64 aebd dccc b03d 7714 863d c547 f93d
00000140: 3427 24be 3c05 7d3d d2f2 043e 475c 593d
00000150: 4445 05be a82f 0c3d 0a44 61bd 77d4 c5bd
00000160: b309 0bbe ffea 393d 4cec f23d 7caf 14be
00000170: dbe1 133d 3c6d 383d 08fd 63bc 2501 b0bd
-0.3045957 -0.14110051 -0.11224767 -0.111018814 -0.16109978 0.15066567 0.005737293 0.07669861
-0.07509565 -0.18060993 -0.049099203 0.00041066002 0.06468933 -0.14803132 -0.06820935 0.09126309
-0.17012285 -0.2433325 -0.10118725 0.08513787 -0.16898432 -0.024832223 -0.025185237 0.14737584
0.1580337 -0.11078044 -0.032899797 -0.17994797 0.070495285 0.11564026 0.08578098 0.12108852
-0.42202166 -0.07387152 -0.3708754 -0.39701682 -0.20610392 0.06998879 -0.05920212 -0.09628475
-0.29842576 -0.2865222 0.080836445 0.1054737 -0.050263226 -0.6925 -0.16946381 -0.20998211
-0.1186967 -0.08187487 -0.13912176 -0.24943508 -0.3978063 -0.15262482 -0.32179144 -0.17432095
-0.15030622 -0.15899038 -0.6115153 -0.061486185 -0.1214087 -0.09289153 -0.15812789 -0.0477355
0.10388486 0.039449465 0.15544593 0.002898698 -0.0897641 0.095709115 -0.11377557 -0.14116669
-0.08209025 -0.027828865 -0.02060828 0.11579584 -0.08515297 0.08632824 0.06546872 0.12171892
-0.1603058 0.06177257 0.12983254 0.05306652 -0.13014704 0.034225136 -0.054996528 -0.09659665
-0.13577919 0.045390125 0.11861476 -0.14520067 0.036104064 0.04502605 -0.013915308 -0.08593968

gru.weight_ih_l1 f4 [96, 32]
00000000: 0669 273e c5a2 6e3e 611a b13d 1b6d 3dbc
00000010: 6977 c2bd d6ef 573d dbb5 4bbd ed93 0dbe
00000020: 35db a9bd c44c 88bd dc3f 83bd dbd6 06be
00000030: d199 87bd b2c9 d4bd 1091 173d 6ab4 abbc
00000040: 6058 cdbc b90c 4cbd 4766 c63d c1d2 2dbe
00000050: 53de 183d b6f0 58be ef8c cdbc 7d82 e0bd
00000060: c9d7 00bd 2007 853d d405 123e 1da2 8a3c
00000070: ae3c b73d a2d1 ea3d 8a4d 1cbe 9508 bcbd
00000080: a5f5 19be d679 fbbd a769 6d3c 2bdd 6a3d
00000090: a853 243c 7b74 e03c 8814 213c b113 a9bd
000000a0: 07dd 9cbc 9a24 883c 2630 8d3c 4920 1b3e
000000b0: 799a d93d 7438 d43d 6598 69bd d3a9 06bd
000000c0: 16fe 273e db88 2fbe ce39 36be c658 ffbd
000000d0: 9c84 003e 90f7 b53d 2803 d83d ca77 25bb
000000e0: c4db 54bd e989 f4bd a53e aebd ec42 943b
000000f0: 930f 9abc 9078 523d dc57 f53d e14a f6bd
00000100: fe07 e7bb bee7 dd3d f021 1b3d 02c0 f13d
00000110: cde3 c1bd c434 c6bd ad8a ef3d 6a8c 483d
00000120: aca2 d5bd c5c0 6a3d 902f 163e 8c09 9d3c
00000130: da79 e63d c5fc 9abd e9c3 853d 90af bd3d
00000140: 0ce0 023e 0a96 3fbe 86dd 173d b9f8 69bd
00000150: 9e4d 043e 14c3 c4bc 969d df3d ab41 203e
00000160: bbf1 69bd eebb 20be 8656 793e aac3 57bc
00000170: 967d 63bd a359 8bbd b695 9ebd 730f d33c
00000180: c999 f13d 5835 c93a 3c5f 1abd 2f88 60be
00000190: e210 18be 7345 76bc e590 82bd 289e 4fbd
000001a0: b061 63bc 3f93 61be d9cc 17be 8e3d 1b3d
000001b0: a3f0 323d 4245 c3bc 9734 d4bd 7d21 d13d
000001c0: 9148 28bd 3636 2cbe c472 803d 13be 3a3c
000001d0: 7795 0b3e 55a4 15be c944 c7bd 95c6 7b3c
000001e0: 26f2 e0bd 2f93 85bd 9f36 afbd 76e3 023e
000001f0: 7b7d 8fbd d35b f63d 40a9 a93c b682 973d
00000200: 5d9e 2dbe b688 3e3d f444 78be 204e 773e
00000210: 5db7 b53d 3147 2ebe b261 873d 0078 afba
00000220: ddfe 493e 8cdd bbbc 3175 9fbd b0e7 1ebe
00000230: 46fd 0abe a099 dc3b c0e2 f63d dbee a53d
00000240: 5141 cb3d 0043 0c3d 1bbe b43b 1045 f33c
00000250: 668b 3bbe 0c1c 413e f915 b93d 4103 a53d
00000260: eb58 9dbb 189c 9d3d 70dc f9bd ab6f 18be
00000270: f669 4fbd aaa3 7abe cba4 a7b9 b6c0 c93d
00000280: c258 8e3d ce75 14bd f04a 3abe 0c1c 9dbd
00000290: 3dc9 8c3e 08f9 3cbe 4829 343c 7c46 5abe
000002a0: c3c4 103e af20 383e accb 9cbd 660b 933d
000002b0: 3abe a63d ce82 4c3d 9825 14be c19b 203e
000002c0: d7b3 cdbd f4ea aabd 39d3 a2bd 7bc5 e4bc
000002d0: a288 51be 48ce f93d 479c f6bb da6d 03be
000002e0: 2bd2 c6bd 249b 1abb 484e 87bc 7fba cdbd
000002f0: 5e14 abbd 43a7 d3bd 2732 1abd de13 9d3c
00000300: 248c 363e f0d6 4a3d b1ab e03e 25de e5be
00000310: 7c5e 92be 8540 353e ff39 b6bd 0d91 893e
00000320: fa2b e7bd dd8f 7dbe ab8e 93bd 6644 2b3c
00000330: aa57 713e 3586 86be fd12 86be c6fb 213e
00000340: 1ccc 61be 3f30 c03d 9a45 d73d 55e8 39bd
00000350: a660 9abd a69e afbe 1199 8c3e 8b20 c9bd
00000360: 1427 efbe 2f61 b1be 4b17 67bd 7204 a7bd
00000370: 6d1d bcbc a22b b13e b0d4 b0be 71b8 75be
00000380: d8dc 94bd 4898 8eba 683d 18be 56aa 3fbd
00000390: 8b35 343e e58c d43d 9a9b 043e ac1a 51be
000003a0: 145a b23d 9dee d03d 163a 9cbd d856 873b
000003b0: 37d2 1c3e fec5 65bd 7e66 ca3d 0916 e3bd
000003c0: ba9b f5bd 10c9 58bd f583 dfbd 71b2 b43b
000003d0: ca74 01be 6d53 e8ba 3c53 363c a2b2 aebc
000003e0: a77e 47bc 4d43 f43d 3fb3 78bd 79bd a43c
000003f0: 033c 5ebd 1b3f f83c 07a0 073e 2ea7 d03d
0.16348657 0.23304279 0.086476095 -0.011561657 -0.09495432 0.05271896 -0.049733978 -0.1382596
-0.082937635 -0.06655267 -0.064086646 -0.13167898 -0.06621135 -0.10390033 0.037003577 -0.020960052
-0.025066555 -0.04981682 0.096874766 -0.16974927 0.0373214 -0.21185574 -0.025091616 -0.10962389
-0.03145579 0.064954996 0.14260036 0.016923005 0.089471206 0.114657655 -0.15263954 -0.091813244
-0.15035112 -0.12279098 0.0144905215 0.05733983 0.010029711 0.027399292 0.009831555 -0.08255709
-0.019148363 0.016619015 0.017234873 0.15149035 0.106251664 0.1036233 -0.0570301 -0.0328768
0.1640552 -0.1714205 -0.17795488 -0.12468104 0.12550586 0.088851094 0.10547477 -0.0025248402
-0.051967397 -0.11940367 -0.08508042 0.0045245793 -0.018806254 0.05138451 0.119796485 -0.12026001
-0.0070505133 0.10835217 0.037874162 0.11804201 -0.09467278 -0.09678033 0.11696372 0.048962034
-0.10431418 0.057312746 0.14666581 0.019169591 0.1125371 -0.07567743 0.065315075 0.092620015
0.1278078 -0.18709579 0.037076496 -0.057121966 0.12920234 -0.024018802 0.10918729 0.1565005
-0.057115298 -0.1569669 0.24349412 -0.013169209 -0.05553969 -0.06804206 -0.07743399 0.025764203
0.1179691 0.0015350981 -0.03768848 -0.2192695 -0.1485019 -0.015031206 -0.06375293 -0.05068794
-0.013878271 -0.22028826 -0.14824237 0.0379005 0.04368652 -0.023836736 -0.10361593 0.102114655
-0.04108483 -0.16817555 0.0627189 0.011397856 0.13631235 -0.14613469 -0.097299166 0.01536717
-0.10983686 -0.06522214 -0.0855534 0.12782082 -0.070063554 0.12029233 0.020710588 0.07397978
-0.16954942 0.046517096 -0.24245054 0.24150896 0.088728644 -0.17019345 0.06610431 -0.0013387203
0.19726129 -0.02293279 -0.07786024 -0.1551807 -0.13573179 0.0067321807 0.12054968 0.08102199
0.099245675 0.034243584 0.0055158264 0.029696018 -0.18314895 0.18858355 0.09037394 0.08057261
-0.0048018596 0.07695788 -0.12200248 -0.14886348 -0.05063816 -0.24476495 -0.00031975502 0.0985121
0.06950523 -0.03624516 -0.18192649 -0.07671365 0.27497283 -0.18454373 0.01099617 -0.2131595
0.14137559 0.17981218 -0.07656035 0.071799085 0.081417516 0.049929433 -0.14467466 0.15684415
-0.10044067 -0.08345595 -0.07950444 -0.027926197 -0.20462278 0.12197548 -0.007525954 -0.12834874
-0.09708055 -0.0023591006 -0.01651682 -0.10045337 -0.08353494 -0.10334637 -0.037645485 0.019174512
0.17826897 0.049521387 0.4388099 -0.44896045 -0.2858771 0.17700393 -0.088977806 0.26868477
-0.11287685 -0.2476191 -0.07204946 0.010453319 0.23568597 -0.26274267 -0.26186362 0.158187
-0.22050518 0.09384202 0.10511322 -0.045387585 -0.075379655 -0.34300727 0.2746053 -0.0982066
-0.46709502 -0.34644458 -0.0564187 -0.08155145 -0.02296325 0.34603602 -0.34537268 -0.2399614
-0.07268685 -0.0010879124 -0.14867175 -0.046793304 0.1759855 0.10378436 0.12949982 -0.20420331
0.08708587 0.10201762 -0.076282665 0.0041302256 0.15314566 -0.056097023 0.0988283 -0.11088187
-0.11992593 -0.052926123 -0.10913841 0.005514436 -0.12642208 -0.0017725058 0.011128243 -0.021325413
-0.012176192 0.11926899 -0.060717817 0.020109879 -0.05425645 0.030303529 0.1324464 0.10188137

gru.weight_hh_l1 f4 [96, 32]
00000000: c439 abbd 64ca a5bd 64fb bbbd 4fd8 033e
00000010: 8db3 b23d d9a4 30be 7d13 603d d7a4 d83d
00000020: 025c 1b3d f370 84bd 5841 e8bd 8765 1b3d
00000030: 9b58 3cbe 16ff 1b3d 00b4 3e3e e98c 9dbd
00000040: 63b2 ad3c 7319 58bd 8c87 a6bd 5f47 7f3c
00000050: 320d 91bd 70a0 eabd 9f5f b0bd 71b1 14bc
00000060: 918a 2b3e 6b0e 08be 638a 4fbe f588 45bd
00000070: 1aef 213e fc4c 5d3e 811c 7dbd 45ce bb3d
00000080: ec76 47be 073a 54bb 793a d7bc 0471 973d
00000090: 4949 6dbe a86d f3bc 617b 1c3e 7913 763e
000000a0: 9b34 8fbd 4b5d 243e 45ee f2bd 3a8e 2bbe
000000b0: d9b1 00be b0f1 dbbd c812 88bd 58b9 c3bd
000000c0: a19e 123e accd 2b3c 060f b83d 96e1 28bd
000000d0: 0797 4d3d 5e0c 13bc eec7 0cbb c70f 20be
000000e0: 35e7 22be 9311 7a3c b2b4 9c3d ff45 15be
000000f0: 800e 773c fb49 cb3d ed34 cabd 5888 cdbd
00000100: 5cad da3d ddb2 c0bd 755c 3fbe 85db 8b3d
00000110: f3b1 2d3e 8661 73bd 47ac eebd af79 31be
00000120: 29fd 0a3e b0da ddbc 21d6 a83d 6084 963c
00000130: b9fd a2bd 4daa 91bd f4e1 72bc ae06 e2ba
00000140: 91c7 10be 1c40 1f3e 1789 bcbc ae63 323e
00000150: b38c f03d f283 333d 1147 303e a9db 903d
00000160: 403f c13d c242 1f3e 253b 33be d513 513e
00000170: df04 54be eb64 00be c415 e23d 2d28 ee3c
00000180: 0fbc a23b 7952 d93d 85c8 253d 536d 89bd
00000190: 5edb a5bd 9427 5cbe 1068 96bd 38ce 57bb
000001a0: 6ada 8d3d d548 07be a865 e73d 0f5a f13c
000001b0: 6d90 a43d 1cc4 553c 6df5 9d3d 51ee 27be
000001c0: 46da adbd ee7e 3e3e 35ba 6aba 6f4b 133b
000001d0: 219d c93c 0ad0 79bd 05b5 073d eea9 8b3d
000001e0: 4a6e eebd b3ca f2bd c5b4 debd 3711 1bbc
000001f0: 07c7 8cbb ff81 f3bd 9d6f f63d df04 123e
00000200: 78a7 53be b662 47bd 9913 42be 8b20 8a3d
00000210: 4102 aa3d cd95 373e 1cc8 fbbd b963 2e3e
00000220: eae3 9fbd ccd7 453b 45b2 5abd bb6f 49bd
00000230: 35ea fa3d f000 8fbc f106 edbd d068 17be
00000240: 7bfe f43d 31b9 b03d 1a65 f13d 5fd8 b83c
00000250: 225a 4fbd e579 87bd 78b8 ae3d 9d4a bfbd
00000260: f0c6 ec3d ea41 3d3e 280c c6bd 0753 90bd
00000270: e203 5bbd a462 41bd 91d9 43bd c7b4 9dbd
00000280: dd16 f3bd 9a63 d33d 9553 173d 7687 a2bd
00000290: 7c58 e33d 6457 1bbd 4c55 2f3e 2d2b fb3d
000002a0: a81e 3bbe 82f1 ecbd 5ee3 1dbe a923 9f3d
000002b0: 17f6 cf3d 93cd ab3d 3032 28be b35b b13d
000002c0: ecd2 c1bd 750e 753d 39b4 3cbe e0da 453e
000002d0: 9281 babd 4514 153e eb6c dc3d 49d9 143e
000002e0: 7913 523d 54e3 153e 9beb 24be 318c 0abd
000002f0: 674d ec3d eb89 e6bd a4ac d83d 24d4 fbbd
00000300: 5191 f03e a307 a0be 557b 143f 407b 1fbd
00000310: a20f 84be 877b dd3e cb2b 493e 08cd 3a3e
00000320: d47e 543e db75 413e 2218 4fbd 7721 4bbb
00000330: 5ea0 543e 14a5 de3d 05a4 80be 990f 4abd
00000340: 29ec dbbe 8a0e 0dbf c914 193f 54a7 8cbe
00000350: e1e0 f53e cbba c13e 69db 04bf 5ae4 eabd
00000360: 2063 59be a765 e9be 4638 39be d8af d4be
00000370: 8f60 0e3f f7b2 5dbe 9a11 8fbe 6681 23bf
00000380: dc99 25be 2c88 13be 128a 1fbe ffe3 35be
00000390: e0f6 16be 4795 213d 7af3 1fbe 1b3d 0a3e
000003a0: 1345 4cbe 4f51 1b3e 212f 9cbc b06c ebbd
000003b0: d822 57bd d62d 663d 4133 abbc e6c8 b2bd
000003c0: cf75 333e 0a9c 983d 91e2 0f3e 5e5d 49bd
000003d0: be17 033e 1cd6 d2bd 18d2 efbd 0094 0d3e
000003e0: cfaa f5bd 2533 e63d c9ea 23be 033c 7e3c
000003f0: 5a31 dbbd da0f 6cbd 4815 3e3c e371 e53d
-0.08360627 -0.080952436 -0.09178808 0.12875484 0.08725653 -0.17250384 0.054706085 0.10578316
0.037929542 -0.06466856 -0.11340588 0.03793862 -0.18393175 0.038085066 0.18623352 -0.07692892
0.021203225 -0.052758645 -0.08131322 0.015580981 -0.07082595 -0.11456382 -0.08611988 -0.009075508
0.16752078 -0.1328675 -0.20267634 -0.048226316 0.15813866 0.21611398 -0.06179476 0.09170202
-0.19478959 -0.003238322 -0.026273 0.07394603 -0.23172487 -0.029715374 0.1528144 0.24030866
-0.069924556 0.16051213 -0.118618526 -0.16753474 -0.12567843 -0.107394576 -0.06644207 -0.09556836
0.14318325 0.010486048 0.089872405 -0.04123076 0.05019286 -0.008975117 -0.0021481472 -0.15631019
-0.15908511 0.015262979 0.076516524 -0.14577483 0.015079141 0.0992622 -0.09873376 -0.10035771
0.10677597 -0.094091155 -0.18687613 0.068289794 0.16962413 -0.059419177 -0.11653953 -0.17331575
0.13573135 -0.027081817 0.08243967 0.018373668 -0.0795855 -0.071125604 -0.014824379 -0.0017244422
-0.14138629 0.155518 -0.023014588 0.17420837 0.11745586 0.043827005 0.1721461 0.07073147
0.09435892 0.1555281 -0.1750303 0.20417722 -0.20704983 -0.12538497 0.11039308 0.029071892
0.004966266 0.106114335 0.040474433 -0.06710305 -0.080984816 -0.21499473 -0.07344067 -0.0032929312
0.06926425 -0.13211377 0.11298686 0.029461889 0.080353595 0.013047244 0.07712827 -0.16399504
-0.08488898 0.18603107 -0.00089541386 0.0022475382 0.024611058 -0.060989417 0.033131618 0.06819521
-0.1164213 -0.11855068 -0.10874323 -0.009464554 -0.004296187 -0.11890029 0.12033007 0.1425967
-0.20669353 -0.048678122 -0.18952788 0.06744488 0.08301211 0.17928238 -0.12294027 0.17030229
-0.07807143 0.003018844 -0.053392667 -0.04917882 0.12251703 -0.017456502 -0.115735896 -0.14786077
0.11962601 0.086290725 0.11786862 0.022564111 -0.050623067 -0.066150464 0.08531278 -0.09340403
0.11561382 0.18482175 -0.09670287 -0.07047086 -0.0534705 -0.04721321 -0.04781491 -0.07700496
-0.11869595 0.10321732 0.036944944 -0.079359934 0.111008614 -0.03792514 0.17122382 0.122640945
-0.18273413 -0.115695015 -0.15418765 0.077704735 0.1015436 0.083888195 -0.16425395 0.08660068
-0.09464058 0.05982824 -0.18428124 0.19321775 -0.09106745 0.14558513 0.10762962 0.14536013
0.0512881 0.146375 -0.16105501 -0.033825103 0.11538201 -0.112567745 0.105798036 -0.12296322
0.46985868 -0.31255826 0.5800069 -0.0389359 -0.25793177 0.43258306 0.19645612 0.18242276
0.20751506 0.18892615 -0.050560124 -0.0030995288 0.207643 0.1087133 -0.25125137 -0.04933128
-0.42953613 -0.5510031 0.5979734 -0.2747141 0.4802313 0.37837824 -0.51897293 -0.11469336
-0.2122922 -0.45585367 -0.18087873 -0.41540408 0.55616087 -0.21650301 -0.27943116 -0.6386932
-0.16171974 -0.14407414 -0.15580013 -0.17762755 -0.14742613 0.039449003 -0.15620223 0.13499872
-0.19948225 0.15167736 -0.019065442 -0.1149534 -0.052523464 0.056196056 -0.020898463 -0.087297246
0.17525409 0.07451637 0.14051272 -0.049161308 0.12802026 -0.10294744 -0.11709994 0.13825989
-0.1199547 0.11240224 -0.16007532 0.015517238 -0.107027724 -0.057632305 0.0116017535 0.11203363

gru.bias_ih_l1 f4 [96]
00000000: 0bd8 a53d 9f7b 26be d720 56be 9423 193c
00000010: 3201 ed3b 0477 bc3d 5658 1b3e 06aa 9fbd
00000020: 0387 16bd b479 bb3d 0d09 2e3e 0585 ad3d
00000030: 136c d03d 884d 9c3d dc11 bfbc 1ca6 043e
00000040: 75ca 9abd 80a7 033d c2bc ffbd 5c56 253e
00000050: 0da1 babd 899d df3d 00e1 4b3b 51e5 e0bb
00000060: eeb8 f13d 8447 e73d 29c4 273d 6e39 d5bc
00000070: 12db 22bd 4f8a 603d bbad 123e 8f57 173c
00000080: 9baf 67be aff6 cdba 173c 17be 1a3c cdbe
00000090: 8037 56be d17d 33bd c3de 56be 6159 0cbe
000000a0: ff61 0c3c c170 c9be ed04 6fbe d2c3 e1bc
000000b0: f080 a9be d0f9 e2be 0800 d2be a140 65be
000000c0: 31f2 eebe 624a 88be c27c 70be 436c 7dbd
000000d0: d2ee a1be 2630 96be eb47 b2be fa29 98bd
000000e0: 1ecd febd c5da 98be 38a1 41bd 89ec 89bd
000000f0: 7617 b6bd 6190 aebd 0c0c e9be e3a2 d0be
00000100: c4aa e53a 16fa 15be 7a61 45bd c945 953d
00000110: 7d7c 4bbd 2131 82bb 5f17 b53c ad5f 733c
00000120: 21d6 c73c a784 48bb 27f4 b93b f490 1dbe
00000130: fae1 a73d 4bad b0bd b28f fabd 8e7d 62bd
00000140: b5aa b4bd c8e1 a3bd 7b26 3fbd 1287 00be
00000150: 927e 183d f6cf 023e c2b4 a63d 5c65 083e
00000160: c9b9 a33d 26db 463c ed06 2b3e 521b afbd
00000170: 4dc5 003e 29c1 05be 4138 4ebc a366 e4bc
0.080978476 -0.16258095 -0.20910965 0.009346861 0.0072328085 0.09202388 0.15170416 -0.07796101
-0.03674985 0.091540724 0.1699564 0.08472637 0.101768635 0.076319754 -0.023323946 0.1295399
-0.07558147 0.032142162 -0.124871746 0.16146225 -0.09112749 0.10918719 0.0031109452 -0.006863274
0.11802851 0.112929374 0.040958557 -0.026028361 -0.039759703 0.0548194 0.14324085 0.009237184
-0.22625582 -0.0015713776 -0.14769016 -0.40084916 -0.20919609 -0.04382116 -0.20983414 -0.1370597
0.008568286 -0.39343837 -0.23341723 -0.027559195 -0.33106184 -0.44331217 -0.4101565 -0.22387935
-0.46669152 -0.2661925 -0.23485091 -0.061870825 -0.31627518 -0.2933361 -0.34820494 -0.074298814
-0.12441467 -0.29854408 -0.04727289 -0.067345686 -0.088911936 -0.08523632 -0.45517004 -0.40749273
0.0017522206 -0.14646181 -0.048188664 0.07288701 -0.04967927 -0.003973142 0.02210587 0.014854354
0.024394097 -0.0030596645 0.005674857 -0.15387326 0.081973985 -0.08626803 -0.12234439 -0.05529552
-0.08821622 -0.08002049 -0.046667557 -0.12551525 0.03723008 0.12774643 0.081399456 0.13319916
0.0799442 0.01213721 0.1670186 -0.08550133 0.12575264 -0.13061966 -0.012586654 -0.027880972

gru.bias_hh_l1 f4 [96]
00000000: 0772 45be f7a7 083d e328 c03d 191d 95bd
00000010: 4f28 3c3d 4159 1ebe f343 403e b92e 92bd
00000020: 8dbf 36be ad35 dd3d 9eb4 23be 0ded 4a3d
00000030: ba88 e0bd 7c0a cebc 6b31 fcbd a3b2 423c
00000040: 2928 ffbd 65d7 443e a61e 1cbd c74f 9bbd
00000050: 1cff 60bd 7647 253d 88c4 4cbe 4711 80be
00000060: 1551 1b3e e29d 24be 04f9 873d 506c 09bd
00000070: 2859 863d 12db 54bd 2bd6 eabd 2815 4bbd
00000080: c893 e6bd 3d17 ca3d d920 3cbe f9b1 1fbe
00000090: d0ef 05be 6601 94bd 5590 95be 5249 9cbd
000000a0: 0cd5 92bd a4a2 f5be 3ba3 9bbe 284c 87bc
000000b0: 6abb 89bd c23b 92be e3ec 32be 6132 e9bd
000000c0: e210 f6be 3e48 c7be 83dd 5ebe b154 cb3d
000000d0: fc8f b5bd 07b1 b8bd 6df7 a7be 625f 6dbe
000000e0: 5ac0 3a3d c55d 93be eb8a a7be d0bc 04bd
000000f0: ae5c 4ebd 31d8 6bbe bec1 b1be 7e50 c6bd
00000100: 4c7c d83c b16c a8bd 5c7a c2bb fb17 a0bc
00000110: 5e2f 733d 9311 bebb a7ab a93c 7f12 70bc
00000120: f28c 96bd 1ab2 f93d 42ad 7f3d 00cf b73d
00000130: 9805 123e cd3a 80bc e3cc 85bd 5882 3cbe
00000140: 33e7 49bd 4c9b 753d 7d31 cd3d 2a19 30be
00000150: b881 053e 9fe1 2bbe ad0b 893d 381d dabd
00000160: 5be2 a73c a080 85bd b172 d63d 6ed9 e7bc
00000170: 8adc 8abd caa7 763d 128f 8bbd 5299 be3b
-0.19281779 0.03336331 0.093827985 -0.072809406 0.04593688 -0.15463735 0.1877592 -0.07137818
-0.17846508 0.108012535 -0.15986869 0.049542475 -0.109635785 -0.025151484 -0.12314113 0.011883411
-0.12458832 0.19222791 -0.038115166 -0.07583576 -0.05493079 0.040351354 -0.19996846 -0.25013182
0.15167649 -0.16075853 0.06639293 -0.03355056 0.06559974 -0.051966734 -0.114666305 -0.049580723
-0.11258656 0.098677136 -0.18371905 -0.15595235 -0.13079762 -0.07226829 -0.2921168 -0.07631172
-0.07169542 -0.47975647 -0.30397972 -0.016515806 -0.067251995 -0.28561217 -0.17473178 -0.11386562
-0.48059756 -0.38922304 -0.21764188 0.09928263 -0.088653535 -0.0901814 -0.32805958 -0.23180917
0.045593597 -0.28782478 -0.32723173 -0.032406628 -0.050381355 -0.23031689 -0.34718126 -0.096833214
0.026426457 -0.08223856 -0.0059349965 -0.019542685 0.059371345 -0.005800435 0.020711733 -0.014652847
-0.07351102 0.12192173 0.06242109 0.08975029 0.14259946 -0.015653038 -0.0653322 -0.18409097
-0.049292754 0.059962556 0.10019205 -0.171971 0.13037765 -0.16785286 0.0669168 -0.10650104
0.020493677 -0.06518674 0.104710944 -0.02830192 -0.06780346 0.06021861 -0.06814398 0.005816617

fc.weight f4 [1, 32]
00000000: 9885 033e 4dec 433d fefd 393e 8ce7 0cbe
00000010: ab7d f7bd 38ea e63d 963d 18bc 3e92 c83d
00000020: dcbb 22bd 6789 d63d 045d 31bd ace8 013c
00000030: bbdd b03d 3f18 263e c1f5 46be 246f 1d3e
00000040: 1d0d bebd 491a 00be e7fe 823e d34c bb3d
00000050: 944f e53d 350e 1a3e 3c81 83be 8870 0dbe
00000060: bb88 6cbd b2e3 9ebd a111 56be 2ce1 24be
00000070: 33a4 833d e2ec 293e 1d33 00be 8010 20be
0.1284393 0.047832776 0.18163297 -0.13760203 -0.12084516 0.112751424 -0.009292027 0.097935185
-0.039729938 0.10475426 -0.043301597 0.007929008 0.08636042 0.16220187 -0.19429685 0.15374428
-0.09279845 -0.12510027 0.255851 0.091455124 0.11196819 0.15044482 -0.25684536 -0.13812459
-0.057747584 -0.07758273 -0.20905162 -0.16101521 0.06427803 0.1659427 -0.12519498 -0.15631294
