lstm_model.pth (torch, 54652 bytes, 9 tensors)

lstm.weight_ih_l0 f4 [128, 1]
0	0xbdba0e6d	-0.09084783
1	0xbce790b9	-0.028267251
2	0x3cb4e96f	0.022083966
3	0xbe833c76	-0.25632066
4	0x3dd2fec3	0.10302498
5	0x3ea3abd3	0.3196703
6	0xbd89b0c4	-0.067231685
7	0xbe0ec075	-0.13940604
8	0xbc499d80	-0.012305617
9	0xbe748436	-0.2387856
10	0xbbe27fbe	-0.0069122007
11	0x3e9ed17d	0.31019202
12	0xbd2b9554	-0.041890457
13	0x3e96ea66	0.29475707
14	0x3e2c64cc	0.16835326
15	0x3e8dc273	0.27687415
16	0xbe25cc55	-0.16191228
17	0x3cbd6484	0.023119219
18	0xbc735825	-0.014852558
19	0x3e518c8f	0.20463775
20	0xbc883a6d	-0.016629422
21	0xbd3cdf3b	-0.046111327
22	0xbda1627a	-0.07880111
23	0xbd0bace7	-0.03410044
24	0xbca2939c	-0.019845776
25	0xbd000e56	-0.03126367
26	0xbd6d7075	-0.057968576
27	0x3d5641ab	0.05230872
28	0xbe1ebc40	-0.15501499
29	0xbe411c88	-0.1885854
30	0xbc238f4d	-0.009982896
31	0x3da5d600	0.08097458
32	0xbdd31e0e	-0.10308467
33	0xbe49c037	-0.1970223
34	0x3c822071	0.01588461
35	0xbe9f2203	-0.31080636
36	0x3e02c4eb	0.1277043
37	0x3ea595b0	0.32340765
38	0x3c2c861d	0.010530022
39	0xbb204fc6	-0.0024461611
40	0x3ce0a14a	0.027420659
41	0xbdb69c0c	-0.08916482
42	0xbdb3d7a9	-0.08781368
43	0x3ec548f8	0.38532233
44	0xbe6cbf8e	-0.23119947
45	0x3e8a885a	0.27057153
46	0x3e0b0f59	0.13580073
47	0x3e71bef7	0.23608004
48	0xbe9beac2	-0.30452543
49	0xbe2b0b69	-0.16703571
50	0xbc40a500	-0.011758089
51	0x3e250393	0.16114645
52	0x3aaa913c	0.0013013254
53	0xbce463ea	-0.027879674
54	0xbda97dba	-0.082759336
55	0x3c0291a3	0.007969293
56	0xbe0a2727	-0.13491498
57	0xbdfb0624	-0.122570306
58	0xbdb1ad68	-0.08675653
59	0x3ea39372	0.3194843
60	0x3e2c6bc4	0.16837984
61	0xbe5c6095	-0.21521218
62	0xbe7aa9c2	-0.2447882
63	0x3e6fe3f8	0.23426807
64	0x3c907f27	0.017638756
65	0x3d7c0730	0.061530292
66	0xbea70a7b	-0.32625183
67	0xbe4dc858	-0.20095956
68	0x3d819e75	0.063290514
69	0xbe7d5e5e	-0.2474303
70	0x3e76883d	0.24075408
71	0x3e476c00	0.19474792
72	0xbe586d0e	-0.21135351
73	0xbe982733	-0.29717407
74	0xbec5910d	-0.38587227
75	0x3e9b7980	0.30366135
76	0x3e9c8307	0.30568716
77	0xbea44ae3	-0.32088384
78	0xbeae3003	-0.34021005
79	0x3eae50b9	0.34045961
80	0xbe1b0f32	-0.15142515
81	0xbe989f1e	-0.29808897
82	0x3e85714b	0.26062998
83	0xbdf5a0a5	-0.11993531
84	0x3e8275c5	0.25480476
85	0x3e812d13	0.252297
86	0x3bce205f	0.00629048
87	0xbe703288	-0.23456776
88	0xbcd9faa0	-0.026608765
89	0x3e068ce7	0.13139687
90	0x3e174d2a	0.1477553
91	0xbea0cb3a	-0.3140505
92	0x3e77dcef	0.24205373
93	0xbe2bf955	-0.16794331
94	0xbea6a799	-0.32549742
95	0xbeb746c5	-0.3579618
96	0xbdef151d	-0.11673949
97	0xbe98811e	-0.2978601
98	0x3e013870	0.12619185
99	0xbe8d221a	-0.2756508
100	0xbd59dbc1	-0.05318809
101	0x3f3667d7	0.712522
102	0xbdef4628	-0.11683303
103	0xbd465d5f	-0.04842889
104	0xbdc8f365	-0.09812049
105	0xbeb16481	-0.3464699
106	0xbdc7b2d4	-0.09750906
107	0x3eae5c6a	0.3405488
108	0xbe9cd577	-0.3063161
109	0x3f10c628	0.5655236
110	0x3ed7b56f	0.4213061
111	0x3ef93802	0.48675543
112	0xbde73a22	-0.11290385
113	0xbe8371cc	-0.25672758
114	0xbe288d19	-0.16460074
115	0x3e88c62b	0.2671369
116	0xbe272b91	-0.16325213
117	0xbe81af66	-0.2532913
118	0xbbbde399	-0.005794954
119	0x3d89f63b	0.06736418
120	0x3b3d8ce2	0.0028923084
121	0xbe7a9e15	-0.24474366
122	0xbd2639e2	-0.040582545
123	0x3e536641	0.20644476
124	0xbe23837e	-0.15968129
125	0xbd885634	-0.06657067
126	0xbdbe99d7	-0.09306686
127	0x3d824438	0.06360668

lstm.weight_hh_l0 f4 [128, 32]
0	0xbe34a1ff	-0.17639922
1	0xbdbe4cb6	-0.09291975
2	0xbd899807	-0.0671845
3	0x3d0e73c0	0.034778357
4	0x3cb12ce6	0.021627855
5	0x3e250a0a	0.16117111
6	0x3de44aee	0.11147104
7	0xbe0a7737	-0.1352204
8	0xbda61f9b	-0.08111497
9	0x3d6e0242	0.058107622
10	0xbc41d8dc	-0.011831488
11	0x3e1b50c3	0.15167527
12	0x3da1705d	0.0788276
13	0xbe290f6d	-0.1650979
14	0xbd776766	-0.060401343
15	0xbe2ccdcc	-0.1687538
16	0xbdad4706	-0.08460812
17	0x3d9956d3	0.074872635
18	0x3e02db2a	0.12778917
19	0xbcdf91cb	-0.0272912
20	0xbd36b1fc	-0.044603333
21	0x3bdc291e	0.0067187687
22	0x3e55e0b1	0.20886494
23	0xbe072673	-0.13198261
24	0xbd9bac82	-0.07601263
25	0x3dde4f8b	0.10855015
26	0x3ddcd92a	0.10783608
27	0x3d2b9ac3	0.04189564
28	0x3c9f1276	0.019417983
29	0xbd1d61a3	-0.03842319
30	0xbe2cb946	-0.16867551
31	0x3dfbff2c	0.123045295
32	0x3e137ea5	0.1440378
33	0x3e18144a	0.1485149
34	0xbd59b936	-0.053155147
35	0xbdefa978	-0.117022455
36	0x3c0be02d	0.008537334
37	0x3da8a4f7	0.082345895
38	0xbd1543ac	-0.03644149
39	0x3de38141	0.111086376
40	0xbce61dd1	-0.02809039
41	0x3e4ca377	0.19984232
42	0xbdef76cb	-0.1169258
43	0xbe07003b	-0.13183682
44	0x3df90afd	0.12160299
45	0x3e190609	0.14943708
46	0xbe088334	-0.133313
47	0xbdf44e4f	-0.11928999
48	0xbd7592b9	-0.05995438
49	0x3dd1e384	0.10248473
50	0x3d0ad3a4	0.033893242
51	0xbcdeb9cd	-0.027188206
52	0xbe2b05be	-0.16701409
53	0xbe1d0a03	-0.1533585
54	0x3dbf8658	0.09351796
55	0xbdc8d2f4	-0.09805861
56	0x3d9dbaf0	0.07701671
57	0xbc6875a6	-0.014188206
58	0xbd857a3b	-0.06517454
59	0xbd8f8dd0	-0.070094705
60	0xbe0bd461	-0.13655235
61	0xbe1a0d55	-0.15044148
62	0xbe0c6489	-0.13710226
63	0xbe095413	-0.13410978
64	0xbae482dc	-0.0017434019
65	0xbe95049b	-0.29105076
66	0xbd78f215	-0.060777742
67	0x3d5a0cbb	0.053234797
68	0xbd8dfa4c	-0.06932506
69	0xbd316c4c	-0.04331617
70	0xbe874820	-0.26422215
71	0xbd8ae4f9	-0.06781954
72	0x3e43cfba	0.1912221
73	0x3ea7167a	0.32634336
74	0x3d951a8a	0.072804525
75	0x3e82bc1a	0.25534135
76	0xbe68f3c0	-0.22749233
77	0xbe371899	-0.17880477
78	0xbe8daf77	-0.27672932
79	0x3d4a891a	0.049447156
80	0x3e5d0aff	0.21586226
81	0x3e9dba0a	0.30806
82	0xbd3b034d	-0.045657445
83	0xbe4403e0	-0.19142103
84	0xbeac6498	-0.33670497
85	0xbd9c911a	-0.076448634
86	0xbe34b04e	-0.1764538
87	0xbca19836	-0.0197259
88	0x3e30a959	0.17252101
89	0xbe879b57	-0.26485702
90	0xbe1b6e81	-0.15178873
91	0xbe50f59a	-0.2040619
92	0x3d8ca0be	0.06866597
93	0x3e159a5b	0.14609663
94	0x3db2be33	0.08727684
95	0xbe79242f	-0.24330209
96	0xbb42d4f2	-0.0029728976
97	0xbe0c8095	-0.13720925
98	0xbd556e5a	-0.052107193
99	0x3e0b959c	0.1363129
100	0x3d82e27d	0.063908555
101	0xbe200411	-0.15626551
102	0xbd0cf25a	-0.034410812
103	0xbd855a7e	-0.06511401
104	0xbe03950b	-0.12849824
105	0x3d0290e4	0.03187646
106	0x3d8e8ee2	0.069608465
107	0x3d8384c2	0.06421806
108	0x3dde7e57	0.10863941
109	0xbcae5948	-0.021282807
110	0xbe47a9a9	-0.19498314
111	0x3e05ee90	0.13079286
112	0xbccebe0b	-0.025237104
113	0x3e164263	0.14673762
114	0x3d3ab50a	0.04558281
115	0xbe1105eb	-0.14162414
116	0x3dd484b8	0.103768766
117	0x3cf40743	0.029788619
118	0xbe424c92	-0.18974522
119	0x3c215aca	0.009848306
120	0x3cbcb900	0.023037434
121	0xbe350a8c	-0.17679805
122	0x3dce6bbc	0.100791425
123	0xbc62d9e0	-0.013845891
124	0xbd47751a	-0.04869566
125	0x3e3efbdb	0.18650763
126	0x3d7d0415	0.06177147
127	0x3b9ca804	0.004780771
128	0xbe42fb2f	-0.19041131
129	0xbdcf27a0	-0.1011498
130	0xbdb8ac15	-0.09017197
131	0xbd4035da	-0.046926357
132	0xbe0c083f	-0.1367502
133	0x3bc9a441	0.006153614
134	0x3e0671f6	0.1312941
135	0xbd3098fc	-0.043114647
136	0x3dc4b565	0.09604911
137	0xbdb305a4	-0.0874131
138	0x3cda1c4d	0.026624823
139	0xbc4b1346	-0.012394732
140	0x3dd03ecf	0.1016823
141	0xbe4f549c	-0.2024712
142	0xbe4a6e7d	-0.1976871
143	0xbd7baf8d	-0.061446715
144	0xbdb050ac	-0.08609137
145	0x3e0cfcb2	0.1376827
146	0x3e2b822b	0.16748874
147	0x3dff4406	0.12464146
148	0x3e234f4a	0.15948215
149	0xbcbdd44b	-0.023172518
150	0x3c333d84	0.010939959
151	0xbd8f56df	-0.06998991
152	0xbceb7dd6	-0.028746527
153	0x3d1f7fcb	0.038940232
154	0x3d90ba96	0.070668384
155	0xbe4cda6f	-0.20005201
156	0xbd258122	-0.040406354
157	0xbd8ad2dc	-0.067784995
158	0xbe548a10	-0.20755792
159	0xbd816d90	-0.063197255
160	0x3e62851d	0.22121091
161	0xbd1d743f	-0.03844094
162	0x3d6d8968	0.05799237
163	0x3e87a371	0.26491883
164	0x3d804ad5	0.06264273
165	0xbda61123	-0.08108737
166	0xbe4af0b6	-0.19818386
167	0xbe1659d3	-0.14682703
168	0x3e26141a	0.16218606
169	0xbcf66d62	-0.030081455
170	0xbe339075	-0.17535575
171	0x3e5692db	0.20954458
172	0x3cc8e8e9	0.024525123
173	0xbda2b5f0	-0.07944858
174	0xbe05072f	-0.12991022
175	0xbdeb09a9	-0.11476452
176	0x3e84eecb	0.25963435
177	0x3e9a9e20	0.30198765
178	0xbe595e96	-0.21227488
179	0xbcfcd3fc	-0.0308628
180	0xbe84d32e	-0.25942367
181	0xbe6035d3	-0.21895532
182	0x3be94b84	0.007119598
183	0xbd98ccf6	-0.07460968
184	0x3e28d8b1	0.16488911
185	0xbe103c63	-0.14085536
186	0x3d615c40	0.055019617
187	0xbe3cee04	-0.18450171
188	0xbe411db3	-0.18858986
189	0xbd8b180e	-0.067916974
190	0x3da487f0	0.080337405
191	0xbd033b27	-0.032038834
192	0x3e0f3caf	0.13987993
193	0x3bf87c41	0.0075831716
194	0x3e12e38f	0.14344619
195	0x3e1fae06	0.15593728
196	0x3c8269e8	0.01591964
197	0xbe5b4bec	-0.2141568
198	0x3d259957	0.04042944
199	0xbe826edd	-0.25475207
200	0x3d9c0d6b	0.07619747
201	0xbe02d363	-0.1277595
202	0x3dab8230	0.08374441
203	0x3e54b9d8	0.20774019
204	0xbe3f35f1	-0.18672921
205	0xbdebd5bb	-0.11515375
206	0xbe05158b	-0.12996499
207	0x3e41a7e0	0.18911695
208	0x3dc34c68	0.09536058
209	0x3e2195b8	0.1577977
210	0xbe33ba47	-0.17551528
211	0x3d315f3c	0.043303713
212	0x3c12b17f	0.008953451
213	0x3d3bf7de	0.04589068
214	0xbe0e2c80	-0.13884163
215	0x3c820b4f	0.015874533
216	0xbd95204b	-0.0728155
217	0x3d38b00d	0.04508977
218	0xbdec3c51	-0.11534942
219	0xbe2b9cbe	-0.16759011
220	0xbdc070b9	-0.093965
221	0x3d8fe82e	0.07026707
222	0xbc8c8321	-0.01715237
223	0xbe4537cc	-0.19259566
224	0x3e0880fe	0.13330457
225	0x3d32915b	0.043595653
226	0xbdfa80f5	-0.12231628
227	0x3d8c341a	0.06845875
228	0x3e5bc19c	0.21460575
229	0xbc95ea4c	-0.018300198
230	0x3e0285fd	0.12746425
231	0x3ce9700b	0.028495809
232	0x3e2dd6d7	0.16976486
233	0x3d5fc8b0	0.05463475
234	0xbdf2d8c6	-0.118577525
235	0x3ea514bc	0.32242382
236	0xbaf04b13	-0.0018332921
237	0xbe47d216	-0.19513735
238	0xbe11b663	-0.14229731
239	0x3dae265c	0.0850341
240	0xbdba038c	-0.09082708
241	0x3e12c8e8	0.14334452
242	0x3d665914	0.056237295
243	0xbdaa2d9d	-0.08309481
244	0xbe25ad11	-0.16179301
245	0xbc019f36	-0.007911494
246	0x3c8cbe9e	0.017180737
247	0xbe779d1d	-0.24181028
248	0x3dfad102	0.12246896
249	0xbe1b60a4	-0.15173584
250	0xbdd49c17	-0.10381334
251	0xbe5f36a2	-0.21798185
252	0x3d8ef764	0.0698078
253	0xbdb3e5c0	-0.08784056
254	0x3d1ff2a1	0.03904975
255	0xbec360af	-0.381597

lstm.bias_ih_l0 f4 [128]
0	0xbd4a2652	-0.04935295
1	0xbd1e2807	-0.03861239
2	0x3e8651fe	0.2623443
3	0xbd972b48	-0.07381302
4	0x3dee7612	0.11643614
5	0x3e4ed421	0.20198108
6	0x3d5a736f	0.053332742
7	0x3dd454cd	0.10367737
8	0x3cdaa461	0.02668971
9	0x3dae3c6d	0.08507619
10	0x3e18387b	0.14865296
11	0x3d28adff	0.04118156
12	0x3e0528b6	0.13003811
13	0xbcf9ad19	-0.030478047
14	0x3bb4c96a	0.0055171745
15	0x3ccf4c47	0.025304927
16	0xbe04cd82	-0.1296902
17	0x3e2df94e	0.16989633
18	0xbc005d1a	-0.007834697
19	0x3cd7a807	0.026325239
20	0xbce4c030	-0.027923673
21	0x3e3178cd	0.17331238
22	0x3d0d0fe4	0.034438983
23	0x3e2cecb4	0.1688717
24	0xbc9526ad	-0.018206919
25	0xbe0089c8	-0.1255256
26	0x3da904fc	0.08252904
27	0x3c84f829	0.016231613
28	0x3cb42e97	0.021994872
29	0xbd583b22	-0.05279077
30	0xbc046a69	-0.008082011
31	0x3d5737fd	0.05254363
32	0xbe13876f	-0.14407133
33	0x3e0bed47	0.13664733
34	0xbd4fcd7d	-0.05073308
35	0xbd9ff478	-0.078103006
36	0xbe4e100c	-0.20123309
37	0x3e441c38	0.1915139
38	0xbd4d2715	-0.0500861
39	0x3a9960cf	0.0011701825
40	0x3e289980	0.16464806
41	0x3dfba74c	0.12287769
42	0x3c528176	0.012848249
43	0xbd908eab	-0.07058462
44	0x3dfb51be	0.122714505
45	0x3e101d52	0.14073685
46	0x3df3cb96	0.11904065
47	0x3e342d71	0.1759546
48	0x3d68f598	0.05687484
49	0x3d03a180	0.03213644
50	0xbdd8291f	-0.10554718
51	0xbde5a09f	-0.11212277
52	0xba634d83	-0.0008670913
53	0x3d3a3a9f	0.04546606
54	0x3dc5ac5c	0.096520156
55	0xbd134cea	-0.035962023
56	0xbcbb7c8d	-0.022886539
57	0x3ca4dcfa	0.020124901
58	0x3d942907	0.07234388
59	0xbd9295db	-0.07157489
60	0xbe60b789	-0.21945013
61	0xbd07046f	-0.032963213
62	0xbe295b87	-0.16538821
63	0x3e163412	0.14668301
64	0x3de01df5	0.10943214
65	0xbdb9a89b	-0.09065362
66	0xbc532fbb	-0.012889798
67	0x3dd7bc85	0.10534004
68	0xbd9993e2	-0.074989095
69	0xbe122401	-0.14271547
70	0xb99975cd	-0.00029270203
71	0xbe07d598	-0.13265073
72	0x3d026d53	0.03184254
73	0x3bb7a535	0.005604411
74	0xbb83bec5	-0.0040205442
75	0x3db6067c	0.088879555
76	0xbdfc55ef	-0.12321078
77	0xbe26e7cf	-0.16299365
78	0xbe0f66b4	-0.14004022
79	0x3e318441	0.17335607
80	0xbb18f6cd	-0.0023340464
81	0xbacbc0d6	-0.001554514
82	0xbc1b5fe9	-0.009483316
83	0xbdfc1d6c	-0.12310299
84	0xbdcd8b13	-0.10036292
85	0x3d8e3c07	0.06945043
86	0xbe162cb2	-0.14665487
87	0xbd6c3c90	-0.057674944
88	0x3e124394	0.14283592
89	0xbdcc497e	-0.09974955
90	0xbe02c95f	-0.1277213
91	0xbdeffe83	-0.11718466
92	0x3dc15405	0.094398536
93	0xbe0a08ca	-0.13479915
94	0xbe18adf1	-0.14910103
95	0xbd396fc1	-0.045272592
96	0xbd4b1045	-0.049576063
97	0x3e0ea875	0.13931449
98	0x3e037ffd	0.12841792
99	0x3e20594f	0.15659069
100	0x3e10feb1	0.14159657
101	0xbd4683d6	-0.048465572
102	0x3bfe9a6d	0.007769874
103	0x3d8574f0	0.06516445
104	0x3d9d8450	0.07691252
105	0x3e019885	0.12655838
106	0x3e9e975b	0.3097485
107	0xbd802596	-0.06257169
108	0xbd7815ec	-0.06056778
109	0xbbde748d	-0.0067887963
110	0xbd494d2e	-0.04914587
111	0xbd8b0c83	-0.06789496
112	0xbdfe122a	-0.12405808
113	0x3dfb4955	0.12269846
114	0x3bd71f1d	0.0065649883
115	0x3d976062	0.073914304
116	0x3e67530d	0.22590275
117	0x3d151725	0.036399025
118	0xbd7d291d	-0.061806787
119	0x3dc62bf1	0.0967635
120	0xbe06d9ab	-0.13168971
121	0x3daff497	0.08591574
122	0xbd8f0da9	-0.06985027
123	0xbde77e3b	-0.113033734
124	0x3e58bdea	0.21166196
125	0x3e51713e	0.20453355
126	0x3db3cba0	0.08779073
127	0x3ea95217	0.33070442

lstm.bias_hh_l0 f4 [128]
0	0xbd978da8	-0.07400066
1	0x3cc47979	0.023983704
2	0xbc1266bf	-0.008935629
3	0x3c8614e5	0.016367385
4	0x3c0cdc15	0.0085973935
5	0x3c908512	0.017641578
6	0x3b30805b	0.0026931975
7	0x3cfb181b	0.030651143
8	0x3e536dee	0.20647404
9	0x3e43e825	0.19131525
10	0x3ea32867	0.31866762
11	0x3cec07d5	0.028812328
12	0xb98d1dee	-0.00026915915
13	0x3e27a65c	0.16372055
14	0x3db6aa19	0.08919162
15	0xbcf31755	-0.029674212
16	0xbd35d00f	-0.044387873
17	0x3e2b4e05	0.16728981
18	0xbd634519	-0.05548582
19	0x3e0948d5	0.1340669
20	0xbc85470b	-0.016269227
21	0xbd9738c7	-0.07383876
22	0x3d5f2a97	0.054483976
23	0x3d2bf610	0.04198271
24	0xbd81314d	-0.063082315
25	0xbda32db3	-0.07967701
26	0xbde20fb5	-0.11038152
27	0xbcf0da93	-0.0294011
28	0x3de0c007	0.10974126
29	0xbc3cad66	-0.011515951
30	0x3e5c3155	0.21503194
31	0x3da73728	0.08164817
32	0x3d531e3c	0.051542506
33	0x3d48a39e	0.048984163
34	0x3dcdfa25	0.10057477
35	0x3e2f71df	0.17133282
36	0xbd799ed5	-0.06094249
37	0xbd8016a4	-0.06254318
38	0xbdaefabb	-0.08543917
39	0xbe38a188	-0.1803037
40	0x3e20b3f1	0.15693642
41	0x3a568129	0.00081826985
42	0xbe1056c3	-0.14095597
43	0x3d9398b9	0.07206864
44	0x3e22030e	0.15821478
45	0xbd48d939	-0.049035285
46	0xbdf3d40b	-0.11905678
47	0xbdb20060	-0.08691478
48	0xbc077d61	-0.008269639
49	0x3dce68f2	0.100786105
50	0xbd02b4e4	-0.031910792
51	0xbdc96717	-0.09834116
52	0xbdd2ed84	-0.10299209
53	0x3e03efd6	0.12884459
54	0xbe3c1581	-0.18367578
55	0xbe6c5c34	-0.23082048
56	0x3e182996	0.14859614
57	0xbe1fa86d	-0.15591593
58	0x3d2de6ac	0.042456314
59	0xbcc58eb4	-0.024115898
60	0xbc1a9818	-0.009435676
61	0xbddc8442	-0.10767414
62	0xbe11033d	-0.14161392
63	0xbe0011ab	-0.1250674
64	0x3d843c9c	0.06456873
65	0xbb0137ce	-0.00197171
66	0x3c2df59a	0.010617638
67	0xbd383698	-0.04497394
68	0x3e0f579f	0.13998269
69	0xbce1d198	-0.027565762
70	0xbe155275	-0.14582236
71	0x3dfb240e	0.12262736
72	0x3d36cca0	0.04462874
73	0x3c9e9385	0.019357452
74	0xbbcd66ad	-0.0062683434
75	0x3caf38eb	0.021389445
76	0xbb29d6b1	-0.002591532
77	0x3e01f09b	0.1268944
78	0xbc840794	-0.016116895
79	0x3b8dd80c	0.0043287333
80	0x3d9ab26b	0.07553562
81	0x3e2b3fb1	0.16723515
82	0xbe083ec3	-0.13305192
83	0xbda18b91	-0.07887948
84	0xbc88fa47	-0.016720904
85	0xbe099a18	-0.13437688
86	0x3dabf5ab	0.08396467
87	0x3d9bfafe	0.07616232
88	0x3e032457	0.12806831
89	0x3d7a8222	0.06115926
90	0x3dd72f26	0.1050704
91	0x3cfdb5bc	0.030970447
92	0xbd858ea8	-0.0652135
93	0x3e2146b6	0.1574963
94	0x3df39198	0.11893004
95	0xbd9afc1d	-0.07567618
96	0x3cc640bf	0.024200795
97	0x3de2342b	0.110451065
98	0x3d675ced	0.056485105
99	0x3da4f81c	0.080551356
100	0x3db2d008	0.08731085
101	0xbdcf977c	-0.10136315
102	0xbd96d21a	-0.073642924
103	0xbd7b92f8	-0.061419457
104	0x3d56ad96	0.05241164
105	0x3df7289c	0.120682925
106	0x3e5d8cf4	0.216358
107	0x3d1df690	0.03856522
108	0xbdb329e2	-0.08748223
109	0x3d1e556f	0.038655695
110	0xbda02faf	-0.07821595
111	0x3df35570	0.1188153
112	0x3e24665a	0.16054669
113	0x3d36d1aa	0.044633545
114	0xbd7ab807	-0.06121066
115	0xbdbfc287	-0.09363275
116	0x3e525db1	0.20543553
117	0x3e3bc020	0.18335009
118	0xbdc2a648	-0.09504372
119	0xbd8a0dde	-0.06740926
120	0xbdfbc599	-0.12293548
121	0x3de11951	0.10991157
122	0xbdf3b6f1	-0.11900128
123	0xbd426cd1	-0.047467057
124	0x3e023c96	0.12718424
125	0x3e63fbd9	0.22264041
126	0x3dc04a90	0.09389222
127	0x3d6ec1a6	0.058290146

lstm.weight_ih_l1 f4 [128, 32]
0	0x3de0d349	0.109777994
1	0xbe999340	-0.29995155
2	0xbe4a9f2a	-0.19787279
3	0x3e2c00df	0.16797207
4	0x3e700192	0.23438099
5	0xbe84fcae	-0.2597403
6	0xbe50b4bc	-0.20381445
7	0xbd024521	-0.031804208
8	0x3e77afb6	0.24188122
9	0x3ac0d6d0	0.0014712457
10	0xbe149e3c	-0.14513487
11	0x3eadf60c	0.3397678
12	0xbd911cae	-0.07085548
13	0xbe0ee860	-0.13955832
14	0xbe396789	-0.18105902
15	0x3e6024c1	0.2188902
16	0x3e99fcf2	0.30075794
17	0x3e35bf06	0.17748651
18	0xbc2d099b	-0.010561372
19	0xbe3b42d1	-0.18287207
20	0xbd47c039	-0.048767302
21	0x39c4f49b	0.00037566278
22	0xbdc9f550	-0.09861243
23	0xbe95f650	-0.29289484
24	0x3e958758	0.29204822
25	0xbd49718e	-0.04918056
26	0xbe656137	-0.22400366
27	0xbe962ca9	-0.29330948
28	0x3ca5e7a5	0.020252058
29	0xbccd2758	-0.025043175
30	0xbd3766ed	-0.044775892
31	0xbda23999	-0.07921142
32	0x3c171496	0.009221217
33	0x3b3ac222	0.002849706
34	0xbe01c009	-0.12670912
35	0x3aca3db8	0.001542977
36	0xbdb1dbcc	-0.08684501
37	0xbec28ab3	-0.37996444
38	0xbe127a6f	-0.14304517
39	0xbe6210e3	-0.22076754
40	0x3e47a458	0.19496286
41	0x3e8e284e	0.27765125
42	0xbd1f27f1	-0.03885645
43	0x3e56ddfb	0.20983116
44	0xbe51b122	-0.20477727
45	0xbeab3f1a	-0.3344658
46	0xbe479383	-0.19489865
47	0x3d3ca102	0.046051987
48	0xbc544be9	-0.0129575515
49	0xbc4b906b	-0.012424569
50	0xbe73d38c	-0.23811167
51	0xbe1d9297	-0.15387951
52	0xbe38e5e2	-0.18056443
53	0xbde3cf55	-0.1112353
54	0xbe58799b	-0.21140139
55	0xbe66207f	-0.22473334
56	0xbd3d6d0e	-0.04624658
57	0x3c7d93eb	0.015477161
58	0xbdb3547e	-0.0875635
59	0xbe5952b6	-0.21222958
60	0xbdcf8512	-0.10132803
61	0x3db4c288	0.088261664
62	0xbd8583d6	-0.06519286
63	0xbd3730c5	-0.044724245
64	0x3e4510ea	0.19244733
65	0xbd36b0cd	-0.044602204
66	0xbd1ff810	-0.03905493
67	0x3dfcd923	0.12346103
68	0xbe74486f	-0.23855756
69	0xbd025025	-0.031814713
70	0x3dbb1d11	0.09136403
71	0x3cbd1c25	0.02308471
72	0x3c40d699	0.011769914
73	0x3c07e576	0.008294454
74	0x3bf3e6f2	0.0074433023
75	0xbd45c04f	-0.048279103
76	0xbdc09bb1	-0.09404696
77	0x3daf05a7	0.08546
78	0xbb98d389	-0.004663889
79	0x3d0162d7	0.0315884
80	0xbd85fa45	-0.06541876
81	0x3e5888fe	0.21146008
82	0xbe5a25d2	-0.2130349
83	0x3db7699d	0.08955691
84	0xbc836974	-0.016041495
85	0xbe5e0057	-0.21679817
86	0xbd7ffba7	-0.062495854
87	0x3e1d1c51	0.15342833
88	0xbe0cfc6c	-0.13768166
89	0x3bd9a08c	0.006641453
90	0xbda25f13	-0.0792829
91	0x3e047ea5	0.12938936
92	0x3cb4d584	0.022074468
93	0x3e7c7c72	0.24656847
94	0xbd02d147	-0.031937864
95	0xbc97f1e1	-0.018547954
96	0x3ea96c1e	0.330903
97	0xbe77823c	-0.24170774
98	0xbd927d36	-0.07152788
99	0x3ebccaef	0.36873576
100	0xbd7d270c	-0.061804816
101	0xbf4082de	-0.7519969
102	0xbe38b2e0	-0.18036985
103	0xbe1f0b47	-0.15531646
104	0x3d9521cd	0.072818376
105	0x3e528d5d	0.20561738
106	0xbdc3dce6	-0.095636174
107	0x3f2291ae	0.6350354
108	0xbd0dac1e	-0.034587972
109	0xbea8cf89	-0.32970837
110	0xbe906555	-0.2820231
111	0x3ebfa595	0.37431017
112	0x3e4ff43e	0.20308015
113	0x3e5f6f8a	0.21819893
114	0xbe3c696e	-0.18399593
115	0xbec3d911	-0.38251546
116	0xbe9b7867	-0.30365297
117	0x3bee5101	0.00727284
118	0xbe73a9b2	-0.23795202
119	0xbe76d6df	-0.24105404
120	0x3edbec33	0.42953643
121	0xbe845bbd	-0.2585124
122	0xbed50bc2	-0.41610533
123	0xbee215d8	-0.4415729
124	0x3d8b063d	0.06788299
125	0x3db168f0	0.08662593
126	0xbe005c8c	-0.12535304
127	0xbe08be06	-0.13353738
128	0x3e4cd4b3	0.20003013
129	0xbd219682	-0.039450176
130	0xbd33445a	-0.043766357
131	0x3e48f4f9	0.196247
132	0xbe6dfb28	-0.2324034
133	0xbe1d27d8	-0.1534723
134	0xbda73b69	-0.081656285
135	0xbddd2383	-0.10797789
136	0xbcd35e53	-0.025801813
137	0x3e5bcda2	0.21465161
138	0x3b8eeaab	0.0043614707
139	0xbd4345be	-0.047673933
140	0xbe5179e0	-0.20456648
141	0x3c977459	0.018488096
142	0x3dbedb25	0.09319142
143	0xbc230194	-0.009949107
144	0x3d4ea421	0.050449494
145	0x3e531e7e	0.206171
146	0xbe21f236	-0.15815052
147	0xbdc3d951	-0.09562934
148	0xbe3d5ca3	-0.1849237
149	0xbd688adf	-0.056773063
150	0xbd93da26	-0.07219343
151	0x3d808c60	0.062767744
152	0x3dfe5ee3	0.12420442
153	0x3d188955	0.037240345
154	0x3df24b59	0.11830778
155	0x3df28960	0.118426085
156	0xbda39558	-0.079874694
157	0x3e677daf	0.22606538
158	0x3dd58fc1	0.104278095
159	0xbd849cc3	-0.064752124
160	0x3d827a31	0.063709624
161	0x3d8e78d8	0.06956643
162	0x3e467277	0.19379602
163	0xbd0afd60	-0.033933043
164	0x3dec6eed	0.11544595
165	0x3d8237ad	0.063582756
166	0xbdbd0fc1	-0.092315204
167	0x3c1cb185	0.009563808
168	0xbdc1e83f	-0.094681256
169	0xbd8a8a11	-0.06764615
170	0x3e18c982	0.14920619
171	0x3d0540d2	0.03253252
172	0x3d253070	0.040329397
173	0x3e732eb9	0.23748292
174	0x3ddd5fe1	0.10809303
175	0xbd45a243	-0.048250448
176	0x3df3d525	0.119058885
177	0x3e51c829	0.20486511
178	0xbe49dbf3	-0.1971281
179	0xbe1ad14a	-0.151189
180	0x3c031f50	0.008003071
181	0xbdbb0f54	-0.09133783
182	0x3e38723d	0.18012328
183	0x3e80021e	0.25001615
184	0x3da332d1	0.07968677
185	0x3da6d16a	0.08145411
186	0x3d4dffac	0.050292656
187	0x3d526793	0.051368307
188	0x3c2d6045	0.0105820345
189	0x3e5ed1c3	0.21759705
190	0x3e05ac4c	0.13054007
191	0x3e510780	0.20413017
192	0xbbec4187	-0.00720996
193	0x3d2ff66b	0.042959612
194	0xbc518114	-0.012787122
195	0x3e52e7b4	0.205962
196	0xbcfcbedf	-0.030852733
197	0xbea29410	-0.31753588
198	0xbdae08e4	-0.084977895
199	0xbc91ae35	-0.017783264
200	0x3e39ccad	0.18144484
201	0x3d0215a3	0.031758916
202	0xbe12c356	-0.14332327
203	0x3ed5918d	0.4171261
204	0x3beefcc0	0.0072933137
205	0xbedd734b	-0.43252024
206	0xbd9fedda	-0.078090385
207	0x3ea54d2d	0.32285443
208	0x3e40a730	0.18813777
209	0x3e6147d1	0.22000052
210	0x3d3d6a7e	0.046244137
211	0xbe01e7e9	-0.12686123
212	0xbd1d5993	-0.038415503
213	0x3e28d886	0.16488847
214	0x3d2140f9	0.039368603
215	0xbe872fcd	-0.26403657
216	0x3de1624b	0.11005076
217	0xbdf5e6a5	-0.120068826
218	0x3cb59309	0.022164838
219	0xbe1b3955	-0.15158589
220	0x3c7f77b4	0.015592504
221	0x3d22111c	0.039567098
222	0xbc54f538	-0.012997918
223	0xbdaf3d81	-0.08556653
224	0x3ef57180	0.47938156
225	0xbed93e7e	-0.4243049
226	0xbe51dcda	-0.20494404
227	0x3e8a8a3f	0.27058598
228	0xbdc6a579	-0.0969953
229	0xbfa1d6f8	-1.2643728
230	0xbeb9eed2	-0.36315018
231	0xbf660ce4	-0.8986342
232	0x3e910441	0.28323558
233	0x3ee27613	0.44230708
234	0x3e425572	0.18977907
235	0x3f3167f1	0.69299227
236	0xbe8d1e63	-0.27562246
237	0xbf07ba5d	-0.5301874
238	0xbf3ee1a6	-0.7456306
239	0x3f173048	0.59058046
240	0x3e6efbff	0.23338316
241	0x3e42c869	0.19021763
242	0xbee2a6fd	-0.44268027
243	0xbf333d45	-0.70015365
244	0xbed89107	-0.42298147
245	0xbdcd5064	-0.10025099
246	0xbdf2578b	-0.11833104
247	0xbe19b8fc	-0.15011972
248	0x3e6bf445	0.230424
249	0xbeb3e3be	-0.3513469
250	0xbf113942	-0.56727993
251	0xbf173b03	-0.5907442
252	0xbe51d6ef	-0.20492147
253	0x3e4c6d3c	0.19963545
254	0x3e778eb2	0.24175528
255	0xbd9561fb	-0.07294079

lstm.weight_hh_l1 f4 [128, 32]
0	0xbe53b0c2	-0.20672897
1	0x3df9cc11	0.12197126
2	0xbe970909	-0.2949908
3	0x3c8a4c32	0.016882036
4	0xbe962173	-0.29322395
5	0x3e4c167a	0.19930449
6	0xbe5cb152	-0.21552017
7	0xbd9aebd4	-0.07564512
8	0xbe97a79d	-0.29620066
9	0x3e2616c7	0.16219626
10	0x3e4f5b75	0.20249732
11	0xbd0f8816	-0.03504189
12	0xbe8bd078	-0.27307487
13	0x3eac1b82	0.33614737
14	0xbe791c4d	-0.24327202
15	0xbeb7f495	-0.3592879
16	0xbe2cbd7e	-0.1686916
17	0x3e394875	0.18094046
18	0xbe8846c4	-0.2661649
19	0xbc484623	-0.012223753
20	0x3d5a3502	0.05327321
21	0x3e58296a	0.21109548
22	0xbe95f603	-0.29289255
23	0xbea2ba2c	-0.31782663
24	0x3da1d355	0.079016365
25	0xbd4a8a29	-0.049448166
26	0x3e53ab72	0.2067087
27	0xbe2ac016	-0.16674837
28	0x3da3ba36	0.07994501
29	0xbbe48220	-0.00697352
30	0xbc75c5d8	-0.015000783
31	0xbe19a41a	-0.15004006
32	0xbe227a53	-0.15866975
33	0x3e1f9d33	0.1558731
34	0x3c9fabe6	0.019491147
35	0xbd1458dd	-0.03621756
36	0xbe4b61bb	-0.198615
37	0xbd363a23	-0.044489037
38	0xbdcdaa38	-0.10042232
39	0x3cb0cacf	0.021581082
40	0xbe227ed0	-0.15868688
41	0x3bb514d2	0.0055261636
42	0xbacc0f63	-0.001556855
43	0xbccdc089	-0.025116222
44	0x3d2b7c1c	0.041866407
45	0x3df9c7b2	0.12196292
46	0xbdf8b3e9	-0.1214369
47	0xbda63578	-0.08115667
48	0x3d850c36	0.0649647
49	0x3d94856c	0.07252011
50	0xbd91ad7c	-0.07113168
51	0x3dcbd9ba	0.099536374
52	0x3d715815	0.058921892
53	0x3e244773	0.1604288
54	0xbe3c0aaf	-0.1836345
55	0xbea4f343	-0.32216844
56	0xbe138043	-0.14404397
57	0xbdef507e	-0.116852745
58	0x3e05984e	0.13046381
59	0xbdfc0af0	-0.12306774
60	0xbd8d0b9a	-0.068869784
61	0xbe45984f	-0.19296382
62	0x3e2ddf2c	0.16979665
63	0xbcf4b079	-0.029869305
64	0xbd96fbfb	-0.0737228
65	0x3ddc36b8	0.10752624
66	0xbc1ac922	-0.009447368
67	0x3d69f057	0.05711397
68	0x3dc5c1b3	0.09656086
69	0x3c9c8220	0.019105017
70	0x3ca7da47	0.020489825
71	0x3d69e743	0.057105314
72	0xbc2b1f38	-0.010444455
73	0x3d37d7f6	0.04488369
74	0xbb8eaf96	-0.0043544276
75	0xbbfd4e05	-0.007730248
76	0x3dc44261	0.09582973
77	0xbde0a873	-0.10969629
78	0xbcbcf71b	-0.023067048
79	0xbe3f1b69	-0.186628
80	0xbdebcdc2	-0.115138546
81	0xbce4ff3d	-0.027953738
82	0xbe2438f1	-0.16037346
83	0x3e3ff412	0.18745449
84	0x3e1c40d5	0.15259106
85	0x3d58bcb0	0.05291432
86	0xbd9ef082	-0.07760717
87	0xbc9028d4	-0.017597593
88	0x3c89b506	0.016809952
89	0x3d22b69f	0.039724942
90	0x3dff52e3	0.12466981
91	0x3ce8ef01	0.028434278
92	0xbd82229f	-0.0635426
93	0x3bc425c0	0.0059859455
94	0x3e4e2f10	0.2013514
95	0x3e013c82	0.12620738
96	0x3c816999	0.015797423
97	0xbd08c27d	-0.033388603
98	0xbed85b81	-0.42257312
99	0x3de7772c	0.11302027
100	0xbec0e1c6	-0.3767225
101	0x3ecfe246	0.4060232
102	0xbed2a2e5	-0.41139904
103	0xbea295fe	-0.3175506
104	0xbdf849df	-0.12123465
105	0x3ed8cab4	0.4234215
106	0x3e8f8786	0.28033084
107	0xbe669b73	-0.22520237
108	0xbdf8aeea	-0.12142737
109	0x3ebea124	0.37232316
110	0xbed2bb8e	-0.41158718
111	0xbe24a62e	-0.16079018
112	0xbdd592db	-0.10428401
113	0x3e1ba555	0.15199788
114	0xbe84c58b	-0.25931963
115	0x3eaf9dee	0.34300178
116	0x3d6497e7	0.055808928
117	0x3eef08b1	0.4668632
118	0xbe8220ec	-0.25415742
119	0xbf0c29a4	-0.5475104
120	0x3d6c446f	0.05768245
121	0xbec8bf6f	-0.39208552
122	0x3c888c71	0.01666853
123	0xbe2d90ea	-0.16949812
124	0x3dc4c73d	0.09608314
125	0xbbe21308	-0.0068992414
126	0xbcabc240	-0.020966649
127	0xbe3200dd	-0.17383142
128	0xbdfdc289	-0.1239062
129	0xbdc6a717	-0.096998386
130	0xbe12c31f	-0.14332245
131	0x3c0f7496	0.008755824
132	0xbe43bc54	-0.1911481
133	0x3e4f62cd	0.20252533
134	0xbb901adc	-0.004397733
135	0x3df3ca69	0.11903841
136	0x3db2a796	0.08723371
137	0xbdf2e7b8	-0.11860603
138	0x3e300382	0.17188838
139	0xbb22ea04	-0.0024858722
140	0x3d80e976	0.06294529
141	0x3de0ecfb	0.109827004
142	0xbe2b6124	-0.16736275
143	0xbe3f4761	-0.18679573
144	0xbe80af75	-0.25133863
145	0x3dd4dc9b	0.1039364
146	0xbdbd91a2	-0.09256293
147	0xbd14eecf	-0.036360558
148	0xbd22ab65	-0.039714236
149	0xbd1eecbc	-0.038799986
150	0xbd85c5bf	-0.06531858
151	0x3d04fc70	0.032467306
152	0xbe4a8602	-0.19777682
153	0xbc4b1c62	-0.012396904
154	0x3aac2840	0.0013134554
155	0xbcffe3a0	-0.03123647
156	0xbdd73e43	-0.10509922
157	0x3deba25e	0.115055785
158	0x3da3d177	0.079989366
159	0x3e06ad49	0.1315204
160	0xbdb5ad10	-0.088709
161	0xbe52a97b	-0.20572464
162	0x3d22c6d0	0.039740384
163	0x3e4ed954	0.20200092
164	0x3dbe3c90	0.09288895
165	0x3dc2dc3f	0.09514665
166	0x3bed092a	0.0072337585
167	0x3dbe54cf	0.0929352
168	0xbda4636e	-0.08026777
169	0xbd8ade39	-0.06780667
170	0xbe2e52c6	-0.17023763
171	0x3df5721b	0.119846545
172	0x3db7fb67	0.08983498
173	0xbcfee93c	-0.031117074
174	0xbe337aee	-0.17527363
175	0x3c42ffbe	0.011901794
176	0xbdf335aa	-0.1187547
177	0xbc93c873	-0.018039918
178	0xbd617db1	-0.05505151
179	0xbc302b49	-0.0107525075
180	0xbd5af141	-0.053452734
181	0x3c94b34c	0.018151902
182	0xbde39562	-0.11112477
183	0xbe374380	-0.17896843
184	0x3d89b7f6	0.06724541
185	0x3def247c	0.11676881
186	0xbe2a52b2	-0.16633108
187	0x3d341dd5	0.043973763
188	0x3df07d76	0.1174268
189	0x3de19305	0.1101437
190	0xbdaa0bd6	-0.08303039
191	0x3dc58569	0.096445866
192	0x3cbcca46	0.02304567
193	0xbe188803	-0.14895634
194	0xbe880169	-0.26563576
195	0x3cb0358e	0.021509912
196	0xbe454aed	-0.19266863
197	0x3e9d7801	0.30755618
198	0xbe62303c	-0.22088712
199	0xbeb22e7b	-0.34801087
200	0xbc795ec1	-0.015220345
201	0x3df56209	0.11981589
202	0x3e13e467	0.14442597
203	0xbda2ee83	-0.07955649
204	0x3c852dee	0.016257253
205	0x3c8c8150	0.017151505
206	0xbe31d18e	-0.17365095
207	0xbe67d3e0	-0.22639418
208	0x3c283ae4	0.010267947
209	0xbbe550d7	-0.0069981623
210	0x3d19ef0f	0.0375815
211	0x3de71e50	0.112850785
212	0x3e349797	0.17635952
213	0x3ea01d1d	0.31272212
214	0xbaf4443d	-0.0018636059
215	0xbe835ac0	-0.25655174
216	0x3cd12fac	0.025535427
217	0x3cdacc70	0.026708812
218	0x3e92c8a8	0.28668714
219	0xbdde76fa	-0.10862537
220	0x3e151c8b	0.1456167
221	0x3abd6b6c	0.001445157
222	0xbd9e95cb	-0.077434145
223	0xbcc1d252	-0.023659859
224	0xbf1757db	-0.5911843
225	0x3d7013a7	0.058612492
226	0xbe94e35c	-0.2907971
227	0x3e697fdc	0.2280268
228	0xbe7e417b	-0.24829666
229	0x3e764d00	0.2405281
230	0xbf1daf2b	-0.6159541
231	0xbca86491	-0.020555766
232	0xbed5854f	-0.4170327
233	0x3e877475	0.26456037
234	0x3e8a8916	0.27057713
235	0xbdbab141	-0.0911584
236	0xbe892815	-0.26788393
237	0x3e095d8a	0.13414589
238	0xbf8132d5	-1.0093638
239	0xbe6e2f23	-0.23260169
240	0xbe9c641b	-0.30545124
241	0x3ebead04	0.37241375
242	0xbdf55e03	-0.11980822
243	0x3e473c3e	0.19456574
244	0x3e6ffc29	0.23436035
245	0x3ea6fd7b	0.32615265
246	0xbe3215fa	-0.17391196
247	0xbf60e36d	-0.87847024
248	0xbe2aa7fc	-0.16665643
249	0xbf299119	-0.66237026
250	0x3ebb5f6c	0.3659624
251	0xbee7fc47	-0.4530966
252	0x3e76f8d0	0.24118352
253	0xbd778243	-0.06042696
254	0x3edb4fd2	0.42834336
255	0xbe980e82	-0.2969857

lstm.bias_ih_l1 f4 [128]
0	0x3d618827	0.055061486
1	0x3e560af7	0.2090262
2	0xbdf4accc	-0.11947021
3	0x3e65cb27	0.22440778
4	0x3e502638	0.2032708
5	0x3df21605	0.11820606
6	0x3d05f395	0.032703
7	0x3eccc222	0.39991862
8	0xbdfa0c04	-0.12209323
9	0xbc651286	-0.013981467
10	0x3dbb3bc0	0.09142256
11	0x3e8af546	0.27140254
12	0xbe1e3f20	-0.15453768
13	0x3acb48ab	0.0015509328
14	0x3e229bf4	0.15879804
15	0xbde0c42d	-0.109749176
16	0x3e3ac2be	0.18238351
17	0x3e5c118b	0.21491067
18	0x3e52fc90	0.20604157
19	0xbd99ef34	-0.075163275
20	0xbde8c886	-0.11366372
21	0x3c6655c6	0.014058536
22	0xbc3574d1	-0.0110752145
23	0x3e457c45	0.19285686
24	0xbd9400b6	-0.07226698
25	0xbd88e058	-0.06683415
26	0xbce45dbd	-0.02787673
27	0x3d8173d9	0.06320924
28	0x3debdf39	0.11517186
29	0x3e620fca	0.22076336
30	0xbcfb0b8d	-0.030645156
31	0x3d8f0542	0.06983425
32	0xbbaf600b	-0.0053520254
33	0xbe1b11d3	-0.15143518
34	0x3e13c035	0.1442879
35	0xbe79ef7e	-0.24407765
36	0xbd3d3b36	-0.046199046
37	0xbdd5cf88	-0.10439974
38	0xbe156ad9	-0.1459154
39	0xbe2a3c85	-0.16624649
40	0x3d6dd850	0.05806762
41	0xbdecf96d	-0.11571012
42	0xbe239d10	-0.15977883
43	0xbe3c0d91	-0.1836455
44	0xbe3ee8da	-0.18643513
45	0xbe093c6c	-0.13401955
46	0xbe29b17c	-0.16571611
47	0x3dd84705	0.10560421
48	0x3d48b9d6	0.049005352
49	0xbe2711b5	-0.16315348
50	0x3da63a08	0.08116537
51	0xbe05b199	-0.1305603
52	0xbe5cd5a9	-0.2156588
53	0xbdb42a56	-0.087971374
54	0xbdf13d64	-0.117792875
55	0xbdd8fd90	-0.10595238
56	0xbd34bf98	-0.04412803
57	0xbdf5572f	-0.119795196
58	0xbd1eda8c	-0.03878264
59	0x3d12cedf	0.03584182
60	0xbd19d600	-0.037557602
61	0xbe1434d2	-0.14473274
62	0x3dd7ba25	0.10533551
63	0x3e2544cf	0.1613953
64	0x3e0dae39	0.13835992
65	0x3bcc0643	0.0062263324
66	0xbe449950	-0.19199109
67	0x3ded595c	0.115893096
68	0xbd40a97c	-0.047036633
69	0x3d33fe98	0.04394397
70	0xbe2f0ec3	-0.17095475
71	0xbddad7d7	-0.106856994
72	0xbe1919ab	-0.14951198
73	0x3cd685d9	0.02618687
74	0x3cf54945	0.029942164
75	0x3d895658	0.06705922
76	0x3cf605ae	0.030032005
77	0x3d617f10	0.055052817
78	0xbe10d2a9	-0.1414286
79	0xbde412e9	-0.11136419
80	0xbdd1dfff	-0.10247802
81	0xbde16e93	-0.110074185
82	0xbda17405	-0.07883457
83	0x3d193bc8	0.037410527
84	0xbc83bc81	-0.016081097
85	0x3c01ddc3	0.007926407
86	0xbe357570	-0.1772058
87	0x3e0c68ca	0.13711849
88	0xbc8d0f7e	-0.017219301
89	0xbdcc6ee6	-0.0998209
90	0x3dd03b1f	0.101675265
91	0xbc9fcf0e	-0.019507911
92	0x3e15f35f	0.1464362
93	0xbe1082dc	-0.14112419
94	0x3de91ab6	0.11382048
95	0x3d8a480a	0.067520216
96	0x3e5c9d2f	0.21544336
97	0x3e836b28	0.2566769
98	0x3e0aa7e2	0.13540605
99	0x3ef4f2fa	0.47841626
100	0x3d46b4ae	0.048512153
101	0xbddd0bbf	-0.10793256
102	0x3d9e2310	0.077215314
103	0x3eed8d78	0.46396995
104	0x3db49006	0.08816533
105	0xbb1e9c9c	-0.0024202233
106	0x3df967ad	0.12177978
107	0x3ddb3737	0.10703891
108	0xbd270a73	-0.04078145
109	0x3dd43b07	0.10362821
110	0xbdb24c4d	-0.087059595
111	0x3e1e9789	0.15487494
112	0x3d02e6d7	0.031958427
113	0x3e2d7723	0.16939978
114	0x3e1a4180	0.15064049
115	0x3d26f6e5	0.0407628
116	0xbdf78a62	-0.12086941
117	0xbe03e9a4	-0.12882096
118	0x3d1c6dd5	0.03819068
119	0xbd0cc77b	-0.034369927
120	0x3dc45bfd	0.09587858
121	0x3dc4d0cb	0.096101366
122	0xbd106097	-0.035248365
123	0x3dda147d	0.10648439
124	0x3db9bf3d	0.09069679
125	0x3e40c21a	0.18824044
126	0x3e481539	0.19539346
127	0x3df7951b	0.120889865

lstm.bias_hh_l1 f4 [128]
0	0x3d432743	0.047644865
1	0x3d9670c2	0.073457256
2	0x3e1d40c9	0.15356745
3	0x3e2b5877	0.16732965
4	0x3e34dd49	0.17662539
5	0x3d815a13	0.063160084
6	0x3cf81393	0.030282771
7	0x3e8afb92	0.27145058
8	0x3cc30878	0.02380775
9	0xbdb17ccd	-0.08666382
10	0x3dfed0ed	0.12442193
11	0x3e1cc92c	0.15311116
12	0xbcf8978a	-0.030345697
13	0x3e6a6b24	0.22892433
14	0xbd63fb81	-0.055659775
15	0x3d0050e9	0.031327162
16	0x3e05643d	0.13026519
17	0x3db50074	0.08837977
18	0x3dec2440	0.11530352
19	0xbd948c42	-0.072533146
20	0x3d993b3a	0.07482
21	0x3e227ab6	0.15867123
22	0x3dd3af8a	0.10336216
23	0x3e2964c1	0.16542341
24	0xbdb7e6b0	-0.08979547
25	0xbcb99244	-0.022652753
26	0xbe089b31	-0.13340451
27	0x3ddc0c66	0.10744552
28	0xbdbb20ec	-0.09137139
29	0xbd8803e7	-0.06641369
30	0xbd06bee0	-0.032896876
31	0x3df2de41	0.11858798
32	0xbe48901b	-0.19586222
33	0x3ddf4361	0.109015234
34	0x3c690486	0.01422227
35	0xbe2f47e5	-0.1711727
36	0xbd97347e	-0.07383059
37	0x3d29eed7	0.04148754
38	0x3dbfc7df	0.09364294
39	0xbd86a3c5	-0.06574205
40	0x3e234187	0.15942965
41	0x3d2c92c2	0.042132147
42	0xbe046413	-0.129288
43	0xbdbdcdeb	-0.09267791
44	0x3e07e2fc	0.13270181
45	0xbde6c7b1	-0.11268557
46	0xbe1b03ff	-0.15138243
47	0xbe16aaf9	-0.14713658
48	0xbd0b83aa	-0.03406111
49	0x3c821a64	0.015881725
50	0xbddc9506	-0.107706115
51	0xb873e277	-5.8146627e-05
52	0xbce6d0a3	-0.028175658
53	0xbd3ce8c9	-0.04612044
54	0x3e1f7461	0.15571739
55	0x3d92ced4	0.071683556
56	0x3e062fce	0.13104174
57	0xbe1258b3	-0.14291649
58	0xbe14bb39	-0.14524545
59	0xbe2c5350	-0.16828656
60	0xbd863e68	-0.06554872
61	0xbe254786	-0.16140565
62	0x3d843b11	0.064565785
63	0xbd0a5499	-0.033772085
64	0xbdfa8fa1	-0.12234426
65	0xbcdde009	-0.027084367
66	0xbc17751b	-0.009244229
67	0x3be89a7e	0.007098495
68	0xbe3a1ad4	-0.18174297
69	0x3e2a24ed	0.16615649
70	0x3d5a54d6	0.053303562
71	0x3d1c36ef	0.038138326
72	0xbe2ce4eb	-0.168842
73	0xbb1ab853	-0.00236084
74	0x3b8888a3	0.004166679
75	0xbc54d0cf	-0.012989237
76	0xbdead981	-0.11467267
77	0x3db5ec50	0.08882964
78	0xbc06670c	-0.008203279
79	0xbe19eeaf	-0.15032457
80	0x3c855ca0	0.016279519
81	0x3e269fd1	0.16271903
82	0xbcde8bcd	-0.027166272
83	0x3e3ec0b0	0.18628192
84	0x3e1dd851	0.1541455
85	0x3e1807a5	0.14846666
86	0x3d243287	0.04008725
87	0xbe380a2c	-0.1797263
88	0xbc1efc62	-0.009703727
89	0xbd8f7ac7	-0.0700584
90	0x3e2b6f4e	0.16741678
91	0x3ccffc30	0.025388807
92	0xbdc65389	-0.09683902
93	0x3d410f0c	0.04713349
94	0x3d58123c	0.052751765
95	0xbe40fe05	-0.18846901
96	0x3d42bb2d	0.047541786
97	0x3e484235	0.19556506
98	0x3defab83	0.11702635
99	0x3eb0dbdc	0.3454274
100	0xbc358fca	-0.011081645
101	0xbdfd2603	-0.12360766
102	0x3e838cba	0.25693303
103	0x3ed0093c	0.40632045
104	0xbdcca938	-0.099932134
105	0x3e033781	0.12814142
106	0xbc418c83	-0.011813286
107	0x3cdf4a10	0.027256995
108	0x3e0dd271	0.13849808
109	0x3d80479e	0.0626366
110	0xbc69a175	-0.014259686
111	0xbdd144d8	-0.10218209
112	0xbccc29fd	-0.024922365
113	0xbda994cd	-0.082803346
114	0xbcb01ecd	-0.021499062
115	0x3e1a4f81	0.15069391
116	0x3ddc76f5	0.10764877
117	0x3db05155	0.08609263
118	0xbd72678c	-0.05918078
119	0x3c77b453	0.015118676
120	0x3a70a559	0.0009179912
121	0xbdc57893	-0.09642138
122	0x3e400c4c	0.18754691
123	0xbc4b0142	-0.012390437
124	0x3e103512	0.14082745
125	0xbd84a457	-0.06476658
126	0x3c6c0498	0.014405392
127	0xbd8b5149	-0.06802613

fc.weight f4 [1, 32]
0	0xbe42544e	-0.18977472
1	0xbe7a19ec	-0.24423951
2	0x3dccbcdb	0.09996959
3	0x3e7dee48	0.24797928
4	0x3daae9b3	0.08345356
5	0xbcff3b86	-0.031156313
6	0xbe482d35	-0.19548495
7	0x3e54a1ac	0.20764798
8	0x3daf6b93	0.0856544
9	0xbd9dd05c	-0.07705757
10	0xbe153fe7	-0.14575158
11	0x3e5532da	0.2082018
12	0x3cc50b41	0.024053218
13	0xbe440e8c	-0.19146174
14	0xbe035718	-0.12826192
15	0x3e1c5f01	0.15270616
16	0xbe0ec992	-0.1394408
17	0xbe40029b	-0.18750994
18	0x3e662368	0.22474444
19	0xbe62a9c5	-0.22135074
20	0xbdc7eec7	-0.0976234
21	0xbe610d29	-0.21977676
22	0x3e709f69	0.2349831
23	0xbdbf54ba	-0.09342332
24	0xbe3cecc4	-0.18449694
25	0xbdaa83c9	-0.08325917
26	0xbd92be30	-0.07165182
27	0x3df7ed72	0.12105836
28	0xbe7ab4a1	-0.24482967
29	0x3df0eb5a	0.1176364
30	0x3e6c68bc	0.23086828
31	0x3e472122	0.19446233
