lstm_model.pth (torch, 54652 bytes, 9 tensors)

lstm.weight_ih_l0 f4 [128, 1]
0	0xbe6b1d99	-0.2296051
1	0xbdaebfad	-0.08532653
2	0x399433f1	0.0002826746
3	0xbc50d591	-0.012746231
4	0xbd94f2cf	-0.072728746
5	0x3eb50451	0.35354856
6	0xbe21b82d	-0.15792914
7	0x3e348112	0.17627361
8	0x3e644960	0.22293615
9	0xbd845300	-0.064611435
10	0x3e0f2020	0.13977098
11	0x3e5e202e	0.21691963
12	0x3cccec53	0.025015032
13	0x3e4032a7	0.18769322
14	0x3e89b3e8	0.2689507
15	0xbe0c61cd	-0.13709183
16	0xbd56cb0c	-0.052439734
17	0x3c3e7572	0.011624681
18	0xbe33baf9	-0.17551793
19	0xbe70d8b3	-0.23520164
20	0x3df55d58	0.119806945
21	0xbe2d1c6b	-0.16905372
22	0xbdba6c55	-0.09102694
23	0x3ccd2b5c	0.02504509
24	0x3ee8a3ca	0.4543746
25	0xbe2c3ecb	-0.16820829
26	0xbe699dd1	-0.22814108
27	0x3dc089a4	0.09401253
28	0x3e272db5	0.1632603
29	0x3dc97cb1	0.09838236
30	0x3d9502c5	0.07275919
31	0xbdef4663	-0.11683347
32	0xbd62fcf7	-0.055417027
33	0xbced920b	-0.029000303
34	0xbe456754	-0.19277698
35	0x3e07212f	0.13196252
36	0x3d3338f7	0.043755498
37	0x3e8b843b	0.2724932
38	0xbe0b250a	-0.13588348
39	0x3e5dcd76	0.21660408
40	0x3dad0c3e	0.08449601
41	0x3d9d875a	0.07691832
42	0x3e4922cc	0.1964218
43	0xbcab71b9	-0.02092825
44	0x3db60c13	0.08889022
45	0x3ed92d8f	0.4241757
46	0x3e221395	0.15827782
47	0x3c97bb49	0.018521922
48	0x3cc9cfc5	0.024635205
49	0xbdd8b730	-0.10581815
50	0xbe683917	-0.22678028
51	0xbdbda446	-0.09259848
52	0x3d569b20	0.052394032
53	0xbe3c60f9	-0.18396367
54	0xbe4b18ea	-0.19833723
55	0x3c9dd322	0.019265715
56	0x3e6e496c	0.23270196
57	0x3c5cd70a	0.013479004
58	0xbdd5d464	-0.10440901
59	0x3dc546bf	0.09632634
60	0x3dae9099	0.085236736
61	0xbbf53771	-0.007483416
62	0x3dc84983	0.09779646
63	0xbe260342	-0.1621218
64	0x3e56b6ff	0.20968245
65	0x3e26c431	0.16285779
66	0x3e413918	0.18869436
67	0x3e6d546c	0.23176736
68	0x3e53261b	0.20620005
69	0x3e1742c3	0.14771561
70	0x3e222e67	0.15838014
71	0xbe624b63	-0.2209907
72	0x3e48d582	0.19612697
73	0x3d82cc1a	0.063865855
74	0x3e5d5b7d	0.21616931
75	0xbe21f91b	-0.15817682
76	0xbd41c2ac	-0.047304794
77	0x3dfb4fa3	0.12271049
78	0xbe6873c5	-0.22700413
79	0x3ea19c84	0.31564724
80	0xbe54e6d1	-0.20791174
81	0x3dca130c	0.09866914
82	0xbe8bf194	-0.27332747
83	0xbe6d2d7b	-0.2316188
84	0x3e8dd110	0.27698565
85	0x3e6eba98	0.23313367
86	0xbe78683c	-0.24258512
87	0xbe7df37a	-0.2479991
88	0x3e8320ee	0.2561106
89	0x3e90ff69	0.28319862
90	0xbe10162f	-0.14070962
91	0x3e73dded	0.23815127
92	0x3e42347d	0.18965335
93	0xbe3a2e43	-0.1818171
94	0x3e4616d9	0.19344653
95	0x3e69f294	0.22846442
96	0xbe1ae5c5	-0.15126713
97	0xbda805f3	-0.0820426
98	0xbe40b6f5	-0.18819793
99	0x3e2116a4	0.15731293
100	0x3d0e7ac5	0.03478505
101	0x3e45f97b	0.1933345
102	0x3cebed95	0.028799811
103	0x3db5452a	0.088510826
104	0x3d208824	0.039192334
105	0x3cb2d057	0.02182786
106	0x3e98abc5	0.2981855
107	0x3e8465cc	0.25858915
108	0x3d4dc1ca	0.05023364
109	0x3ed57951	0.4169412
110	0x3ea77426	0.32705802
111	0xbe681d27	-0.2266737
112	0xbe878fd5	-0.26476923
113	0xbd600818	-0.05469522
114	0x3d84fd60	0.0649364
115	0x3cde6c86	0.027151357
116	0x3e217149	0.15765871
117	0x3d0b382b	0.033989113
118	0xbd0a8674	-0.03381963
119	0xbde6da39	-0.112720914
120	0x3efec459	0.49759176
121	0x3db21333	0.08695068
122	0xbe09af5d	-0.13445802
123	0xbda441f0	-0.08020389
124	0x3da10a09	0.07863242
125	0xbd4ae6eb	-0.049536627
126	0x3dbcb891	0.09214891
127	0xbcac476a	-0.021030147

lstm.weight_hh_l0 f4 [128, 32]
0	0xba8f1d1f	-0.0010918713
1	0xbd5ce7bb	-0.053931933
2	0xbdb41a8e	-0.087941274
3	0x3e3d5652	0.1848996
4	0xbdc5f3b4	-0.09665623
5	0x3dc531a6	0.0962861
6	0x3dee12bf	0.11624669
7	0x3d8f7449	0.070046015
8	0xbda032e8	-0.078222096
9	0xbd6520ff	-0.05593967
10	0x3e6798e6	0.2261692
11	0xbd2be072	-0.041962095
12	0x3e0494ed	0.12947436
13	0xbcab5ee3	-0.020919269
14	0x3d06238a	0.032748736
15	0x3d26d43b	0.040729742
16	0x3e34e513	0.1766551
17	0x3c64024d	0.013916564
18	0x3e0da6dd	0.13833185
19	0xbd8cfadf	-0.06883787
20	0x3de4a85f	0.11164927
21	0x3d3cad6d	0.04606383
22	0x3d83dd41	0.06438685
23	0x3dbe81f7	0.093021326
24	0x3e34c34f	0.1765263
25	0xbe2765a6	-0.1634737
26	0x3d47e222	0.04879964
27	0x3e1ab4bd	0.15108009
28	0xbd7cf63f	-0.061758276
29	0x3d643c36	0.055721484
30	0xbda7b145	-0.08188108
31	0x3cbe4861	0.023227872
32	0x3dbfa64c	0.093578905
33	0x3d89f942	0.06736995
34	0x3d872800	0.06599426
35	0x3d81fb9b	0.06346818
36	0xbe2bdbf6	-0.16783127
37	0x3e2995e5	0.16561086
38	0xbe0932d5	-0.13398297
39	0xbe068d04	-0.1313973
40	0x3d8dd891	0.069260724
41	0xbdd17eb6	-0.10229246
42	0x3e3d9eb4	0.18517572
43	0x3dd891c5	0.10574678
44	0x3d3ff4e0	0.04686439
45	0x3ea5e236	0.32399148
46	0xbd18f99f	-0.037347432
47	0xbe1798c7	-0.14804374
48	0xbba15b00	-0.004924178
49	0xbe3e4f58	-0.18584955
50	0x3d21e974	0.03952928
51	0xbc16058d	-0.009156597
52	0xbde007b1	-0.10938967
53	0xbe153ab3	-0.14573173
54	0xbdca1c64	-0.09868696
55	0xbdf88657	-0.12134998
56	0x3dcf9a03	0.10136797
57	0xbe4ef602	-0.20211032
58	0xbe025a94	-0.12729865
59	0xbda34a90	-0.07973206
60	0xbddb7a14	-0.10716644
61	0x3da43783	0.080184005
62	0xbb9876c1	-0.0046528284
63	0xbe246de4	-0.16057545
64	0xbd35ae06	-0.044355415
65	0xbe0075d9	-0.12544955
66	0xbdcbe7aa	-0.09956296
67	0x3ddbeee2	0.10738923
68	0xbc3c0225	-0.011475121
69	0x3a9ad0c4	0.0011811485
70	0x3cc0670d	0.023486638
71	0xbc9b427c	-0.0189526
72	0x3e1fffb9	0.15624894
73	0x3d15a10d	0.036530543
74	0x3e23d9e8	0.16001093
75	0xbaafbf3f	-0.0013408436
76	0x3daa25a6	0.08307962
77	0x3caf1f63	0.021377271
78	0xbcb54c84	-0.022131212
79	0xbe25a1bd	-0.1617498
80	0xbc7e385e	-0.015516369
81	0xbd6e910b	-0.058243793
82	0x3e0c2b2a	0.13688341
83	0x3e4545f4	0.19264966
84	0xbd9980df	-0.07495283
85	0xbe41ccda	-0.18925801
86	0x3befce9b	0.0073183305
87	0x3e10e070	0.14148116
88	0x3e2c6836	0.16836628
89	0xbdcc0d80	-0.099635124
90	0x3d6218bd	0.055199374
91	0xbd929a8a	-0.07158382
92	0xbd7f0d2f	-0.062268432
93	0x3dc6b509	0.097024985
94	0xbd0546f5	-0.032538373
95	0xbe47925d	-0.19489427
96	0x3c7c0779	0.015382641
97	0xbde6806e	-0.11254965
98	0x3d9cd580	0.076579094
99	0x3e1e3f14	0.1545375
100	0xbe1978fc	-0.14987558
101	0x3d321b1a	0.043482877
102	0xbd7df4f6	-0.06200119
103	0x3d7001f4	0.058595613
104	0xbc3db387	-0.011578447
105	0xbe4197f4	-0.18905622
106	0xbcbc0aff	-0.022954462
107	0xbde44427	-0.111458115
108	0x3d5d8795	0.05408438
109	0xba2e53cd	-0.00066500605
110	0xbe039877	-0.1285113
111	0x3d343257	0.04399332
112	0x3e6bbf91	0.23022296
113	0xbe1dbaa0	-0.15403223
114	0x3d4193d5	0.047260124
115	0x3e1bcb0e	0.15214178
116	0xbd837671	-0.06419075
117	0x3d7ef094	0.062241152
118	0xbe2e2886	-0.17007646
119	0xbe31db8a	-0.17368904
120	0x3d1b651c	0.037938222
121	0xbdfde1a8	-0.12396556
122	0x3e428a33	0.18998031
123	0xbd811c25	-0.06304196
124	0x3da40ac0	0.08009863
125	0x3d881201	0.06644059
126	0x3e3ed9ca	0.18637767
127	0x3d243eeb	0.040099066
128	0xbe4dc71a	-0.20095482
129	0xbd41c691	-0.04730851
130	0xbe3d9bb8	-0.18516433
131	0x3e05fa5a	0.13083783
132	0x3c4360bd	0.01192492
133	0x3e62ae1f	0.22136734
134	0xbe013fee	-0.12622043
135	0x3d9d96d9	0.076947875
136	0xbde06bd1	-0.10958064
137	0x3d21b79f	0.039481755
138	0xbdd42d4b	-0.103602014
139	0x3dcc9569	0.09989435
140	0xbdce8810	-0.100845456
141	0x3e750bbd	0.23930259
142	0xbd84f905	-0.06492809
143	0x3dedcd80	0.11611462
144	0x3e0dca57	0.13846718
145	0x3d0f2af5	0.034953076
146	0x3e583461	0.21113731
147	0x3e1f5125	0.15558298
148	0x3db3b490	0.08774674
149	0xbda06ae6	-0.07832889
150	0x3e415cbc	0.18883032
151	0x3ceef7bc	0.029170863
152	0x3e1189f3	0.1421278
153	0xbc905508	-0.017618671
154	0x3df40922	0.119158044
155	0xbd82497b	-0.063616715
156	0x3ca0c5ff	0.019625662
157	0xbe0c1b54	-0.136823
158	0xbe302d35	-0.17204745
159	0x3ddbd882	0.10734655
160	0x3e33fc0b	0.17576616
161	0x3d9d215a	0.07672377
162	0x3dc0c82a	0.09413178
163	0x3e21f1d5	0.15814908
164	0x3e24ef8c	0.16107005
165	0x3d1c5179	0.038163636
166	0x3d64e197	0.0558792
167	0x3d624149	0.055238042
168	0xbe16f034	-0.14740068
169	0x3da4edad	0.080531456
170	0xbd2ac7df	-0.04169452
171	0x3e258bcb	0.16166608
172	0x3d86ce9e	0.06582378
173	0x3dade797	0.08491438
174	0xbe675442	-0.22590736
175	0xbdcd1cc8	-0.10015255
176	0x3dc9635d	0.09833405
177	0xbda3be36	-0.07995264
178	0xbe82172f	-0.25408313
179	0x3d2bccb4	0.041943267
180	0x3e88f265	0.26747432
181	0x3dd20dba	0.102565244
182	0xbe58b349	-0.21162142
183	0xbc83adee	-0.016074147
184	0x3dcaee3a	0.09908719
185	0x3e590717	0.21194111
186	0xbdd9f374	-0.10642138
187	0xbc87bf86	-0.016570818
188	0x3d7f4284	0.062319294
189	0xbe539585	-0.20662506
190	0x3e237b29	0.1596495
191	0x3ddda6d2	0.10822834
192	0xbd3fb8e8	-0.0468072
193	0xbdea4af5	-0.11440078
194	0xbdbe92f1	-0.093053706
195	0x3e3fc67b	0.18728058
196	0x3db96950	0.0905329
197	0x3e878192	0.26466042
198	0x3e309545	0.17244442
199	0xbd989969	-0.07451136
200	0x3db302a5	0.08740739
201	0xbdd9f2a7	-0.106419854
202	0x3e898199	0.26856688
203	0x3d923fb4	0.07141057
204	0x3dc2cc3c	0.09511611
205	0x3e5ddf74	0.21667272
206	0xbe91532e	-0.28383774
207	0x3d23a8e6	0.039955996
208	0x3ce592a0	0.028024018
209	0x3d5a4120	0.053284764
210	0x3d86a48c	0.065743536
211	0xbdb21f51	-0.086973794
212	0xbd76d005	-0.060256977
213	0x3d35a5a4	0.04434742
214	0x3c4d0159	0.012512528
215	0x3dc752d7	0.09732597
216	0x3de6bdcf	0.11266672
217	0xbc3ca73f	-0.011514484
218	0xbc44d364	-0.01201329
219	0x3e0cdaac	0.13755292
220	0x3ded739e	0.11594318
221	0xbd3d8c17	-0.04627618
222	0x3d1763de	0.036960475
223	0x3d63281e	0.05545818
224	0x3dc53403	0.09629061
225	0xbd9b95d3	-0.07596936
226	0xbd31fd3d	-0.043454397
227	0x3dc0bef8	0.094114244
228	0x3d839eab	0.06426748
229	0x3e58dfc8	0.21179116
230	0x3d34b04e	0.04411345
231	0xbd87324f	-0.066013925
232	0xbd03ebed	-0.03220742
233	0xbe369989	-0.17832007
234	0x3e167fa4	0.14697129
235	0xbe9c34ef	-0.30509135
236	0xbd0276a7	-0.031851437
237	0x3e8e6a3d	0.27815428
238	0xbd976f77	-0.07394307
239	0xbe0d767c	-0.1381473
240	0x3d5ba8d8	0.05362782
241	0x3ccd3a92	0.025052343
242	0x3d9c3730	0.07627714
243	0x3da575d6	0.08079116
244	0x3dcf8ba6	0.10134058
245	0xbdf61114	-0.12014976
246	0xbd87ccff	-0.06630897
247	0xbb923a2a	-0.0044625
248	0x3e2e4ab8	0.1702069
249	0x3e1324f0	0.1436956
250	0x3c6c64c5	0.014428322
251	0x3c784b9b	0.0151547445
252	0x3e6f18e7	0.23349343
253	0x3d175374	0.03694482
254	0x3df985e6	0.12183742
255	0xbd32bdaa	-0.04363791

lstm.bias_ih_l0 f4 [128]
0	0xbe005b3b	-0.12534802
1	0x3e55759c	0.20845646
2	0xbdb3b086	-0.087739035
3	0xbd961ee0	-0.07330108
4	0xbdd96581	-0.106150635
5	0x3cc89462	0.024484817
6	0x3e302dd7	0.17204987
7	0xbcf42d55	-0.029806772
8	0xbc5c222a	-0.01343588
9	0xbd2535b1	-0.040334407
10	0x3e1a7db2	0.15087011
11	0xbc466ae4	-0.012110446
12	0x3e0cad3b	0.13737957
13	0x3c2d861b	0.010591055
14	0x3e5dc465	0.2165695
15	0xbe017c7e	-0.12645146
16	0x3db28257	0.087162666
17	0x3d94d554	0.072672516
18	0x3db6d986	0.08928208
19	0x3e0da24d	0.13831444
20	0x3de75185	0.112948455
21	0x3e5f9d83	0.2183743
22	0x3e4ccc13	0.19999723
23	0xbdd109a5	-0.10206918
24	0xbba4ea00	-0.005032778
25	0x3e35200c	0.17688006
26	0xbe04897f	-0.12943076
27	0x3e2ace58	0.16680276
28	0xbba23e81	-0.0049512987
29	0xbdc6a4ad	-0.09699378
30	0xbdfa723e	-0.12228821
31	0xbdcf5c46	-0.10125022
32	0xbdd801e6	-0.10547237
33	0x3e07de55	0.13268407
34	0xbd8c7997	-0.06859129
35	0x3e482260	0.19544363
36	0xbe02f82d	-0.12789984
37	0xbdf0943b	-0.11747023
38	0xbb500a3d	-0.0031744384
39	0xbe2be332	-0.16785887
40	0xbd02a49a	-0.031895258
41	0xbe22e4a1	-0.15907528
42	0x3c8a195a	0.016857792
43	0x3dac3819	0.08409137
44	0xbdc42e17	-0.095791034
45	0xbe0dbbf3	-0.13841228
46	0x3d8613f9	0.06546778
47	0xbe1d5a20	-0.15366411
48	0x3d243d06	0.04009726
49	0xbd1f6ecb	-0.03892402
50	0x3e061055	0.13092168
51	0x3e00ef83	0.12591366
52	0xbd859ad2	-0.0652367
53	0x3d7c130c	0.061541602
54	0x3cab4ab1	0.02090964
55	0xbc9b5b33	-0.018964386
56	0xbdee2588	-0.11628252
57	0x3d41d699	0.047323797
58	0x3d701e87	0.058622863
59	0x3d25bd97	0.04046401
60	0x3cf8733f	0.030328391
61	0x3dca218b	0.09869679
62	0x3d69c73b	0.057074767
63	0xbe1ddf31	-0.15417172
64	0xbd8a3350	-0.06748068
65	0xbd5d550b	-0.05403618
66	0xbd7277c3	-0.059196245
67	0x3de99548	0.11405426
68	0xbd846eed	-0.0646647
69	0x3c911ae3	0.017713016
70	0xbd1ebbc3	-0.038753282
71	0xbd569d21	-0.052395944
72	0x3df2a988	0.11848742
73	0xbdd4d260	-0.10391688
74	0x3e2c7aad	0.16843672
75	0xbd9251fc	-0.071445435
76	0xbde740a0	-0.11291623
77	0x3c8dcb18	0.017308757
78	0xbc338079	-0.010955923
79	0xbdcda11e	-0.10040496
80	0x3e15ddf8	0.14635456
81	0x3d17261b	0.036901575
82	0xbd58d6db	-0.052939277
83	0x3e2027f0	0.15640235
84	0xbdaebd3c	-0.08532187
85	0xbc1df044	-0.009639803
86	0xbd973bcf	-0.073844545
87	0x3b2e543d	0.0026600503
88	0xbda8bd17	-0.08239191
89	0x3d97a648	0.074047625
90	0x3e140ff6	0.14459214
91	0x3cdd47af	0.02701172
92	0xbe20f285	-0.15717514
93	0xbce3f515	-0.027826825
94	0x3d9ab3f6	0.07553856
95	0xbd5f0854	-0.0544513
96	0xbdbd16da	-0.09232874
97	0xbcc8398b	-0.024441501
98	0x3e3edef5	0.18639739
99	0x3d290ed6	0.041273914
100	0xbe0016d0	-0.12508702
101	0xbdfc191c	-0.12309477
102	0x3b2f9936	0.0026794202
103	0xbd15e37b	-0.036593895
104	0x3d243878	0.040092915
105	0xbcf7e753	-0.030261671
106	0xbdac03b5	-0.083991446
107	0x3e30587e	0.17221257
108	0x3b4ba777	0.0031075159
109	0xbe2927d6	-0.16519102
110	0x3cc1f08f	0.023674278
111	0xbda490e2	-0.08035447
112	0x3d39b92b	0.045342606
113	0xbe259c15	-0.16172822
114	0x3e5ec6b7	0.21755491
115	0x3dd80add	0.10548947
116	0xbb6738b2	-0.0035281596
117	0xbd3dd024	-0.046341076
118	0x3e086a72	0.13321856
119	0x3e2e33f4	0.17012006
120	0xbbc71b6e	-0.006076268
121	0x3e0c4efa	0.13702002
122	0xbd82094d	-0.0634943
123	0xbdbdd5f0	-0.09269321
124	0xbded2a0b	-0.11580285
125	0x3e1ef08b	0.15521447
126	0xbd674171	-0.056458894
127	0x3ddd9b5c	0.10820648

lstm.bias_hh_l0 f4 [128]
0	0x3dc4d811	0.09611524
1	0xbe06a9d5	-0.13150723
2	0xbcad0ec4	-0.021125205
3	0xbb74d842	-0.0037360345
4	0xbe0669af	-0.13126253
5	0x3d2416a3	0.04006065
6	0xbd5a09ab	-0.053231876
7	0xbd82b2d4	-0.06381765
8	0xbe016585	-0.12636383
9	0xbca406cc	-0.020022772
10	0xbd294ce0	-0.04133308
11	0x3e2d537c	0.16926378
12	0x3c248fe5	0.010044073
13	0x3d9497d6	0.07255523
14	0xbd078eb2	-0.03309507
15	0x3dd62d90	0.10457909
16	0x3db44c75	0.088036455
17	0xbdcb61bc	-0.09930751
18	0x3e335326	0.17512187
19	0xbd987f7c	-0.07446191
20	0x3e739635	0.23787768
21	0x3e81bc16	0.2533881
22	0x3e5152c5	0.2044173
23	0x3e49ed77	0.19719492
24	0x3e51b74e	0.20480081
25	0x3e2bc0b4	0.16772729
26	0xbdad8918	-0.08473414
27	0xbc8c0f63	-0.01709718
28	0x3e404cbf	0.18779276
29	0x3e38ee94	0.1805976
30	0x3dcfdd83	0.10149672
31	0x3d74e4da	0.059788562
32	0xbbdeb831	-0.0067968597
33	0xbdeddd90	-0.11614525
34	0x3c7d53a1	0.015461833
35	0xbc71f90e	-0.014768852
36	0x3c9ec795	0.019382278
37	0xbdd97685	-0.10618309
38	0xbc862ec9	-0.01637973
39	0x3dbbe897	0.09175222
40	0xbce7930d	-0.028268361
41	0xbd4abf20	-0.049498677
42	0xbe33ec33	-0.17570572
43	0xbcb26211	-0.021775277
44	0x3d014f2e	0.031569652
45	0xbe1e1897	-0.15439068
46	0xbd94bfb6	-0.072631285
47	0xbdaa8619	-0.08326358
48	0x3e03dd7b	0.12877457
49	0xbe2feaf4	-0.17179471
50	0x3e14617a	0.1449031
51	0xbe2e3e11	-0.17015864
52	0x3d920f65	0.071318425
53	0xbdd251b5	-0.10269491
54	0x3c23863d	0.009980735
55	0x3d8c47d2	0.06849636
56	0x3de00740	0.10938883
57	0x3cb813b4	0.022470333
58	0x3d4d0480	0.05005312
59	0x3d3a1513	0.045430254
60	0x3d85018c	0.06494436
61	0xbdb068c7	-0.08613735
62	0xbd6c5d5d	-0.057706226
63	0x3d39e335	0.045382697
64	0xbe100f45	-0.14068325
65	0xbcef0ba0	-0.029180348
66	0x3c138613	0.009004134
67	0x3e01a4d8	0.12660539
68	0xbe027e23	-0.1274343
69	0x3de765b9	0.11298699
70	0xbdaadb20	-0.08342576
71	0x3d8d7cb2	0.06908549
72	0x3dc11f96	0.09429853
73	0x3dc85fcb	0.09783896
74	0xbdd56904	-0.10420421
75	0xbd13277e	-0.035926335
76	0xbdb0ed75	-0.08639041
77	0x3e2bf316	0.16791949
78	0xbe0bc8fd	-0.1365089
79	0xbe0c3162	-0.13690713
80	0x3e255020	0.16143847
81	0xbd19d71f	-0.03755867
82	0x3b88ccc6	0.0041748015
83	0x3e091351	0.13386275
84	0x3dfc89f5	0.12331001
85	0x3c99b773	0.018764233
86	0x3bb1d1e8	0.005426634
87	0xbc2bfc72	-0.010497199
88	0x3e72a167	0.23694383
89	0xbae78cc4	-0.0017665853
90	0x3d88018d	0.06640921
91	0xbde2bb06	-0.11070828
92	0x3e0d2096	0.13781962
93	0x3e0c6109	0.13708891
94	0x3e19a802	0.15005496
95	0xbcb0439c	-0.021516614
96	0x3de73b21	0.11290575
97	0x3d5817d4	0.0527571
98	0x3dbc6e4f	0.09200727
99	0x3e2d2df6	0.16912064
100	0x3d71253a	0.058873393
101	0x3e1b178f	0.15145706
102	0x3da5575e	0.080733046
103	0xbcf23193	-0.029564654
104	0xbc3c85eb	-0.011506538
105	0x3db74d9f	0.08950352
106	0xbcd40c8e	-0.025884893
107	0x3d6188fd	0.055062283
108	0xbdd0e87b	-0.10200592
109	0xbd00a798	-0.03140983
110	0x3e2f20a7	0.171023
111	0xbe0b3ccb	-0.1359741
112	0xbe1d91b7	-0.15387617
113	0xbc85a588	-0.016314283
114	0x3d215456	0.03938707
115	0x3d788abf	0.060679194
116	0x3de83d6e	0.11339842
117	0xbb97af74	-0.00462907
118	0x3e3cdd9c	0.18443912
119	0xbc37591f	-0.011190682
120	0xbc8115df	-0.0157575
121	0x3e85d4de	0.26138967
122	0xbd3b5718	-0.045737356
123	0x3e12557d	0.14290424
124	0x3ce9afd8	0.028526232
125	0x3dff9d35	0.12481157
126	0xbddf78bf	-0.10911702
127	0xbdbf9bd0	-0.09355891

lstm.weight_ih_l1 f4 [128, 32]
0	0xbcbeb8a9	-0.023281412
1	0x3e057be4	0.13035542
2	0xbe0637dc	-0.13107246
3	0x3d9ed1f5	0.0775489
4	0x3de1a2a8	0.11017352
5	0x3e7790e9	0.24176373
6	0x3d20afde	0.03923022
7	0xbdcdd1dc	-0.10049793
8	0x3e4d5ff7	0.20056139
9	0x3d524d79	0.051343415
10	0xbde3bbe0	-0.11119819
11	0xbe2d9bcf	-0.16953968
12	0x3d7680eb	0.06018154
13	0x3e94aa8e	0.29036373
14	0x3d84be2e	0.064815864
15	0x3d80104f	0.062531106
16	0x3e3c08cc	0.1836273
17	0x3d92164c	0.07133159
18	0xbdb91bb8	-0.0903849
19	0x3a9dac96	0.0012029584
20	0x3e1cda06	0.15317544
21	0x3d2c0cee	0.04200452
22	0x3e359a24	0.17734581
23	0x3e0f8e8c	0.14019221
24	0x3de412cf	0.111364
25	0xbd508964	-0.050912276
26	0x3d1616ec	0.036642954
27	0x3d8249f8	0.06361765
28	0x3e612ba8	0.2198931
29	0x3e39b603	0.18135838
30	0xbb376bbb	-0.0027987796
31	0x3e114fa9	0.14190544
32	0xbdb16f90	-0.08663857
33	0x3dc48f5a	0.09597655
34	0x3e11a2d9	0.14222278
35	0x3ea8e79a	0.32989198
36	0xbdc917ae	-0.0981897
37	0x3e921e53	0.2853876
38	0x3e00ff6f	0.1259744
39	0xbe2f5492	-0.17122105
40	0x3e4cae37	0.19988333
41	0xbd09e7cc	-0.033668324
42	0x3e9d879e	0.3076753
43	0xbd8ecb59	-0.06972379
44	0xbdf87ca2	-0.12133147
45	0x3d98d187	0.07461839
46	0xbe6c7cfa	-0.2309455
47	0x3c789f6c	0.015174728
48	0x3e30cc0c	0.17265338
49	0x3e14798d	0.14499493
50	0xbb86e38f	-0.0041164826
51	0x3e115264	0.14191586
52	0x3eabfb70	0.3359027
53	0x3e18d0e7	0.1492344
54	0xbd820363	-0.06348302
55	0x3c787cad	0.015166444
56	0x3ea2045e	0.31643957
57	0x3d0960f1	0.033539716
58	0x3d5b0370	0.053470075
59	0x3e39a175	0.18127997
60	0x3e76b3c8	0.24092019
61	0xbcd991fc	-0.026558869
62	0x3e8804a7	0.2656605
63	0x3e9e4b01	0.30916598
64	0xbd90b404	-0.07065585
65	0x3d0bbf1c	0.034117803
66	0xbe574903	-0.21023946
67	0x3e040fca	0.12896648
68	0xbe39b3f7	-0.18135057
69	0x3e8369dc	0.25666702
70	0x3dc13410	0.09433758
71	0x3d6df051	0.05809051
72	0xbd18094b	-0.037118237
73	0xbd028689	-0.031866584
74	0x3a9dac9d	0.0012029592
75	0x3d6240d8	0.05523762
76	0xbe612611	-0.21987177
77	0x3d933528	0.07187873
78	0x3dac76b2	0.08421077
79	0xbcc14a98	-0.02359514
80	0x3d69d8e8	0.057091624
81	0xbdf5d7c8	-0.12004048
82	0x3d2126c7	0.03934362
83	0xbdb8180b	-0.08988961
84	0xbd972290	-0.07379639
85	0xbc83072a	-0.015994627
86	0x3df46b97	0.11934584
87	0xbb1c24eb	-0.0023825716
88	0x3e67331c	0.2257809
89	0xbe5f2ec7	-0.21795188
90	0x3c48e58b	0.012261759
91	0x3de89e9f	0.113583796
92	0xbd12ad5c	-0.03580986
93	0x3c0d1724	0.008611474
94	0x3d069a5d	0.032862056
95	0xbd40dcbb	-0.047085505
96	0xbc8bef43	-0.017081862
97	0x3e052817	0.13003574
98	0xbdca0cf4	-0.09865752
99	0xbc12d78a	-0.008962521
100	0x3c1dbd18	0.009627603
101	0x3e06dea8	0.13170874
102	0xbe393828	-0.18087828
103	0x3bde60e7	0.006786454
104	0x3d3de6a4	0.046362534
105	0xbd263bfc	-0.04058455
106	0x3c3c215a	0.011482561
107	0x3d212343	0.03934027
108	0xbdacd240	-0.084385395
109	0xbe3e15bb	-0.18562977
110	0xbdb2ba89	-0.08726985
111	0x3de5084e	0.111832246
112	0x3e36e3ed	0.17860384
113	0xbcc30b0b	-0.023808977
114	0x3b8cc4c2	0.0042959163
115	0x3e3f58cb	0.18686216
116	0x3d15ba67	0.03655472
117	0xbdbca64f	-0.09211408
118	0xbdacb2cb	-0.084325396
119	0x3cfed7df	0.031108795
120	0x3dc059b5	0.0939211
121	0x3de18cc1	0.11013175
122	0xbd101c6d	-0.03518336
123	0x3d6a9465	0.057270426
124	0x3d1073a8	0.03526655
125	0xbd901193	-0.07034602
126	0xbdb7b804	-0.08970645
127	0xbe73fde2	-0.23827317
128	0x3c62f99c	0.013853457
129	0xbce9d333	-0.02854309
130	0xbe34337c	-0.17597765
131	0x3e27d2dc	0.1638903
132	0xbe427d89	-0.189932
133	0x3e2efb77	0.17088114
134	0x3d06bf90	0.032897532
135	0xbdfdee0c	-0.123989195
136	0xbc500949	-0.012697526
137	0xbd702ab9	-0.058634493
138	0x3ce6b8ca	0.028164286
139	0xbe7c45fd	-0.24636073
140	0x3dcaa49c	0.09894678
141	0x3cf26baa	0.029592354
142	0x3c444516	0.011979362
143	0x3d3e26a8	0.046423584
144	0x3e3372f2	0.17524317
145	0xbcc61014	-0.024177589
146	0xbe01703a	-0.12640467
147	0xbda4c530	-0.08045423
148	0x3e5a6624	0.21328026
149	0xbddbac80	-0.10726261
150	0x3df6b0e3	0.12045457
151	0x3c446211	0.0119862715
152	0x3e0a40da	0.13501301
153	0x3e2094c3	0.15681748
154	0x3d6e1290	0.05812317
155	0xbde825fc	-0.1133537
156	0x3daf9dc2	0.08575012
157	0xbe08f124	-0.13373238
158	0x3da1587b	0.078782044
159	0x3da5d35b	0.080969535
160	0xbdb62b70	-0.08895004
161	0xbe720ccd	-0.23637696
162	0x3da95301	0.08267785
163	0x3da1be0f	0.07897579
164	0xbc0bdd72	-0.008536683
165	0x3e180b3a	0.14848033
166	0x3d69d40d	0.057086993
167	0x3de6ba6c	0.11266026
168	0x3d581e4a	0.05276326
169	0x3c72a5e1	0.014810056
170	0xbe3297bf	-0.17440699
171	0xbd6f233f	-0.058383223
172	0xbe5abf30	-0.21361995
173	0x3db5053c	0.08838889
174	0xbd8c1642	-0.06840183
175	0xbe59515d	-0.21222444
176	0x3e55a4fa	0.20863715
177	0xbe143f8c	-0.14477366
178	0x3e5f57cb	0.21810834
179	0x3e459888	0.19296467
180	0x3b7da894	0.0038705217
181	0xbd8c52c4	-0.06851724
182	0x3caf52a5	0.021401713
183	0x3e2df9fc	0.16989893
184	0x3e3fcc93	0.18730383
185	0x3d0bc962	0.0341276
186	0x3e6bea5b	0.23038618
187	0x3a5306d4	0.00080500287
188	0xbdb5adf2	-0.08871068
189	0x3ba0c0a2	0.004905776
190	0x3e09bd31	0.13451077
191	0xbc178e0a	-0.009250173
192	0xbe0fc674	-0.14040548
193	0xbd5b98b4	-0.053612426
194	0x3d582c57	0.05277666
195	0x3d8b4fda	0.0680234
196	0xbde56fb8	-0.11202949
197	0x3e67656c	0.22597283
198	0xbe641ebb	-0.22277348
199	0x3d7c14e9	0.06154338
200	0x3e34d6d7	0.1766008
201	0x3deac7af	0.11463868
202	0x3d92a4e8	0.071603596
203	0xbc694b17	-0.014239094
204	0x3df6b7a6	0.12046747
205	0x3e92f5ea	0.28703243
206	0xbd461123	-0.048356187
207	0xbd16c4f9	-0.03680894
208	0x3e11196a	0.14169851
209	0x3c10f045	0.008846347
210	0x3d802be7	0.06258374
211	0x3e42cce3	0.1902347
212	0x3e1a82e6	0.15088996
213	0xbd9ac126	-0.075563714
214	0x3d02a3f6	0.031894647
215	0x3e57aea0	0.21062708
216	0x3e5530d3	0.20819406
217	0x3c6632bb	0.014050181
218	0x3e54034a	0.2070438
219	0x3d54ff3c	0.052001223
220	0xbda6e440	-0.08149004
221	0x3e484474	0.19557363
222	0xbdd16969	-0.102251835
223	0xbe285819	-0.16439857
224	0x3ddd879d	0.10816882
225	0x3c794004	0.015213016
226	0x3d202a29	0.039102707
227	0xbd51a164	-0.051179305
228	0x3dcd8ca9	0.100365944
229	0x3e89790f	0.26850173
230	0x3eba34d3	0.36368427
231	0xbe874a6f	-0.26423976
232	0x3db71c79	0.089409776
233	0x3c1e2a69	0.009653666
234	0xbc6e8e2f	-0.014560266
235	0x3dd46bf8	0.10372156
236	0xbd22e1e8	-0.039766222
237	0xbd2f6c0d	-0.042827655
238	0xbe31bf2d	-0.17358084
239	0x3e79a9ff	0.24381255
240	0xbd648d1b	-0.05579863
241	0x3cfd4cf9	0.030920492
242	0x3da26cca	0.07930906
243	0xbe2b632f	-0.16737054
244	0x3e562fc9	0.20916666
245	0x3e0f14f8	0.13972843
246	0x3c7afd26	0.015319144
247	0xbe8876d8	-0.2665317
248	0x3d086df6	0.033307992
249	0x3dd95dd1	0.10613597
250	0xbe63c741	-0.22243978
251	0x3e4b915e	0.19879672
252	0x3df0d89f	0.11760067
253	0xbe437780	-0.19088554
254	0xbb9b88d6	-0.0047465367
255	0x3e493c28	0.19651854

lstm.weight_hh_l1 f4 [128, 32]
0	0xbdf84663	-0.121228
1	0xbce746cd	-0.028232003
2	0xbdcf9da9	-0.10137493
3	0xbde98350	-0.11401999
4	0x3e06e1ec	0.1317212
5	0x3de828ae	0.11335884
6	0x3dd2a09e	0.102845415
7	0x3d2658a2	0.04061187
8	0xbe10f2b0	-0.14155078
9	0x3db6ccd7	0.08925789
10	0xbe664a2d	-0.22489233
11	0x3e04944a	0.12947193
12	0xbd4ca831	-0.049965087
13	0xbe3a8f3b	-0.182187
14	0xbd3a8086	-0.045532726
15	0x3e7db21e	0.24774978
16	0xbe0b9937	-0.13632666
17	0x3da85bd8	0.08220643
18	0x3e08f52b	0.13374774
19	0x3cd75980	0.026287794
20	0xbe1f4b4b	-0.15556066
21	0x3d9ca2c7	0.07648235
22	0x3caffa15	0.021481553
23	0x3dd49934	0.10380784
24	0x3cac0035	0.020996192
25	0x3d38f808	0.045158416
26	0x3db5a99c	0.08870241
27	0x3e2bbc46	0.1677104
28	0xbdf66816	-0.120315716
29	0x3d57d40c	0.052692458
30	0xbe0d8210	-0.13819146
31	0xbd966100	-0.0734272
32	0xbe0721f1	-0.13196541
33	0x3e5eec21	0.21769764
34	0x3e14ee17	0.14543949
35	0x3c70b4fe	0.014691589
36	0xbe85c90f	-0.26129958
37	0xbce5691e	-0.028004225
38	0x3d0ffd26	0.03515353
39	0x3da9056f	0.082529895
40	0xbd815673	-0.06315317
41	0xbc002147	-0.007820434
42	0xbe8b84d7	-0.27249786
43	0xbe3273f0	-0.17427039
44	0x3d7366dd	0.05942427
45	0x3d6467ee	0.055763178
46	0x3dec1050	0.11526549
47	0xbd6c3fe5	-0.057678122
48	0x3e2c035e	0.1679816
49	0xbb6cfdb0	-0.0036161952
50	0xbd5ab6fe	-0.05339717
51	0x3e33a332	0.17542723
52	0xbdbf8932	-0.0935234
53	0xbe4e3021	-0.20135547
54	0x3d96e62d	0.07368121
55	0xbe2a7d42	-0.16649345
56	0x3ccfd2aa	0.025369007
57	0xbe588608	-0.21144879
58	0xbdc28244	-0.094975024
59	0xbd261922	-0.040551312
60	0x3d6a21b2	0.05716104
61	0xbd326bca	-0.043559827
62	0xbd791f19	-0.060820673
63	0xbd6bf2f9	-0.057604764
64	0x3c798560	0.015229553
65	0x3e3145be	0.17311761
66	0xbe59fc39	-0.21287622
67	0xbe17bce7	-0.14818154
68	0x3d6e89f3	0.058237027
69	0x3dd04199	0.10168762
70	0x3a223a0a	0.0006188458
71	0x3e2af192	0.16693714
72	0xbe203311	-0.1564448
73	0xbdec1c1f	-0.11528801
74	0xbdecf9c0	-0.115710735
75	0x3ce849cc	0.028355502
76	0xbc848193	-0.016175067
77	0xbcf89558	-0.03034465
78	0xbe4c29fa	-0.19937888
79	0x3e32c6c3	0.17458634
80	0xbe365f11	-0.17809702
81	0xbd6c1e12	-0.057645865
82	0x3d9f614f	0.07782232
83	0xbd3ec810	-0.046577513
84	0x3e042373	0.12904148
85	0x3a240859	0.00062573474
86	0x3dd921d0	0.10602152
87	0x3d5555b6	0.052083693
88	0x3ccd8906	0.025089752
89	0xbab9c7ab	-0.0014173886
90	0xbcbca523	-0.023027962
91	0xbd659178	-0.056046933
92	0xbddcdae9	-0.10783941
93	0xbdee8d0a	-0.11647995
94	0x3e434019	0.1906742
95	0xbd226c72	-0.039654203
96	0x3e05b0fc	0.13055795
97	0xbdc6c9d8	-0.097064674
98	0xbdf1a5e4	-0.11799219
99	0x3de090ab	0.10965093
100	0xbd5825ca	-0.052770413
101	0xbe0d5b9a	-0.13804474
102	0xbcb6d26b	-0.022317132
103	0x3df6792c	0.120348305
104	0x3d98ed7e	0.07467173
105	0x3db31fba	0.08746286
106	0x3d49f4b5	0.049305636
107	0xbd403d9e	-0.046933763
108	0x3dc433eb	0.09580215
109	0xbd5788e6	-0.05262079
110	0x3d979cf3	0.074029826
111	0xbdabb630	-0.08384359
112	0x3e08ccce	0.13359377
113	0x3d8ca57d	0.06867502
114	0x3d31d94a	0.043420114
115	0xba995150	-0.0011697207
116	0x3c1deeaa	0.0096394215
117	0xbd885d8a	-0.06658466
118	0xbd2351c9	-0.03987292
119	0x3d6fecb7	0.05857536
120	0x3d30f261	0.0431999
121	0xbd1969d8	-0.037454456
122	0xbc656802	-0.014001848
123	0x3da8e824	0.08247402
124	0x3b5b75ca	0.0033486956
125	0xbe1095d1	-0.1411965
126	0xbdc98d63	-0.098414205
127	0x3cfaf7e0	0.030635774
128	0x3e07191a	0.13193169
129	0x3dbf8566	0.093516156
130	0x3dfcfc94	0.12352863
131	0xbe4780cf	-0.1948273
132	0xbc556719	-0.013025069
133	0xbe40cf35	-0.18829043
134	0xbcd63d8e	-0.026152398
135	0x3d6a0f33	0.0571434
136	0xbd2e7e55	-0.04260095
137	0xbd953cbd	-0.072869755
138	0x3dd67eb0	0.104733825
139	0x3abc96de	0.0014388224
140	0x3d8e49f5	0.069477
141	0xbd821d06	-0.06353192
142	0xbcf94ac3	-0.030431157
143	0x3e16d01c	0.14727825
144	0xbe2afe3e	-0.16698548
145	0x3d79fe76	0.06103369
146	0x3d8ff19d	0.07028506
147	0xbdb91992	-0.0903808
148	0x3c511ed1	0.012763695
149	0xbdd02c87	-0.10164743
150	0xbd87a1ba	-0.06622644
151	0xbd32d26a	-0.043657698
152	0x3c99bf1f	0.018767891
153	0xbd34ceb0	-0.044142425
154	0x3d8b09da	0.067889884
155	0x3d83fb4f	0.06444418
156	0x3dd05013	0.10171523
157	0xbd4a8c88	-0.049450427
158	0x3dfa7ad3	0.12230458
159	0x3a5c2c04	0.0008398893
160	0xbdb4302b	-0.0879825
161	0xbd4de3ab	-0.05026595
162	0x3dc3042f	0.09522282
163	0x3da46ac4	0.080281764
164	0x3de30fe2	0.11087014
165	0xbdd8fc88	-0.105950415
166	0x3ccd869c	0.0250886
167	0x3e2d87b3	0.16946296
168	0xbe651194	-0.22369987
169	0xbe52a044	-0.20568949
170	0xbcf79f7b	-0.030227413
171	0xbd773ab1	-0.060358707
172	0xbcefffb9	-0.029296743
173	0x3d7056e6	0.058676623
174	0x3d614001	0.05499268
175	0x3e159e39	0.14611138
176	0x3bc65094	0.006052086
177	0x3d80d2e4	0.06290224
178	0xbe1ace11	-0.1511767
179	0xbd172193	-0.036897253
180	0x3c35d41c	0.011097934
181	0x3d184960	0.03717935
182	0x3df42e86	0.11922936
183	0x3dd15af8	0.10222429
184	0xbe3c9313	-0.1841548
185	0x3e25d091	0.16192843
186	0xbe8fa596	-0.2805602
187	0x3e4c4c8d	0.19951077
188	0x3db9c398	0.0907051
189	0xbdb31f3f	-0.08746194
190	0x3e17401a	0.14770547
191	0xbd185c6e	-0.037197523
192	0x3d542d6f	0.05180114
193	0x3e0dc419	0.13844337
194	0xbdfbeff0	-0.12301624
195	0x3b1b210f	0.0023670828
196	0x3d7215e6	0.059102915
197	0xbda8dd76	-0.08245365
198	0x3d3e3928	0.046441227
199	0x3de52b09	0.11189849
200	0xbbbe93c9	-0.005815957
201	0x3d4575d3	0.04820807
202	0xbd9c67b4	-0.07636967
203	0x3bd44d43	0.006478937
204	0xbc73bc76	-0.014876476
205	0xbd6f132d	-0.058367897
206	0xbdce35cc	-0.10068855
207	0x3e81c876	0.25348252
208	0xbe1f0797	-0.15530239
209	0x3e12a065	0.14318998
210	0x3ca8db82	0.020612482
211	0x3dd6c3f4	0.10486594
212	0xbc8484ac	-0.016176544
213	0xbdf24fdc	-0.11831638
214	0x3d062d5d	0.032758106
215	0xbdc7e6b3	-0.09760799
216	0x3e08011c	0.13281673
217	0x3da527a9	0.08064205
218	0xbdd37a73	-0.1032609
219	0x3e1cea50	0.15323758
220	0x3d43d39b	0.047809225
221	0xbbe7f514	-0.007078776
222	0x3d874994	0.06605831
223	0x3e11fc00	0.14256287
224	0xbb95a46d	-0.00456672
225	0x3df67ea1	0.12035871
226	0x3e091d45	0.13390072
227	0x3dd3a005	0.10333256
228	0xbdeb549f	-0.114907496
229	0x3db5784f	0.08860838
230	0x3e07ae7d	0.13250156
231	0xbd4539ed	-0.048150945
232	0x3e1d3ad7	0.15354477
233	0x3c87a52e	0.016558256
234	0x3e06dce4	0.131702
235	0xbd8d1c3a	-0.068901494
236	0x3e421763	0.18954234
237	0x3cab6bb6	0.020925384
238	0xbd09c586	-0.03363564
239	0x3d06a358	0.03287062
240	0x3e2fb558	0.17159021
241	0x3e399e66	0.1812683
242	0x3e4143cb	0.18873517
243	0x3d11db02	0.035609253
244	0x3df99eef	0.12188517
245	0xb91fca06	-0.00015238681
246	0xbd0dad88	-0.03458932
247	0xbdbb7128	-0.09152442
248	0x3dd64d4b	0.10463961
249	0xbe39b262	-0.18134454
250	0xbd534f8c	-0.051589534
251	0xbe067e78	-0.13134181
252	0x3dcb641e	0.09931205
253	0xbe23ded3	-0.1600297
254	0x3c030b78	0.00799834
255	0x3e256373	0.16151218

lstm.bias_ih_l1 f4 [128]
0	0xbc2bffc1	-0.010497988
1	0x3e1db12e	0.1539962
2	0xbd4de6a4	-0.050268784
3	0x3caddd1b	0.021223595
4	0x3e34cf7d	0.17657275
5	0x3bec0d93	0.0072037666
6	0x3d0d7339	0.034533713
7	0x3e2fc3e4	0.1716457
8	0x3db59602	0.08866502
9	0x3e46e7ea	0.19424406
10	0x3d867780	0.065657616
11	0x3dd33578	0.10312933
12	0xbc8692a3	-0.016427344
13	0x3dd5c883	0.10438635
14	0xbe14ed21	-0.14543582
15	0x3e17f02a	0.14837709
16	0x3e13a2c4	0.14417559
17	0x3d5ac24a	0.053407945
18	0x3d8ab247	0.06772285
19	0xbe13026e	-0.14356396
20	0xbdbacdfb	-0.09121319
21	0xbcfd8737	-0.030948265
22	0xbe0780e0	-0.13232756
23	0x3d548ee4	0.051894084
24	0x3e4ee50e	0.20204565
25	0x3df6eb85	0.120566405
26	0x3e66c5c0	0.22536373
27	0xbd00b348	-0.031420976
28	0x3e3bfbf3	0.1835783
29	0xbd86213f	-0.0654931
30	0x3e1c8e49	0.15288652
31	0x3e4f7b7b	0.20261948
32	0xbd507eab	-0.05090205
33	0xbddb4acd	-0.107076265
34	0x3d4aa252	0.049471207
35	0xbde0a494	-0.10968891
36	0xbdf268c1	-0.118363865
37	0xbb5b15a5	-0.003342965
38	0xbd46bfda	-0.048522808
39	0xbd8247d7	-0.063613586
40	0x3e25b752	0.16183212
41	0xbbcc33f2	-0.0062317783
42	0xbd7e77c5	-0.06212594
43	0xbddcb18c	-0.10776052
44	0x3b69aa13	0.003565435
45	0x3da32933	0.079668425
46	0x3e1d07ea	0.1533505
47	0xbdd639be	-0.10460232
48	0xbcce0cda	-0.025152612
49	0x3ca64078	0.020294413
50	0xbe030e64	-0.12798458
51	0xbcb4f943	-0.022091513
52	0xbdda4d15	-0.106592335
53	0xbe33e106	-0.17566308
54	0xbd8f8e2c	-0.07009539
55	0x3e16dd99	0.1473297
56	0x3de3e8f6	0.11128418
57	0x3df8fe33	0.1215786
58	0x3d0e91c6	0.03480699
59	0x3d295744	0.04134299
60	0xbd8cd4d3	-0.068765305
61	0xbd8baede	-0.06820463
62	0xbe1eb494	-0.15498573
63	0xbc970e8b	-0.018439552
64	0xbe002652	-0.12514618
65	0x3daa481b	0.08314534
66	0xbde008c2	-0.109391704
67	0xbd5dbd66	-0.054135703
68	0xbe12c4c3	-0.14332871
69	0xbe1da1e2	-0.15393785
70	0xbe33862b	-0.1753165
71	0xbd544794	-0.051826075
72	0xbe2dd486	-0.16975603
73	0x3deb08c6	0.11476283
74	0xbca173cd	-0.019708538
75	0x3de0939b	0.109656535
76	0xbbbbfdba	-0.0057370337
77	0xbdd316dc	-0.103070945
78	0xbd2d4cd5	-0.0423096
79	0x3e1140a5	0.14184816
80	0xbd49475d	-0.049140323
81	0xbcc24193	-0.023712909
82	0xbdde3263	-0.10849454
83	0x3e1bad66	0.15202865
84	0x3d4b8d50	0.049695313
85	0x3e039e5e	0.12853381
86	0x3dcbd429	0.09952576
87	0xbe028fff	-0.12750243
88	0xbde26147	-0.110537104
89	0x3df678a2	0.12034728
90	0xbd9fc583	-0.07801344
91	0x3dc092ac	0.094029754
92	0xbdfd9f3e	-0.12383889
93	0xbd8cb0f3	-0.06869688
94	0x3db13ba0	0.08653951
95	0x3e31e2d7	0.17371689
96	0x3e267a8b	0.16257684
97	0x3e2654a9	0.16243233
98	0x3db7b36b	0.08969768
99	0xbe1a425e	-0.1506438
100	0x3d041945	0.03225066
101	0xbd2778ef	-0.040886816
102	0x3e5950cb	0.21222226
103	0x3e479171	0.19489075
104	0x3d26f373	0.040759515
105	0xbd930026	-0.07177763
106	0xbc22e393	-0.009941953
107	0x3d009d08	0.031399757
108	0xbd8fe0cb	-0.07025298
109	0x3d995b56	0.07488124
110	0x3e28313a	0.16425028
111	0x3d90e0e3	0.07074144
112	0xbc1c21b1	-0.009529517
113	0x3ca6249f	0.020281134
114	0x3d599e90	0.053129733
115	0xbd7d5e96	-0.061857782
116	0x3e073d0a	0.13206878
117	0xbccc087d	-0.024906391
118	0xbd73c85f	-0.05951726
119	0xbdaf74fc	-0.08567235
120	0x3d329f21	0.04360879
121	0x3e45e668	0.19326174
122	0x3e5bbe00	0.21459198
123	0xbdda22a6	-0.1065114
124	0x3cc119c6	0.02357186
125	0x3dbc451d	0.0919287
126	0x3e0ea7c3	0.13931184
127	0x3e37f521	0.17964603

lstm.bias_hh_l1 f4 [128]
0	0x3e7f7044	0.2494517
1	0x3d010da3	0.031507146
2	0x3d383153	0.044968914
3	0x3c9758be	0.018474933
4	0x3cad230e	0.02113488
5	0x3b5319c8	0.0032211412
6	0x3e12e607	0.14345561
7	0xbe0917bf	-0.13387965
8	0xbd7ab404	-0.061206833
9	0xbd6f7c9c	-0.058468446
10	0xbdacc58e	-0.08436118
11	0x3d449fcc	0.048003957
12	0xbda8a810	-0.082351804
13	0x3e0329bb	0.12808888
14	0xbdde099d	-0.10841677
15	0x3e228bd1	0.15873648
16	0xbd8797d4	-0.06620756
17	0x3bce6fde	0.0062999567
18	0x3d401951	0.046899144
19	0x3e297360	0.16547918
20	0x3e636872	0.22207811
21	0x3dde8cfa	0.10866733
22	0xbdc74cb3	-0.09731426
23	0x3e59ab21	0.21256687
24	0x3e1556f7	0.14583956
25	0x3e47599f	0.19467781
26	0xbc9fd2f2	-0.019509766
27	0x3d9cbf07	0.07653623
28	0xbdc68ab9	-0.09694428
29	0x3db40ab1	0.08791102
30	0x3dd2d401	0.10294343
31	0x3e116b73	0.14201145
32	0x3d4bdf36	0.049773417
33	0x3d03be82	0.032164104
34	0xbe20edf5	-0.15715773
35	0xbe130651	-0.14357878
36	0xbd275322	-0.040850766
37	0xbd536481	-0.05160952
38	0x3d81ff45	0.06347517
39	0xbd6e4ab9	-0.05817673
40	0x3bd69cab	0.006549438
41	0xbc943150	-0.01808992
42	0xbd8697bb	-0.06571909
43	0xbd92fc69	-0.0717705
44	0xbdc71d91	-0.09722436
45	0x3d8a4cd4	0.06752935
46	0xbd15ff6c	-0.036620542
47	0xbe1693e8	-0.1470486
48	0x3d23a52c	0.039952442
49	0x3d22dc1f	0.039760705
50	0xbda75542	-0.081705585
51	0x3e1c4488	0.15260518
52	0x3e36a2fd	0.17835613
53	0xbe0bc484	-0.13649184
54	0xbe153f06	-0.14574823
55	0xbe180ddd	-0.14849038
56	0xbd52545e	-0.05134999
57	0x3e09914b	0.13434331
58	0x3c78e954	0.0151923485
59	0xbd901e5b	-0.0703704
60	0x3c919d01	0.01777506
61	0x3de8adf5	0.11361305
62	0x3def13cb	0.11673697
63	0x3d84e098	0.0648815
64	0x3db63165	0.0889614
65	0x3dff60ad	0.12469611
66	0x3d976c8d	0.07393751
67	0xbd48851e	-0.048955075
68	0x3daa3d8f	0.083125226
69	0xbd873c1a	-0.0660326
70	0x3e0a0618	0.13478887
71	0x3d7fc15e	0.06244027
72	0xbe101d2b	-0.14073627
73	0xbdb6e5ba	-0.089305356
74	0xbe29787c	-0.16549867
75	0xbb0c60c0	-0.0021419972
76	0x3e3dfbcd	0.18553086
77	0xbdf54c9e	-0.11977504
78	0xbd6a9d70	-0.05727905
79	0x3e05cf2c	0.13067311
80	0x3d255014	0.04035957
81	0x3dceafa9	0.10092098
82	0x3d1003d6	0.03515991
83	0xbd4598ab	-0.0482413
84	0xbe22fb79	-0.15916242
85	0xbe08fd0a	-0.13377777
86	0xbc996f23	-0.018729752
87	0xbe18d080	-0.14923286
88	0x3d23c966	0.03998699
89	0xbdccaa05	-0.09993366
90	0xbda82ea7	-0.08212023
91	0xbdc78265	-0.09741668
92	0x3c3a844f	0.011384084
93	0xbdb1ee36	-0.08688013
94	0xbe06811f	-0.13135193
95	0x3d794b67	0.060862925
96	0x3e4dd37f	0.2010021
97	0x3d7069aa	0.05869452
98	0x3e1e50b3	0.15460472
99	0xbd4a3314	-0.04936512
100	0xbdbfc00d	-0.09362803
101	0xbd83c2ad	-0.06433616
102	0x3dd56a25	0.10420636
103	0xbd8cba07	-0.068714194
104	0xbdb03fb9	-0.08605904
105	0x3e2471b7	0.16059004
106	0x3e51d938	0.20493019
107	0xbcbdd675	-0.02317355
108	0xbd895e08	-0.06707388
109	0x3dca775a	0.09886046
110	0xbde7ad38	-0.11312336
111	0xbc2e2d9c	-0.010630991
112	0x3e1de196	0.15418085
113	0x3d40e28d	0.047091056
114	0xbe27946d	-0.16365214
115	0xbdc4e394	-0.096137196
116	0xbd835bd8	-0.06414002
117	0x3db175cc	0.08665046
118	0xbd838c20	-0.06423211
119	0x3e58ffff	0.21191405
120	0xbd98332d	-0.07431636
121	0x3dd4dbcc	0.103934854
122	0xbdcf9427	-0.1013568
123	0x3e067447	0.13130294
124	0xbca7529d	-0.020425135
125	0x3e428636	0.1899651
126	0xbd8f4469	-0.0699547
127	0x3d7cb437	0.061695304

fc.weight f4 [1, 32]
0	0xbe7af204	-0.24506384
1	0x3ddf6f95	0.109099545
2	0x3e6b79ec	0.22995728
3	0x3d28b6df	0.041190024
4	0xbe6e6e27	-0.23284207
5	0x3e1ac1d2	0.15112999
6	0x3e05d5f8	0.13069904
7	0x3dd23709	0.102644034
8	0x3d454cb7	0.048168864
9	0xbddf6b1d	-0.10909102
10	0xbe2010c0	-0.1563139
11	0xbe11fd55	-0.14256795
12	0xbe0f0856	-0.13968024
13	0x3d0bfdb7	0.03417751
14	0x3d84414b	0.06457766
15	0x3e3dd912	0.18539837
16	0x3e209507	0.1568185
17	0xbe32b658	-0.17452371
18	0xbd014078	-0.031555623
19	0xbdffb7ac	-0.124862045
20	0xbe27331f	-0.16328095
21	0xbdbded7e	-0.09273814
22	0xbe34dece	-0.17663118
23	0x3e0ceed3	0.13762979
24	0xbe402fdc	-0.18768257
25	0xbe82a7a4	-0.25518525
26	0xbe70d9c0	-0.23520565
27	0xbcfb5263	-0.030678933
28	0x3d957cb6	0.07299177
29	0xbe2bc5e6	-0.16774711
30	0xbe2bdd0a	-0.16783538
31	0x3e1cc436	0.15309224
