lstm_model.pth (torch, 54652 bytes, 9 tensors)

lstm.weight_ih_l0 f4 [128, 1]
000000 bf 5b 84 3e 92 90 1f 3e 34 50 60 bd 21 cc 28 3e
       0.25851247 0.15582493 -0.054763988 0.16484119
000010 05 d0 5e be c2 7a 03 be 72 8d ce 3c e2 fd 80 3c
       -0.2175904 -0.12839797 0.02521393 0.01574606
000020 e3 3c 8e bd de d9 8e 3e b5 fe 89 3e 56 40 32 3e
       -0.06945207 0.27900594 0.2695214 0.17407355
000030 c2 11 79 3e c4 0d f8 bc 64 49 46 be 5a b8 74 3e
       0.2432318 -0.030280001 -0.19363934 0.2389845
000040 59 a1 42 3e 25 b8 82 bd 37 92 90 3d b7 1f 07 3c
       0.19006862 -0.06382779 0.07059138 0.0082473075
000050 78 a9 28 be 9c 2e 22 be 5d d9 0e bd d8 ed 79 bc
       -0.16470897 -0.15838093 -0.034875263 -0.01525446
000060 23 df 53 be c3 c5 9e bc ba 98 a3 be 5b 76 46 3c
       -0.20690589 -0.01938141 -0.3195246 0.012113179
000070 03 a4 98 3d 34 52 dc 3d e4 ff 81 3d 87 39 79 be
       0.07453158 0.107578665 0.063476354 -0.24338351
000080 da 26 9c 3e 01 87 40 3d ca 28 d3 bc 0f f1 50 3e
       0.3049839 0.04700375 -0.025776286 0.20404457
000090 51 3b 29 be 57 fe 64 be 48 9e 83 bd 82 56 c1 3d
       -0.16526534 -0.22362648 -0.06426674 0.09440328
0000a0 b5 c5 67 3e 47 56 76 3a 7f af 84 3e 0c 79 b9 bd
       0.22634013 0.00093970116 0.25915143 -0.09056291
0000b0 f1 50 2b b9 d8 d7 60 3e 31 d9 09 be 97 26 1a 3e
       -0.00016337984 0.21957338 -0.13461758 0.15053783
0000c0 77 a4 73 3e 8d 2d 85 3d 51 f1 9c 3e a2 8d bf bb
       0.23793207 0.06502829 0.3065286 -0.0058457414
0000d0 74 90 7a be f4 06 9d 3d bb 23 5b bc af 18 09 be
       -0.24469167 0.07667342 -0.013375218 -0.13388322
0000e0 35 75 36 bd 50 ba 3f 3d 71 74 83 bd 52 c9 9d 3d
       -0.04454537 0.04680854 -0.06418694 0.077044144
0000f0 d1 12 0a be b8 8f 2a bd 64 6b 1c 3e 25 6e 60 be
       -0.1348374 -0.041640967 0.15275341 -0.21917017
000100 f8 2e 37 3e df 44 8e be 66 7a 3a 3e 4d 99 8a be
       0.17889011 -0.2778692 0.18210754 -0.27070084
000110 ac 38 36 be 8b 4d 51 be 11 f8 77 3e 54 99 33 be
       -0.17795056 -0.20439737 0.24215724 -0.17538959
000120 c1 a7 2e 3e 98 56 1e 3f 50 80 e0 3d f9 7b 78 be
       0.1705618 0.6185088 0.10961974 -0.24266042
000130 dd a0 48 be 29 33 8d 3e f7 25 3f be 72 04 31 be
       -0.19592614 0.27578095 -0.18666826 -0.17286852
000140 6b 7c bc bd f4 62 03 3e a0 c2 60 3d 32 d2 20 be
       -0.09203418 0.12830716 0.05487311 -0.15705183
000150 16 22 23 be 70 b7 8a 3d c6 38 22 be 1c 79 a3 3d
       -0.15930972 0.06773269 -0.1584197 0.07982084
000160 ef 63 1a 3e 77 76 92 3e 14 35 80 be 4b 09 10 3e
       0.15077184 0.28606007 -0.25040495 0.14066045
000170 75 75 74 be 29 65 27 3e 79 d5 60 be 08 9b fe 3d
       -0.23872931 0.16347183 -0.21956433 0.124319136
000180 6a d7 d8 3c 10 11 24 3e b7 46 a2 bd fe 59 80 3e
       0.026469905 0.16022134 -0.07923644 0.2506866
000190 f8 14 75 be 90 69 31 be f6 81 76 3e 33 f2 2a bc
       -0.2393378 -0.17325425 0.24073014 -0.010433721
0001a0 5f 69 91 3e 23 53 c0 3e 13 81 a9 3e e8 eb 33 bd
       0.28400704 0.37563428 0.33106288 -0.04392615
0001b0 bf ce 3f 3e 97 b3 0a 3e 8e 5f 69 be a9 1e 0c 3e
       0.18731211 0.1354507 -0.22790357 0.13683571
0001c0 fd 99 97 3e 7e 38 5f be 1c 4c 9f 3e 70 7f e0 bd
       0.2960967 -0.21798894 0.31112754 -0.10961807
0001d0 47 67 e3 bd be 17 fe bd 85 ea 63 bd a5 48 a7 be
       -0.11103683 -0.12406872 -0.055643577 -0.3267261
0001e0 83 cd 7a be 4c ff 9d 3d a4 9e d6 be 72 8c 9e 3e
       -0.24492459 0.0771471 -0.41917908 0.30966526
0001f0 db 02 80 be d1 49 1c bd 1c d2 00 3e 28 8f eb bd
       -0.2500218 -0.038156334 0.1258015 -0.11501914

lstm.weight_hh_l0 f4 [128, 32]
000000 86 8e 89 3a 67 53 32 be 39 5c 2c be 5e e5 3c be
       0.0010494746 -0.17414628 -0.16832055 -0.18446872
000010 34 b4 3e bd dd c1 27 3e 2c dd 39 3d d2 37 f7 3d
       -0.046558574 0.16382547 0.04537694 0.12071194
000020 de d9 87 bb 2c 18 a6 bd 48 f4 c4 3d a7 08 11 be
       -0.004145845 -0.08110079 0.096169055 -0.14163457
000030 0b 89 38 be 83 c0 df bd 7d 97 23 3e 8f 46 65 bc
       -0.18021028 -0.109253906 0.15975757 -0.013993873
000040 07 89 3a 3d 57 02 a5 bd a3 ab fd 3d d5 fc b4 3c
       0.045540836 -0.08057087 0.12386253 0.022093216
000050 2a 4e b8 3b d4 67 0a be 38 b3 25 be 81 e2 1e be
       0.0056245523 -0.1351617 -0.16181648 -0.15516092
000060 cb ad fe 3d a8 32 a5 3c 63 9b ef bd 36 41 b4 bd
       0.12435492 0.020165756 -0.116995595 -0.088015005
000070 8a a6 ba 3d 01 1e 92 3d 85 a2 67 bd 2c c4 4c 3c
       0.09113796 0.07134629 -0.056551475 0.012497943
000080 7a 59 d7 3d 76 c5 b0 bd f6 96 55 bd 68 e5 1d bd
       0.10515113 -0.08631413 -0.05214592 -0.038548857
000090 3d 70 81 3d fe f4 41 3e a5 98 40 bd 50 1f 3b bc
       0.06320236 0.18941113 -0.047020573 -0.01142104
0000a0 ba f0 65 bd 65 dc 43 be 16 ce 08 3d 7a 19 44 3d
       -0.056137778 -0.19127043 0.033399664 0.04787586
0000b0 dc 9b f1 bd 9d 3b b3 bd b3 8b 8d 3d 85 b4 a2 3d
       -0.11797306 -0.08751605 0.06911411 0.079445876
0000c0 d9 8a a5 bc 0f 87 01 be a0 33 35 bd 8c 8d 97 bd
       -0.02020781 -0.12649177 -0.044238687 -0.07400045
0000d0 1b 46 87 3e 61 8d 93 ba 0d 14 b5 bb 57 c1 0a be
       0.26420674 -0.0011257344 -0.005526072 -0.13550316
0000e0 68 39 c1 bd 91 41 2b be ec 76 34 3e 08 f1 3e 3e
       -0.094347775 -0.1672423 0.1762349 0.18646634
0000f0 19 a3 4c bc fa e3 84 bd 40 1e d6 3d 6b ef 49 be
       -0.012490057 -0.064887956 0.104549885 -0.19720237
000100 d9 15 00 3e 2c b9 24 be e3 f3 a4 bd 90 5c 76 be
       0.12508334 -0.16086262 -0.0805433 -0.24058747
000110 82 18 0d 3e 67 3d 10 3e e5 13 9a 3e 88 7e 9e b8
       0.1377888 0.14085923 0.30093303 -7.5575954e-05
000120 0a ef 86 3e 74 c7 aa 3d 33 d4 93 3d 69 63 12 be
       0.26354247 0.08338824 0.07218208 -0.14295734
000130 a6 ae a2 bd d9 f5 9b 3e df 67 b5 3c 55 15 96 be
       -0.07943468 0.30461004 0.022144256 -0.2931315
000140 21 31 27 3d d8 38 96 3d 80 0a 2d 3e 4d 4f 3f be
       0.040818337 0.07335061 0.16898537 -0.18682595
000150 82 5f 0b bd 36 62 63 3d 79 2c a0 bd c1 37 16 3e
       -0.03402663 0.055513583 -0.078209825 0.14669706
000160 74 8a 19 be 82 c2 db 3d 24 d6 05 3e 39 4a 41 3e
       -0.14994222 0.10730459 0.1306997 0.1887597
000170 6f 35 c0 3d e3 61 28 3e 0e e0 5f be 2c 59 04 3e
       0.09385192 0.16443591 -0.21862814 0.12924641
000180 03 e6 1e 3d 89 d1 67 3d 4e 27 1e be 4b e7 35 be
       0.038793575 0.056596313 -0.15444681 -0.17764013
000190 b0 6c 63 3e 8f ce 43 3e 26 e0 9c 3c ec 5c 83 bd
       0.2220943 0.19121765 0.019149851 -0.06414208
0001a0 ee 2c ac bd 58 07 d0 3d 84 c5 cf bd e2 47 0f 3d
       -0.08407007 0.10157651 -0.10145095 0.034980662
0001b0 1f 77 ee bd c2 15 25 3e f4 5d 61 3e 76 50 a1 bd
       -0.11643814 0.16121581 0.22008497 -0.07876675
0001c0 90 eb 44 3d 2b ba 60 be 36 b4 14 3e 3b 79 de bd
       0.048076212 -0.21946017 0.1452187 -0.108629666
0001d0 71 ce 15 3e cb 64 0c be 6c b2 28 be 0d 33 bc 3a
       0.14629532 -0.13710324 -0.16474313 0.0014358476
0001e0 6b f2 fe bc 23 1a 23 3d a1 6d 8f 3e e5 2d 38 3e
       -0.031121453 0.039819848 0.28013328 0.17986257
0001f0 58 b4 84 3d fa ac be 3d e4 eb c9 bd 19 dc 3c be
       0.0647971 0.093103364 -0.09859446 -0.18443336
000200 3d 73 ff 3d 79 0e 7a 39 a6 f2 f3 bc bb 4c 55 bd
       0.12473152 0.0002384725 -0.02977879 -0.05207513
000210 fd d9 f5 bb 5d 8c 0e be dc 45 50 3d 70 30 4a 3d
       -0.007502793 -0.13920732 0.050847873 0.0493626
000220 72 37 92 3a 26 a8 5b 3e 8e ec b5 3d bf 02 9e bd
       0.001115544 0.21450862 0.0888301 -0.077153675
000230 f2 74 d2 bd ed 7a 02 3e b1 53 cb bd 62 a3 63 be
       -0.10276212 0.12742205 -0.09928072 -0.22230294
000240 be 35 c7 3c 85 1a 04 be 74 52 d0 bb ad 20 f6 bd
       0.024317618 -0.12900741 -0.0063574854 -0.12017951
000250 9e ae 3c 3e 19 2f cb bd 2b 20 3d bd d3 e6 e7 3d
       0.18425986 -0.099210925 -0.046173256 0.11323323
000260 3a 9b 42 bd 30 45 09 be 41 d3 bb bd 40 e8 70 3e
       -0.047511317 -0.13405299 -0.09171153 0.23526096
000270 bc 7c 40 3d b3 8a 5a 3e 9e 9a 82 3d 80 04 a3 3d
       0.046993956 0.21341972 0.06377147 0.07959843
000280 0b 38 6a 3d e3 09 0a 3e 1b 27 b2 3d e7 be 05 bb
       0.057182353 0.13480334 0.08698865 -0.0020407976
000290 b6 bf d3 3c 47 fa ea bc 08 bf d6 bd 04 de 23 bd
       0.02584825 -0.028683795 -0.10485655 -0.040006652
0002a0 71 fd 61 3a fd 77 66 3d 8a 3b 9f 3e e4 46 07 be
       0.00086208346 0.056266773 0.31100112 -0.13210636
0002b0 dc 15 60 be 66 d7 da 3d 22 6f 69 3e 74 e7 54 bd
       -0.21883339 0.10685615 0.227963 -0.051978543
0002c0 68 ab 28 be 0b 4a c2 bc 2c 0f c5 3d cd 19 45 be
       -0.16471636 -0.023716947 0.096220344 -0.19248123
0002d0 8f 8b ac bd fd 3f 0c be 51 e8 f6 3d c7 e5 fa bd
       -0.08425056 -0.13696285 0.120560296 -0.12250858
0002e0 27 e2 3a bd 4f cc 01 3d 16 d5 16 3e 3a 38 0d 3e
       -0.045625832 0.031688984 0.14729723 0.1379098
0002f0 fd 0b 5a 3d 31 f8 9e 3d 7e 4b fc bd fc 3d 68 bd
       0.05323409 0.077621825 -0.123190865 -0.056699738
000300 37 9b 0c 3d 87 47 a9 bd e8 d9 8d 3d a1 ad b7 bd
       0.034327712 -0.08265596 0.06926328 -0.08968664
000310 e5 14 eb 3d d0 c5 16 3e 45 08 fb bd 95 0e 5a bd
       0.11478595 0.14723897 -0.12257437 -0.053236563
000320 54 1d c5 bd e0 59 90 3b 2c b5 3f 3e 5d a2 9c bd
       -0.096247345 0.004405245 0.18721455 -0.07648156
000330 08 a3 c3 bd 5a 72 51 3e 4d 74 65 3e 06 36 93 3d
       -0.0955258 0.20453778 0.22407646 0.071880385
000340 28 f0 6f bb 18 bd 2a be 39 0f 53 3e 22 ed 2c be
       -0.003661165 -0.16673696 0.20611276 -0.16887334
000350 af a1 17 3e 5a f0 41 be 21 fc da 3d 0d cf 97 bc
       0.14807771 -0.18939343 0.10692621 -0.018531347
000360 5a 71 ac bd 41 60 5c bd a1 0a d9 3b 03 32 2a 3d
       -0.084200576 -0.053802732 0.0066235815 0.0415516
000370 34 64 36 3e 8c 0f 0c 3d 02 0c 0c 3d 2b 82 89 be
       0.17811662 0.034194514 0.03419114 -0.26857123
000380 7a 2d 41 3e eb d3 07 3e 5b 8a e0 bd c0 3b 0e 3c
       0.18865004 0.13264434 -0.10963889 0.008681238
000390 cc ca 66 bd f4 99 f5 36 37 dd a0 3d 49 a8 11 3e
       -0.056345746 7.3194915e-06 0.078546934 0.14224352
0003a0 40 d3 0a 3e 34 1a fc bd cf a6 4d 3e fa 5e 93 3d
       0.13557148 -0.12309685 0.20083164 0.0719585
0003b0 15 10 8b bd 61 26 1e 3d 71 a8 0c be ee 14 fe bd
       -0.06790177 0.03861082 -0.1373613 -0.12406336
0003c0 3d 72 e9 bd 74 17 15 be 5a 5a af 3d 0c 71 b6 3d
       -0.11398742 -0.14559728 0.08562155 0.08908281
0003d0 a9 dc ae 3d 3b 02 12 be 3a 37 14 3e b3 28 04 3e
       0.08538181 -0.14258663 0.14474192 0.1290615
0003e0 44 cf 85 3d 2e c2 d8 3d 48 91 2c 3d 54 97 00 3e
       0.065336734 0.10583912 0.04213074 0.12557727
0003f0 8c f6 22 be 7d 58 2a 3e b5 a3 57 3d 5a 54 14 3d
       -0.15914363 0.16635318 0.052646358 0.036213256

lstm.bias_ih_l0 f4 [128]
000000 99 87 0b be 74 9f 12 3e 7b 61 ca bd a5 34 05 3e
       -0.13625945 0.14318639 -0.09881874 0.13008364
000010 48 59 c1 bd 2b f7 b9 3d 42 14 06 3d 2b 12 f9 bd
       -0.09440857 0.09080347 0.032734163 -0.121616684
000020 8a 18 55 3d 54 2f 40 3f a1 be c7 bd 8b 90 92 bd
       0.052025355 0.75072217 -0.097531565 -0.07156476
000030 83 7c 53 3e 45 5a 2c 3d b8 72 3d 3d 71 95 f6 3d
       0.20652966 0.042078275 0.046251982 0.120402224
000040 38 37 c7 3c 1b 92 a8 3d 2b f7 6d 3b 4b ca 16 be
       0.024318323 0.082309924 0.0036310654 -0.14725606
000050 f2 ba aa bd 98 41 00 3d 3f 4a 3b 3e ce 4c fb bd
       -0.08336438 0.031312555 0.18290041 -0.12270509
000060 02 43 28 3e b2 4d 2e 3d 15 df 97 3d 01 fd 61 3e
       0.16431811 0.042554565 0.074155964 0.2206917
000070 51 b3 e7 bd 1f 8b 32 3e 61 39 a2 3d 9d 51 01 3e
       -0.11313499 0.17435883 0.079211004 0.12628789
000080 e7 86 30 3e c4 c3 d7 3d b2 c2 c4 3b 40 e8 c8 3c
       0.17238961 0.10535386 0.006004655 0.024524808
000090 43 29 eb bd e5 a0 ab 3d b5 cb 38 3e 31 db c2 3d
       -0.114824794 0.083802976 0.18046458 0.09514464
0000a0 e8 75 c6 bc 68 4c 2a bb 88 63 b3 3d 53 7d 0b bc
       -0.024226144 -0.0025985483 0.087592185 -0.008513766
0000b0 4c fa f4 3d a0 12 ef bd 37 84 4d 3d 20 ef 15 bc
       0.11961803 -0.11673474 0.050174918 -0.00915125
0000c0 33 d2 29 3e 57 8e 0a be 44 e8 8b 3d aa a9 ca bd
       0.16584091 -0.13530861 0.068314105 -0.09895642
0000d0 ca 3d 9f 3d 99 92 c5 3c ab 9d 9e 3d a4 84 59 3d
       0.07775457 0.024117755 0.077449165 0.05310501
0000e0 8d 4b 6d 3c 0f 70 19 be 86 36 67 bd 98 4f f2 3d
       0.014483345 -0.14984153 -0.056448482 0.118315876
0000f0 00 bd b0 3b 6e d1 f6 bd 2f b6 74 3d 5d e8 9b 3d
       0.0053936243 -0.12051664 0.059744056 0.07612679
000100 55 94 09 3e 42 64 24 be c4 3c 83 bd 69 3a 73 3d
       0.1343549 -0.1605387 -0.064080745 0.059381876
000110 f1 37 21 3e a5 6a f1 3d a3 e9 72 3c 5d 38 94 3b
       0.15743996 0.11787919 0.014826211 0.0045233206
000120 50 2d b9 bb 98 8d 61 bd 61 3a 72 bd a3 40 b8 3c
       -0.0056511536 -0.055066675 -0.059137706 0.022491759
000130 6f c4 20 3e ed 47 1d 3e 20 8d 65 3d 49 fa b3 bd
       0.15699933 0.15359469 0.05604279 -0.087879725
000140 1b 8b 17 be 28 e6 2a be c2 55 40 3e 4f e0 d8 bd
       -0.14799158 -0.1668936 0.18782714 -0.105896585
000150 80 3b 3b 3e c5 6d 48 bd 9f 9a 51 3d d7 f2 1e 3c
       0.18284416 -0.04893281 0.05117285 0.009701452
000160 2a 77 e8 3c 7d cc 86 3d e9 1e 3f 3e 5d a8 87 3d
       0.028377134 0.06581972 0.18664135 0.066239096
000170 66 dc 03 3d 1e f6 8a bc 10 12 35 3d 74 1f 7e bd
       0.03219261 -0.016963061 0.04420668 -0.062041715
000180 7f c6 e8 3d eb 69 65 bc 83 20 35 3e 55 2b 02 bd
       0.11365985 -0.014002304 0.17688183 -0.031779606
000190 ef 18 81 3c 09 e8 3e bb ac 5e d4 bd bc 24 f0 bd
       0.01575896 -0.0029130003 -0.1036962 -0.117257565
0001a0 e0 78 d9 bd b9 02 4e 3f cc 35 d8 3d b0 09 5f 3e
       -0.10618758 0.80472904 0.10557136 0.21781039
0001b0 b7 72 e4 bd f7 bb 1a bd 58 e3 3a 3e 8b 70 38 3e
       -0.111546926 -0.037776913 0.18250787 0.18011682
0001c0 ab 01 2e 3e 1d af 5a bd 55 fc 7f bd 39 0d 25 be
       0.16992824 -0.053389657 -0.062496502 -0.16118325
0001d0 27 71 2e 3e 6d d2 cb 3d 01 7b 11 3e 3f 81 96 bd
       0.17035352 0.09952245 0.14207079 -0.073488705
0001e0 35 fe da 3b 68 a1 65 3d 3c 0f 90 3d 61 ab 24 3e
       0.006683136 0.056062132 0.07034156 0.16081001
0001f0 6a 89 e9 bb bc c8 d5 bd c9 e2 b6 bd ae d3 33 3e
       -0.0071269767 -0.10438678 -0.089299746 0.17561218

lstm.bias_hh_l0 f4 [128]
000000 53 76 34 3e 78 32 9b 3c 92 71 35 3e d2 66 08 3e
       0.17623262 0.018944964 0.17719105 0.13320473
000010 cf 40 15 3e 72 b3 0e 3d 54 96 af 3d 1a 57 a7 bd
       0.14575504 0.0348391 0.08573595 -0.0817091
000020 9d b2 47 ba 5e c0 39 3f 68 e7 72 3d b1 04 c8 bd
       -0.0007617863 0.72559154 0.059302717 -0.0976652
000030 70 7f fb bc 3f a0 5d bd 58 c3 8d 3d 68 9f 70 bd
       -0.030700415 -0.0541079 0.069220245 -0.05874577
000040 6b 74 be bc 1d f0 3d 3e 28 94 be 3c 1d cb 12 be
       -0.023248872 0.18548627 0.023264006 -0.14335294
000050 1f 0a e2 bd 1d 30 21 3e 98 76 4b 3e 0a 4e 3b 3e
       -0.11037087 0.1574101 0.19869459 0.18291488
000060 3b db 68 3e 31 40 7d 3e 98 70 09 3d 16 73 f8 3c
       0.2273988 0.24731518 0.033554643 0.030328315
000070 7e 1b a3 3d 33 25 29 3b 42 b5 aa 3d 0e 39 2f 3e
       0.07964228 0.0025809526 0.083353534 0.17111608
000080 1c 0f f6 3d 08 ae 0f be 5d 87 d2 bd 19 e0 32 3d
       0.12014601 -0.14031231 -0.10279725 0.043670747
000090 a3 d6 d6 bd c2 f1 53 3d 83 52 76 bc fb 32 8b 3d
       -0.104901575 0.05174423 -0.015034321 0.06796833
0000a0 2b 73 48 3d d9 4f 7e be f9 12 0e be 2e 24 d6 3c
       0.048937958 -0.24835147 -0.13874425 0.026140299
0000b0 ae 70 2e 3e f9 82 29 3e 1c 33 44 3d a2 c3 d9 bd
       0.17035171 0.16553868 0.047900304 -0.10633017
0000c0 bf f4 aa 3d 40 7c c3 3d d4 a1 86 bd 68 96 83 bc
       0.08347463 0.09545183 -0.06573835 -0.01606293
0000d0 30 93 65 bb 80 ec cc 3d 2b 02 0a 3e 8c 9f c2 bd
       -0.0035030358 0.10006046 0.1347739 -0.095030874
0000e0 5d 9d ce 3b ed 58 00 3e 8e a3 3d bd 49 bc fa 3b
       0.0063053803 0.12533922 -0.046298556 0.00765184
0000f0 b3 e1 8b 3d 2a bd 4c 3d 9c 36 a1 3c 02 be 16 be
       0.06830158 0.04998509 0.01967936 -0.1472092
000100 be 70 21 3e 5d 93 05 3e 58 63 d0 bd ad 3c d6 bd
       0.15765664 0.13044496 -0.10175198 -0.10460792
000110 0f 54 5a 3d a5 1b 7a 3d 48 95 f4 3c a5 82 b2 3d
       0.05330282 0.06106152 0.02985634 0.08716325
000120 97 97 94 3d 5d 12 8a 3c 9d 58 3f 3e de ea 19 3d
       0.07255476 0.01685446 0.18686147 0.037577502
000130 ae 31 1a be 71 a8 7b bd 70 ba 95 3d fa 5f c8 3b
       -0.15058014 -0.061439935 0.07310951 0.006114957
000140 08 bf 0a be 40 96 9a 3d bb a1 82 bd f4 dc 0a be
       -0.13549435 0.07548189 -0.06378504 -0.1356085
000150 93 46 31 3d 52 f4 8c bd 92 09 1d be 4f bf c3 bc
       0.043280195 -0.06882538 -0.15335682 -0.023894934
000160 66 12 78 bd 72 a1 2f bd f3 4f 97 3d 80 c7 ca 3c
       -0.06056442 -0.042878576 0.07388296 0.024753332
000170 81 fc fb 3d bb 88 61 3d cb 65 c3 bd b1 d7 af bd
       0.12304021 0.055062037 -0.095409 -0.08586062
000180 d8 3d 9a bd 33 d3 7b 3c 83 0c 94 3d 1b cc 25 3e
       -0.07531327 0.015370178 0.07228949 0.16191141
000190 15 7b 11 bd 89 f6 63 bd 44 76 c2 bd c8 d1 88 3d
       -0.03551777 -0.055655036 -0.09495214 0.066806376
0001a0 e2 41 bd bd d4 17 3c 3f 1f 57 ba 3d 55 94 58 3e
       -0.09241082 0.7347386 0.09098648 0.21150334
0001b0 bb 74 ea 3d e6 3a 43 3d a2 22 38 3e 49 98 a4 3d
       0.11448046 0.04766359 0.17981961 0.080368586
0001c0 63 7c 0b be b9 8d 1a 3e 1c 8e 3f 3e 26 42 ea 3c
       -0.13621669 0.15093125 0.18706554 0.028595995
0001d0 5a 6e 94 bc 1e b1 ac 3c 44 a5 3b 3d 68 f1 cc bd
       -0.018119026 0.02108055 0.045811906 -0.10006982
0001e0 26 9c b4 3d b4 0d 2f 3d 80 5b 73 3d a8 ba 3a 3e
       0.088188455 0.042737678 0.059413433 0.18235266
0001f0 70 11 19 3e 4b 2c 06 3e f3 a3 4f 3e 79 51 3a 3e
       0.14948058 0.13102834 0.20277385 0.18195142

lstm.weight_ih_l1 f4 [128, 32]
000000 9b 07 ec 3d 72 a4 0a be b2 1b 8f 3d 27 61 14 be
       0.11524888 -0.13539293 0.06987704 -0.14490186
000010 ce 6e 01 be 0b 9c a9 bd 29 c4 b7 bd ac 2f 49 3d
       -0.12639925 -0.08281716 -0.089729615 0.04911773
000020 54 65 1a 3e 5d 71 ab 3d 5c 5f c4 3d 17 53 a3 3d
       0.15077716 0.08371232 0.09588501 0.079748325
000030 9a f0 52 3d f4 2c 43 bd d0 af 45 bd c5 39 16 be
       0.051498987 -0.047650293 -0.04826337 -0.14670475
000040 54 84 dd 3d 2e fa 73 3e 9b ac 4e 3e 56 45 e7 3d
       0.10816255 0.23825905 0.20183031 0.11292522
000050 2d 1c 6c be 88 f3 4d bd 3a 8c 48 be 08 92 17 3e
       -0.23057623 -0.050281078 -0.19584742 0.148018
000060 e6 33 6d 3e 22 0e 22 3e 88 cc 69 bd 61 f6 59 3d
       0.23164329 0.15825704 -0.05707982 0.05321348
000070 52 42 4e be 7b 35 62 bd 9c 2a 7f be c4 24 43 bd
       -0.20142487 -0.055226784 -0.24918598 -0.047642484
000080 62 1f de 3d 3f 6e 10 bb bb af 69 be 3f 7e 57 3e
       0.108458295 -0.0022038368 -0.22820942 0.21044253
000090 9b d7 4a 3e 82 98 f4 ba 5d e0 41 be 55 ea 91 bd
       0.1980881 -0.0018661174 -0.18933244 -0.071247734
0000a0 a9 39 2b bd 96 e6 5a be c7 06 53 3e 23 e4 4e 3d
       -0.041803036 -0.21377024 0.20608054 0.050510537
0000b0 84 22 ab 3d 31 19 52 be 68 69 9a bd 4c 36 26 3e
       0.08356193 -0.20517422 -0.07539636 0.1623165
0000c0 7f 95 fb 3d f2 f5 bc 3d 75 0d 00 bd 2f 8c bc bc
       0.122843735 0.09226598 -0.031262834 -0.023016063
0000d0 10 5e 2c 3e 74 ec 39 3c 70 d2 a7 3c 58 12 5a be
       0.16832757 0.011347879 0.020486087 -0.2129606
0000e0 56 4e 15 be 04 fc 30 be 60 3e 33 3e 95 42 dd bc
       -0.14580664 -0.17283636 0.17504263 -0.027009288
0000f0 92 5e c5 3d ab a0 fd bc 63 d7 5a 3e 27 cf 52 be
       0.096371785 -0.030960402 0.21371226 -0.20586835
000100 f4 7b 81 3e 0c 67 b3 bb 0b 4b c1 3c de 09 75 bd
       0.2528988 -0.0054749306 0.023595354 -0.059823863
000110 22 41 97 3c 5b d3 3a be bb ac c7 3d 2c c7 74 be
       0.018463675 -0.18244688 0.097497426 -0.23904103
000120 ce 81 28 3e 69 f6 81 3e 4e 18 c1 bc 10 6e b6 bd
       0.16455767 0.2538331 -0.02357116 -0.089077115
000130 09 76 f2 bd 64 30 74 3d b8 45 04 be 17 0b b2 bd
       -0.1183892 0.05961646 -0.1291722 -0.086935215
000140 ad a0 b8 bd 96 0d 86 bd ca f3 9b bc a4 ac 40 bd
       -0.090150215 -0.0654556 -0.019037146 -0.047039643
000150 d5 91 00 3d c0 ea 82 3c c5 80 3b 3d ab 84 3d bd
       0.031389076 0.015981078 0.0457771 -0.0462691
000160 e4 7d 59 3d 9d ad 07 3d bd 89 92 bd a7 8c 8d 3e
       0.053098574 0.033124555 -0.07155178 0.27646372
000170 06 ce 83 ba 21 ce 7a 3d c3 d6 a1 bb 2f a3 05 be
       -0.0010055907 0.061231736 -0.0049389317 -0.13050531
000180 92 99 e1 bd 12 c6 d3 bd c2 d5 b8 bd e6 3a 02 be
       -0.11015619 -0.10340513 -0.09025146 -0.1271778
000190 96 f6 29 be 70 eb 01 be be 95 3e 3e 4d a8 c9 3d
       -0.16597971 -0.12687469 0.1861181 0.09846554
0001a0 bd b8 58 3e 70 64 a6 3d db eb 84 3d b1 dc 72 be
       0.21164222 0.08124626 0.06490298 -0.23717
0001b0 81 5b 2f be 2c b5 c1 3d 6f 86 dc 3d e0 25 5f 3d
       -0.1712475 0.09458384 0.10767829 0.05447948
0001c0 48 11 88 3d 93 d8 ee 3c f6 6b 55 bd 30 a6 74 bd
       0.06643921 0.029156005 -0.052104913 -0.0597288
0001d0 ba 26 d5 3d 28 66 8e bd cd ad d7 bd ec 19 a2 bd
       0.10407777 -0.069530785 -0.10531197 -0.079151005
0001e0 b5 6a fd bc 29 ad 2a 3d e1 59 07 3e 41 bf 7b bd
       -0.030934671 0.041669045 0.1321788 -0.06146169
0001f0 0e 53 bb bd 21 9c a8 bd 24 be d9 3c ee 8d a8 bb
       -0.09146701 -0.08232904 0.026579924 -0.0051438725
000200 ad f7 c5 3d 18 8c 18 3e ba d8 80 bd 0c a5 48 3e
       0.09666381 0.14897192 -0.06291337 0.1959421
000210 92 c8 44 3e 50 96 56 bc 7e 0d 1b bd 90 d1 c1 bd
       0.19217137 -0.013097361 -0.037854664 -0.09463799
000220 fd 62 3c be 80 23 bd bd e9 43 05 be a6 00 22 3e
       -0.18397136 -0.09235287 -0.13014187 0.1582056
000230 c4 74 ce bd 07 1e e0 bd 2a 63 26 3e f9 33 27 3e
       -0.10080865 -0.10943227 0.16248766 0.1632842
000240 e3 78 c3 bd 0f f6 05 bd 50 74 36 3d d0 4e d3 bd
       -0.09544542 -0.032705363 0.044544518 -0.10317767
000250 97 b8 bf 3d 14 a0 3c be ef 04 ad 3d 99 38 11 bd
       0.093613796 -0.1842044 0.08448207 -0.035454366
000260 1f 49 88 3d 28 5b a6 bd 14 59 21 3e fa d2 ee bd
       0.06654572 -0.081228554 0.15756637 -0.11661334
000270 be 25 5c bd 69 44 f3 bd c1 c2 68 bc 25 13 3e be
       -0.05374693 -0.118782826 -0.014206589 -0.1856199
000280 41 fb 7e 3c 68 64 81 be dc 10 a9 bd e7 23 b7 b7
       0.015562833 -0.25271916 -0.08255169 -2.1832018e-05
000290 61 7e 9b bc 91 41 0f 3d fa 66 0b 3d e0 eb 40 bd
       -0.01898116 0.03497464 0.034033753 -0.047099948
0002a0 62 12 66 3e f6 7e ed bc c1 fc fb 3b c2 ed fa bc
       0.2246795 -0.028991204 0.0076900427 -0.03063095
0002b0 00 3e 84 3d dd 43 1e 3e 8e d1 ce 3d 72 2a 26 be
       0.06457138 0.15455575 0.10098563 -0.16227129
0002c0 a2 f7 9d 3c c7 cd ce 3c a4 22 f0 b9 3f f1 a0 3d
       0.01928312 0.025244607 -0.00045802176 0.07858514
0002d0 1c 21 d9 bd 94 28 95 3d eb c4 71 be 23 3b 08 be
       -0.10602018 0.0728313 -0.23610274 -0.13303809
0002e0 37 87 9e bd bc 3e ce 3d e4 9c da bc 79 71 04 3e
       -0.07740634 0.100705594 -0.02668614 0.12933911
0002f0 2a 66 b7 3d a9 15 62 bb 7c 57 88 bd d5 3a 4a be
       0.08955033 -0.0034497774 -0.06657311 -0.19749005
000300 d9 cd 84 bd f3 76 8b be 32 2b 1f 3e 55 df 0c be
       -0.06484575 -0.2723919 0.15543821 -0.1375707
000310 86 d0 d4 bc 13 ed 0a 3d e0 31 13 3e 21 d9 35 be
       -0.025978338 0.033917498 0.14374495 -0.1775861
000320 56 a5 fc 3d d7 94 4e bd d3 64 73 3e 3b 99 f3 bd
       0.12336223 -0.050434913 0.2376893 -0.11894461
000330 ce c2 c0 bd 6f 83 55 3e 9a 41 b9 3d cd 23 08 3d
       -0.09412156 0.20850919 0.09045716 0.033237267
000340 05 fd 96 bd a6 a9 3f bd 11 f6 5e bc 18 c3 17 be
       -0.073724784 -0.04679265 -0.0136084715 -0.14820516
000350 4f bd d1 3d b1 8f 86 bd 82 b0 c1 3d 18 e5 73 3d
       0.10241186 -0.06570376 0.09457494 0.059544653
000360 a0 83 44 bd e9 02 1c bd e5 c9 82 3d 10 ab 40 bd
       -0.04797709 -0.038088713 0.063861646 -0.047038138
000370 ae 13 74 bd a5 05 75 3e 37 d5 7a 3d fb 16 34 be
       -0.05958908 0.23927934 0.061238494 -0.17586891
000380 5f 65 55 3d 32 13 03 be a7 fe fc bc a0 9c 68 3d
       0.052098628 -0.12800291 -0.030883146 0.056789994
000390 28 75 6e 3d 83 72 35 3e c9 aa 0e 3e a7 3b 06 be
       0.058217198 0.17719464 0.13932337 -0.13108693
0003a0 0f b8 eb 3d 41 37 9a 3c 9a 18 4a 3e 13 1c 0b be
       0.11509716 0.018825175 0.19735947 -0.13584928
0003b0 df f3 59 be c3 a3 5f 3e c0 56 12 be 11 0f e7 bd
       -0.21284436 0.21839814 -0.14290905 -0.112821706
0003c0 b3 fc 42 3d dd 0d 84 bd 1f c0 f2 3d 9d a7 68 3d
       0.047604274 -0.06447957 0.118530504 0.056800473
0003d0 26 f4 b8 bd dd 30 31 be 39 c2 a5 3d c8 54 3c be
       -0.090309426 -0.17303796 0.08093686 -0.18391716
0003e0 3c f6 00 3e b7 77 01 3d 8c fc d8 bd 6e b1 4f bd
       0.12593931 0.03160831 -0.105950445 -0.05070632
0003f0 b7 e0 b2 3c 01 12 71 3e ef 4c c0 bc bb 6c 10 be
       0.021835668 0.23542024 -0.023474185 -0.14103977

lstm.weight_hh_l1 f4 [128, 32]
000000 5a 98 07 be 98 d0 37 3d df 57 c3 bc e8 1c 7a 3d
       -0.13241711 0.044876665 -0.023845611 0.061062723
000010 e3 13 97 bd 80 e7 13 bd c4 35 36 be 9a 04 2d 3e
       -0.0737684 -0.036109447 -0.17793947 0.16896287
000020 29 a7 f3 bd 28 5e 45 3d 88 dd 82 3b b6 cf ad bd
       -0.11897118 0.048185498 0.0039936937 -0.08486883
000030 f7 96 af bd 4f 55 51 3d db 9c 2b 3d 2b bd 34 be
       -0.08573716 0.051106747 0.041897636 -0.17650287
000040 82 9b 22 be 99 b1 5a bd 9e 15 f9 3c e2 3a 60 3d
       -0.15879634 -0.053392027 0.030405816 0.054743655
000050 d5 54 39 be 9d 99 0b be cf 38 20 be 1d a6 8c 3b
       -0.18098767 -0.13632818 -0.15646671 0.004292263
000060 d3 04 ef b9 3f 4d 66 bd 37 86 28 3e c5 c3 1c 3e
       -0.00045589227 -0.05622601 0.16457449 0.15309055
000070 55 24 ce 3d 36 52 18 3e a8 85 82 bd a5 ac e9 bd
       0.100655235 0.14875111 -0.06373149 -0.114098825
000080 c6 40 4d be a7 0f de 3d a5 6d ac 3d a2 2f 5b bd
       -0.2004424 0.10842829 0.084193505 -0.053512223
000090 b7 45 d4 3c bd d5 1d 3e 2a f2 84 be 9f 33 18 3d
       0.025912149 0.15413566 -0.25966007 0.037158605
0000a0 54 7d 96 bc d6 64 82 bb be e6 c3 bd 3e d5 e3 3d
       -0.018370308 -0.0039793057 -0.09565495 0.11124657
0000b0 25 7e 02 bd 3b 61 4f 3d 96 03 10 3e 7f 21 39 be
       -0.031858582 0.050629836 0.14063868 -0.18079184
0000c0 6b 8e b8 bb 49 12 34 bb 30 6c 76 3d 28 e3 8c be
       -0.005632212 -0.002747672 0.06016177 -0.27517056
0000d0 ca f7 0c be 2b 3d ce 3d c2 92 c9 3d f2 64 29 3e
       -0.13766399 0.100702606 0.09842445 0.16542414
0000e0 5b f2 e1 3c 66 fb 36 bd a9 35 57 be 93 4f c3 3d
       0.027581384 -0.044673346 -0.21016563 0.09536662
0000f0 52 d3 57 be 87 66 04 3e 40 84 bd 3d a2 f1 cb 3d
       -0.21076706 0.12929736 0.0925374 0.09958197
000100 19 65 c3 bc 88 25 8f 3d 19 77 dd bd 76 66 a1 3d
       -0.023851918 0.069895804 -0.10813732 0.07880871
000110 84 ff 48 3e 45 72 25 3e 8d d0 71 bd dd cb 95 bd
       0.19628721 0.16156872 -0.05903678 -0.073142745
000120 62 76 6f 3d 6a 82 28 be cd e2 ad 3d d2 17 c5 bd
       0.058462508 -0.16455999 0.084905244 -0.09623684
000130 8d d5 82 3d d4 8d 82 bc c5 90 ea bd 14 83 8e bd
       0.06388388 -0.01593677 -0.11453394 -0.06958595
000140 03 a6 5b 3e c2 ae 68 be 32 b7 f5 3d c1 fb c3 bd
       0.21450047 -0.22722915 0.11997832 -0.095695026
000150 5e b5 4f be 1a e9 8f bb a6 bd 9a be ce f5 3b bd
       -0.2028403 -0.0043918015 -0.30222815 -0.045888714
000160 06 03 1e 3e c8 6a 6d 3d 83 9a 22 be 85 5f 4f be
       0.15430841 0.057963163 -0.15879254 -0.20251282
000170 dc 7e 88 bd 82 29 a7 3e bc e8 0c bd 08 ef 07 be
       -0.066648215 0.32648855 -0.03440164 -0.13274777
000180 da fc 62 be 12 a1 9a bc d6 15 49 bd bf 2b 23 be
       -0.22166768 -0.018875632 -0.04909309 -0.15934657
000190 82 4c b7 3d c0 44 36 bd 4b 23 43 3c 16 0f f3 3d
       0.089501396 -0.04449916 0.01191027 0.11868112
0001a0 01 9b e8 bd 7d 94 91 3b 72 09 50 3e b3 21 8d 3d
       -0.1135769 0.00444275 0.20316103 0.06891193
0001b0 65 86 41 3e f9 2f 27 be 5f 79 e6 3d 9a 10 9e 3b
       0.18898924 -0.16326894 0.112536184 0.0048237564
0001c0 ae 54 30 3d 08 ba 87 bd 61 97 61 bd 28 e0 b7 3d
       0.043049507 -0.066272795 -0.055076007 0.08978301
0001d0 51 47 63 bd 35 da b4 bd 5c 4e 80 3c 61 db 05 be
       -0.055487934 -0.08830682 0.015662365 -0.13071968
0001e0 7e 6d ae bd 9b e9 0e 3e 93 6e 05 3e 58 b3 0d be
       -0.08516978 0.13956301 0.13030462 -0.13837945
0001f0 c1 01 2e be ea ea b4 bd 64 70 0d be ec a1 61 be
       -0.16992857 -0.08833869 -0.13812405 -0.22034425
000200 a4 09 6a be e2 2a f5 bc cd 41 8b 3d 87 6a bd 3d
       -0.2285524 -0.029927675 0.0679966 0.09248834
000210 03 72 2f 3a 01 78 d0 3d 9f 90 b1 bc b1 a1 bf 3d
       0.0006692709 0.10179139 -0.021675406 0.09357012
000220 00 dd b0 bd c1 43 0a 3d fd c6 a3 bd 0e aa 04 be
       -0.086359024 0.03375602 -0.079969384 -0.12955496
000230 a4 cd 59 3d 05 06 10 3c 2a 35 95 bd 77 44 19 be
       0.05317463 0.008790498 -0.07285531 -0.14967524
000240 86 ef 0e 3e 51 30 67 be 46 1c 12 be 8a 60 1e be
       0.13958558 -0.22577025 -0.14268598 -0.15466514
000250 27 db 15 be 02 3c 59 3d 99 2d 57 bd e3 b6 31 3e
       -0.14634381 0.053035744 -0.05253372 0.17354922
000260 e2 ba 2a 3e db 3a 16 3e e3 cc 35 bd 57 5c cd 3b
       0.16672853 0.14670889 -0.04438485 0.0062671113
000270 d4 e2 65 be 9a 2f b3 3d 4f 69 d4 bd 79 e0 d7 3b
       -0.2244981 0.08749314 -0.103716485 0.0065880385
000280 72 f2 b4 3d e9 fc c7 3d 07 bf d2 bd ee e6 8f bd
       0.08835305 0.09765036 -0.10290342 -0.07026468
000290 a4 5c a0 3e 92 19 23 3d c8 d6 78 3c 66 d4 23 3e
       0.3132068 0.039819308 0.015187927 0.15998992
0002a0 ae ed ab bc 9d 90 d8 bd 7e d3 fe 3d a2 0e df bd
       -0.020987358 -0.10574458 0.12442683 -0.10891463
0002b0 dd 0a 69 ba 6c 2e 25 be d0 c6 57 bd 06 82 4e be
       -0.00088898634 -0.1613099 -0.052679837 -0.20166788
0002c0 5f d1 5f bd b4 2d 8a bc c1 da 04 3e 61 c9 10 3e
       -0.05464303 -0.016867496 0.12974073 0.1413932
0002d0 b4 58 d3 bd 1b 32 0b bd e7 5c a0 be 70 a0 85 bc
       -0.10319653 -0.03398333 -0.3132088 -0.016311854
0002e0 a8 19 da 3d a4 5d 8b 3d 99 de 60 be d0 75 88 3d
       0.10649425 0.0680497 -0.21959914 0.06663096
0002f0 83 f6 ed 3d 91 19 e4 bb 4f 22 7e bd 04 8e 4d be
       0.11619284 -0.0069610556 -0.062044438 -0.20073706
000300 0f 33 30 be cb 80 8a 3e 5f e7 fb bc dd 63 39 be
       -0.17206977 0.27051386 -0.030749975 -0.18104501
000310 66 55 4d 3d ce c0 12 3e b3 32 62 be 5b c1 d2 bd
       0.05013027 0.14331362 -0.22089653 -0.10290786
000320 2b 7b d6 bc 78 4e 1d be b4 2b 16 3e e7 0b c1 3c
       -0.026181778 -0.15361965 0.14665109 0.023565246
000330 92 de 89 bd ab b7 3d be fc ed 55 3d 47 11 08 3c
       -0.06731905 -0.18527095 0.052228913 0.0083049005
000340 9e b7 78 3c 8f 8e 73 be d0 2d 8c bd ed 72 f1 3c
       0.0151804965 -0.2378485 -0.068446755 0.029473746
000350 f9 c1 0b be ab 43 a9 3d 50 80 56 bd 8e ca 94 ba
       -0.13648213 0.0826486 -0.052368462 -0.001135187
000360 22 72 6a bd 2f ae 7b 3e 5a 70 ab 3d f4 63 40 3d
       -0.05723775 0.24578165 0.08371039 0.046970323
000370 e3 ec fb bd 8a 56 c3 3d 6d 20 55 3d 9c 64 7a be
       -0.12301042 0.095379904 0.052032877 -0.24452442
000380 2f 1b ca 3b 29 14 76 3e 0e 78 1d 3e f5 62 d9 bd
       0.0061677913 0.24031128 0.15377828 -0.10614578
000390 a9 4d 3b 3c 66 96 18 3d 5b 38 39 be 7b 88 19 3d
       0.01143209 0.037252806 -0.18087904 0.037483674
0003a0 b1 be 72 3e f8 df 37 3d 32 c6 20 3e 98 15 32 3d
       0.23705555 0.044891328 0.15700606 0.043477625
0003b0 62 4e 50 3e 32 14 14 be 6e 39 20 3e 2a 5e 20 be
       0.203424 -0.14460829 0.15646908 -0.1566092
0003c0 37 54 24 3d 2e d1 60 be 79 8f ab bd 55 c3 38 be
       0.040119376 -0.21954796 -0.083769746 -0.18043263
0003d0 6e 8c df 3b 0b 14 4c 3e 13 ac 6f be 0d 6c 91 be
       0.0068221604 0.19929521 -0.23405485 -0.2840275
0003e0 c1 66 91 bd 61 0f 78 bd ce 4d 39 be f4 90 19 3d
       -0.07099677 -0.06056154 -0.18096086 0.037491754
0003f0 2f fa 15 be 0e 19 41 3e 47 f8 78 3e 8f 21 84 bd
       -0.14646219 0.18857214 0.2431346 -0.06451713

lstm.bias_ih_l1 f4 [128]
000000 b0 a7 9e bc 68 38 94 bd 59 a2 c7 bc 9f 42 3d 3e
       -0.019367069 -0.07237321 -0.024369406 0.18482445
000010 df b8 1b 3e 4b fc 11 bb 4d 5c 5f 3e 0e 8a 61 3e
       0.15207241 -0.0022275622 0.21812554 0.2202532
000020 78 b4 c6 bb ec 7b 26 3e 90 df 6a 3e 3a 11 ed bd
       -0.006063994 0.1625821 0.22936845 -0.11575551
000030 90 dd 78 3e 2e 76 a9 bd 73 5f b9 bd 42 94 20 3e
       0.2430327 -0.08274494 -0.090514086 0.15681556
000040 27 8f ac 3d 0f 6f a0 3e 84 9f a3 3c 3c 80 d6 3c
       0.08425742 0.3133473 0.019973524 0.026184194
000050 d6 8a fc bb ce 6d ec bd 0d c6 4b 3e 30 6b b1 3e
       -0.00770698 -0.11544381 0.19899769 0.3465209
000060 da a6 cb bd 09 91 4c 3d dd d1 22 be e7 57 37 3d
       -0.09943934 0.049943004 -0.15900369 0.044761565
000070 94 f0 a2 bd 9c 88 89 bd 67 3e 75 bc a0 ca 12 3e
       -0.07956043 -0.06715509 -0.014968491 0.14335108
000080 56 6c ac 3d 8b cb 36 3e 6a ea 35 3e c8 e8 60 be
       0.08419101 0.17851083 0.17765203 -0.21963799
000090 eb 25 ce bc 52 4f 3e 3b b1 d5 29 bd 55 d2 22 3d
       -0.025164565 0.0029038978 -0.041463558 0.03975137
0000a0 ee e4 9b 3d 80 b9 a8 3d cd b6 ab bd bf 10 37 bd
       0.07612024 0.08238506 -0.08384476 -0.044693705
0000b0 09 1f 1d be 73 9c 86 3d 5e ed f8 bd 27 50 0d 3d
       -0.1534387 0.06572809 -0.12154649 0.034500267
0000c0 74 d7 14 3e 86 db a4 3d ce 26 cf 3d 0b 8c 37 3d
       0.14535314 0.08049683 0.10114823 0.04481129
0000d0 cd 68 b0 bd 49 cb 39 3d b0 8d 9a bd f9 2b 24 be
       -0.08613739 0.045359883 -0.07546556 -0.16032399
0000e0 78 98 4f be 00 27 26 bb 5f 67 5e bd 60 97 90 3d
       -0.20273006 -0.0025352836 -0.0542978 0.070601225
0000f0 38 97 85 3d 20 1e 8e bc 45 7f ac bd 4b ac ce bd
       0.06522983 -0.01734835 -0.08422712 -0.10091456
000100 51 c7 35 be 8c e4 74 3d 53 e5 97 3d 70 0e 5b 3d
       -0.17751814 0.05978827 0.07416787 0.053480566
000110 c8 68 24 bc 45 73 c7 3d 6d 89 8e bc 2d 74 65 3d
       -0.010034747 0.09738783 -0.017399514 0.056018997
000120 88 bf 15 3e 44 2d 2b be 20 ae a2 3d 9e 98 1e 3d
       0.14623845 -0.16716486 0.07943368 0.038719766
000130 40 b1 38 3e c8 40 12 be 9a c8 ff 3c e0 2e c0 bc
       0.18036366 -0.14282525 0.031223584 -0.023459852
000140 2f ee 0e 3e ee 53 8a bc 78 12 5b bc 20 b4 19 be
       0.13958047 -0.016885724 -0.0133711025 -0.15010118
000150 9f 21 01 be 35 08 86 3d 1e 74 c3 bd 01 cd f7 3c
       -0.12610482 0.06544534 -0.09543632 0.03024912
000160 a5 9b 01 3e 22 0a 0e 3e cf b2 e9 bd 4b 92 b0 3d
       0.1265703 0.13871053 -0.11411058 0.08621653
000170 58 67 29 bd ac 5f f4 3d 66 a8 0f 3e d3 d4 65 bd
       -0.041358322 0.119323105 0.14029083 -0.056111168
000180 86 e2 fd bc 0c 9e 7a bd b2 19 41 3d 7f 4d 9d 3a
       -0.030991804 -0.06118588 0.047143646 0.0012001245
000190 74 79 78 bd 9d 21 11 3d d2 36 20 bd 06 50 34 3e
       -0.0606627 0.035432447 -0.03911478 0.17608652
0001a0 ce 3c f3 3d 7a 08 a1 bd 33 bb b3 3d 31 9f 90 bd
       0.11876832 -0.07862945 0.0877594 -0.07061613
0001b0 23 78 5e 3e 84 8c 07 be f8 1f 7b bc e2 81 41 3c
       0.21725516 -0.13237196 -0.015327446 0.011810752
0001c0 b2 c1 d4 3d f6 bb c4 bb 91 f4 c5 bd 15 9f 15 3d
       0.10388507 -0.006003852 -0.09665788 0.036528666
0001d0 82 3c 4a bd 76 5c 12 3e cb 3a 71 3e b4 03 57 3e
       -0.04937411 0.14293084 0.23557584 0.20997506
0001e0 b8 10 ed bd d4 ea 2c 3e 0b 39 0a 3e 65 ca 03 bd
       -0.115754545 0.16886455 0.13498323 -0.03217544
0001f0 f4 e7 da 3d 78 de b8 3d 75 c4 8c 3d ce 8e 03 be
       0.10688773 0.090268075 0.06873409 -0.12847444

lstm.bias_hh_l1 f4 [128]
000000 e1 66 19 3e 61 88 b2 bd 2b 99 ab bd b5 f0 08 3e
       0.14980651 -0.087174185 -0.08378824 0.13373072
000010 1f 2d a9 bd ab f4 a0 bd 58 c5 66 3e 3a c8 11 3d
       -0.08260559 -0.07859167 0.22536218 0.03559134
000020 cd 02 a6 bd 32 47 d4 bd 4b 12 49 3e bf 15 7e bd
       -0.08106003 -0.10365142 0.19635884 -0.062032457
000030 3f 91 74 bd ba ba 8f 3d 2c 6d fd 3d 44 55 55 3e
       -0.05970883 0.07018037 0.123743385 0.20833308
000040 b7 2e 80 3d 2d a8 8e 3d 7c bd 03 3e b7 c8 44 3e
       0.0625891 0.06965671 0.12865251 0.19217192
000050 6b 65 56 3e 0b b3 3c 3d 61 05 ef 3d 35 41 b0 3e
       0.20937125 0.046069186 0.11670948 0.3442475
000060 20 c2 1e bd 40 eb c9 bd 7d 57 d8 bd 90 94 b6 bd
       -0.03875935 -0.098593235 -0.10563562 -0.08915055
000070 f1 f1 4b 3e 6b 2c d7 bc f3 3d 4c 3d 37 40 f3 bd
       0.19916512 -0.026266297 0.049863767 -0.118774824
000080 03 3d 1e be ec 48 1e 3d 6f 4f 1e 3e 8d 0b 95 3c
       -0.15452962 0.038643762 0.15459989 0.018193984
000090 ab 59 28 be ed 52 aa bd 15 cd e1 bd 0a db 28 3e
       -0.16440456 -0.08316598 -0.110254444 0.16489807
0000a0 ac 78 82 3d 65 4d 25 be 1d 8c 05 3e de 20 40 3d
       0.063706726 -0.16142805 0.1304173 0.046906345
0000b0 10 22 d1 3d e5 1a 1e be 3c ab 11 3e bd 52 27 3e
       0.10211575 -0.15439947 0.14225477 0.16340156
0000c0 7b f3 03 3e f7 e1 7f 3d 28 42 e4 bd ae 4b 6e 3d
       0.12885849 0.062471356 -0.11145431 0.058177643
0000d0 bb 9a 16 be 2d 2b 0f be 75 ae ce 3d 41 99 31 3d
       -0.14707462 -0.13981314 0.10091869 0.043359045
0000e0 3f c5 2e bd 96 0c 2a 3e 33 a6 26 be 2a 8a a5 bd
       -0.042668577 0.16606364 -0.16274337 -0.08082993
0000f0 0e 19 26 3d bc 4d fd 3d 0a 02 1e 3d cb 90 3e 3d
       0.040551238 0.12368342 0.038576163 0.046524804
000100 8f 0a 24 be 92 ef 60 bc bb 9b 93 3d a1 0f fa bd
       -0.16019653 -0.013728993 0.072074376 -0.12210012
000110 1c af 76 3d 5e a3 02 bd 4b 39 f0 bd f5 34 52 bd
       0.06022559 -0.03189408 -0.11729678 -0.051320035
000120 b6 b5 e1 3d 8a 50 12 be 08 ab 56 bd c3 d6 34 be
       0.11020987 -0.14288536 -0.0524092 -0.1766005
000130 c7 7e 2b be 8d 46 d7 bd 16 bb 5a 3d ce 5b dc bc
       -0.1674758 -0.10511503 0.053401075 -0.026899245
000140 7e a7 a5 3d f2 61 1c be b8 b4 f6 3d 0c 84 fc bc
       0.08088587 -0.15271738 0.12046188 -0.030824684
000150 a1 f7 b0 bd ec 1c 33 bd 50 41 22 be b4 29 77 bd
       -0.086409815 -0.043728754 -0.15845227 -0.060342506
000160 87 16 03 3e b9 31 e3 39 e1 c9 05 be f2 8a 27 be
       0.12801562 0.0004333386 -0.13065292 -0.16361597
000170 ba 3c d2 bd fb 79 99 3d ea bd 24 3e 1a 8e 11 be
       -0.10265489 0.07493969 0.16088071 -0.14214364
000180 bb 70 6e bd 54 b1 99 bd a2 bf 4e 38 9d 09 61 3d
       -0.058212977 -0.07504526 4.92927e-05 0.05494081
000190 b9 61 3a 3e bf 22 d2 bb a0 35 c1 3d d2 3c 1f 3d
       0.1820134 -0.0064128335 0.09434056 0.038876362
0001a0 45 ab b6 3d 1b 6f 95 bd f5 f1 b3 3d 6b e4 5f bd
       0.08919386 -0.07296582 0.08786384 -0.054661196
0001b0 05 44 26 3e 06 0f 49 3e 53 07 b6 bb 22 ce 04 3e
       0.16236885 0.19634637 -0.0055550723 0.12969258
0001c0 b3 f1 02 3d 1f 18 81 3e 0e 3b 69 3e 22 55 ee bd
       0.031968784 0.25213715 0.22776434 -0.116373315
0001d0 a8 56 82 3e 6c 12 b7 bd 68 9a 4e bc 1a b2 e4 3e
       0.25456738 -0.089390606 -0.0126100555 0.4466713
0001e0 0d 86 ca 3d 6c f7 fd 3d a7 6b c0 bc 8d c2 ec 3d
       0.098888494 0.124007076 -0.023488833 0.11560545
0001f0 3a 09 de bd d4 b8 47 3d 7d 08 b8 bc 63 13 85 3d
       -0.108416036 0.04876025 -0.022464985 0.06497838

fc.weight f4 [1, 32]
000000 88 6e c6 bd a2 3a 2c be 7e 32 e5 3d 0a f2 8a bd
       -0.09689051 -0.16819242 0.11191271 -0.067844465
000010 e4 a8 49 be 4f e5 6a 3e 35 a4 84 be 47 82 4e 3e
       -0.19693333 0.22939037 -0.2590653 0.20166884
000020 a8 b9 5b be e1 80 15 3e 7a d5 83 be 12 b0 7a 3d
       -0.21457541 0.14599945 -0.25748807 0.06120307
000030 92 70 5f be d5 9f 1c 3e 6a 2a 65 3e 14 03 cf bd
       -0.21820286 0.15295346 0.22379461 -0.10108009
000040 92 45 11 3e 7b 25 22 be ab e7 75 3e 5c e1 3d be
       0.14186695 -0.1583461 0.24014156 -0.18542999
000050 8f 5e 83 3e a3 76 05 be 0a 00 66 3e 99 23 28 3e
       0.2565808 -0.13033538 0.22460952 0.1641983
000060 85 b1 7a bd 0c ed e7 bd 9c c6 8e bd 25 cb 3b bd
       -0.061204452 -0.1132451 -0.069714755 -0.04584803
000070 4d 86 30 be e1 f9 98 bd d4 39 0f be 17 01 e7 3d
       -0.17238732 -0.074695356 -0.13986903 0.11279505
