lstm_model.pth (torch, 54652 bytes, 9 tensors)

lstm.weight_ih_l0 f4 [128, 1]
-0.026111728 -0.05600673 0.18696031 -0.053412452 -0.20682423 0.06676841 -0.04552917 -0.2627038
0.004528814 -0.21062902 -0.29496053 0.24323387 -0.1675018 0.07242781 -0.13484734 -0.12211428
0.087732196 0.17666702 0.25580722 -0.28859937 -0.2595683 0.18971545 -0.19069998 -0.0054627047
0.20708764 0.037852485 0.00403282 0.15333425 -0.052376863 0.038367722 -0.04876764 0.21047767
-0.05847284 -0.11017021 0.029837834 0.19959965 0.10302094 -0.1565687 -0.010198702 -0.100622356
-0.14908907 -0.3299745 -0.3397961 0.1445657 -0.27456293 0.1410783 -0.24738851 0.016386682
0.21024603 -0.069575794 0.30330476 -0.13752332 -0.08228616 0.11372181 -0.45507038 0.27749598
0.050620805 0.10085344 -0.07294006 0.2525828 -0.12991305 0.20851028 0.06925954 -0.0136798145
-0.15688545 -0.26100865 0.039290983 -0.3102338 -0.35468292 0.018633062 -0.3059751 0.13294135
-0.28651 0.25406477 0.24373353 0.11659884 0.2948017 -0.3476923 0.22870022 0.21667024
0.16039947 0.24144901 -0.16838126 0.28774476 0.27628076 -0.19383699 0.11790892 0.2527418
0.33242872 0.28283194 0.21034513 0.23506655 -0.15180585 -0.19469082 0.25314382 0.19522837
-0.10326985 -0.31597108 0.15252265 0.018136531 -0.11832186 -0.11666776 -0.12088565 -0.30682817
-0.17616737 -0.43432522 -0.2753536 0.26098776 -0.30215022 0.116255954 -0.3167804 -0.018414166
0.16089953 0.07083876 0.29599893 -0.28365946 -0.18784554 -0.01116441 -0.48613897 0.18638638
0.16932943 -0.0001475243 0.21215136 -0.02397901 -0.041516066 0.19200745 0.028645491 0.13491368
00000000: 43e8 d5bc 5067 65bd 8672 3f3e 04c7 5abd
00000010: bbc9 53be e0bd 883d cc7c 3abd 1d81 86be
00000020: 7266 943b 22af 57be 1105 97be 4d12 793e
00000030: 9885 2bbe 0855 943d 6c15 0abe 0d17 fabd
00000040: f0ac b33d 33e8 343e 2af9 823e 4cc3 93be
00000050: 23e6 84be c444 423e db46 43be 7d00 b3bb
00000060: c80e 543e 350b 1b3d bf25 843b a703 1d3e
00000070: 1f89 56bd 7927 1d3d 94c0 47bd 7587 573e
00000080: 3781 6fbd eba0 e1bd 796e f43c da63 4c3e
00000090: a5fc d23d 8c53 20be 7518 27bc 1813 cebd
000000a0: ceaa 18be 6bf2 a8be c1f9 adbe 0809 143e
000000b0: 8393 8cbe d476 103e 6a53 7dbe 5d3d 863c
000000c0: bc4a 573e c17d 8ebd c34a 9b3e ead2 0cbe
000000d0: a585 a8bd fbe6 e83d fcfe e8be f413 8e3e
000000e0: c357 4f3d 408c ce3d 9961 95bd 8852 813e
000000f0: ed07 05be b883 553e f2d7 8d3d 4d21 60bc
00000100: 94a6 20be eda2 85be 95ef 203d f7d6 9ebe
00000110: 0099 b5be 5da4 983c c5a8 9cbe c721 083e
00000120: 70b1 92be c714 823e 4895 793e 5fcb ee3d
00000130: 40f0 963e ba04 b2be 6430 6a3e cede 5d3e
00000140: c23f 243e 693e 773e 236c 2cbe 4853 933e
00000150: ac74 8d3e 347d 46be 3b7a f13d 6067 813e
00000160: 1934 aa3e 59cf 903e b764 573e 49b5 703e
00000170: fe72 1bbe 085d 47be 119c 813e f2e9 473e
00000180: 257f d3bd f6c6 a1be e62e 1c3e 1093 943c
00000190: bb52 f2bd 82ef eebd e592 f7bd 9518 9dbe
000001a0: 3865 34be e05f debe 26fb 8cbe 30a0 853e
000001b0: 6fb3 9abe 9a17 ee3d 0a31 a2be 4ed9 96bc
000001c0: d9c2 243e e913 913d 2c8d 973e d03b 91be
000001d0: 955a 40be eeea 36bc 35e7 f8be 12dc 3e3e
000001e0: b264 2d3e c1b0 1ab9 353e 593e a16f c4bc
000001f0: c00c 2abd 9a9d 443e f3a9 ea3c d026 0a3e

lstm.weight_hh_l0 f4 [128, 32]
-0.005821426 -0.13115646 0.17457372 0.10753225 -0.14998955 0.025867263 0.0086162025 0.112129904
-0.04958207 -0.10554851 0.052561384 0.12748307 0.11925874 0.058745857 0.03400483 0.21082798
0.10709611 -0.0078343665 -0.043622863 0.11348545 -0.08656717 -0.12902835 -0.0012709161 -0.118096896
-0.13235661 -0.19187836 0.08274138 0.013479009 0.049543653 -0.08787117 0.0043331864 -0.064681515
-0.042588357 0.03748842 0.20523068 -0.10711856 0.1516304 0.06646414 -0.06085706 -0.21412876
-0.17077611 -0.20032637 0.060538307 -0.036008675 -0.15820354 -0.3345535 -0.003877874 0.108140126
-0.014064104 0.0311631 -0.35107368 0.03363506 0.07903072 -0.2950304 0.057993867 0.16957793
0.33065525 -0.093696445 0.29540232 0.07083895 -0.036759637 -0.0037140981 0.16197044 0.13481139
0.16252235 0.032904897 -0.10380414 -0.04459881 0.089886 0.122934535 0.0993738 -0.027003799
-0.07959943 0.04580894 -0.16570152 0.030747328 -0.09123013 -0.12539084 -0.105201446 0.1398397
-0.08302042 -0.12063246 -0.046818778 0.098139755 0.1577819 0.10815942 0.1214475 0.12248166
-0.11332908 0.120969124 0.09856787 0.020686729 -0.15541488 -0.11560005 0.05851307 0.039322592
0.121724285 -0.043791067 0.092715345 -0.15145704 0.1251644 0.34232578 -0.13150372 -0.029925566
-0.11763092 -0.26906678 -0.16705729 0.04634407 -0.16181704 -0.043728165 -0.33537197 -0.07605715
0.062653884 0.038660817 -0.19470073 -0.24202748 -0.37979612 -0.16895947 -0.13146482 0.06936781
0.14723662 -0.03790679 0.08846741 0.09784043 0.17284621 -0.059985388 0.034254093 0.24011779
0.30254918 0.19785215 0.15730484 -0.28495175 0.010835096 0.13455276 -0.17940763 -0.08040789
-0.0100936955 -0.0059216265 -0.34173214 0.3512465 -0.33112073 -0.029478302 -0.060159735 -0.012605027
0.33895192 0.001080507 -0.18546481 -0.14738362 -0.13594374 -0.1645496 -0.25493613 -0.023145476
0.27964318 0.14428551 0.121398345 0.15243173 0.098091505 -0.17135084 -0.18325323 0.20901588
0.09441426 0.15746997 -0.10776797 0.07907542 0.19475438 0.11611577 0.118946634 -0.14870226
-0.035116423 -0.026348885 -0.08754271 -0.09425251 -0.0017960776 0.030587345 -0.14876483 0.04339788
0.0028117476 0.14189507 0.077138305 -0.13594206 -0.024491694 -0.16176026 0.097510524 -0.13564962
0.1719956 -0.13328522 -0.019904563 -0.11321383 0.13796361 0.13634871 -0.04436753 0.07660982
0.042648222 0.22630343 0.24619748 0.004231248 -0.08565602 0.24404247 -0.17077364 -0.15555775
0.029609066 -0.016461287 -0.20752503 0.16966665 -0.056598607 -0.026768964 -0.26103875 0.08949245
0.24087758 0.21315429 -0.2777833 -0.2200553 -0.088947274 -0.05595759 -0.082966104 0.108273804
0.13086423 -0.019907854 -0.045949277 -0.08058362 0.18775064 -0.26686293 0.027995493 0.04100427
0.05597452 -0.18148394 0.10578732 -0.0246255 -0.13601567 0.019430883 -0.21764338 0.016470453
-0.056804385 0.078527294 0.08208161 0.048850216 -0.12572621 -0.20050916 0.106489375 0.116225585
-0.1428272 0.14951025 -0.24702483 0.15209109 0.02488631 0.019225411 -0.042062636 0.060582247
0.13051035 0.19215664 -0.06317205 0.23569751 -0.06834319 -0.22217548 -0.12255058 0.2512452
00000000: a9c1 bebb e14d 06be 74c3 323e de39 dc3d
00000010: dc96 19be 95e7 d33c f92a 0d3c 5da4 e53d
00000020: 9216 4bbd d129 d8bd 9b4a 573d ec8a 023e
00000030: ed3d f43d 7f9f 703d a648 0b3d 4ae3 573e
00000040: 3555 db3d b75b 00bc e3ad 32bd 0f6b e83d
00000050: 214a b1bd 0220 04be de94 a6ba c9dc f1bd
00000060: 7e88 07be c37b 44be 5074 a93d 10d7 5c3c
00000070: 49ee 4a3d cdf5 b3bd 67fd 8d3b be77 84bd
00000080: 2171 2ebd 758d 193d fe27 523e fa60 dbbd
00000090: 0045 1b3e 5a1e 883d 4145 79bd 9244 5bbe
000000a0: efdf 2ebe 5b22 4dbe 04f7 773d d57d 13bd
000000b0: 1c00 22be 994a abbe ee23 7ebb 9278 dd3d
000000c0: 216d 66bc c249 ff3c eebf b3be ebc4 093d
000000d0: dcda a13d 390e 97be fa8a 6d3d d6a5 2d3e
000000e0: a54b a93e ece3 bfbd f93e 973e 0314 913d
000000f0: 4691 16bd 3a68 73bb 94db 253e ff0b 0a3e
00000100: 426c 263e 49c7 063d 4497 d4bd 3ead 36bd
00000110: 2716 b83d 1ac5 fb3d 7e84 cb3d 1237 ddbc
00000120: 0705 a3bd 28a2 3b3d a9ad 29be d2e1 fb3c
00000130: ddd6 babd 7566 00be db73 d7bd 2332 0f3e
00000140: 9c06 aabd 270e f7bd 0cc5 3fbd 7ffd c83d
00000150: 9491 213e b082 dd3d 78b9 f83d aad7 fa3d
00000160: 1419 e8bd a9be f73d f4dd c93d 3777 a93c
00000170: 1425 1fbe b8bf ecbd 67ab 6f3d ba10 213d
00000180: 954a f93d 435e 33bd 8be1 bd3d 8e17 1bbe
00000190: 192b 003e 5345 af3e e9a8 06be 7626 f5bc
000001a0: 7be8 f0bd 1fc3 89be 1111 2bbe 48d3 3d3d
000001b0: 5eb3 25be 4e1c 33bd e0b5 abbe dac3 9bbd
000001c0: ae50 803d ce5a 1e3d a15f 47be 0dd6 77be
000001d0: a374 c2be b603 2dbe b79e 06be b610 8e3d
000001e0: 32c5 163e 2644 1bbd 672e b53d 9060 c83d
000001f0: 99fe 303e 3db3 75bd 054e 0c3d 70e1 753e
00000200: bae7 9a3e c199 4a3e 8514 213e 32e5 91be
00000210: b085 313c 33c8 093e a2b6 37be e4ac a4bd
00000220: 0760 25bc 340a c2bb 84f7 aebe 95d6 b33e
00000230: a888 a9be 7b7c f1bc 0e6a 76bd 5185 4ebc
00000240: 1b8b ad3e cc9f 8d3a 7dea 3dbe bbeb 16be
00000250: d634 0bbe b17f 28be fd86 82be 959b bdbc
00000260: 642d 8f3e 95bf 133e b29f f83d 1017 1c3e
00000270: 33e4 c83d 9876 2fbe bca6 3bbe 4208 563e
00000280: 435c c13d cf3f 213e 74b5 dcbd 4bf2 a13d
00000290: b16d 473e 1bce ed3d 4b9a f33d 6845 18be
000002a0: 3dd6 0fbd 9ed9 d7bc 9849 b3bd 7607 c1bd
000002b0: 5d6a ebba 5092 fa3c cf55 18be fac1 313d
000002c0: 4c45 383b f14c 113e b0fa 9d3d 6534 0bbe
000002d0: cea2 c8bc 7ba4 25be 99b3 c73d bce7 0abe
000002e0: 9d1f 303e ec7b 08be e50e a3bc a7dc e7bd
000002f0: 5546 0d3e ff9e 0b3e baba 35bd 9ce5 9c3d
00000300: e7af 2e3d 16bc 673e 311b 7c3e 48a6 8a3b
00000310: 6c6c afbd 45e6 793e 49df 2ebe 884a 1fbe
00000320: b68e f23c d2d9 86bc 7181 54be 18bd 2d3e
00000330: f1d3 67bd 964a dbbc dfa6 85be d147 b73d
00000340: 9da8 763e 1e45 5a3e 9d39 8ebe 2d56 61be
00000350: fd29 b6bd c933 65bd 22ea a9bd a8be dd3d
00000360: 4601 063e cc15 a3bc 4f35 3cbd 0609 a5bd
00000370: b441 403e 42a2 88be ce56 e53c 18f4 273d
00000380: 8a45 653d edd6 39be 06a7 d83d 6bbb c9bc
00000390: b147 0bbe 842d 9f3c e8dd 5ebe 0bed 863c
000003a0: b7ab 68bd ebd2 a03d 671a a83d 2a17 483d
000003b0: 5fbe 00be 4652 4dbe 1a17 da3d ae07 ee3d
000003c0: 4b41 12be 3719 193e 14f4 7cbe c4bd 1b3e
000003d0: 60de cb3c 9c7e 9d3c df49 2cbd 1725 783d
000003e0: 81a4 053e b6c4 443e 5960 81bd b05a 713e
000003f0: 84f7 8bbd f881 63be ccfb fabd 36a3 803e

lstm.bias_ih_l0 f4 [128]
0.058733363 0.10792116 -0.07089204 0.15883012 0.20878886 0.1452502 0.042649634 -0.14285518
0.010821502 -0.044671938 0.14758752 0.02450525 -0.065271884 0.084917784 0.10683629 0.17155494
-0.0020116265 0.18531373 0.09305424 0.17533217 0.038208436 0.15092082 -0.074332215 0.0072393185
0.20915832 0.13952757 0.027627852 0.1563803 0.14391999 0.17360188 0.13452944 -0.07474574
-0.034318857 -0.17265293 -0.121041395 -0.041025773 -0.05195012 0.24001594 0.012733734 -0.058243215
-0.030592743 -0.0039020542 0.012722778 -0.079755306 0.14884417 -0.07456101 0.13121305 0.018857986
0.03463711 -0.1251781 0.09602921 0.013722661 0.048506424 -0.100984916 0.13613303 0.12698148
0.10478395 0.091167465 -0.15580209 0.11937233 -0.09060368 0.049679026 0.09974138 0.14727145
0.098764226 0.096063256 -0.031951837 0.004068401 -0.09507974 0.20240009 -0.07382857 0.028116746
-0.047009006 -0.083906434 -0.12029389 0.17713913 0.014941415 -0.030550001 -0.028855009 0.068118624
0.14650954 0.16822788 -0.05385324 0.043480426 -0.08958884 0.07530751 -0.14965282 0.16418982
-0.03457327 0.12787789 -0.10667318 0.11963167 0.115700476 0.0737772 0.0561445 0.051353507
0.1293161 0.01366371 0.01656101 0.21495005 0.09488771 0.07168254 0.168227 0.027219746
0.32459602 0.050287753 -0.051083636 -0.075529926 -0.052983966 -0.0017137496 0.008124918 0.21432523
-0.06559714 0.015861418 0.16778299 0.115974136 0.22492741 -0.030356305 0.15033136 0.14087255
0.118674815 0.1481139 0.21044508 0.16953899 -0.023633452 0.112312004 0.14918381 0.20100975
00000000: 6592 703d c505 dd3d d92f 91bd 5da4 223e
00000010: bfcc 553e 78bc 143e 62b1 2e3d a148 12be
00000020: ab4c 313c ecf9 36bd 2f21 173e 3cbf c83c
00000030: 44ad 85bd 60e9 ad3d fccc da3d 19ac 2f3e
00000040: 7ed5 03bb e2c2 3d3e 3993 be3d 478a 333e
00000050: 7380 1c3d fd8a 1a3e 7d3b 98bd ce37 ed3b
00000060: 992d 563e 51e0 0e3e ce53 e23c 2822 203e
00000070: c35f 133e b1c4 313e 16c2 093e 4b14 99bd
00000080: ee91 0cbd eecb 30be 8de4 f7bd a40a 28bd
00000090: a6c9 54bd bdc6 753e 27a1 503c 7090 6ebd
000000a0: a29d fabc 9bb9 7fbb 3373 503c c056 a3bd
000000b0: 9b6a 183e 71b3 98bd b75c 063e 107c 9a3c
000000c0: a4df 0d3d b02e 00be f6aa c43d 03d5 603c
000000d0: acae 463d 2ed1 cebd 7566 0b3e 6f07 023e
000000e0: f898 d63d 02b6 ba3d 958a 1fbe 7b79 f43d
000000f0: 6c8e b9bd 3c7c 4b3d 3545 cc3d 54ce 163e
00000100: e644 ca3d d0bc c43d eedf 02bd 3950 853b
00000110: 2bb9 c2bd f841 4f3e 6f33 97bd 1755 e63c
00000120: 848c 40bd 23d7 abbd a55c f6bd f663 353e
00000130: d6cc 743c ff43 fabc 5761 ecbc c781 8b3d
00000140: 9906 163e ee43 2c3e 3795 5cbd 8818 323d
00000150: 5b7a b7bd d33a 9a3d 973e 19be 6021 283e
00000160: b39c 0dbd 6cf2 023e 7877 dabd 7301 f53d
00000170: 5ff4 ec3d 8018 973d c6f7 653d 0e58 523d
00000180: 716b 043e c1dd 5f3c f5aa 873c de1b 5c3e
00000190: 7d54 c23d 4cce 923d b343 2c3e f2fb de3c
000001a0: 7331 a63e 88fa 4d3d 133d 51bd 6faf 9abd
000001b0: b705 59bd e59f e0ba 601e 053c 1378 5b3e
000001c0: cb57 86bd ceef 813c 4ecf 2b3e d983 ed3d
000001d0: 5f53 663e c9ad f8bc 77f0 193e e540 103e
000001e0: c80b f33d 2cab 173e ea7e 573e a19b 2d3e
000001f0: f19a c1bc d603 e63d a4c3 183e 80d5 4d3e

lstm.bias_hh_l0 f4 [128]
-0.019422734 0.07566089 0.04923493 0.2487858 0.20001438 0.20125039 0.21464866 0.058452047
0.32161972 -0.057908077 -0.072700314 -0.06555906 -0.083516516 -0.10500204 0.014614925 -0.06827649
0.21237798 0.27288994 -0.11420194 0.122296505 -0.07263637 0.22776383 -0.06584967 0.025148684
0.019000828 0.01925519 0.10406866 0.020241652 0.021525897 0.03412374 -0.096564054 0.20498614
0.027766481 0.046000987 -0.1420464 0.024619505 -0.02574863 -0.082756676 0.11332916 0.14520672
-0.22019112 0.13234797 0.022545112 -0.07690043 0.1773643 0.008935386 0.1321837 -0.17760207
0.20622936 -0.010369546 0.0249923 0.059188306 0.024325086 -0.095926724 -0.089535125 -0.15103939
-0.027725369 0.04411799 0.027255336 -0.033223078 0.07463025 0.0053562005 0.1742991 -0.15230024
0.12507549 -0.045562014 0.13623607 -0.10006714 0.059269585 0.11996406 -0.04596048 -0.10415775
0.11680173 -0.009475057 0.010887662 0.20898253 -0.18195438 -0.15412748 -0.08477373 -0.011090332
0.15102284 -0.15856867 -0.057107918 -0.086354844 -0.16537929 -0.11935882 0.06273925 -0.14714324
0.16320887 -0.16107756 0.16128421 -0.06368157 -0.03094964 -0.1665621 -0.0946159 0.024504753
-0.0026395794 0.10353329 -0.10369558 0.08417361 0.30457398 0.19677575 0.0752743 -0.17458436
0.19411759 0.23614183 0.1376872 0.06032057 0.10434197 -0.06634579 0.14262353 -0.013774925
0.14307874 0.14923586 -0.033965386 -0.077302985 -0.014470503 0.15480095 0.015021848 0.15367362
-0.008189771 -0.085990675 0.060303457 0.012089325 0.123111516 0.031170823 0.11113648 0.111467
00000000: 6d1c 9fbc 19f4 9a3d 91aa 493d b4c1 7e3e
00000010: 92d0 4c3e 9514 4e3e dccc 5b3e 6a6b 6f3d
00000020: 57ab a43e 0531 6dbd e7e3 94bd d443 86bd
00000030: b50a abbd 4f0b d7bd 7073 6f3c 8bd4 8bbd
00000040: 9d79 593e 3bb8 8b3e b5e2 e9bd 9776 fa3d
00000050: 61c2 94bd ec3a 693e 31dc 86bd 9d04 ce3c
00000060: a0a7 9b3c 0fbd 9d3c f321 d53d d2d1 a53c
00000070: 1457 b03c 56c5 0b3d 60c3 c5bd e3e7 513e
00000080: 8876 e33c 886b 3c3d 9d74 11be d8ae c93c
00000090: caee d2bc 557c a9bd 1e19 e83d 12b1 143e
000000a0: c879 61be 3a86 073e 87b0 b83c f97d 9dbd
000000b0: fd9e 353e ba65 123c 2a5b 073e 51dd 35be
000000c0: ca2d 533e 07e5 29bc a7bc cc3c 706f 723d
000000d0: 6745 c73c 3b75 c4bd 315e b7bd 12aa 1abe
000000e0: 5020 e3bc 11b5 343d 9546 df3c ec14 08bd
000000f0: bfd7 983d 1183 af3b 777b 323e 98f4 1bbe
00000100: ca13 003e 3c9f 3abd 7881 0b3e 00f0 ccbd
00000110: aac4 723d b8af f53d 0e41 3cbd a950 d5bd
00000120: bf35 ef3d 453d 1bbc 2a62 323c 84ff 553e
00000130: 4052 3abe 98d3 1dbe d99d adbd 39b4 35bc
00000140: bba5 1a3e d35f 22be fee9 69bd cfda b0bd
00000150: 3059 29be 6672 f4bd 707d 803d b8ac 16be
00000160: 3a20 273e 84f1 24be b027 253e 7c6b 82bd
00000170: 198a fdbc 418f 2abe fbc5 c1bd 31be c83c
00000180: cbfc 2cbb 4309 d43d 595e d4bd 3763 ac3d
00000190: 1ff1 9b3e 957f 493e 6a29 9a3d 3ec6 32be
000001a0: c3c6 463e 2acf 713e e0fd 0c3e b412 773d
000001b0: 3eb1 d53d 4de0 87bd e70b 123e 39b0 61bc
000001c0: 3c83 123e 49d1 183e 4a1f 0bbd 0751 9ebd
000001d0: b015 6dbc 2484 1e3e 321e 763c 9e5c 1d3e
000001e0: 642e 06bc e11b b0bd c200 773d 4e12 463c
000001f0: e421 fc3d f459 ff3c 869b e33d cf48 e43d

lstm.weight_ih_l1 f4 [128, 32]
0.19455157 0.24359287 -0.06174356 -0.038372595 0.15497495 0.11761009 0.117713116 -0.14768378
0.21097657 0.0034706385 0.046902046 0.20593497 -0.026938511 -0.1272895 0.036220334 0.09624123
0.12961245 -0.027685758 0.13817813 -0.08093238 -0.10697186 -0.17418474 0.021446835 -0.2067196
0.11965112 -0.03060542 0.05010006 0.10643547 0.18003593 0.017836418 0.053174406 -0.09218895
0.039566293 -0.15015733 0.049462724 -0.02259089 -0.1457798 0.24482098 -0.05231474 -0.030080283
-0.12418521 -0.15182757 -0.176089 -0.032195892 -0.16826965 -0.08855467 0.10846852 -0.05947874
0.20311598 -0.038749605 -0.120386265 0.057729475 0.044781398 -0.036673587 -0.19762546 0.18203567
0.090639755 0.09922085 0.13426764 -0.07935833 0.17535901 -0.19366989 -0.076958016 0.14082329
-0.033266366 -0.18997906 0.16288096 0.09487438 -0.06267557 0.20201038 -0.103515826 0.14092964
-0.23857343 0.095076516 -0.0031207893 -0.068438634 0.10285991 -0.13241099 -0.070823334 -0.043757472
0.18837804 0.18140256 -0.13085264 0.225379 0.063940585 -0.14426489 -0.04328984 0.09168677
0.21394272 -0.009862052 0.06343622 0.20766702 -0.15188383 -0.14165834 0.0012262049 0.16475065
0.14528199 0.022957888 0.08479772 -0.2588228 0.07619115 0.25756973 0.055204768 -0.21465813
0.023690445 -0.1008641 -0.51391315 0.007334341 -0.25045422 -0.006559749 -0.11983141 0.18110242
0.1322977 0.27654234 -0.025963394 -0.29655594 -0.5133853 0.012139219 -0.35702303 0.06156546
0.16070786 0.009056027 0.20580299 0.21799633 -0.005854822 -0.36621824 -0.061743252 0.05195793
0.042090826 0.19384013 -0.07754735 0.31122342 0.052744217 -0.08232344 0.16320845 -0.193604
0.32286438 0.001086973 -0.21099582 -0.1451181 -0.01752651 0.0042241667 -0.30204245 0.017858518
-0.020086091 -0.13681698 -0.11104936 -0.03512324 0.057924546 0.3249243 0.041501634 -0.1750662
-0.008222069 -0.16431274 -0.23149763 0.09013829 0.03174828 0.2561605 0.02232513 -0.028598484
0.011084282 -0.07578173 0.20418796 -0.2431563 -0.19134514 0.18779959 -0.20613071 0.062120415
-0.12389887 0.17457217 0.19376951 -0.009453941 -0.0034198663 -0.056093644 0.19758645 -0.06235607
0.039854392 0.27018762 0.06949881 0.21542266 -0.071429014 -0.097965196 0.17274956 0.14017099
0.23160589 -0.06092908 0.21950857 0.099975824 0.093414314 -0.26093528 0.11583723 0.18532103
0.10040867 -0.02079248 0.10787414 -0.007303894 0.21704362 -0.09274482 0.2306634 -0.040518254
0.16617358 -0.2911136 -0.060001504 0.18000606 -0.09086313 0.10758708 -0.21849054 -0.073694654
-0.022240547 -0.088186875 0.11135359 -0.21090728 -0.098554075 -0.026598409 -0.23097207 0.045474246
0.056702286 -0.17442411 -0.0376688 -0.047323983 0.165599 -0.022789462 -0.008997105 -0.17520356
0.13183858 0.20621529 0.06823444 -0.0043896264 0.30368543 -0.0016560927 0.24543236 -0.2549123
0.37892658 -0.27149346 -0.089560054 0.016770218 -0.30116323 0.2273479 -0.25299734 -0.044070538
-0.1601406 -0.14566205 0.09412413 -0.3371103 -0.10597329 0.15645535 -0.012976772 -0.048891164
0.03196395 0.021498188 -0.2619176 -0.03112523 0.14170204 0.23652036 -0.05337694 -0.19996619
00000000: 8738 473e 6970 793e d1e6 7cbd 952c 1dbd
00000010: c1b1 1e3e 8fdd f03d 9313 f13d 6b3a 17be
00000020: 3e0a 583e a773 633b 5c1c 403d 9ee0 523e
00000030: 27ae dcbc 2e58 02be c65b 143d 1f1a c53d
00000040: 20b9 043e 3ecd e2bc 917e 0d3e e0bf a5bd
00000050: 1014 dbbd 7c5d 32be 46b1 af3c 4eae 53be
00000060: a50b f53d 38b8 fabc b835 4d3d d7fa d93d
00000070: 575b 383e ae1d 923c 68cd 593d 8fcd bcbd
00000080: 4410 223d d8c2 19be 6d99 4a3d 8810 b9bc
00000090: 4d47 15be 5ab2 7a3e fb47 56bd ed6a f6bc
000000a0: d154 febd b078 1bbe ad50 34be d7df 03bd
000000b0: e14e 2cbe 275c b5bd be24 de3d fb9f 73bd
000000c0: a3fd 4f3e e8b7 1ebd 138d f6bd be75 6c3d
000000d0: b36c 373d 0b37 16bd 545e 4abe 8f67 3a3e
000000e0: 56a1 b93d 4d34 cb3d 757d 093e 9f86 a2bd
000000f0: 5091 333e 6651 46be 2a9c 9dbd fb33 103e
00000100: 5042 08bd df89 42be 44ca 263e 804d c23d
00000110: 0d5c 80bd cfdb 4e3e 1b00 d4bd dc4f 103e
00000120: 984c 74be 7ab7 c23d 2886 4cbb 8e29 8cbd
00000130: 37a8 d23d bf96 07be d30b 91bd 093b 33bd
00000140: 2ce6 403e 98c1 393e 3cfe 05be c1c9 663e
00000150: 48f3 823d 2dba 13be b050 31bd 46c6 bb3d
00000160: cd13 5b3e 7294 21bc d9ea 813d aaa6 543e
00000170: 6f87 1bbe e20e 11be 9cb8 a03a 65b4 283e
00000180: cdc4 143e 2e12 bc3c 6daa ad3d 6c84 84be
00000190: 1b0a 9c3d 2ee0 833e 651e 623d 57cf 5bbe
000001a0: 7712 c23c d691 cebd d08f 03bf e954 f03b
000001b0: 893b 80be 2af3 d6bb 2c6a f5bd ea72 393e
000001c0: 0c79 073e f596 8d3e 2fb1 d4bc 2ed6 97be
000001d0: 386d 03bf 93e3 463c b9cb b6be 102c 7c3d
000001e0: 9a90 243e bb5f 143c 05be 523e 6e3a 5f3e
000001f0: cfd9 bfbb f580 bbbe 7ee6 7cbd d7d1 543d
00000200: 6e67 2c3d 077e 463e 25d1 9ebd ad58 9f3e
00000210: 520a 583d 3199 a8bd 1e20 273e 2140 46be
00000220: 7b4e a53e c378 8e3a 4a0f 58be d799 14be
00000230: c193 8fbc e16a 8a3b 4fa5 9abe 074c 923c
00000240: 968b a4bc c019 0cbe d96d e3bd 63dd 0fbd
00000250: 4a42 6d3d 7a5c a63e 9efd 293d 8e44 33be
00000260: dbb5 06bc 9941 28be b70d 6dbe 6c9a b83d
00000270: 7c0a 023d 7827 833e 31e3 b63c 5e47 eabc
00000280: d99a 353c 7433 9bbd a616 513e f7fd 78be
00000290: fbef 43be 894e 403e ee13 53be fa71 7e3d
000002a0: b1be fdbd 0cc3 323e 846b 463e b4e4 1abc
000002b0: d61f 60bb 73c2 65bd 1a54 4a3e 1469 7fbd
000002c0: 5c3e 233d 0856 8a3e 6455 8e3d c297 5c3e
000002d0: 6049 92bd faa1 c8bd 43e5 303e fc88 0f3e
000002e0: 182a 6d3e c590 79bd dbc6 603e 20c0 cc3d
000002f0: 0150 bf3d 4f99 85be 123c ed3d ccc4 3d3e
00000300: 10a3 cd3d fe54 aabc 1eed dc3d 8155 efbb
00000310: af40 5e3e fff0 bdbd 0733 6c3e 78f6 25bd
00000320: 6829 2a3e d70c 95be 23c4 75bd 8253 383e
00000330: 7316 babd 9d56 dc3d fcbb 5fbe 39ed 96bd
00000340: cf31 b6bc 529b b4bd 5a0d e43d 14f8 57be
00000350: b8d6 c9bd e8e4 d9bc f183 6cbe 3443 3a3d
00000360: a840 683d 3c9c 32be 9a4a 1abd cbd6 41bd
00000370: c992 293e f7b0 babc 9868 13bc 9068 33be
00000380: b100 073e 1a2a 533e 80be 8b3d dbd6 8fbb
00000390: a87c 9b3e 4011 d9ba 9f52 7b3e dd83 82be
000003a0: aa02 c23e 3101 8bbe 436b b7bd b261 893c
000003b0: 1132 9abe e3cd 683e de88 81be 4f83 34bd
000003c0: e6fb 23be 6f28 15be 27c4 c03d b999 acbe
000003d0: 8608 d9bd d535 203e 879c 54bc 1a42 48bd
000003e0: a1ec 023d f81c b03c 101a 86be 57fa febc
000003f0: 571a 113e 6532 723e c7a1 5abd f0c3 4cbe

lstm.weight_hh_l1 f4 [128, 32]
-0.004428243 0.013724961 -0.13703524 -0.106130645 0.05392425 0.04960815 -0.16164094 -0.09342285
-0.05330999 -0.13117975 -0.19838502 -0.19636084 0.04663275 -0.058920402 -0.12334648 -0.046589527
0.18324623 -0.12396217 0.16432238 -0.18667608 -0.14992303 0.17682071 0.051798712 -0.21597412
-0.04994619 0.04818852 0.00815287 -0.0866466 0.16296545 -0.09377388 0.052593432 -0.24758667
-0.18497057 -0.14338703 0.023790263 -0.11550924 -0.2543426 -0.18575355 -0.15992697 -0.32985583
-0.25020397 -0.04417779 -0.22904783 0.045566756 0.14358056 -0.102948695 0.06658136 -0.085093945
-0.06365507 0.08998924 0.17195763 0.037879024 0.04898105 0.116964914 -0.065510646 -0.0750579
0.14559363 -0.28701225 0.07569523 0.020481033 0.1078768 -0.02376068 -0.0035145374 -0.06339766
0.04554305 -0.011372557 0.09771968 0.05338975 -0.069536574 -0.16776517 -0.24847977 -0.16643724
-0.07029344 -0.23833425 -0.16821095 -0.13490061 0.109605625 -0.08701361 0.037681486 0.07662345
0.012954133 0.17379327 -0.120584145 0.021071762 0.25871268 0.045186196 0.108619496 0.052628275
0.090733655 -0.20201981 -0.17309304 -0.1069668 -0.042135138 -0.11528642 0.00519383 -0.02575137
0.015142221 0.03940745 -0.1934203 -0.07454452 -0.6265576 -0.029177783 -0.5447245 -0.6653637
-0.30571654 -0.10612754 -0.3769279 -0.00504356 0.32797298 -0.26701623 0.16650085 -0.42081672
0.12304479 -0.12323363 0.17028591 -0.19750108 -0.12848747 0.2505915 -0.2566075 -0.22183782
0.063934855 -0.57318765 0.06372962 -0.028393537 -0.122880936 -0.37802377 -0.05543587 0.018291567
-0.055897158 -0.02091992 0.110425 -0.30404922 -0.14702861 -0.08634657 -0.06797277 0.09544781
-0.22674361 -0.07065296 -0.05979009 -0.1920888 -0.09284328 -0.06285517 -0.019055888 -0.1780973
0.15197472 0.21274543 0.040127695 0.06846386 0.1374863 -0.053567383 -0.02298511 -0.07921817
0.145035 0.00011951423 0.20177467 -0.12324538 -0.024168124 -0.1690935 -0.08254585 -0.24178271
-0.035214286 -0.0037948827 -0.02724222 0.15353689 -0.027439972 0.07365118 -0.067103714 -0.21340907
0.044705983 0.05638462 0.009232851 -0.09389195 -0.13373528 -0.027033022 0.10325719 -0.18366785
0.15357621 0.11830412 -0.09214698 -0.1938782 -0.11382487 0.038568456 -0.1708276 -0.097853646
0.0020068942 0.11830021 -0.019738544 0.1084334 -0.119848594 0.094010256 0.13345951 0.014011636
0.0036943958 -0.074555464 -0.06888523 -0.13656089 0.05228859 -0.050378293 -0.17067677 0.025844647
0.021695865 -0.110574625 -0.11406537 -0.10601302 -0.09316843 -0.09211795 0.012265282 -0.03952136
0.090408415 0.14863926 0.0048062797 -0.18424836 0.1154957 0.03107048 0.08875169 -0.12106494
0.078400135 -0.10307661 0.28429514 0.14137825 0.14686656 -0.20242164 0.06884616 -0.2671481
0.13603666 -0.11661516 -0.10453002 -0.18226455 -0.029875038 0.074684836 -0.18537487 0.0060461033
-0.10217525 -0.20756552 -0.12641446 0.11706662 0.17806984 -0.13136321 -0.10641448 0.13275991
0.04765651 0.108420655 -0.0050063026 0.09393213 -0.06307461 0.12799759 0.13506968 0.11738203
-0.06880473 -0.08151077 0.08437801 -0.06332709 -0.07156635 -0.12572014 -0.023076992 -0.11007458
00000000: cb1a 91bb a9de 603c f752 0cbe 065b d9bd
00000010: addf 5c3d ea31 4b3d 3485 25be 7b54 bfbd
00000020: 935b 5abd fc53 06be 7125 4bbe d112 49be
00000030: fc01 3f3d 8556 71bd 149d fcbd a9d4 3ebd
00000040: e6a4 3b3e e1df fdbd 2044 283e 0428 3fbe
00000050: 6c85 19be 7d10 353e e32a 543d 5228 5dbe
00000060: 6094 4cbd 5361 453d 9e93 053c c673 b1bd
00000070: 6ae0 263e 850c c0bd 366c 573d 5c87 7dbe
00000080: ed68 3dbe 0dd4 12be cce3 c23c 1c90 ecbd
00000090: 3139 82be 2e36 3ebe e5c3 23be dde2 a8be
000000a0: bc1a 80be c5f3 34bd 848b 6abe 35a4 3a3d
000000b0: c806 133e c4d6 d2bd cf5b 883d bc45 aebd
000000c0: 975d 82bd 474c b83d a915 303e 0927 1b3d
000000d0: 5aa0 483d 4d8b ef3d 722a 86bd f5b7 99bd
000000e0: 7f16 153e 45f3 92be 1a06 9b3d d7c7 a73c
000000f0: 83ee dc3d c2a5 c2bc 2754 66bb a2d6 81bd
00000100: 598b 3a3d f653 3abc 4121 c83d 36af 5a3d
00000110: 3169 8ebd a2ca 2bbe 7b71 7ebe 866e 2abe
00000120: 02f6 8fbd e50d 74be 7e3f 2cbe 6323 0abe
00000130: ea78 e03d 3134 b2bd e757 1a3d c1ec 9c3d
00000140: 923d 543c ddf6 313e d2f4 f6bd b09e ac3c
00000150: fd75 843e 2915 393d e673 de3d bf90 573d
00000160: 91d2 b93d 48de 4ebe 4d3f 31be 6911 dbbd
00000170: e595 2cbd 491b ecbd 0131 aa3b 89f4 d2bc
00000180: 1417 783c b569 213d f90f 46be ccaa 98bd
00000190: 1466 20bf 3f06 efbc 1173 0bbf 4755 2abf
000001a0: e186 9cbe 6559 d9bd b2fc c0be 7344 a5bb
000001b0: 13ec a73e 5ab6 88be 337f 2a3e 4a75 d7be
000001c0: e8fe fb3d ea61 fcbd 6e5f 2e3e b93d 4abe
000001d0: 3892 03be 874d 803e 0f62 83be 7429 63be
000001e0: 47f0 823d 6dbc 12bf ad84 823d 9099 e8bc
000001f0: 00a9 fbbd 558c c1be b910 63bd 32d8 953c
00000200: 6bf4 64bd 4160 abbc 8126 e23d 57ac 9bbe
00000210: ab8e 16be 78d6 b0bd 4f35 8bbd 247a c33d
00000220: 7a2f 68be 80b2 90bd 74e6 74bd edb2 44be
00000230: 9e24 bebd 36ba 80bd 181b 9cbc 235f 36be
00000240: 439f 1b3e f0d9 593e f05c 243d c836 8c3d
00000250: 35c9 0c3e 7969 5bbd 454b bcbc 233d a2bd
00000260: 0e84 143e b7a3 fa38 059e 4e3e 1368 fcbd
00000270: 3bfc c5bc d926 2dbe cc0d a9bd e395 77be
00000280: db3c 10bd 91b3 78bb 132b dfbc c638 1d3e
00000290: cbc9 e0bc 6ed6 963d ac6d 89bd e887 5abe
000002a0: 9f1d 373d 8ff3 663d 6245 173c 6c4a c0bd
000002b0: e7f1 08be 5b74 ddbc 8178 d33d 6d13 3cbe
000002c0: 1543 1d3e 6e49 f23d 8eb7 bcbd 0288 46be
000002d0: 031d e9bd f5f9 1d3d 6eed 2ebe 7e67 c8bd
000002e0: 1986 033b 6147 f23d bab2 a1bc 5512 de3d
000002f0: 2e73 f5bd 7388 c03d 9ca9 083e 1091 653c
00000300: ad1d 723b 89b0 98bd b313 8dbd 9ed6 0bbe
00000310: 902c 563d 7859 4ebd e4c5 2ebe 27b8 d33c
00000320: 87bb b13c f374 e2bd 1b9b e9bd 5b1d d9bd
00000330: 17cf bebd 56a8 bcbd 52f4 483c 26e1 21bd
00000340: 0c28 b93d e434 183e ff7d 9d3b 9aab 3cbe
00000350: 0289 ec3d 8587 fe3c 72c3 b53d e5f0 f7bd
00000360: 4090 a03d d419 d3bd 228f 913e 76c5 103e
00000370: 3064 163e 9e47 4fbe 37ff 8c3d a3c7 88be
00000380: 324d 0b3e eed3 eebd d613 d6bd 8fa3 3abe
00000390: 7fbc f4bc 5df4 983d e9d2 3dbe 641e c63b
000003a0: 4241 d1bd 0e8c 54be cb72 01be a0c0 ef3d
000003b0: f157 363e 1484 06be d6ef d9bd 37f2 073e
000003c0: 7933 433d a60b de3d e90b a4bb 7d5f c03d
000003d0: 432d 81bd cd11 033e b54f 0a3e fd65 f03d
000003e0: 7fe9 8cbd 1eef a6bd 61ce ac3d a2b1 81bd
000003f0: 6191 92bd c8bc 00be f60b bdbc c86e e1bd

lstm.bias_ih_l1 f4 [128]
0.123069204 0.039532647 -0.016388506 0.07759065 -0.045452554 0.1844518 0.04502537 0.2006596
0.1630111 0.011229319 0.001049047 -0.01913158 -0.05194672 0.07235423 0.14703098 0.11297628
-0.05699782 0.11582207 -0.045850523 0.10747924 -0.0808075 -0.08279061 0.13408376 0.08182519
0.011070085 0.12509495 -0.06599665 0.114558205 0.11492784 -0.085046895 0.020004664 -0.0668482
0.116763726 0.024241101 -0.08095144 0.0020664553 -0.12906633 -0.17052487 0.036050785 0.0150746
0.09696268 0.006553944 -0.0745625 -0.034092262 -0.01744036 -0.05051441 0.08130397 -0.16398385
0.17509261 0.020397013 0.0065187225 0.0042682807 -0.18258046 0.12794562 -0.06113098 -0.08633769
-0.010480417 -0.09461551 0.11269086 -0.10492039 0.09390131 -0.11543484 0.14163633 0.057972778
-0.14739911 0.027290301 -0.04865989 -0.09686375 -0.07051075 -0.14702158 -0.16948327 -0.03432841
-0.06493612 0.03597884 -0.1619553 -0.18712951 0.11817792 -0.14991651 0.14556895 -0.1295767
0.024021322 0.08441122 -0.03692717 -0.09449041 -0.042453818 0.15319814 0.041990105 -0.079674326
0.14644274 -0.06535768 0.02409044 0.06972482 0.0934095 -0.17481716 0.062257256 -0.14649545
0.19493039 0.026649388 -0.121594265 0.12749732 0.02281565 0.13164008 0.19270998 -0.05037759
0.1819948 0.07971383 0.1903423 -0.025067084 0.11140244 0.15490651 0.093505725 -0.041446913
0.21327794 0.030743003 0.1610121 0.3154092 0.19423129 0.13160446 -0.07004552 0.0022599285
0.051899787 -0.038640466 0.19866024 0.3219086 0.08112536 0.20472328 0.09233197 0.15576749
00000000: b50b fc3d fcec 213d 3041 86bc d9e7 9e3d
00000010: 752c 3abd efe0 3c3e 866c 383d b679 4d3e
00000020: 62ec 263e 2dfb 373c 2d80 893a d5b9 9cbc
00000030: 15c6 54bd 742e 943d 4a8f 163e 1c60 e73d
00000040: 8c76 69bd 1f34 ed3d c2cd 3bbd 131e dc3d
00000050: 677e a5bd 208e a9bd 414d 093e f793 a73d
00000060: 4d5f 353c e418 003e 4029 87bd 7e9d ea3d
00000070: 4a5f eb3d 112d aebd d2e0 a33c b6e7 88bd
00000080: d221 ef3d 4695 c63c dec9 a5bd 5e6d 073b
00000090: f729 04be 129e 2ebe fda9 133d 75fb 763c
000000a0: 5f94 c63d 78c2 d63b 39b4 98bd 54a4 0bbd
000000b0: 16df 8ebc 33e8 4ebd b282 a63d 62eb 27be
000000c0: 7a4b 333e a317 a73c 029b d53b efdc 8b3b
000000d0: 5ff6 3abe 2d04 033e 7a64 7abd d1d1 b0bd
000000e0: 0eb6 2bbc c7c5 c1bd 77ca e63d 80e0 d6bd
000000f0: 544f c03d 1a69 ecbd 1d09 113e dd74 6d3d
00000100: cbef 16be e98f df3c 984f 47bd 8060 c6bd
00000110: f167 90bd d38c 16be 068d 2dbe f29b 0cbd
00000120: 3afd 84bd 8c5e 133d 9cd7 25be e19e 3fbe
00000130: 4407 f23d b783 19be 0710 153e c1af 04be
00000140: 5dc8 c43c cadf ac3d f240 17bd 3084 c1bd
00000150: 0ee4 2dbd f9df 1c3e d1fd 2b3d 4b2c a3bd
00000160: 16f5 153e 3fda 85bd 5059 c53c e3cb 8e3d
00000170: 7b4d bf3d 4503 33be 7701 7f3d e702 16be
00000180: d59b 473e d14f da3c 6a06 f9bd a88e 023e
00000190: e3e7 ba3c a8cc 063e c455 453e bb58 4ebd
000001a0: d85c 3a3e 0141 a33d 18e9 423e 7c59 cdbc
000001b0: f626 e43d d09f 1e3e ee7f bf3d 3dc4 29bd
000001c0: 8865 5a3e c0d8 fb3c 5be0 243e 517d a13e
000001d0: 91e4 463e 52c3 063e 0774 8fbd 4f1b 143b
000001e0: df94 543d 7745 1ebd 976d 4b3e 34d1 a43e
000001f0: 0e25 a63d fba2 513e 8b18 bd3d 8381 1f3e

lstm.bias_hh_l1 f4 [128]
0.05815473 0.002083055 -0.08383893 0.0828192 0.18635748 -0.033498634 0.20264386 -0.13449948
-0.029757867 -0.0077506094 0.13002576 0.11455763 -0.090506874 -0.059425507 0.04264913 0.14817311
-0.0036173244 -0.1227191 0.2299003 0.0036153588 0.042161305 0.1531035 0.15641995 0.03535544
0.057597823 0.21194175 0.049909297 0.30427116 0.14231169 0.18191448 0.1892737 0.16487607
0.15577923 -0.058571756 0.13892758 0.16828574 0.15549101 0.028093806 0.11733758 0.1543393
-0.031323086 -0.09316689 -0.0391679 -0.027183939 0.07853713 0.033944987 -0.17380553 0.076448664
0.059986353 -0.12196146 -0.07166125 0.063007295 0.1521476 -0.0907708 0.07008566 0.024148354
-0.07037197 -0.1288923 0.049789898 -0.17618528 -0.17107935 0.029015884 -0.14692473 -0.004431974
0.043771885 -0.113914564 -0.15650813 -0.13075434 -0.19491296 -0.04080665 0.083696485 -0.11199781
-0.16124023 -0.15007089 0.033444576 0.12650111 0.008150439 -0.05867429 -0.15227376 -0.10521048
0.094806574 -0.04931778 0.16605994 -0.05157423 0.054569297 0.17734705 -0.15507665 -0.16187139
-0.067527 -0.14487718 0.16257322 -0.12166555 0.038589228 -0.049593057 -0.07494085 0.022774838
-0.041365854 -0.022188675 0.06924844 0.22732572 -0.116418764 0.08167994 0.06888899 -0.14507583
0.24328542 0.19476639 0.06902354 -0.1104214 -0.021350252 0.15366094 0.10167724 -0.09786896
0.09892368 -0.010370424 0.13800319 0.076098636 0.2433735 0.11583873 -0.073595874 0.110886514
0.15595897 -0.11320791 0.20146105 0.2320381 0.16194162 0.050732803 0.09902374 0.18029976
00000000: a733 6e3d dd83 083b bfb3 abbd 1d9d a93d
00000010: 7fd4 3e3e dd35 09bd df81 4f3e 3bba 09be
00000020: c5c6 f3bc d3f8 fdbb 7925 053e 319d ea3d
00000030: ab5b b9bd 2968 73bd dbb0 2e3d b1ba 173e
00000040: a210 6dbb 2754 fbbd fc6a 6b3e a8ef 6c3b
00000050: 55b1 2c3d 2ac7 1c3e 8d2c 203e ded0 103d
00000060: b2eb 6b3d 4207 593e b16d 4c3d 6ec9 9b3e
00000070: 28ba 113e ca47 3a3e f7d0 413e 46d5 283e
00000080: 9784 1f3e f0e8 6fbd 0843 0e3e 1953 2c3e
00000090: 0939 1f3e fb24 e63c af4e f03d 1f0b 1e3e
000000a0: a34c 00bd 48ce bebd 856e 20bd dab0 debc
000000b0: 13d8 a03d e609 0b3d 14fa 31be 1e91 9c3d
000000c0: 40b4 753d eec6 f9bd 22c3 92bd f809 813d
000000d0: 95cc 1b3e 0be6 b9bd 1289 8f3d c5d2 c53c
000000e0: 2e1f 90bd 58fc 03be 7ef0 4b3d ea69 34be
000000f0: 6d2f 2fbe b8b2 ed3c 7073 16be 183a 91bb
00000100: 264a 333d 0a4c e9bd ab43 20be 77e4 05be
00000110: 4397 47be e024 27bd 1069 ab3d 1c5f e5bd
00000120: 291c 25be 2fac 19be 2efd 083d 8289 013e
00000130: 6b89 053c 7454 70bd a7ed 1bbe 9878 d7bd
00000140: f329 c23d 7101 4abd 9e0b 2a3e 803f 53bd
00000150: 0e84 5f3d 779a 353e 6acc 1ebe 9dc1 25be
00000160: 994b 8abd af5a 14be 9879 263e ca2b f9bd
00000170: bd0f 1e3d 1722 4bbd 977a 99bd 4c92 ba3c
00000180: 3e6f 29bd 06c5 b5bc 20d2 8d3d 13c8 683e
00000190: f66c eebd d047 a73d ac15 8d3d c28e 14be
000001a0: d01f 793e d770 473e 375c 8d3d 9d24 e2bd
000001b0: b9e6 aebc 4b59 1d3e 283c d03d 856f c8bd
000001c0: 8098 ca3d b6e8 29bc b550 0d3e 9ad9 9b3d
000001d0: e736 793e db3c ed3d 6fb9 96bd 7818 e33d
000001e0: b5b3 1f3e 8cd9 e7bd ce4b 4e3e 659b 6d3e
000001f0: 06d4 253e 33cd 4f3d f5cc ca3d 80a0 383e

fc.weight f4 [1, 32]
0.08682906 -0.1151546 -0.045919903 -0.25679597 0.179039 -0.17097418 0.12065122 0.1871697
0.1227161 0.09648256 0.101762295 0.17551924 -0.1991391 0.09504279 -0.10538991 0.078143656
-0.11892223 -0.006667454 0.14504167 0.20655091 -0.1759042 0.19140154 0.11367317 0.057132315
-0.36428294 0.10367851 0.12851913 0.20093888 -0.20384705 0.12350983 0.1858887 -0.15304446
00000000: 6fd3 b13d 2dd6 ebbd 8216 3cbd c37a 83be
00000010: 0056 373e db13 2fbe fd17 f73d 6aa9 3f3e
00000020: 9452 fb3d a698 c53d c068 d03d 51bb 333e
00000030: 1feb 4bbe cba5 c23d aad6 d7bd c809 a03d
00000040: 808d f3bd a87a dabb ce85 143e 1582 533e
00000050: 3b20 34be c4fe 433e 7bcd e83d 9303 6a3d
00000060: 4b83 babe 6655 d43d 859a 033e ecc2 4d3e
00000070: 48bd 50be b9f2 fc3d 9b59 3e3e b0b7 1cbe
