lstm_model.pth (torch, 54652 bytes, 9 tensors)

lstm.weight_ih_l0 f4 [128, 1]
0	0x3dc75565	0.097330846
1	0xbd1a6c5e	-0.037701003
2	0xbe8b75b6	-0.27238244
3	0x3e02a4f2	0.12758234
4	0xbe4726b3	-0.19448356
5	0xbe1d008e	-0.15332243
6	0xbe421e76	-0.18956932
7	0x3e59306a	0.21209875
8	0x3e38039d	0.17970128
9	0x3d8de9c4	0.06929353
10	0xbd7e2777	-0.062049355
11	0x3d42df5f	0.047576305
12	0xbdaacbee	-0.08339678
13	0xbebf2d80	-0.373394
14	0x3e3e8748	0.18606293
15	0xbd24d3c8	-0.040241033
16	0xbdd23ec4	-0.10265878
17	0x3e3625ff	0.17787932
18	0x3e51cdc0	0.20488644
19	0x3ec5d167	0.38636324
20	0x3e891a29	0.2677777
21	0xbcdc238a	-0.026872415
22	0x3cbaac87	0.022787346
23	0x3cfa9d3b	0.030592551
24	0x3d6615af	0.056173023
25	0xbe815573	-0.25260505
26	0x3cb04804	0.021518715
27	0xbdaa9581	-0.08329297
28	0x3e4b0bdf	0.19828747
29	0xbe8cca8f	-0.2749829
30	0x3e1ed668	0.15511477
31	0xbe0894c8	-0.13338006
32	0x3da66ece	0.08126603
33	0xbe2ec70c	-0.17068118
34	0xbe74c99b	-0.23905031
35	0x3e0125b1	0.12612034
36	0xbce8f407	-0.028436674
37	0x3d9d1b08	0.076711714
38	0xbdaaded6	-0.08343284
39	0x3d2711ac	0.040788338
40	0x3ed9a19d	0.42506114
41	0x3c06ebfe	0.008234976
42	0xbe674d82	-0.2258816
43	0x3d917137	0.07101672
44	0xbd817169	-0.063204594
45	0xbec669c4	-0.38752568
46	0x3e1e9ea5	0.15490206
47	0xbe5450cd	-0.20733948
48	0x3e02698b	0.12735574
49	0x3e03b8f7	0.12863527
50	0x3dd0ad96	0.10189359
51	0x3ee97cfe	0.45603174
52	0x3e42726f	0.18988965
53	0xbe31eb8e	-0.17375013
54	0x3d57054c	0.052495286
55	0x3e955062	0.2916289
56	0xbe534b2d	-0.20634146
57	0x3cea0322	0.028565947
58	0xbe5ebe46	-0.21752271
59	0xbd5329c4	-0.051553503
60	0x3da2c893	0.07948413
61	0xbe08f8ae	-0.13376114
62	0x3e6f00d8	0.23340166
63	0xbe0912f6	-0.1338614
64	0x3ebc2894	0.3674971
65	0xbdba61b6	-0.09100668
66	0x3e477b4a	0.19480625
67	0xbe9abc44	-0.3022176
68	0xbeab7c39	-0.33493212
69	0x3e7a6b20	0.24454927
70	0x3ddf8bf7	0.10915368
71	0x3e69b31a	0.22822228
72	0xbe764a00	-0.24051666
73	0xbe56874a	-0.20950046
74	0x3e701ae3	0.23447756
75	0xbda7c9a5	-0.081927575
76	0xbeba2a13	-0.36360225
77	0xbe97ffb5	-0.29687276
78	0x3e9a2944	0.30109608
79	0x3e7dfed3	0.24804239
80	0x3da703ea	0.081550434
81	0x3e7beb00	0.24601364
82	0x3cabfeea	0.020995576
83	0xbed073d4	-0.4071337
84	0x3e95b44f	0.29239127
85	0xbe53ff76	-0.2070292
86	0x3e0d9073	0.13824634
87	0xbe80e95c	-0.2517804
88	0x3e7ab472	0.24482897
89	0x3e6a0de0	0.22856855
90	0x3cdc6704	0.02690459
91	0xbe54d802	-0.20785525
92	0x3e5642af	0.20923875
93	0xbea1104c	-0.31457746
94	0xbe966a97	-0.29378197
95	0xbe9a9b49	-0.30196598
96	0x3c83951f	0.016062317
97	0xbd6b8855	-0.057503063
98	0xbe487444	-0.19575602
99	0x3ee77098	0.4520309
100	0xbe5f627a	-0.2181491
101	0xbd9673c9	-0.07346303
102	0xbc4c49d3	-0.012468773
103	0x3e45b6e2	0.19308046
104	0x3ef47335	0.47744146
105	0xbdd59d7a	-0.10430427
106	0xbe1cde4c	-0.15319175
107	0x3ca21538	0.019785509
108	0xbe3acf85	-0.18243225
109	0xbf0648d0	-0.52454853
110	0x3e37943f	0.17927645
111	0xbe435274	-0.19074422
112	0x3dbfed12	0.093713894
113	0x3e4c92b1	0.19977833
114	0x3e92e352	0.28689057
115	0x3e95a863	0.2923003
116	0x3e214b65	0.15751417
117	0xbdebb87e	-0.115097985
118	0x3dbbd746	0.091719195
119	0x3e3b0a52	0.18265656
120	0xbe6ca5d8	-0.2311014
121	0xbe9afd31	-0.30271295
122	0xbdcae1f5	-0.09906379
123	0x3dd7d837	0.105392866
124	0x3ede7504	0.4344865
125	0xbd783f8b	-0.060607474
126	0x3e8ae7ee	0.27130073
127	0x3c00658e	0.0078367125

lstm.weight_hh_l0 f4 [128, 32]
0	0xbdcfd603	-0.10148241
1	0xbc769135	-0.0150492685
2	0xbea7a574	-0.32743418
3	0xbdfd0fc1	-0.123565204
4	0x3e40a3fc	0.18812555
5	0x3d363943	0.044488203
6	0xbc28b75b	-0.010297622
7	0x3db274b1	0.08713663
8	0xbeb2cb30	-0.34920645
9	0x3e1dcd13	0.15410261
10	0xbe9dbc2b	-0.30807623
11	0xbdc48eb5	-0.09597532
12	0xbcb085fd	-0.021548266
13	0x3e88fc01	0.26754764
14	0x3e421210	0.18952203
15	0xbda521bf	-0.08063077
16	0xbe2b197f	-0.16708945
17	0x3e0cbad1	0.1374314
18	0x3e85ac34	0.26107943
19	0xbeaa3730	-0.3324523
20	0x3e3039e7	0.17209588
21	0x3db54ef4	0.0885295
22	0xbe0bbb2a	-0.13645616
23	0xbe971628	-0.2950909
24	0xbdc8f9c1	-0.09813262
25	0xbea3e110	-0.32007647
26	0xbe096b85	-0.13419922
27	0x3e2aac36	0.16667256
28	0x3da20b51	0.07912315
29	0x3e88e2e9	0.2673562
30	0xbe4a8c0a	-0.19779983
31	0x3c3b3816	0.011426946
32	0x3d6510ce	0.05592423
33	0xbd86a26b	-0.065739475
34	0x3de63eb4	0.112424284
35	0xbd9eee64	-0.07760313
36	0x3e536a6f	0.2064607
37	0x3e030e73	0.1279848
38	0xbd898615	-0.06715027
39	0x3d454676	0.0481629
40	0xbdb966be	-0.090528
41	0x3d0ad84c	0.033897683
42	0x3d27bad2	0.04094965
43	0x3e4e25b6	0.20131573
44	0x3d8a3134	0.06747666
45	0x3be3b62e	0.0069492077
46	0xbc9192ca	-0.01777019
47	0xbd9961b5	-0.07489339
48	0x3d6941bb	0.05694745
49	0x3d3d9b0a	0.046290435
50	0x3e147e75	0.14501365
51	0x3d0edc29	0.03487793
52	0xbd8ad33a	-0.067785695
53	0x3db356fa	0.08756824
54	0xbc98c23c	-0.018647306
55	0x3d3d0153	0.04614384
56	0x3da1eb8d	0.07906256
57	0x3cc137f5	0.023586253
58	0xbde79ed5	-0.11309592
59	0xbda6a179	-0.08136267
60	0xbe441102	-0.19147113
61	0x3dbfd9c3	0.093677066
62	0xbc4e88ed	-0.012605888
63	0xbad791f0	-0.0016446691
64	0xbcf99f6c	-0.030471526
65	0xbcb93be4	-0.022611566
66	0x3b69fa68	0.0035702232
67	0x3e00ea69	0.1258942
68	0x3d1aa774	0.037757352
69	0xbd87e24f	-0.06634962
70	0xbd96fe63	-0.07372739
71	0x3e26cead	0.16289778
72	0xbd848ccc	-0.064721674
73	0x3de0d63a	0.109783605
74	0xbd8d6935	-0.06904832
75	0x3de3fcf9	0.11132235
76	0x3df736ee	0.12071024
77	0xbcb0eaa8	-0.021596268
78	0xbda87b8a	-0.08226688
79	0xbd838dc3	-0.06423523
80	0xbdaba200	-0.083805084
81	0x3e33f7b7	0.17574964
82	0x3db39b26	0.087698266
83	0xbd986728	-0.074415505
84	0x3d5e06e4	0.05420579
85	0x3e17a7fb	0.14810173
86	0xbc824af3	-0.01590488
87	0xbe32641d	-0.17421003
88	0xbdb74ac8	-0.0894981
89	0xbe067dd1	-0.13133933
90	0xbdf16e8c	-0.11788663
91	0xbd880f01	-0.06643487
92	0xbd80b3f9	-0.06284327
93	0x3e3650f3	0.17804317
94	0x3dbab68a	0.09116848
95	0x3e379e52	0.17931488
96	0x3e1d43c2	0.15357879
97	0xbe262748	-0.16225922
98	0x3c00b6a4	0.007856045
99	0x3c46f4ab	0.012143294
100	0x3e0c25e6	0.13686332
101	0x3c8dd171	0.017311784
102	0xbde1ecc2	-0.11031486
103	0x3e0c069a	0.13674393
104	0x3d8d0a0b	0.06886681
105	0x3c385a59	0.011252009
106	0xbd737922	-0.059441693
107	0xbd61314e	-0.05497866
108	0x3e0e484e	0.1389477
109	0x3e50a420	0.20375109
110	0x3dc402b1	0.09570826
111	0x3da629da	0.08113451
112	0xbe29d935	-0.16586764
113	0xbcf0097d	-0.0293014
114	0x3e450e3b	0.1924371
115	0x3e03c71f	0.12868927
116	0x3d9909b2	0.07472552
117	0x3cbefcae	0.023313846
118	0x3e01f563	0.12691264
119	0xbe038258	-0.12842691
120	0xbdc33ef4	-0.09533492
121	0xbe0ec7c1	-0.13943388
122	0xbe32df4d	-0.17467995
123	0x3db244ce	0.0870453
124	0x3db6aab7	0.0891928
125	0x3e62fabd	0.22165962
126	0xbdd7478e	-0.10511695
127	0xbce814b3	-0.028330183
128	0x39ac5f43	0.00032877372
129	0xbea7d426	-0.32779044
130	0xbee94eb5	-0.4556786
131	0xbf01feb4	-0.5077927
132	0x3e2ce728	0.16885054
133	0xbda5a4bb	-0.080880605
134	0xbebd0b9b	-0.36922917
135	0x3f128639	0.5723606
136	0xbf852301	-1.0401307
137	0x3e4d5422	0.20051625
138	0xbee65ef5	-0.4499432
139	0xbeb6149d	-0.35562602
140	0xbc9a91de	-0.018868383
141	0x3e7a264a	0.24428669
142	0x3eeca653	0.46220645
143	0xbed881c3	-0.422865
144	0xbeac7052	-0.33679444
145	0x3ee73aa0	0.45161915
146	0x3ed224bd	0.41043654
147	0xbf672409	-0.9028936
148	0x3eec3e69	0.46141365
149	0x3e0a7ead	0.13524885
150	0xbd265bb5	-0.040614802
151	0xbf046654	-0.5171864
152	0xbeb4211b	-0.35181507
153	0xbe2b1f84	-0.16711241
154	0xbe8a3c29	-0.26999024
155	0xbd0d0867	-0.03443184
156	0x3f5aa54e	0.85408485
157	0x3e945e62	0.28978258
158	0xbf36fd4a	-0.7148024
159	0x3e909df2	0.28245503
160	0x3dacc07d	0.08435152
161	0x3d84a64e	0.064770326
162	0xbe15b69c	-0.14620441
163	0xbea2123f	-0.31654546
164	0x3e05ec67	0.13078462
165	0x3e1e24fa	0.15443793
166	0xbe66496d	-0.22488947
167	0x3eb55248	0.35414338
168	0xbea0fa8e	-0.31441158
169	0x3dfb300a	0.12265022
170	0xbe7cdf84	-0.2469464
171	0x3beb5b8d	0.0071825446
172	0xbb0e3dbb	-0.0021704275
173	0x3e7cc5df	0.24684857
174	0x3e2d2a63	0.169107
175	0xbe5c11d9	-0.21491183
176	0xbe229040	-0.1587534
177	0x3d1ae0d7	0.03781208
178	0x3e8a2854	0.26983893
179	0xbdeb70fb	-0.11496159
180	0x3e0d724b	0.1381313
181	0x3e0d667a	0.13808623
182	0x3e097020	0.13421679
183	0xbe93c754	-0.28863013
184	0xbced6b51	-0.028981837
185	0xbe28ca78	-0.16483486
186	0xbde46bb4	-0.11153355
187	0xbd3177ae	-0.043327026
188	0x3eb9d172	0.36292607
189	0x3e1ef48e	0.15522978
190	0xbe6f7ff2	-0.23388651
191	0x3db6141e	0.08890556
192	0x3d985b4b	0.07439288
193	0x3e2cdcb4	0.16881067
194	0x3d8ca0dd	0.0686662
195	0x3db4ce1f	0.08828377
196	0xbe1e7bbf	-0.15476893
197	0xbcf421d7	-0.029801292
198	0xbbe7145e	-0.0070519885
199	0x3d8662f3	0.06561842
200	0xbdd81f82	-0.10552885
201	0xbe05e4a7	-0.13075505
202	0xbe31d77d	-0.17367359
203	0xbddd62d1	-0.10809863
204	0xbdc8319b	-0.097750865
205	0x3d7650dc	0.060135707
206	0xbde229bd	-0.11043117
207	0xbe17498f	-0.14774154
208	0x3d8d9ae3	0.06914308
209	0xbcbb459b	-0.022860339
210	0xbe19f0cb	-0.15033261
211	0xbdadacdf	-0.08480238
212	0xbd02b9b8	-0.031915396
213	0xbb9073d4	-0.004408339
214	0x3e0dc13f	0.13843249
215	0xbd047879	-0.032341454
216	0x3d98931d	0.07449935
217	0x3e26ae71	0.16277482
218	0x3de04f52	0.10952629
219	0x3e32a919	0.17447318
220	0x3d471c4e	0.048610978
221	0x3d46bea5	0.048521657
222	0xbdf1d92f	-0.118090026
223	0x3e352910	0.17691445
224	0x3e15fd70	0.1464746
225	0xbe2f41cf	-0.17114948
226	0xbe93615d	-0.2878522
227	0x3c87ca2a	0.016575892
228	0x3e78f939	0.24313821
229	0xbd34423f	-0.04400849
230	0xbbe03afc	-0.006842969
231	0x3e3b0706	0.18264398
232	0x3d5e875c	0.054328308
233	0x3e2b2e85	0.16716965
234	0xbd3e5293	-0.046465468
235	0xbaec3795	-0.0018021936
236	0x3d7a00a1	0.061035756
237	0x3d9e3c8a	0.07726391
238	0x3db44bf8	0.088035524
239	0xbe1abfd1	-0.15112235
240	0xbe2a0750	-0.16604352
241	0x3d43ba8d	0.04778533
242	0x3d75bd5d	0.059995044
243	0xbe5ce0fa	-0.21570197
244	0xbd9f5cb2	-0.07781352
245	0xbd838b07	-0.06423002
246	0x3df9b179	0.12192053
247	0xbde8df5b	-0.11370727
248	0xbaf0dcfc	-0.0018376405
249	0xbe75bc27	-0.23997556
250	0xbe4ee7d3	-0.20205621
251	0x3d371b1d	0.04470359
252	0x3d9d5245	0.07681707
253	0x3e49321c	0.19648021
254	0x3cba2c36	0.02272616
255	0x3e3c39b9	0.18381394

lstm.bias_ih_l0 f4 [128]
0	0x3e0daf7d	0.13836475
1	0x3e1a0d7d	0.15044208
2	0xbd8d8cdf	-0.06911635
3	0x3d364d52	0.044507332
4	0x3ef00feb	0.46887144
5	0xbd86f178	-0.06589025
6	0xbdb4d7a3	-0.08830192
7	0x3e3cecfa	0.18449774
8	0x3e1d853d	0.15382858
9	0x3dcb3ecf	0.09924089
10	0x3e275900	0.16342545
11	0xbc19d721	-0.00938967
12	0x3e04b641	0.1296015
13	0xbe19b198	-0.15009153
14	0x3d554333	0.05206604
15	0xbda0d523	-0.078531526
16	0x3d5a4a93	0.053293776
17	0x3b066d04	0.0020511756
18	0x3d4bd374	0.049762204
19	0x3da6735c	0.08127472
20	0xbcb20998	-0.02173309
21	0x3d7c87ab	0.06165282
22	0x3dd95890	0.10612595
23	0x3e77df81	0.24206354
24	0x3cebd45c	0.028787784
25	0x3e0d9f98	0.13830411
26	0xbe4454ab	-0.19172923
27	0x3bf577cd	0.007491088
28	0x3d2f104a	0.042740144
29	0x3e66d48e	0.2254202
30	0x3e887259	0.2664974
31	0x3d8b0e66	0.06789856
32	0xbe0db2e4	-0.13837773
33	0xbdd9b9be	-0.10631131
34	0x3df12ea2	0.11776473
35	0xbd1763a1	-0.036960248
36	0xbdff4248	-0.12463814
37	0xbe73fe2e	-0.2382743
38	0xbda2e131	-0.07953108
39	0x3cc13112	0.023582969
40	0x3d219697	0.039450254
41	0x3e0448c3	0.12918381
42	0xbdbdccd7	-0.09267586
43	0xbd7a55d3	-0.061117005
44	0x3ccef3f4	0.02526281
45	0x3dfac382	0.122443214
46	0xbd06f215	-0.03294571
47	0xbbcd1444	-0.0062585194
48	0x3de9cf70	0.11416519
49	0x3d525efb	0.05136011
50	0xbe2ab175	-0.16669257
51	0xbd844479	-0.064583726
52	0xbd3692f1	-0.044573728
53	0x3d47286e	0.04862254
54	0x3dbda124	0.09259251
55	0xbd71fd93	-0.059079718
56	0x3dc84444	0.09778646
57	0xbdb69498	-0.08915061
58	0xbe1ad5b5	-0.15120585
59	0xbc6a9dd0	-0.014319852
60	0x3e3c5e4f	0.18395351
61	0xbdbc4d33	-0.09194412
62	0xbc5b0066	-0.013366794
63	0xbdeaceb0	-0.11465204
64	0x3dd10c96	0.10207479
65	0xbcbd2ded	-0.023093188
66	0xbde4eadc	-0.11177608
67	0xbe058be4	-0.13041645
68	0xbdcaa206	-0.09894185
69	0x3da3745d	0.07981179
70	0x3cbb96ec	0.022899114
71	0x3dbff128	0.09372169
72	0x3d5c23b7	0.053744998
73	0xbd7bf8fe	-0.061516754
74	0xbcd84da5	-0.026404211
75	0xbe312faa	-0.17303339
76	0xbdd02d83	-0.10164931
77	0x3dd771c6	0.105197474
78	0x3d8228f4	0.063554674
79	0xbd10acd2	-0.035321064
80	0x3dfdd560	0.12394214
81	0x3e13bfaa	0.14428583
82	0x3de7c247	0.11316352
83	0xbe1b7a42	-0.15183356
84	0xbc79a2b5	-0.015236546
85	0x3de62e33	0.112392806
86	0xbda4b6d6	-0.08042686
87	0xbe2ccd20	-0.16875124
88	0xbd812f8c	-0.06307897
89	0xbdbd26e9	-0.09235937
90	0xbd7da66d	-0.061926294
91	0x3dec0061	0.1152351
92	0x3deb1e03	0.11480334
93	0x3d30e5f8	0.043188065
94	0x3c248769	0.01004205
95	0xbe0f008c	-0.13965052
96	0x3ea650b0	0.32483435
97	0xbd126d31	-0.035748664
98	0xbccf8e3b	-0.025336375
99	0xbdef5f98	-0.11688155
100	0x3f060666	0.52353513
101	0xbd359ce3	-0.044339072
102	0xbdacf5bb	-0.08445307
103	0x3e636654	0.22207004
104	0x3e1417bc	0.14462179
105	0x3e54893a	0.20755473
106	0xbd6f5246	-0.05842807
107	0x3dbaca84	0.09120658
108	0x3d2c4348	0.042056352
109	0xbdcf403d	-0.10119674
110	0x3d802a6a	0.0625809
111	0x3e4fd2c9	0.20295252
112	0xbddf57c7	-0.10905414
113	0x3e81f4c0	0.25382042
114	0xbe464c71	-0.19365098
115	0xbda73d64	-0.08166006
116	0x3e6f24a7	0.23353826
117	0xbdb998f6	-0.09062378
118	0xbdc593ff	-0.09647369
119	0x3e3705d3	0.17873316
120	0x3d42e2f8	0.047579736
121	0x3dd4110a	0.103548124
122	0xbe42316f	-0.1896417
123	0xbd14f454	-0.036365822
124	0x3db3d75b	0.0878131
125	0x3e6af4cc	0.22944945
126	0x3e3af166	0.18256149
127	0x3e991669	0.2989991

lstm.bias_hh_l0 f4 [128]
0	0x3df979af	0.121814124
1	0xbdf066f2	-0.11738385
2	0x3d8109d1	0.063007005
3	0x3e5e2e9c	0.21697468
4	0x3ea9c71f	0.3315973
5	0x3dc73552	0.09726967
6	0x3cd2309a	0.02565794
7	0xbcc292d5	-0.023751656
8	0x3da7286f	0.08162009
9	0x3e54245e	0.20716998
10	0xbc5fcee7	-0.013660169
11	0xbe12f850	-0.14352536
12	0x3ea85907	0.32880422
13	0xbd9c4a73	-0.076313876
14	0x3e355224	0.17707115
15	0xbdc36f19	-0.095426746
16	0x3e16491d	0.14676328
17	0x3e6d4ed5	0.23174603
18	0x3c005236	0.007832101
19	0xbd262411	-0.04056174
20	0x3e1e60ba	0.15466586
21	0x3e71f51f	0.23628663
22	0x3df52a87	0.11971002
23	0xbd22ede0	-0.039777637
24	0xbe012b27	-0.12614118
25	0x3d096a23	0.033548485
26	0xbd077d8b	-0.03307871
27	0x3dd37fc2	0.10327102
28	0x3c2026bc	0.00977486
29	0x3e4a10ac	0.19732922
30	0x3c022268	0.007942773
31	0x3e408257	0.1879972
32	0xbe4db4a2	-0.20088437
33	0x3e11931e	0.14216277
34	0x3dbfe374	0.09369555
35	0xbcddd3cc	-0.027078532
36	0x3c856485	0.016283283
37	0xbc4c6452	-0.01247509
38	0xbe4fc9d6	-0.20291838
39	0x3d014d3f	0.03156781
40	0xbe01948d	-0.12654324
41	0x3b771a55	0.0037704904
42	0xbd11b36f	-0.03557151
43	0xbe36c74e	-0.17849466
44	0x3e11e0d5	0.14245923
45	0xbe389a98	-0.18027723
46	0xbe13972b	-0.14413135
47	0x3dc1ff28	0.09472495
48	0xbe37b679	-0.17940702
49	0x3dbb359f	0.09141087
50	0x3d157723	0.03649057
51	0xbda8b1de	-0.082370505
52	0xbd90c293	-0.07068362
53	0x3ca07642	0.01958764
54	0xbe1fc944	-0.1560412
55	0x3dba2d59	0.09090681
56	0x3e06c830	0.13162303
57	0x3e30ca5a	0.17264691
58	0x3da02492	0.07819475
59	0xbdc6f885	-0.0971537
60	0xbd28e0c5	-0.041229982
61	0x3e3e0cfb	0.18559639
62	0x3e4f6114	0.20251876
63	0x3dd67327	0.10471182
64	0xbd9ce976	-0.07661717
65	0xbe0a5e74	-0.13512594
66	0xbd742bd0	-0.059612095
67	0xbddeb0e2	-0.108735815
68	0x3d7ece18	0.062208265
69	0xbe0816bf	-0.13289927
70	0xbdd2f8b0	-0.103013396
71	0xbc74446c	-0.014908891
72	0xbd9df0b5	-0.07711927
73	0x3e018e90	0.1265204
74	0xbe1829fb	-0.14859764
75	0xbd22a186	-0.039704822
76	0x3e2a6188	0.16638768
77	0x3df48b7d	0.11940668
78	0x3d9f1f8a	0.077696875
79	0xbbed41c3	-0.0072405054
80	0xbe1e487d	-0.1545734
81	0xbdb8a3a1	-0.09015585
82	0x3dd6a066	0.10479812
83	0xbdf8f9bd	-0.12157009
84	0x3e0c10c2	0.13678268
85	0xbdc41932	-0.09575118
86	0x3e18e727	0.14931928
87	0x3e0c88f4	0.13724118
88	0xbe05c337	-0.1306275
89	0xbe0935d0	-0.13399434
90	0xbe022710	-0.12710214
91	0xbdb595fe	-0.08866499
92	0x3e1463c5	0.14491184
93	0x3e2e4f89	0.17022528
94	0xbe00b7ac	-0.12570065
95	0x3e221351	0.15827681
96	0x3e3ffe67	0.1874939
97	0x3e003e05	0.12523659
98	0x3dc08a37	0.094013624
99	0x3e21f863	0.15817408
100	0x3ede6551	0.43436673
101	0x3dfd2707	0.123609595
102	0xbd344d6f	-0.04401916
103	0x3e4f1c27	0.20225583
104	0x3d239ff6	0.039947473
105	0x3d7412c0	0.059588194
106	0xbe06e83d	-0.1317453
107	0xbdf0440d	-0.1173173
108	0x3e83218a	0.25611526
109	0x3df9081b	0.12159749
110	0xbcfc69e3	-0.03081221
111	0x3d05a478	0.032627553
112	0xbe0c1956	-0.1368154
113	0x3e80f8c3	0.2518979
114	0xbde31427	-0.11087828
115	0x3afc1058	0.0019230945
116	0x3e5f1b23	0.21787696
117	0xbde116fe	-0.109907135
118	0x3e2afd0c	0.16698092
119	0x3e050f60	0.12994146
120	0xbc880551	-0.016604098
121	0xbdc954a5	-0.09830598
122	0xbe04ed75	-0.12981208
123	0x3ddd478f	0.10804664
124	0xbdf5da32	-0.12004508
125	0x3e22ae94	0.15886909
126	0x3e1807fd	0.14846797
127	0xbc54d6c9	-0.012990662

lstm.weight_ih_l1 f4 [128, 32]
0	0x3e2da4c9	0.16957392
1	0xbe87520e	-0.2642979
2	0xbe243104	-0.16034323
3	0xbe8876e1	-0.26653197
4	0xbe90679c	-0.28204048
5	0x3e9cb6c5	0.30608192
6	0xbc9c2ba7	-0.019063784
7	0x3e2ce958	0.16885889
8	0xbee0b2c1	-0.43886378
9	0x3c348016	0.011016866
10	0xbbed2d20	-0.0072380453
11	0xbd6332cf	-0.055468377
12	0xbedf519e	-0.43616956
13	0x3e009875	0.12558158
14	0x3e273d14	0.16331893
15	0x3e01dc2a	0.12681642
16	0xbdcd5669	-0.10026247
17	0x3e5e41e1	0.21704818
18	0x3dec480d	0.1153718
19	0xbebdf42e	-0.37100357
20	0x3db44a3c	0.088032216
21	0xbdfc9d0d	-0.123346426
22	0x3e6ca324	0.23109108
23	0xbe3fc309	-0.18726744
24	0xbd5fb4bb	-0.054615717
25	0xbe1ed079	-0.15509214
26	0xbe3990eb	-0.18121688
27	0xbd2d5169	-0.042313967
28	0x3e40c334	0.18824464
29	0xbe803785	-0.25042358
30	0xbed176f5	-0.4091107
31	0xbf035622	-0.51303303
32	0x3ca156eb	0.019694766
33	0xbd86b697	-0.06577795
34	0xbe25c02f	-0.16186593
35	0xbd882d92	-0.06649317
36	0x3edd60d9	0.4323795
37	0xbe88789d	-0.2665452
38	0xbe3c1277	-0.18366419
39	0x3d3ce584	0.04611732
40	0xbd095b87	-0.033534553
41	0x3df0b73b	0.117536984
42	0xbeabbc47	-0.33542082
43	0xbe58e278	-0.21180141
44	0x3d024488	0.031803638
45	0x3ea24809	0.31695583
46	0x3e1ebe92	0.15502384
47	0xbe58d93d	-0.2117662
48	0xbe619e90	-0.22033143
49	0x3e25e9a2	0.16202405
50	0xbcbc4ad6	-0.022984903
51	0xbe9b5ec6	-0.30345744
52	0x3de1f34e	0.11032735
53	0x3e354224	0.17701012
54	0xbe5d892c	-0.21634358
55	0x3d2f9d70	0.042874753
56	0xbe36d894	-0.17856055
57	0xbe2cbe29	-0.16869415
58	0xbe1444f2	-0.14479426
59	0x3e73a7cd	0.2379448
60	0x3e792668	0.24331057
61	0x3e795e8e	0.24352476
62	0x3c9655a8	0.018351391
63	0x3e9b3b8c	0.30318868
64	0xbcb613d5	-0.022226254
65	0x3e2ca422	0.16859487
66	0xbd8d7c1a	-0.06908436
67	0x3d9ce160	0.07660174
68	0x3e32ff31	0.1748016
69	0xbda9bd2d	-0.082880355
70	0xbd7a62a1	-0.061129216
71	0xbe54fd12	-0.20799664
72	0xbdc0c3b0	-0.094123244
73	0xbd446c61	-0.04795492
74	0x3e01b626	0.1266714
75	0x3d424dd4	0.047437504
76	0xbe19131f	-0.149487
77	0x3e19eea3	0.15032439
78	0xbe6d4466	-0.23170623
79	0x3d383854	0.044975594
80	0x3d2d6aad	0.042338062
81	0x3e1c7283	0.15278058
82	0x3e1c9eff	0.15295027
83	0x3e093ed7	0.13402878
84	0xbe38a7dd	-0.18032785
85	0xbe1bd0c0	-0.1521635
86	0x3c666b94	0.014063735
87	0x3d9e161a	0.07719059
88	0xbe34a552	-0.1764119
89	0x3d6e0816	0.05811318
90	0xbdca4919	-0.098772235
91	0xbe26d1c3	-0.16290955
92	0x3c8930b8	0.016746864
93	0xbdc27639	-0.094952054
94	0xbe0fa0f6	-0.14026245
95	0xbcb6380e	-0.022243526
96	0x3dc02079	0.09381194
97	0xbdfe36ad	-0.12412772
98	0xbc5f32e0	-0.013622969
99	0xbe0eb4d1	-0.13936163
100	0xbe90c1d7	-0.28272888
101	0xbdf24b25	-0.11830739
102	0xbc810472	-0.01574919
103	0x3e2f93fb	0.17146294
104	0xbd6a4331	-0.057192985
105	0x3e3abb1f	0.18235444
106	0xbd87fccc	-0.06640014
107	0xbe4ad577	-0.19807993
108	0xbe5c905c	-0.21539444
109	0xbd754ebe	-0.059889548
110	0x3ea121bd	0.31471053
111	0xbdec740c	-0.11545572
112	0x3da2af63	0.079436086
113	0x3e0ce2b3	0.13758354
114	0x3e3c2482	0.18373302
115	0xbd2ac573	-0.04169221
116	0x3d67abd3	0.05656035
117	0x3dbe8cf2	0.09304227
118	0xbd4e2daa	-0.050336517
119	0xbd9fa15e	-0.0779445
120	0xbe7e449a	-0.24830857
121	0xbe113364	-0.1417976
122	0xbccdcd80	-0.025122404
123	0xbe1baa63	-0.15201716
124	0x3d1c8201	0.03820992
125	0xbcf13dac	-0.029448353
126	0xbe0bd810	-0.1365664
127	0x3da2af7b	0.079436265
128	0x3e73c8fe	0.23807141
129	0x3acad62e	0.0015475207
130	0x3e02e171	0.12781312
131	0xbd8e7357	-0.06955593
132	0xbeb6923b	-0.3565844
133	0x3dabedfd	0.08395002
134	0xbd9eb2db	-0.07748958
135	0x3e8034ea	0.2504037
136	0xbea7a879	-0.32745722
137	0x3c2d4472	0.010575401
138	0x3e13a127	0.14416943
139	0xbe92480b	-0.2857059
140	0xbe22bef5	-0.15893157
141	0x3e0b61d4	0.13611537
142	0x3e81d750	0.25359583
143	0x3e165264	0.14679867
144	0xbdced2ec	-0.10098824
145	0x3eac1ea8	0.3361714
146	0x3e557c70	0.2084825
147	0xbeae4963	-0.34040365
148	0x3e09c616	0.1345447
149	0xbcd98260	-0.026551425
150	0x3ea3d53e	0.31998628
151	0xbed30781	-0.41216663
152	0x3de5c4d7	0.11219185
153	0x3d093f29	0.0335075
154	0x3d6799e3	0.056543242
155	0xbdabb94f	-0.08384954
156	0x3c1b70b3	0.009487319
157	0xbe443ba8	-0.19163382
158	0xbdcadc40	-0.099052906
159	0xbecc067c	-0.39848697
160	0xbd4eed02	-0.050518997
161	0x3c0ce68a	0.008599887
162	0xbe1d77e5	-0.15377767
163	0x3dfe5f64	0.12420538
164	0x3cf992c7	0.030465497
165	0x3d4fd843	0.050743353
166	0x3dfd5ff0	0.12371814
167	0xbdc75010	-0.097320676
168	0x3de4890d	0.11158953
169	0xbd628bab	-0.05530898
170	0x3b3dd4e8	0.0028966013
171	0xbe30f016	-0.17279086
172	0xbdac8992	-0.08424677
173	0x3c80d5b8	0.015726909
174	0xbd79e246	-0.061006807
175	0xbe32c534	-0.1745804
176	0x3cd51362	0.026010219
177	0xbe22db60	-0.15903997
178	0xbe085cf5	-0.1331671
179	0xbd98450f	-0.07435047
180	0x3ca321fe	0.01991367
181	0xba0dc629	-0.00054082513
182	0xbb4fd68c	-0.0031713573
183	0x3e27f9ab	0.16403835
184	0xbe57a9d0	-0.21060872
185	0xbe18f0a8	-0.14935553
186	0x3cb47f7a	0.022033442
187	0xbdbbd300	-0.091711044
188	0x3e461af9	0.19346227
189	0xbd2d5d8c	-0.04232554
190	0x3dcb2d7e	0.09920786
191	0x3e2863fd	0.16444393
192	0xbe0505e0	-0.12990522
193	0xbe06314e	-0.13104746
194	0xbdba9f8e	-0.09112464
195	0xbe101be6	-0.14073142
196	0xbda4a296	-0.08038823
197	0xbd7796bf	-0.060446497
198	0x3bffe40b	0.0078091673
199	0x3d0cd2f2	0.03438086
200	0x3dc17755	0.09446589
201	0x3cb30266	0.02185173
202	0xbe37dd18	-0.17955434
203	0xbda32686	-0.07966332
204	0xbbac79e1	-0.0052635525
205	0x3de59f29	0.11211998
206	0xbd96fc34	-0.07372323
207	0xbc456771	-0.012048588
208	0x3dbba87f	0.091629975
209	0x3d90985d	0.07060311
210	0x3e2088dc	0.15677208
211	0xbdbba5a3	-0.09162452
212	0x3dce5930	0.10075605
213	0xbde25402	-0.110511795
214	0x3d8ce5b1	0.06879748
215	0x3e512343	0.20423608
216	0x3c4e9441	0.012608589
217	0xbd03f050	-0.0322116
218	0x3d47961c	0.04872714
219	0xbd32e935	-0.043679435
220	0x3dd43724	0.1036208
221	0x3e1a7915	0.15085252
222	0xbd9554e3	-0.072915815
223	0x3d95b6e4	0.07310274
224	0xbe7755a2	-0.2415376
225	0x3b8eecd2	0.0043617273
226	0x3de390f3	0.11111631
227	0x3c0b3890	0.008497372
228	0x3e91380f	0.28363082
229	0xbda1be4c	-0.078976244
230	0xbc857db2	-0.016295288
231	0xbc6beabf	-0.01439923
232	0xbdccb248	-0.09994942
233	0x3e696a10	0.22794366
234	0xbe387d43	-0.18016534
235	0xbe54319e	-0.20722052
236	0x3cb22c46	0.021749627
237	0x3e42c994	0.19022208
238	0xbe60bb3c	-0.21946424
239	0x3db9d45f	0.0907371
240	0x3db76f42	0.089567676
241	0xbda99c87	-0.08281808
242	0x3e138566	0.14406356
243	0x3d8116b0	0.063031554
244	0xbe3d16d1	-0.18465735
245	0x3e2c269a	0.168116
246	0x3de05db1	0.1095537
247	0xbdac64fb	-0.08417698
248	0xbdcda81f	-0.10041832
249	0xbd0336f0	-0.032034814
250	0xbdaa0207	-0.08301168
251	0x3e3f2322	0.18665746
252	0xbdfa5362	-0.12222935
253	0x3e18c362	0.14918283
254	0x3e42b23a	0.190133
255	0x3d81dea7	0.06341296

lstm.weight_hh_l1 f4 [128, 32]
0	0xbccf90cd	-0.025337601
1	0x3ec4e7ff	0.3845825
2	0xbe6f2249	-0.23352922
3	0x3d9356ea	0.07194312
4	0xbd83fc39	-0.06444592
5	0x3d9c08bd	0.07618854
6	0x3e1b73d6	0.15180907
7	0x3e88602c	0.26635873
8	0x3d225866	0.039635085
9	0xbe00daa7	-0.12583409
10	0xbdd99842	-0.10624744
11	0x3d8950ef	0.0670489
12	0x3e297681	0.16549112
13	0xbda3f36e	-0.08005415
14	0x3eb97579	0.36222437
15	0xbe4b4f10	-0.19854379
16	0x3e0a4c77	0.13505732
17	0xbe3653c5	-0.17805393
18	0x3de71076	0.112824365
19	0xbe503564	-0.20332867
20	0x3e5eb947	0.21750365
21	0xbdac6bc5	-0.08418993
22	0x3e983958	0.2973125
23	0x3de3786b	0.11106952
24	0x3d3461e5	0.044038672
25	0xbd2d6e56	-0.042341553
26	0x3e20cfcd	0.1570427
27	0x3c94979e	0.018138703
28	0xbe92c303	-0.28664407
29	0xbc11b2ca	-0.008892724
30	0xbb6e4f95	-0.0036363353
31	0x3df222f6	0.118230745
32	0x3f45c2f2	0.7725059
33	0xbd8829d1	-0.06648601
34	0xbe02e1cb	-0.12781446
35	0xbe17e6d6	-0.1483415
36	0xbebedb32	-0.37276608
37	0xbdc81981	-0.097704895
38	0x3dccbbdb	0.09996768
39	0x3cdc8cf0	0.026922673
40	0x3ce13a0f	0.027493505
41	0xbe63d201	-0.22248079
42	0x3e594326	0.21217021
43	0x3d02f2e9	0.03196994
44	0x3dea7c6e	0.11449514
45	0xbd9dd1f8	-0.07706064
46	0x3d90d4d6	0.07071845
47	0xbd091069	-0.033462916
48	0x3ea3a493	0.31961498
49	0xbe976e90	-0.2957654
50	0xbe21a3c0	-0.15785122
51	0xbccaed87	-0.024771465
52	0x3da73e2b	0.081661545
53	0xbe80d6de	-0.2516393
54	0x3ddb5011	0.10708631
55	0x3e64d5a3	0.22347121
56	0xbf0bc507	-0.54597515
57	0xbd96af03	-0.073575996
58	0x3df5eb82	0.1200781
59	0xbf0a4aee	-0.54020584
60	0x3d1891ce	0.037248425
61	0xbee5e3c0	-0.44900322
62	0xbde3458d	-0.1109725
63	0x3ef4a0c6	0.4777891
64	0xbde047c4	-0.10951188
65	0x3db6d8cd	0.0892807
66	0x3e0db477	0.13838373
67	0x3c475c49	0.012167999
68	0xbcf53d50	-0.029936463
69	0x3e124393	0.1428359
70	0xbe008234	-0.12549669
71	0x3def3b91	0.11681283
72	0x3db724a9	0.08942539
73	0xbe1334c8	-0.14375603
74	0x3b82b00a	0.0039882706
75	0x3d799c0a	0.060939826
76	0x3d900b02	0.070333496
77	0xbd53a2ec	-0.051669046
78	0x3e1135da	0.14180699
79	0x3d945836	0.072433874
80	0xbe178226	-0.14795741
81	0xbe04069c	-0.12893146
82	0xbd1b74f8	-0.037953347
83	0x3d2d47ce	0.042304806
84	0xbe1e9acc	-0.15488738
85	0x3e0d4307	0.137951
86	0xbdcd8bf4	-0.100364596
87	0x3c5300c9	0.012878605
88	0x3dd67ba7	0.104728036
89	0x3dd38fd6	0.10330169
90	0xbda91b59	-0.08257169
91	0xbe189813	-0.14901762
92	0x3e1267b4	0.14297372
93	0x3d735ab5	0.059412677
94	0x3df00e1d	0.11721442
95	0x3e1daa67	0.15397035
96	0x3a184759	0.00058089715
97	0x3d8159b4	0.06315938
98	0x3d599014	0.05311592
99	0x3dcaddeb	0.09905609
100	0xbe2296a1	-0.15877773
101	0x3ddf4c34	0.109032065
102	0xbe7bc9a2	-0.24588636
103	0x3e952269	0.29127815
104	0x3ead64bf	0.33865926
105	0xbe7163b5	-0.23573191
106	0x3e27b7ed	0.16378756
107	0xbd3c5878	-0.045982808
108	0xbdb8ca19	-0.09022922
109	0xbe75936d	-0.2398202
110	0x3e962a3b	0.29329094
111	0xbe09219b	-0.13391726
112	0x3e159d85	0.1461087
113	0xbdcbe14e	-0.09955083
114	0x3d7116fb	0.058859807
115	0xbe9529b8	-0.2913339
116	0x3e5901ee	0.21192142
117	0xbeafd55a	-0.34342462
118	0x3df73aa7	0.12071734
119	0x3d726c48	0.059185296
120	0xbe1862f2	-0.14881495
121	0x3db2b2fd	0.087255456
122	0x3e98c7c7	0.29839918
123	0x3d8e1e19	0.069393344
124	0xbe9106e0	-0.28325558
125	0x3c4b52fb	0.012409921
126	0xbe1ca0c7	-0.15295707
127	0x3dbebfff	0.09313964
128	0x3dcdfc47	0.10057884
129	0x3e1232c4	0.14277178
130	0xbe641050	-0.22271848
131	0xbd8dfce8	-0.06933004
132	0xbe3b22d7	-0.18275009
133	0xbe5ecbad	-0.21757384
134	0xbe478bcc	-0.19486922
135	0x3e5784b2	0.21046713
136	0xbdd6f630	-0.10496175
137	0xbe3266cc	-0.17422026
138	0x3c292fd6	0.010326346
139	0xbe899912	-0.26874596
140	0xbdc7a9ef	-0.09749209
141	0xbe78a934	-0.24283296
142	0x3eacb9df	0.33735558
143	0xbebef160	-0.3729353
144	0xbd0795b4	-0.033101752
145	0x3c043a98	0.00807061
146	0x3e1cc56e	0.15309688
147	0xbe35be13	-0.17748289
148	0x3dfc9374	0.12332812
149	0xbd3f0673	-0.04663701
150	0x3edc57dd	0.43035784
151	0x3dea2a6e	0.11433874
152	0x3e12d8b3	0.14340477
153	0xbe102916	-0.14078173
154	0x3e93d5f6	0.28874177
155	0xbd026299	-0.03183231
156	0xbe9ec7aa	-0.31011707
157	0xbd02ec20	-0.031963468
158	0xbe948c23	-0.29013166
159	0xbdabaa73	-0.0838212
160	0xbcc5ffcc	-0.024169825
161	0xbe024a8f	-0.12723754
162	0x3ca73c54	0.020414509
163	0xbc480b47	-0.01220972
164	0xbdb58013	-0.08862319
165	0x3e2136bc	0.15743536
166	0x3e07520f	0.13214897
167	0x3e06055d	0.13087983
168	0xbc2876f3	-0.010282266
169	0xbe4b72fd	-0.19868083
170	0x3d301233	0.042986106
171	0x3e2ecac3	0.17069535
172	0x3df7305d	0.120697714
173	0xbd940aab	-0.07228597
174	0x3ca0085b	0.019535234
175	0xbdbb9e1d	-0.09161017
176	0xbd34925d	-0.044084895
177	0x3dc3eb4e	0.09566365
178	0x3e1e925a	0.15485516
179	0xbe524a23	-0.20536093
180	0x3e1308db	0.14358847
181	0xbd68b0a1	-0.05680907
182	0x3d9f93e4	0.0779188
183	0x3e007722	0.12545446
184	0x3da1e7dd	0.079055525
185	0xbdbd66df	-0.09248137
186	0x3dfc6151	0.12323249
187	0xbd71345c	-0.058887824
188	0x3b9ffabe	0.0048821857
189	0x3d5f19fb	0.054468136
190	0xbd4039ab	-0.046929996
191	0xbd2ac09d	-0.041687597
192	0x3e6ebb08	0.23313534
193	0xbdced9ed	-0.1010016
194	0xbdec935b	-0.11551543
195	0xbd893859	-0.067002006
196	0xbe76e46e	-0.24110577
197	0x3e1dd86a	0.15414587
198	0x3dfed30a	0.12442596
199	0xbd50df3e	-0.05099415
200	0x3d9b9f7a	0.07598777
201	0xbddcad38	-0.10775226
202	0x3db0a148	0.08624512
203	0xbe0a9a41	-0.13535406
204	0xbcf89440	-0.030344129
205	0xbde09339	-0.109655805
206	0xbd149c0b	-0.036281627
207	0xbe0793b7	-0.13239942
208	0x3e82fde8	0.2558434
209	0x3d44c63c	0.048040614
210	0xbdaef529	-0.08542854
211	0x3d847d08	0.0646916
212	0x3df45c16	0.119316265
213	0xbd29d60f	-0.041463908
214	0x3e06d37c	0.13166612
215	0xbd5e9315	-0.054339487
216	0xbe6493dd	-0.2232203
217	0xbe47b6ec	-0.19503373
218	0x3df115a3	0.11771705
219	0xbdf431e3	-0.11923578
220	0x3e21844a	0.1577312
221	0xbe2f869a	-0.1714119
222	0xbd33f01d	-0.04393016
223	0x3e22c1e0	0.1589427
224	0x3cb3b00b	0.02193453
225	0x3da1affe	0.07894896
226	0x3e05003f	0.12988375
227	0xbd2d8ec1	-0.04237247
228	0xbd52440e	-0.051334433
229	0x3d375e86	0.04476788
230	0xbded12aa	-0.115758255
231	0xbdcf9818	-0.101364315
232	0x3db36c2c	0.087608665
233	0xbcc017e9	-0.023448901
234	0x3e2513c0	0.16120815
235	0xbd67762d	-0.056509186
236	0x3e07d669	0.13265385
237	0x3c84683a	0.01616298
238	0x3db6e09d	0.0892956
239	0xbda468a4	-0.08027771
240	0x3e20f73c	0.15719312
241	0x3baa4dff	0.005197286
242	0xbde741cb	-0.11291846
243	0xbda55187	-0.08072191
244	0xbbd50b68	-0.006501604
245	0xbdeec473	-0.116585635
246	0xbd999eb2	-0.07500972
247	0xbdbd9091	-0.092560895
248	0xbe983aef	-0.29732463
249	0xbe2b34b6	-0.16719326
250	0x3e16e574	0.14735967
251	0xbe3e156c	-0.1856286
252	0x3c8c9a57	0.017163439
253	0x3c5aba5c	0.013350096
254	0xbdae8b1d	-0.085226275
255	0x3e69e4b4	0.2284115

lstm.bias_ih_l1 f4 [128]
0	0x3df2177c	0.118208855
1	0x3e192857	0.14956795
2	0x3dd81948	0.10551697
3	0x3d0d4e11	0.034498278
4	0x3e269bc4	0.16270357
5	0x3e0b1383	0.13581662
6	0xbd2f7b95	-0.042842466
7	0xbd61192e	-0.054955654
8	0x3d8e4a0e	0.069477186
9	0x3e0b6cd6	0.13615736
10	0x3e279276	0.16364464
11	0x3e415943	0.18881707
12	0x3e0cfc4a	0.13768116
13	0xbda56b33	-0.08077087
14	0x3e1fa406	0.15589914
15	0x3ca39876	0.01997016
16	0x3df844ae	0.121224746
17	0xbde0157b	-0.10941597
18	0x3e42c3dd	0.19020028
19	0x3e661b08	0.22471249
20	0xbdc16afc	-0.09444234
21	0x3dceaa63	0.100910924
22	0x3e97c0bb	0.2963923
23	0x3de6e741	0.11274577
24	0x3d2233ce	0.039600186
25	0x3bbbbad9	0.005729061
26	0x3ddfb1a5	0.10922555
27	0x3d51d236	0.051225863
28	0x3e77e6de	0.24209163
29	0x3e1e3b90	0.15452409
30	0x3db629f2	0.08894719
31	0xbde055dd	-0.10953877
32	0xbd93fefb	-0.07226368
33	0x3dca0a95	0.098652996
34	0xbe5796a2	-0.21053556
35	0xbe17c20e	-0.1482012
36	0xbe31fa1b	-0.17380564
37	0x3d94ddde	0.0726888
38	0xbe273c5f	-0.16331623
39	0x3e22c2a0	0.15894556
40	0xbe31d845	-0.17367657
41	0x3d55883f	0.052131888
42	0xbd2b4e36	-0.041822635
43	0xbe5c8841	-0.21536352
44	0xbcfbe5a6	-0.030749153
45	0xbdfc893e	-0.12330864
46	0xbd1e33d7	-0.038623657
47	0xbe48f120	-0.19623232
48	0xbced9797	-0.029002948
49	0x3e1ff7b6	0.15621838
50	0xbe1238d0	-0.14279485
51	0xbdf9d136	-0.12198107
52	0x3dcd4062	0.10022046
53	0x3e05d42f	0.13069223
54	0x3e04178f	0.12899612
55	0xbcd5af75	-0.026084641
56	0xbda233dc	-0.07920048
57	0x3e0d1d10	0.13780618
58	0xbe198760	-0.14993048
59	0xbb95f306	-0.00457609
60	0xbe5cdc46	-0.21568403
61	0xbddedf15	-0.10882393
62	0xbe6be6c8	-0.23037255
63	0xbd90cec4	-0.070706874
64	0xbb8b2264	-0.004246043
65	0x3d67b6ab	0.05657069
66	0x3df36733	0.11884918
67	0xbd826b1b	-0.06368085
68	0xbdf0972d	-0.117475845
69	0x3e2e6269	0.17029728
70	0xbe126495	-0.14296181
71	0x3da087f5	0.07838432
72	0x3ca2f7ac	0.01989349
73	0xbd29a43d	-0.041416395
74	0x3da75a8a	0.08171566
75	0xbdcd13a8	-0.10013515
76	0x3df185ab	0.11793073
77	0xbda5966b	-0.080853306
78	0x3d32807d	0.043579567
79	0xbcedfb1a	-0.029050399
80	0x3e20dcec	0.15709275
81	0xbe23af93	-0.15984945
82	0x3d93ac29	0.07210571
83	0xbdfa7265	-0.1222885
84	0x3d1ca71a	0.038245298
85	0xbda69453	-0.08133759
86	0x3e3d0df1	0.1846235
87	0x3cbcbf4c	0.023040436
88	0xbdfddc7b	-0.12395569
89	0xbcebc410	-0.028780013
90	0x3e073dfc	0.13207239
91	0xbe1eaaaa	-0.1549479
92	0x3d81ac39	0.06331677
93	0xbc811d4d	-0.015761042
94	0xbe153bf5	-0.14573653
95	0x3dc9c504	0.09852031
96	0x3dfbb50b	0.122903906
97	0x3e0ee930	0.13956141
98	0x3c775653	0.015096265
99	0x3e347691	0.17623354
100	0x3e013c06	0.12620553
101	0xbdd3ae20	-0.10335946
102	0x3e14583d	0.14486785
103	0x3e085df9	0.13317098
104	0xbdcc76c4	-0.0998359
105	0x3d8dca3d	0.069233395
106	0xbddfcdb5	-0.109279074
107	0x3e0c2171	0.13684632
108	0xbdbc6968	-0.09199792
109	0xbd5c5465	-0.053791422
110	0x3d8db25d	0.06918786
111	0xbdaeca7f	-0.08534717
112	0x3d92b619	0.071636386
113	0x3e00ceef	0.12578939
114	0x3e9a406c	0.30127275
115	0xbd5cf7a4	-0.053947106
116	0x3d6e09ae	0.0581147
117	0xbd1f556c	-0.038899824
118	0x3c77b03a	0.015117699
119	0xbdb5992e	-0.08867107
120	0x3dafbe5d	0.08581231
121	0xbdd1e385	-0.10248474
122	0x3e1eae3f	0.15496157
123	0x3e56dd40	0.20982838
124	0x3eb99c87	0.36252233
125	0x3e484da0	0.19560862
126	0x39f867bd	0.00047379537
127	0x3e1e2a75	0.15445884

lstm.bias_hh_l1 f4 [128]
0	0x3cfde032	0.030990694
1	0x3e9dad6f	0.30796382
2	0x3d986cf5	0.07442657
3	0x3e0d3c9f	0.13792656
4	0x3e279af0	0.16367698
5	0xbaba30c6	-0.001420521
6	0x3dd5f619	0.1044733
7	0x3e065ac5	0.13120563
8	0x3de90820	0.11378503
9	0xbda32faa	-0.079680756
10	0x3de1edad	0.11031661
11	0x3e750fba	0.2393178
12	0xbdbde2a6	-0.092717454
13	0xbd485ee8	-0.048918635
14	0xbdf140fd	-0.11779974
15	0x3d80cbcd	0.06288872
16	0x3d92db19	0.07170696
17	0xbe0bf786	-0.13668641
18	0x3e5455c9	0.2073585
19	0xbd91c004	-0.07116702
20	0xbda4a135	-0.0803856
21	0xbe027ec4	-0.1274367
22	0x3e9518a1	0.29120353
23	0xbdbaa12e	-0.09112774
24	0x3d6610ca	0.056168355
25	0x3cd33b2f	0.025785057
26	0x3d349cd9	0.044094894
27	0x3d6d6049	0.057953153
28	0x3e80839e	0.25100416
29	0xbd2e7347	-0.042590406
30	0xbd2f1213	-0.042741846
31	0xbc493c47	-0.012282438
32	0xbc397409	-0.011319169
33	0xbe0b315f	-0.13593052
34	0xbd6740fe	-0.056458466
35	0xbb1d5b71	-0.0024010802
36	0xbd647c34	-0.05578251
37	0x3dac6f33	0.08419647
38	0xbe1e7541	-0.15474416
39	0x3d33ee2b	0.043928307
40	0x3cd38115	0.025818387
41	0x3db3b664	0.087750226
42	0xbdb83e20	-0.089962244
43	0x3d82fccb	0.06395873
44	0xbde54cad	-0.11196265
45	0x3c91f954	0.017819084
46	0xbe051393	-0.12995748
47	0xbda4bfbe	-0.080443844
48	0x3e04c797	0.12966762
49	0x3d82b2bc	0.06381747
50	0xbe648cda	-0.22319356
51	0xbe245070	-0.1604631
52	0xbbbcbe33	-0.005759978
53	0x3d9062aa	0.07050069
54	0x3e228809	0.15872206
55	0xbd575788	-0.05257371
56	0x3b8b2317	0.0042461264
57	0xbd8f9d4f	-0.07012426
58	0xbd82f11b	-0.063936435
59	0x3e12ffd0	0.14355397
60	0x3dc38929	0.095476456
61	0x3db6e1a9	0.0892976
62	0x3cf32418	0.029680297
63	0xbe38d960	-0.18051672
64	0x3e4e96af	0.20174669
65	0x3d1fd0b5	0.039017398
66	0xbe2c4911	-0.16824748
67	0x3d051f46	0.032500528
68	0xbe2544dc	-0.16139549
69	0xbdeb2e91	-0.11483491
70	0x3e2941f3	0.16529064
71	0x3c989468	0.018625453
72	0x3ccfb543	0.025354987
73	0xbdf2df48	-0.11858994
74	0xbda05b31	-0.078298934
75	0xbafc0ab9	-0.001922927
76	0xbcd709ea	-0.026249845
77	0x3d8814c7	0.06644588
78	0x3e15b975	0.14621527
79	0xbd97ba14	-0.074085385
80	0xba2797ea	-0.00063931814
81	0x3d918789	0.071059294
82	0xbe2de01c	-0.16980022
83	0xbdd93959	-0.10606641
84	0x3ddb9fa8	0.107238114
85	0xbe118144	-0.14209467
86	0xbd8ad692	-0.06779207
87	0x3dc81fca	0.09771688
88	0xbe025842	-0.1272898
89	0xbd4e2208	-0.050325423
90	0xbdcb69bc	-0.099322766
91	0x3d7604b8	0.060063094
92	0xbe21d905	-0.15805443
93	0xbd86ef13	-0.065885685
94	0x3d95d855	0.07316653
95	0x3db4551e	0.08805297
96	0xbc89e71c	-0.016833834
97	0x3db541bf	0.08850431
98	0xbd7ac9f9	-0.061227772
99	0xbcab7edf	-0.02093452
100	0xbd49a971	-0.049233858
101	0x3d22ce0d	0.039747287
102	0xba01cea6	-0.00049517525
103	0xbdde2972	-0.10847749
104	0xbb92c204	-0.004478695
105	0xbd5f3fde	-0.054504268
106	0x3e42a29a	0.1900734
107	0xbd8256ff	-0.063642494
108	0xbcec7a70	-0.028866976
109	0x3d27fc64	0.041012183
110	0x3e3d5a48	0.18491471
111	0x3db129b7	0.086505346
112	0x3c866145	0.016403804
113	0xbdbc878a	-0.092055395
114	0x3e557bf3	0.20848064
115	0xbd8d7b31	-0.069082625
116	0xbc8681ec	-0.016419373
117	0x3e49c3a5	0.19703539
118	0x3e920ca2	0.28525263
119	0x3b06a9dd	0.0020548024
120	0x3e001e16	0.12511477
121	0xbd34807f	-0.044067856
122	0x3b85c644	0.004082473
123	0x3e54bd7f	0.20775412
124	0x3df660a8	0.120301545
125	0x3de56070	0.112000346
126	0x3df64abb	0.120259725
127	0x3d97fc08	0.07421118

fc.weight f4 [1, 32]
0	0x3e275c26	0.16343746
1	0xbe50ba35	-0.20383532
2	0xbd665acb	-0.05623893
3	0xbdfeca61	-0.124409445
4	0xbdf84e86	-0.12124352
5	0xbdd03deb	-0.1016806
6	0x3e3b38a9	0.18283333
7	0xbe1ee01d	-0.1551518
8	0xbcdba521	-0.026812138
9	0x3e641eed	0.22277422
10	0x3e01fb7a	0.12693587
11	0xbe5c855f	-0.21535252
12	0x3e69d21c	0.22834057
13	0x3e0cc0ae	0.13745376
14	0xbe1f89bc	-0.15579885
15	0x3dc1c71c	0.09461805
16	0x3e467779	0.19381513
17	0xbe192d52	-0.14958695
18	0xbe61a3b8	-0.2203511
19	0x3e55ca38	0.20877922
20	0xbe070850	-0.13186765
21	0x3e44de46	0.19225416
22	0xbe46e111	-0.19421794
23	0x3e234bfe	0.15946957
24	0xbe6aeae4	-0.22941166
25	0xbdf1b96f	-0.11802947
26	0xbdac988a	-0.08427532
27	0xbe766c4c	-0.2406475
28	0x3e31e96c	0.173742
29	0xbe91b5ea	-0.28459102
30	0x3dd63b77	0.10460561
31	0x3dde7ef4	0.10864058
