lstm_model.pth (torch, 54652 bytes, 9 tensors)

lstm.weight_ih_l0 f4 [128, 1]
000000 58 fd 23 3e 1b c9 a2 bd c2 13 ac bd cc 3b cd bd
       0.16014612 -0.07948514 -0.08402206 -0.10021171
000010 2a 09 4b 3e 6c 2f 26 3c 2a d9 86 be d9 db 93 3e
       0.19827715 0.010143142 -0.26337558 0.28878668
000020 fd 06 6b be f1 a0 e3 3d 98 2d 93 3e 34 fd a0 be
       -0.22951885 0.111146815 0.28745723 -0.3144318
000030 61 e4 c8 bd 52 8d 36 be c9 26 ed bd e8 3b 0b 3e
       -0.09809185 -0.17827347 -0.11579663 0.13597071
000040 bd 93 a6 3e 20 37 20 3e 33 df 15 3d 9b f9 7a 3d
       0.3253459 0.15646029 0.036589812 0.0612732
000050 44 2d 63 bd 39 83 0d bd 5a e0 41 be ed 61 dd 3c
       -0.05546309 -0.03454897 -0.1893324 0.027024234
000060 24 23 23 3e 82 65 aa bd df 1f 28 bb 46 a4 3a be
       0.15931374 -0.08320142 -0.0025653762 -0.18226728
000070 2b 7d e2 3d 88 9a 00 3e 69 52 fd 3d ed 2e ca bd
       0.1105903 0.12558949 0.12369234 -0.09872232
000080 c1 08 9a 3e 2c c3 af 3d ea 31 1e 3e 52 4d d7 bd
       0.30084804 0.08582148 0.15448728 -0.105127946
000090 df 78 bd 3e 68 a8 3f bd e5 e3 96 bd bb b6 d7 3e
       0.3700628 -0.046791464 -0.07367686 0.421316
0000a0 ad 6f d1 3c 91 ed 09 be 98 fc 8f 3d 96 1c db be
       0.025565946 -0.1346953 0.070306 -0.42795247
0000b0 ff 0a 8d be 5c 25 10 ba 3e 38 ad be 2f 56 a5 3e
       -0.27547452 -0.0005498731 -0.33831972 0.32292315
0000c0 16 5c c0 3e fa f0 cf 3d a4 69 6d 3d c2 7a 76 3e
       0.37570256 0.101533845 0.057962075 0.24070266
0000d0 f2 a7 8c bd e4 6f 7f be b6 61 89 be 4b da 00 bb
       -0.068679705 -0.24945027 -0.2683236 -0.0019661363
0000e0 60 41 c9 3e b4 84 17 3d 91 e5 5d be 65 d3 0b be
       0.3930769 0.03699179 -0.21669604 -0.1365486
0000f0 13 8a ff 3d 90 b6 0c 3e 84 15 89 3d 13 2c fb 3b
       0.124775074 0.13741517 0.06693557 0.007665166
000100 63 54 ca be 44 d7 71 3e d6 a1 88 be af f8 33 be
       -0.39517507 0.23617274 -0.2668597 -0.17575334
000110 90 34 a9 be a9 96 2e be f6 ad 7c 3e 48 91 a8 3e
       -0.33047915 -0.1704966 0.24675736 0.3292334
000120 0a 62 96 be 54 1b 5c 3e 25 c5 6c 3e 64 98 17 3f
       -0.29371673 0.214948 0.2312208 0.59216905
000130 9c 5f 85 3e 7b 66 96 be 7e 99 86 3e 31 66 59 be
       0.26049507 -0.2937506 0.2628898 -0.21230389
000140 3a 5f 9e 3e 2d 1c 99 be 97 79 9f 3e b2 84 aa bd
       0.30932027 -0.2990431 0.31147453 -0.08326091
000150 41 01 9e be eb b7 9f be ec aa 67 be 24 0d 5e 3e
       -0.30860332 -0.31195006 -0.22623795 0.216847
000160 9c 44 93 3e 5c 3a 3b 3e 09 0e 40 be 68 4a 9e 3e
       0.28763282 0.18283981 -0.18755354 0.30916142
000170 20 98 28 be 0d 9f 9e bd 96 9b 76 be 48 01 81 be
       -0.16464281 -0.0774518 -0.24082789 -0.2519629
000180 de 3c 26 3e c1 bd 08 3e 63 c3 7f 3d 92 37 d0 bc
       0.16234156 0.13353635 0.062442195 -0.025417123
000190 32 5e a5 3e e4 94 50 3e 24 af 79 bd cd 7a 8e 3e
       0.32298428 0.20369297 -0.060958043 0.27828065
0001a0 a7 4d 03 be 5c 49 eb bd 88 f3 9c 3e 84 9a 06 bf
       -0.12822591 -0.114886016 0.3065455 -0.5257952
0001b0 3d 5a ac be 5b eb 13 bc 20 56 6a be f7 19 64 3e
       -0.33662596 -0.009028281 -0.22884417 0.2227553
0001c0 1c fd e4 3e fa 3c 8c 3e 66 0e 84 3d 88 30 37 3d
       0.44724357 0.2739027 0.06448059 0.044724017
0001d0 81 4f eb bd 89 02 6a be 72 b9 7a be 81 7d 81 3b
       -0.114897735 -0.2285253 -0.24484804 0.003951729
0001e0 f8 72 be 3e 4a f9 94 bb a6 2d 95 bc 0e 6d 0d be
       0.3719709 -0.004546319 -0.018210243 -0.13811132
0001f0 cf 70 39 bd da 83 7d 3e 81 0a 40 3d 9b a8 27 be
       -0.0452736 0.24757329 0.046885017 -0.16372912

lstm.weight_hh_l0 f4 [128, 32]
000000 cc 97 43 be 1d e5 85 bd 4c 10 89 bb e4 ee ef 3e
       -0.19100875 -0.065378405 -0.004182851 0.46861947
000010 7c 7d 9e bd b8 d6 22 be 25 c9 0a bf ad 86 f0 3d
       -0.07738778 -0.15902221 -0.5421317 0.11744437
000020 16 8d 03 3f 24 d2 25 3c 1a ef 05 3d 96 0e 46 bf
       0.51387155 0.010120902 0.03269873 -0.77366006
000030 a6 68 15 bf d1 dc 12 3e 87 de b2 be 24 4e 84 be
       -0.58362806 0.14342047 -0.349354 -0.25840867
000040 25 a1 32 3e 51 73 cd 3c f8 32 a9 be 16 c6 b6 3e
       0.17444284 0.025079401 -0.330467 0.35698003
000050 72 5f 87 3c 1a f3 07 3f 51 20 16 3f d3 8c c1 be
       0.016525004 0.5310532 0.5864306 -0.37802753
000060 df ee 09 3e 65 47 cb bd b0 a2 55 3e 85 a6 73 bd
       0.13470028 -0.09925727 0.20862842 -0.059484977
000070 0b 5e 21 bd 7e 72 29 be 9b 3e 80 bd e0 18 88 3e
       -0.039396327 -0.16547582 -0.06261941 0.26581478
000080 62 12 42 be 91 80 6f 3d 5f 8f 0a 3e a3 8c 0c 3d
       -0.18952325 0.05847222 0.13531254 0.03431381
000090 95 51 2b be 61 2a 6f bd 49 50 87 be 2c 81 24 3e
       -0.1673034 -0.058390025 -0.2642844 0.160649
0000a0 44 9c 31 bd ee 9a 28 be 0b 5a 51 3e 4e 44 30 be
       -0.043361917 -0.16465351 0.20444505 -0.17213556
0000b0 ba 14 34 be 89 21 a0 bd 0e ee 74 be 6a 07 9a be
       -0.17586032 -0.07818896 -0.23918936 -0.3008378
0000c0 9b c4 83 3d a6 3c cd bd 05 4b 6a bc bb ed 5e 3e
       0.06433984 -0.100213334 -0.014300113 0.21770374
0000d0 3e 7b 95 bb 97 e3 53 3e ca 71 08 3e 05 9c 58 be
       -0.0045618108 0.20692287 0.13324657 -0.21153267
0000e0 68 97 c2 3e 58 1e 20 bd 97 09 33 3e 38 6f c9 3b
       0.3800614 -0.039091438 0.17484127 0.0061472915
0000f0 1c af 05 3e e1 0a a5 be 75 68 5e 3d 90 c1 7a 3e
       0.1305508 -0.32234862 0.054298837 0.244879
000100 74 b3 37 be 36 83 27 bd 29 85 61 3d 14 24 49 3e
       -0.1793955 -0.040896617 0.055058632 0.19642669
000110 c0 d1 76 be 1a 79 f3 3c 7b 23 9d be e0 4c 81 3e
       -0.24103451 0.029720832 -0.30691132 0.25253963
000120 5a 57 3c bc 52 05 28 3d f5 fa 8b 3e 3e bd 8a be
       -0.011495436 0.0410207 0.27339903 -0.27097505
000130 29 3d 81 be b3 99 43 3d 4b c5 40 be 61 b1 ee bc
       -0.25241974 0.047754 -0.18825261 -0.029137315
000140 c9 54 2e 3e ba 10 60 be c2 71 23 bd 4a 1c 68 3e
       0.1702453 -0.2188138 -0.03990341 0.22667041
000150 b5 01 1e be 76 11 8e 3e a0 bb 9d 3e 44 8b a2 be
       -0.15430339 0.27747697 0.3080721 -0.31746876
000160 62 e2 60 3e 56 29 08 be c6 3f 51 3e 25 57 dd bd
       0.21961358 -0.13297018 0.20434484 -0.10807637
000170 cf 5f 72 3d 4c 46 06 bc 13 05 b5 3d 26 69 29 3e
       0.0591734 -0.008195471 0.088388585 0.16544017
000180 7c 05 ce bc f6 a9 88 bc 09 f9 e8 bc 11 8b bc 3d
       -0.0251491 -0.016682606 -0.028439062 0.09206212
000190 b4 51 4d be cf 2a 16 3d 82 d8 a4 3d 8e 30 d6 bb
       -0.20050699 0.03666192 0.08049108 -0.00653655
0001a0 da 0f 98 3c 33 af a8 bd f1 1c ec 3d ab 66 9d bd
       0.018562246 -0.082365416 0.11528958 -0.07685598
0001b0 bd e1 c2 bd c8 d2 f9 bc 8f ae af 3c 30 5f fd bd
       -0.095157124 -0.030496016 0.02144554 -0.12371671
0001c0 84 0a 9c 3c b1 d4 8c 3d a3 8c 19 3e bd f5 ca bd
       0.019047983 0.06876505 0.14995055 -0.09910152
0001d0 c2 4d 89 3c 2c c6 4b 3e 88 38 4b 3d bf a8 18 3c
       0.01676071 0.19899815 0.04961446 0.009317576
0001e0 70 3c 0b 3e 1f 3c 6d bd d0 e5 f8 bc 4d e8 3f bd
       0.13597274 -0.057918664 -0.03038302 -0.0468524
0001f0 11 27 34 3e cf c3 e8 bc 16 25 46 bc 18 b4 bd 3d
       0.17593028 -0.028413681 -0.012093803 0.09262866
000200 0c 54 16 be 73 14 1c 3d 0e ef 11 3c 97 0e 74 3e
       -0.14680499 0.03810544 0.008907093 0.2383369
000210 68 6e 89 3d e3 f8 4c 3d ee ec 73 be 30 ef cc bd
       0.067105114 0.050042044 -0.2382085 -0.10006559
000220 96 85 1a bd 68 8a 37 3d a7 05 45 3e 0f 8c b9 be
       -0.037725054 0.04480973 0.19240437 -0.3623967
000230 f9 0f 1b be 30 33 db 3d 6c 53 2d bd 32 7f 6d bc
       -0.15142812 0.107031226 -0.042315885 -0.014495658
000240 f3 de 09 bd df ed 82 be 21 0a 42 be a5 75 42 3e
       -0.033659887 -0.25572106 -0.18949176 0.1899019
000250 ae c4 07 be 5b 5a 0c be 71 b5 b6 3d 5b 3b 4b 3d
       -0.13258621 -0.13706343 0.08921326 0.049617153
000260 c3 e7 4d bb 62 e1 a4 3d 05 78 91 3b 36 b8 9b bd
       -0.0031418658 0.08050801 0.0044393563 -0.07603495
000270 97 b6 d9 bd ef 53 d5 bd 5d 2f 0e be c0 6a e9 3a
       -0.106305294 -0.104164 -0.13885255 0.0017808303
000280 f4 51 80 3c d2 df ce bd 78 27 0f 3e a5 9b 32 3e
       0.015664078 -0.10101284 0.139799 0.17442186
000290 64 eb e4 3b cf e1 2b be 01 29 1c be bd 9c 24 3d
       0.0069860686 -0.16785358 -0.15250017 0.04018854
0002a0 49 de a9 3d 5c 50 97 3d ef 5f 92 bd 52 b9 09 3e
       0.08294351 0.07388374 -0.07147204 0.134496
0002b0 cd 26 16 be de c9 39 3e a0 74 3a be 33 cc 96 bd
       -0.14663239 0.18143412 -0.18208551 -0.07363167
0002c0 7c be 50 ba 41 72 e3 bd 6f cf de 3d 28 e1 12 be
       -0.00079629547 -0.111057766 0.108794086 -0.14343703
0002d0 5a 06 dd bc f9 ff 13 be 03 99 18 3e 18 4c 29 be
       -0.026980568 -0.14453115 0.1490212 -0.16532934
0002e0 76 00 f0 bd 51 c5 20 3e c6 ad a1 bc a1 c7 25 bd
       -0.11718838 0.1570027 -0.019736182 -0.040473584
0002f0 47 3d 24 3e 17 96 90 bd 4d 3b 10 3d b8 63 06 3e
       0.16039 -0.07059877 0.035212804 0.13123977
000300 29 9e 20 be 04 de 6f 3d 6a 49 0c 3e 85 3d 35 3e
       -0.15685333 0.05856134 0.1369988 0.17699249
000310 cc 6e 11 be 5b aa 1a be b9 f5 e0 3d 57 4a 2f 3e
       -0.14202422 -0.15104048 0.10984368 0.17118202
000320 a4 83 25 be a6 4b 14 be 0d 92 34 bb 22 68 c0 3b
       -0.16163498 -0.14481983 -0.0027552873 0.0058717886
000330 f7 75 06 be 59 1e 03 3d 87 1f fc bc 24 fb 3b be
       -0.13130938 0.032011364 -0.030776752 -0.18357521
000340 51 c1 95 3d 28 1c eb bd 4d c3 b6 3d f4 40 da bd
       0.07312263 -0.1147998 0.089239694 -0.1065692
000350 9e 0a 05 3e 1a 35 70 3c 16 24 b5 bd 42 36 aa 3d
       0.12992331 0.014661098 -0.088447735 0.0831113
000360 7e 45 38 3e 8e 1f ea bd e7 4f 22 3e 89 82 07 be
       0.17995259 -0.114318 0.15850793 -0.13233389
000370 43 eb 10 3e 03 5e bc 3d 7d 97 f9 bd b4 a5 29 3e
       0.14152245 0.09197619 -0.12187097 0.16567117
000380 67 69 57 3d 79 df d7 ba a8 af 9a bd 0d 32 9b 3e
       0.052590754 -0.0016469798 -0.07553035 0.30311623
000390 8a 64 04 be 7a c8 30 be 3c ac 0b be a3 dc 5a 3e
       -0.12928978 -0.17263976 -0.13639921 0.21373229
0003a0 2f 80 c7 bc 8b 70 cc 3d 0e 24 89 3e dd 90 80 be
       -0.024353115 0.09982403 0.2678532 -0.25110522
0003b0 b7 be 6f be d7 22 83 3d 44 5e 62 be ac 21 72 be
       -0.23412596 0.064031295 -0.22106272 -0.23645657
0003c0 b9 81 a5 bd c6 bf 87 bd c3 95 98 bd fa 88 60 3e
       -0.08081383 -0.06628375 -0.0745044 0.21927252
0003d0 26 cd f6 bd 80 85 94 3e 3d cb 73 3e 80 66 46 be
       -0.12050848 0.29008102 0.23807998 -0.19375038
0003e0 ca d1 15 3b a3 73 7a bd 56 8a 0d 3e 57 0c 8f 3d
       0.002286064 -0.061145436 0.13822302 0.069847755
0003f0 83 7e 47 be 35 35 2c 3d 53 47 d4 bc 28 b9 94 3e
       -0.19481854 0.04204293 -0.025912916 0.29047513

lstm.bias_ih_l0 f4 [128]
000000 1f e0 a7 3e 24 e8 79 3e fe 04 96 3e 7b 4a 18 be
       0.32788178 0.24404961 0.29300684 -0.14872162
000010 0c f4 5b 3d df 25 33 3e 56 9b 0f bc 1b 15 6a 3e
       0.053699538 0.17494915 -0.008765062 0.22859614
000020 43 a4 8d 3e be 2a 2c 3c 05 dc 02 3e 56 4a 1e 3f
       0.27664384 0.010508237 0.12779243 0.6183218
000030 a4 9e ac 3d f3 b4 02 3d 96 a5 e0 bd eb ca ed 3d
       0.08428696 0.031910848 -0.10969083 0.11610969
000040 de e3 1c 3d 87 a7 50 3e 13 68 7c 3e 81 5b 82 3d
       0.03830325 0.20376407 0.24649076 0.06365109
000050 6d e3 80 3e 12 59 2e 3e bc 99 a4 3d 76 95 2a 3e
       0.25173512 0.17026165 0.08037135 0.16658577
000060 2e 27 66 bd 5c e3 98 3d 0b 7c 55 3e 93 97 39 3e
       -0.05618971 0.0746524 0.208481 0.18124227
000070 c7 63 c4 3d ce 62 e9 3d 84 85 87 bd d6 c9 4c 3e
       0.095893435 0.113957986 -0.06617263 0.1999887
000080 18 d1 3f be c8 b0 e4 bc ad d3 5a 3d b2 bb 11 be
       -0.18732107 -0.027916327 0.053424526 -0.14231756
000090 56 4d 14 be c6 5f 9a bd 2b b2 01 3d 3d 8d 63 3d
       -0.14482626 -0.075377986 0.031664055 0.055554617
0000a0 8d ac 33 be 57 d3 b2 3d 77 1e a5 3d 39 f2 83 be
       -0.17546292 0.08731716 0.08062451 -0.2577074
0000b0 76 4f be bd cf 62 91 3d 7c 0e f2 bc 7c 7f 27 bd
       -0.092925 0.07098924 -0.029547922 -0.040893063
0000c0 2e ae a7 bd 93 2e 3c 3e fe 40 62 3d b1 2f f5 bd
       -0.08187519 0.18377142 0.055237763 -0.11971987
0000d0 f7 0d 17 be af 48 90 bd ca 83 00 3e 78 a1 2c be
       -0.14751421 -0.07045113 0.12550274 -0.1685847
0000e0 88 ef 31 bd ee ef e5 bd c3 64 de bd d4 ab cd bd
       -0.043441325 -0.112274036 -0.108590625 -0.10042539
0000f0 5c 0b 98 bd 3d d6 86 bc 55 86 c4 bd f4 36 22 3e
       -0.07424042 -0.016459579 -0.09595934 0.15841275
000100 e2 9e de 3c d6 78 1a 3e 25 fb 10 3e 78 70 a5 3d
       0.02717537 0.15085158 0.14158304 0.08078092
000110 8a f6 c4 bd aa 0a 05 be 40 b0 06 be 4d 36 85 3c
       -0.09617336 -0.1299235 -0.13153172 0.016261244
000120 25 f9 9d bd 5e 58 18 be f9 47 3a 3e d6 b5 b7 bd
       -0.07713536 -0.1487746 0.18191518 -0.08970229
000130 47 e3 6a bc 9e 73 89 3d ee 01 b5 bd 14 8f 40 be
       -0.014336414 0.06711505 -0.08838259 -0.1880458
000140 b2 23 14 3e 9d 62 cb 3c ec d9 a1 bd 56 46 fa 3c
       0.14466742 0.024827296 -0.079028934 0.030551117
000150 e5 c0 fc bc 8e eb a0 bd 50 42 b2 3d f1 79 3f bd
       -0.030853698 -0.078574285 0.08704054 -0.04674715
000160 dc dc f6 3c e4 f7 8a bd 93 10 7c 3c 52 73 2e bd
       0.03013461 -0.06785563 0.015384811 -0.042590447
000170 1e 9f 24 3e d7 f4 99 bc 2f f6 b6 bd c8 a6 f6 3d
       0.16076323 -0.018793507 -0.089336745 0.1204353
000180 ab 6b 79 3e 22 76 05 3e 95 84 78 3e ec 97 0f 3e
       0.24357478 0.13033345 0.24269326 0.14022797
000190 e0 2c b4 3c 6b 33 0d be 8f 23 8c 3d c7 ad 1c 3e
       0.021994054 -0.13789146 0.0684272 0.15300666
0001a0 43 d2 91 3e 9b a3 98 3e b2 73 ff bd 89 7d 3c 3f
       0.2848073 0.2981232 -0.12473239 0.7362905
0001b0 03 e4 66 3e 93 33 26 3d 1b 19 86 3d e1 0b 10 3e
       0.22547917 0.04057653 0.06547757 0.14067031
0001c0 18 03 bf 3d 3b 02 5c 3e c1 dd 80 bd d5 06 05 be
       0.09326762 0.21485226 -0.06292296 -0.12990887
0001d0 07 59 3e 3c b6 57 7d 3e 61 bc 7c 3d cb 8a 30 3e
       0.011617905 0.2474049 0.06170309 0.17240445
0001e0 cb c1 54 3e 75 34 99 bd 7c d6 a2 bc 09 8e 61 3c
       0.20777051 -0.074807085 -0.019877665 0.013766774
0001f0 37 99 fb 3c 49 57 c6 bd aa 95 1b 3d 29 24 50 3e
       0.030712707 -0.09684617 0.037984528 0.20326294

lstm.bias_hh_l0 f4 [128]
000000 bc 61 a6 3e d7 5d 8f 3e 78 c0 11 3e f4 6d 5c bd
       0.3249644 0.28001282 0.14233577 -0.053815797
000010 2f ec 15 3e 08 30 16 bc d1 f1 0a be 46 de 1e 3e
       0.14640878 -0.009166725 -0.13568808 0.15514478
000020 f7 02 f4 3d 52 f5 80 3e 21 f7 27 be 92 05 0f 3f
       0.11914628 0.25187165 -0.16402866 0.55867875
000030 4f aa 3a bd 8d 54 81 3b e2 a0 87 3c 66 2e 5d bb
       -0.045572575 0.003946847 0.016556207 -0.003374958
000040 9d a7 d9 3d 25 18 97 3e 45 34 82 3d e1 cc 0b bd
       0.10627673 0.29510608 0.06357626 -0.034130935
000050 7a 46 80 3e 86 58 39 3e b4 65 aa bd e3 fb cd bd
       0.2505377 0.18100175 -0.083201796 -0.10057809
000060 64 c4 53 3e 6b 7f 03 3e 7a a8 e9 bd a5 02 9d bd
       0.20680386 0.12841575 -0.114090875 -0.0766652
000070 24 2f c8 bd ac 22 e4 3d b2 0b 5e 3e 4b 38 ac 3c
       -0.09774616 0.11139426 0.21684149 0.021022936
000080 e1 3d 86 3a b7 b7 ad 3d e7 87 54 be 4b 44 8e 3a
       0.001024183 0.084823065 -0.20754968 0.0010854093
000090 b7 5c 08 be 17 58 f3 bb 01 a0 01 3e 70 df 97 bd
       -0.13316618 -0.0074262726 0.12658693 -0.07415664
0000a0 ee 91 ba bd ec 38 2c be 9e ea bd bd 82 d7 84 be
       -0.09109865 -0.16818589 -0.09273265 -0.2594567
0000b0 5c 04 3a 3e 47 a9 ca 3d fa 51 09 3e 2c 39 c3 3d
       0.18165725 0.09895568 0.13410178 0.09532389
0000c0 7f 51 93 bd 29 bd 01 be 69 94 e7 bd a2 0b b8 bd
       -0.071932785 -0.12669815 -0.11307604 -0.08986594
0000d0 4e a1 cc 3d 7c d7 dd bd 6b 24 82 3d f6 43 23 3d
       0.09991704 -0.10832116 0.063546024 0.039859734
0000e0 4e 75 23 3e 42 ce 60 bc 32 a8 4a bc 28 05 0c 3e
       0.15962717 -0.013721051 -0.012369202 0.13673842
0000f0 c8 47 24 3e c0 96 1f be 17 8a 19 be dc 56 b0 3b
       0.16043007 -0.1558485 -0.14994083 0.005381448
000100 e8 64 1a be 53 26 c2 bd 15 a4 0c be b5 ec 8f 3c
       -0.15077555 -0.09479966 -0.13734467 0.017568925
000110 1b a0 b5 bd cd 0a 65 3d d8 36 0e bd 6d 7b 2e 3e
       -0.08868428 0.055918504 -0.03472027 0.1703927
000120 eb 62 d4 3d fc 6c e6 3d 4f 82 53 bd 4b 27 09 3d
       0.103704296 0.11251256 -0.051637944 0.03348474
000130 35 df 05 bc 06 f4 f2 bd bc 13 4c bd 4b 55 82 3d
       -0.0081708925 -0.1186295 -0.049823508 0.063639246
000140 12 9b 8b 3d 87 49 29 be 5b 1b ef bc ef df 35 3e
       0.06816687 -0.16531955 -0.029187849 0.17761205
000150 40 60 e2 ba f8 57 17 3e e6 ae 3c 3d 30 11 96 bd
       -0.0017271116 0.14779651 0.046065234 -0.07327497
000160 ab 07 97 3d 11 4b cd 3c d6 14 92 3d 17 c5 a7 3d
       0.073745094 0.025060209 0.071328804 0.08191889
000170 d0 6a 0f be fb e6 ae bd 5c d4 a3 3d 74 06 d1 3d
       -0.1400559 -0.0854015 0.07999489 0.10206309
000180 2a 71 d5 3e e0 33 0b bb bd 9b e9 3d 95 95 a3 3d
       0.416879 -0.0021240637 0.11406658 0.07987515
000190 1f 91 aa bd 72 8e bb bc 52 bf ca 3c ce 3a 41 bc
       -0.08328461 -0.022895072 0.024749432 -0.011793805
0001a0 d4 43 eb 3d c9 88 1a 3e a9 5d fe bd 2a 20 39 3f
       0.114875466 0.15091242 -0.12420208 0.72314703
0001b0 58 5c c7 3c fa 18 7e 3e ca d5 a6 3d 6a 03 07 3e
       0.024336025 0.24814215 0.08146246 0.13184896
0001c0 04 a7 15 3e 8f b0 d4 3d c2 ea db bc 3c ab 55 be
       0.14614493 0.103852384 -0.02684534 -0.20866102
0001d0 b7 3b ae 3d 4c f0 6a bd 45 7c 40 3d ca ca 01 bd
       0.085074835 -0.05735807 0.046993513 -0.031687535
0001e0 08 17 0d 3e 47 93 4a 3d be 49 fb 3d e0 76 64 bd
       0.13778317 0.04945686 0.122699246 -0.05577743
0001f0 14 33 63 3e 64 a4 7f bd d7 2a c3 ba b2 db 83 bb
       0.22187454 -0.062412634 -0.0014890087 -0.0040239925

lstm.weight_ih_l1 f4 [128, 32]
000000 3a 09 19 3e eb 6c f7 3c 2d 9e 5d 3e bb 05 98 3e
       0.14944926 0.030203303 0.2164237 0.29691872
000010 67 33 6b bc 3f 3e d2 3d 37 dc 81 be fb 9e 83 bd
       -0.014355517 0.10265779 -0.25363323 -0.064268075
000020 3c 61 86 3d 07 f1 14 3d 22 75 0f 3e 5c 46 0d be
       0.06561515 0.036362674 0.14009526 -0.13796371
000030 cd de 7f be 68 d1 94 3d 9d d0 07 be 43 bd 98 3d
       -0.24987336 0.072665036 -0.13263173 0.07457974
000040 04 ce 9b 3e a0 cb f1 3a 94 73 8f be d2 84 09 3e
       0.30430615 0.0018447526 -0.28017867 0.13429573
000050 1a fc 90 3e 60 84 80 3e cc 28 76 3e ef 16 97 3c
       0.28317338 0.25100994 0.24039 0.018443553
000060 c1 08 e5 3d e6 10 8d bc f9 3f 56 bd 30 85 90 be
       0.1118331 -0.017219972 -0.052307103 -0.28226614
000070 ea 56 87 bc e1 b1 8c be 87 a9 99 ba 8c db 86 3d
       -0.016520936 -0.2747946 -0.0011723497 0.06584844
000080 c3 90 c4 bd b6 e4 00 be 3a 0b 95 3d 8b eb df 3d
       -0.095979236 -0.12587246 0.07277532 0.10933598
000090 16 51 b5 3c 33 f8 f4 3b f2 f4 13 be 0f e8 fd 3d
       0.022133391 0.0074758767 -0.14448908 0.12397777
0000a0 e9 90 c2 bc 04 35 de bd 4f 9a ed 3d 00 97 39 be
       -0.02375074 -0.10849956 0.11601698 -0.18124008
0000b0 38 0b 49 3d 19 36 a4 3d fd e8 c7 bd 29 77 3d be
       0.049082965 0.08018131 -0.09761236 -0.18502487
0000c0 de a8 87 bd cb f1 18 bd 1e 2b 8c bd c1 7b aa bd
       -0.06624006 -0.037339967 -0.068441615 -0.083243854
0000d0 3c 20 75 bd e9 2d 48 3e 2a 2a d4 bd ce 5d 5f be
       -0.059845194 0.19548763 -0.10359605 -0.21813127
0000e0 e1 2f 36 3e dd 5d 3e be f8 d5 26 bd 27 68 cb bc
       0.17791702 -0.18590494 -0.0407314 -0.024829937
0000f0 47 7e 40 3e e2 88 b2 bc 29 04 20 3e 08 06 e8 3d
       0.18798171 -0.021793786 0.15626587 0.11329275
000100 7f 5f df bd 6d 7c 7e 3c 26 73 03 3c 92 4c 56 3d
       -0.10906886 0.015532595 0.008023059 0.052319117
000110 d6 58 e5 be 36 62 03 3d 27 c2 b5 bd 14 54 dc 3d
       -0.4479434 0.032076083 -0.08874922 0.10758224
000120 7e 0b 8f 3e 29 f4 4d bd 30 2b 7d 3d aa 61 72 bd
       0.27938455 -0.050281677 0.061808765 -0.05917517
000130 85 aa 19 be bd c5 d3 3d 03 99 56 be da d9 31 bc
       -0.15006454 0.1034045 -0.20956807 -0.0108551625
000140 55 47 b1 3e 36 8b db 3d 74 d9 a7 bd 81 9f 0c 3e
       0.34624735 0.10719912 -0.08195773 0.13732721
000150 91 62 99 3d 47 28 29 3e 18 d5 3d 3e 2b 7b 1f be
       0.07489503 0.16519271 0.1853832 -0.15574329
000160 16 04 45 3e 2e eb 35 be 15 fb 96 3d 5e 9b 0b bd
       0.1923984 -0.17765495 0.07372109 -0.034083717
000170 b8 b7 01 3e 20 e5 ec be 72 94 a2 3d f8 1b 74 3e
       0.1266774 -0.46268559 0.0793847 0.23838794
000180 8f 0c 30 be 3d 4e 80 3e 0d 58 a0 be c2 4b ad 3d
       -0.1719229 0.2505969 -0.31317177 0.08461715
000190 e9 eb 69 be 5e 04 30 3d 88 1d 10 bd 22 ae 62 3d
       -0.22843899 0.042972915 -0.035184413 0.055341847
0001a0 eb 6b ee bd bd 07 24 3d 21 53 0b 3e 62 95 19 3e
       -0.116416775 0.040046442 0.1360593 0.14998391
0001b0 5f 5c f6 3c 69 66 d9 bd 9e 81 07 bc 46 7c 51 be
       0.030073343 -0.10615236 -0.008270649 -0.20457563
0001c0 87 f5 d5 3d 0b 8d 89 bd 8c cc 1c 3e 6f 21 41 bd
       0.10447221 -0.06716355 0.15312403 -0.047151025
0001d0 91 a1 3e be 73 34 b9 bd d4 5d 75 3d c2 f7 16 bd
       -0.1861632 -0.09043207 0.059903935 -0.036857374
0001e0 43 d5 59 3e 52 44 ae bd c7 0a b9 3d 36 5b 55 3c
       0.21272759 -0.08509125 0.09035259 0.013022235
0001f0 ac 64 56 3d f2 d7 d7 3c 49 93 e7 bd 49 1e 03 3e
       0.052342102 0.026348088 -0.11307389 0.12804522
000200 19 e3 89 3d 71 10 a2 bd a1 fb ba 3d 57 05 05 3d
       0.067327686 -0.07913292 0.09130026 0.032475796
000210 76 6e a3 bd a8 7d 2a bc cf 43 22 3e 01 ad b8 3b
       -0.07980053 -0.010405935 0.1584618 0.005635858
000220 ed 0d 49 be 71 90 97 3d a1 37 67 bb 57 20 a4 3d
       -0.19634219 0.07400597 -0.003528096 0.08013981
000230 70 7e e2 bd 10 7c b5 bd c8 7a 50 3d 21 32 6b 3d
       -0.11059272 -0.08861554 0.050898343 0.057420854
000240 82 15 41 bd f0 60 53 3e a7 56 5d bd e5 c5 d8 3c
       -0.047139652 0.20642447 -0.054037716 0.026461551
000250 05 39 08 3e 7b 2e b4 bc 16 29 2e be 02 7e 89 bc
       0.13303001 -0.02199482 -0.1700786 -0.016783718
000260 01 c0 4b 3c 93 e6 30 3e 4f a1 ba bd 4f 7b 2d be
       0.012435914 0.17275457 -0.091127984 -0.1694157
000270 78 1f ee bd 0f 26 28 3d ad db c3 3d fa eb 4b bc
       -0.11627096 0.04105192 0.09563384 -0.012446398
000280 8b ed 82 bd 2e 54 49 3e 5f 65 ec bd 38 9f 2e bd
       -0.06392964 0.19661018 -0.115427725 -0.04263231
000290 8b ff 83 bd 5b 98 6a bd bb a9 d8 bc d5 9c bf 3e
       -0.06445225 -0.057274204 -0.026448121 0.3742434
0002a0 a8 e7 e9 bd e7 f8 79 3e 42 3b 89 3d 8f ba f9 3d
       -0.11421138 0.24411355 0.06700756 0.12193786
0002b0 1f 0e 2d 3e ee 2a bf bd 31 f6 42 be 3f c4 fa bd
       0.16899918 -0.0933436 -0.19039227 -0.12244462
0002c0 f8 e4 2e 3e 36 a8 b6 bd 33 05 8e 3d 22 99 74 3e
       0.17079532 -0.089188024 0.069345854 0.2388654
0002d0 63 06 d3 bd b0 f3 9c bb 31 cc 1b 3b 99 4f 62 be
       -0.103039525 -0.004789792 0.002377283 -0.22100677
0002e0 9b fa 3b 3e 66 9d 49 be 99 42 06 3e 95 7e 71 3e
       0.18357317 -0.19688949 0.13111342 0.23583443
0002f0 8b 23 8c be 19 09 0b bd 4b d4 96 be 3c 2c 15 bd
       -0.27370867 -0.033944223 -0.29458842 -0.03641914
000300 9e 10 09 be cb 45 1c bd 81 d9 d7 bd 54 9c 08 3e
       -0.13385245 -0.038152497 -0.105395325 0.13340884
000310 4e bb a5 bd b6 0d 13 3e ee 53 69 bb 71 53 7e 3c
       -0.08092366 0.14360699 -0.0035603005 0.015522824
000320 fc bd de 3d aa 09 d6 bb 5a 9f c1 3d 82 c3 f1 bd
       0.108760804 -0.0065319138 0.09454222 -0.11804868
000330 16 2d a9 3d e9 79 6a 3d df 4b 02 be 89 f6 e0 3d
       0.082605526 0.05724517 -0.12724255 0.10984523
000340 9f b6 51 3e 14 6c 2c be 24 b4 23 be 5c 00 37 3e
       0.2047982 -0.16838104 -0.15986687 0.17871231
000350 9d 9d 9a 3d 22 43 49 3d b8 f2 2e 3e d9 7f 26 bc
       0.075495936 0.04913629 0.17084777 -0.010162317
000360 0e 75 7f 3e ef f6 28 be 15 8e 35 3e 5b f9 e4 3d
       0.24946997 -0.16500448 0.17729981 0.11180373
000370 dc e0 11 be 1d 9d 06 be 9b 0c 1e 3e a1 be 41 3e
       -0.14245933 -0.13145871 0.15434496 0.18920375
000380 c0 ea 6f be 47 2c 2f 3e 63 0f 1f bd 0a a2 ea bd
       -0.23429394 0.17106734 -0.038833033 -0.11456688
000390 48 b2 bf bd cb 24 cc 3d 63 e8 f6 bc 86 c8 7f 3c
       -0.09360176 0.09967955 -0.030140107 0.015611773
0003a0 53 55 32 bd ed 2d 23 3e 93 fc 88 bd 30 67 c0 3d
       -0.043538403 0.15935488 -0.066888 0.093946815
0003b0 c2 b3 cc 3d 1d 16 0e 3e 8e 8e e3 bc f3 cb d0 3c
       0.099952236 0.13875623 -0.027777936 0.025487876
0003c0 36 ce f9 3d 10 4c a3 bd 4d da c5 bc 5d e3 42 bd
       0.12197535 -0.07973492 -0.024151945 -0.04758011
0003d0 f3 6b 58 be 5b 2f 02 be e1 51 43 3e b9 83 a0 ba
       -0.2113493 -0.12713377 0.19074203 -0.0012246288
0003e0 fe 8d 94 3e c2 c6 38 be da e0 4f 3e 63 c5 96 3d
       0.2901458 -0.1804457 0.20300618 0.07361867
0003f0 8d 71 2b be cf ac c9 bd 51 63 3d 3d 82 75 97 bd
       -0.16742535 -0.09847414 0.046237294 -0.0739546

lstm.weight_hh_l1 f4 [128, 32]
000000 a1 04 41 3e 1e 57 30 be 48 40 bd 3b f7 14 d4 be
       0.18849422 -0.17220733 0.005775485 -0.41422245
000010 a3 f0 e9 3d 2d ef d9 3e 91 d0 ad bd 5a 14 e3 3e
       0.11422851 0.4256529 -0.084870465 0.44351465
000020 b4 03 24 be 80 47 84 be 9a 62 e0 3c fe 64 0b 3e
       -0.16017038 -0.258358 0.027390767 0.13612744
000030 b8 06 f7 3e 30 0a ac 3d 53 d4 27 3e a8 bb 1b 3f
       0.48247313 0.084003806 0.16389589 0.60833216
000040 51 7a 34 bd 20 4d 72 be 9d d8 61 be 54 9d 77 be
       -0.044061963 -0.23662233 -0.22055288 -0.2418111
000050 a9 ef ef 3e 2c 39 93 bd ed 67 bc be 58 2b e5 3e
       0.46862534 -0.07188639 -0.3679804 0.4475963
000060 c3 1f 8a 3d b0 1d 32 3e 83 9d 9d 3d 8e 93 21 3d
       0.06744339 0.17394137 0.076960586 0.03944736
000070 d4 4e e6 bd 23 d2 26 be 4d 9f 1a be 27 03 9a 3e
       -0.11245504 -0.16291098 -0.15099831 0.3008053
000080 af cd 28 3e 26 3f 1a 3e 6b 65 82 bc 88 ed 04 bd
       0.16484712 0.15063152 -0.0159175 -0.03245309
000090 f1 d4 6e bc a5 3b 88 3e 7f c1 7e bd 56 79 5b bd
       -0.014577136 0.26608005 -0.06219625 -0.05358251
0000a0 3a fb 3e bd 34 8d b4 3d ae 91 71 bd 3d 18 2a bc
       -0.046626307 0.08815995 -0.05897682 -0.010381755
0000b0 4c 13 1d 3e c4 b2 a9 3d 27 0b a8 bd 51 28 85 3d
       0.15339392 0.0828605 -0.08205252 0.0650183
0000c0 c7 12 36 be ba a8 34 be 99 d5 46 be cc 0a 4e be
       -0.177806 -0.17642489 -0.19417419 -0.20121306
0000d0 9a 6d 6a bd ec 45 3b 3e b3 8e 93 bd 5d b6 b8 3c
       -0.05723343 0.18288392 -0.07204952 0.022547895
0000e0 53 13 3f 3d db d3 de bd 77 73 fa 3b 27 0d e8 3d
       0.04664929 -0.10880252 0.007643159 0.113306336
0000f0 02 37 db bd 36 44 80 bd 7a c4 37 be b4 b9 b1 bd
       -0.10703851 -0.0626301 -0.17946044 -0.08677998
000100 0a eb d7 3c 8c 9c 96 3d e2 2a 9b bd 48 62 b7 be
       0.026357193 0.07354078 -0.075765386 -0.3581717
000110 07 76 2e bc 10 56 16 3f 76 b4 28 3d 4e e1 c9 3e
       -0.010648257 0.5872507 0.041187726 0.39429706
000120 04 95 30 be 49 a9 eb bd 2c e3 60 be ea 6f 08 3d
       -0.17244345 -0.11506898 -0.21961659 0.033309855
000130 de 0a 00 3f 94 c0 57 be c0 bb 63 3a 45 80 48 3f
       0.5001658 -0.21069556 0.000868734 0.78320724
000140 c1 b3 13 be 92 ec 2f be c9 09 2f be 45 99 b0 be
       -0.1442404 -0.17180088 -0.17093576 -0.34491935
000150 e5 00 0b 3f 6a ed 2a 3e b7 14 fb be 5e fe 20 3f
       0.5429824 0.16692129 -0.49039242 0.62888134
000160 e8 61 09 3d 0e 1a 75 bd bc 0f d0 bd 7f 97 1d 3e
       0.033540636 -0.0598393 -0.10159251 0.15389822
000170 b3 9f 5b be ed 01 2d 3d df 14 f6 bd 3f 48 45 3e
       -0.21447639 0.042238165 -0.120156996 0.19265841
000180 22 51 b7 3e 42 11 9a 3d 99 14 b1 be 42 fd f5 bb
       0.35804087 0.07522823 -0.34586027 -0.0075069973
000190 a7 b3 5b bd 49 1b aa bc bb 5e 90 bd 97 f5 8d 3d
       -0.053638127 -0.020764964 -0.070493184 0.06931608
0001a0 33 f7 2d bd 78 30 33 be db 28 b9 3c ce a3 8b 3d
       -0.042472076 -0.17498958 0.02260249 0.06818353
0001b0 d1 1a a5 3d 01 62 02 be f4 34 9b 3e 28 a9 69 3e
       0.080617554 -0.12732698 0.30313838 0.22818434
0001c0 1b cc 1f be e9 71 6e be 0a da 0a be 8d 6f 30 be
       -0.15605204 -0.23285641 -0.13559738 -0.17230053
0001d0 2a 93 c2 bb cd 94 4c 3e 9b 17 b2 3d 40 72 a4 bd
       -0.0059379535 0.19978638 0.08695909 -0.08029604
0001e0 42 a2 c5 b8 5f 73 d3 bd 63 aa b3 3d 0f 18 95 3e
       -9.423915e-05 -0.1032474 0.08772733 0.29119918
0001f0 a6 2e ad be a4 53 5d bd a7 8a dc bd a3 33 24 3e
       -0.33824652 -0.054034844 -0.10768633 0.16035323
000200 a3 3f 72 3d 19 cd c8 bd b8 c9 21 3e e3 0c 85 3d
       0.05914272 -0.09804744 0.15799606 0.064965986
000210 f5 d2 68 be e2 29 32 be a5 21 ed 3d af dc 98 bd
       -0.22736724 -0.1739879 0.11578683 -0.07463967
000220 95 58 07 3e c3 27 e6 3d d5 ac fd 3d 5c 9a 3e be
       0.13217385 0.11238053 0.12386481 -0.18613571
000230 8c 49 17 3e 94 ac 77 bb aa fc 00 be e9 7f 05 3e
       0.1477415 -0.0037792074 -0.12596384 0.13037075
000240 ab e8 b0 3d 3d e2 e5 3d 9d b5 63 3c b1 04 39 3e
       0.08638128 0.11224792 0.01389828 0.18068196
000250 a6 6f 5e bd 23 b8 54 bd 4b ba 1b 3e f3 a1 1a 3e
       -0.054305695 -0.05193342 0.15207784 0.15100841
000260 48 48 e5 bc 11 83 85 3d f9 7a a7 3d db 71 0b bd
       -0.027988568 0.065191396 0.08177752 -0.034044128
000270 e3 f7 02 3e 01 69 f7 3c 3a fd 1c 3e b0 ad a7 bd
       0.12789874 0.030201437 0.15330973 -0.08187425
000280 04 e0 75 3d 65 5c 62 be 4b c0 96 be a8 1a 8b 3b
       0.06002809 -0.22105558 -0.29443583 0.004245121
000290 2d c5 9c bd 69 73 f9 bd 10 d3 9c bd 47 a4 63 3e
       -0.07654796 -0.12180216 -0.076574445 0.22230636
0002a0 a0 dc 99 be 50 81 c5 be 32 5f d0 3d a1 c2 3b 3d
       -0.30051136 -0.3857522 0.10174407 0.04583991
0002b0 2e 38 f3 3d b2 a3 d9 bc d1 17 34 3e eb 54 8e 3e
       0.1187595 -0.026567314 0.1758721 0.27799162
0002c0 43 f8 b1 3e 33 1b 59 be a6 bb a9 bd 48 1c 71 be
       0.3475972 -0.21201782 -0.08287744 -0.23545945
0002d0 35 f8 07 3e 4a 2b b6 3d 2c ab 2e be f8 fc fc 3d
       0.13278277 0.088949755 -0.17057484 0.123529375
0002e0 bb 91 b4 bd 29 52 2e bd 9b f1 73 bd 11 89 b9 3e
       -0.088168584 -0.042558823 -0.059556585 0.36237386
0002f0 b2 70 33 be ff 9f 26 be ed 40 42 be a7 dd a7 3e
       -0.17523459 -0.16271971 -0.1897008 0.32786295
000300 35 c8 5f bd 23 09 33 3e 6d c8 11 3d 86 da 31 be
       -0.05463429 0.17483954 0.03559153 -0.17368516
000310 d6 37 3f 3e 72 fd 85 3e 97 a0 a9 3d 27 f5 01 3e
       0.18673643 0.26169926 0.08282583 0.12691174
000320 66 21 fc bc 26 05 31 bd 91 4f ff bc 9c 23 02 3e
       -0.030777644 -0.0432178 -0.03116587 0.12708896
000330 57 26 a2 bd 3a f5 ae bd d5 57 70 bc a5 03 c4 bc
       -0.07917469 -0.08542867 -0.014669378 -0.02392752
000340 49 08 44 be aa 8c 06 3d b8 81 73 be 29 4b 61 be
       -0.19143786 0.03284899 -0.23779953 -0.22001328
000350 34 c3 2e 3d 0a 6d 62 3e ba b6 ac 3d 91 ae b8 bd
       0.04266663 0.22111908 0.0843329 -0.09017671
000360 dd ec 0c 3d 41 98 a0 bc f4 b5 3d 3e 56 3f b9 3d
       0.034405578 -0.01960385 0.18526441 0.090452835
000370 0b 9f 15 bd 51 d7 56 be 95 60 7e 3d 53 96 92 bd
       -0.03652863 -0.20980574 0.062103827 -0.07157578
000380 2b 9f 80 3e 04 5f 3b bd 2f 58 37 be dc 59 2c be
       0.25121436 -0.04574491 -0.17904733 -0.16831154
000390 98 5b d8 3d 1c 49 a4 3c 1f ac 36 bd 18 8a f4 3d
       0.10564345 0.020054393 -0.04459774 0.11940402
0003a0 ef 81 ac bd 54 8f 1f be dc 25 a0 be 8d 5b f2 3d
       -0.0842322 -0.15582019 -0.31278884 0.11833868
0003b0 55 d3 5d 3e 35 e1 ac bc 7b e6 0f 3e ba 71 f0 3d
       0.21662648 -0.02110348 0.14052765 0.117404416
0003c0 5d e2 26 be dc ed bb bd bc 73 42 3d f3 19 ca bd
       -0.16297288 -0.091762275 0.047473654 -0.09868231
0003d0 9c 59 cd bd b3 db 80 bc cf 87 bf bd e7 13 f8 3d
       -0.10026857 -0.01572976 -0.09352075 0.12113171
0003e0 c0 c3 13 3d ef 16 f5 3c 77 78 49 3e 02 8a 6e 3e
       0.036075354 0.029918162 0.1967486 0.23294833
0003f0 bf e1 57 be 8a 19 19 bd 54 2a 58 be b1 a8 8a 3a
       -0.21082209 -0.03737787 -0.21109897 0.0010578838

lstm.bias_ih_l1 f4 [128]
000000 56 e7 5b 3d 61 70 92 3d b1 d2 9a 3e 42 d5 0b 3e
       0.053687416 0.07150341 0.3023887 0.1365557
000010 b9 2e c9 bc 66 b7 b3 bd 1c 03 7c 3d 03 3d 49 3e
       -0.024558412 -0.08775215 0.061526403 0.1965218
000020 15 34 79 bd ec a6 41 3d 7b ab 8d bd 30 02 e7 3d
       -0.060840685 0.04727833 -0.06917473 0.11279714
000030 c9 0c 84 3d 67 a6 88 3e a0 0c 8f 3e 6a 39 08 3e
       0.06447751 0.26689455 0.2793932 0.13303152
000040 4a c4 ac 3e 0a ee 78 3d d1 b8 14 3e b5 3b 9f 3d
       0.33743507 0.060773887 0.14523627 0.0777506
000050 29 0d ea bb 54 49 8b 3d bb f9 97 bc f6 ef 97 bd
       -0.007142682 0.068010956 -0.018551698 -0.07418816
000060 9d 92 0a be ca 26 80 3d ef 9b 49 3e 3b c1 df 3d
       -0.13532491 0.062573984 0.1968839 0.10925528
000070 79 a2 c8 bd 2a 8e 54 bd 65 fa 97 3d 90 4f c4 3d
       -0.09796614 -0.05189339 0.07420806 0.09585488
000080 a5 59 0f 3d b8 e4 e1 3d 7d 71 b9 bd 75 fd 05 bd
       0.0349976 0.11029953 -0.09054849 -0.03271242
000090 67 51 84 bb 1a d2 f6 bd 0a f6 7b 3c 94 d6 ec 3d
       -0.004038024 -0.120517924 0.0153784845 0.11564365
0000a0 34 e8 1b be 3f ae 16 be f5 b6 c4 bd 7c 2d cf bb
       -0.15225297 -0.14714907 -0.09605209 -0.006322561
0000b0 ae 69 48 3d f9 02 08 be 5f f7 96 bd 91 fa 0c be
       0.04892891 -0.13282384 -0.07371401 -0.13767458
0000c0 6a d8 2c bd 7f d5 0b bd ed d2 e7 bd c6 04 c8 bd
       -0.042198576 -0.034139153 -0.11319528 -0.097665355
0000d0 4a 85 a0 bd 4d 7d 48 be ab 97 02 be 63 8a 25 be
       -0.07837923 -0.19579048 -0.12753169 -0.16166072
0000e0 3c ea 31 3d f1 53 26 be 86 a4 8a bd 5a e3 d2 3d
       0.043436274 -0.16242959 -0.067696616 0.1029727
0000f0 c0 42 06 be dc 95 ed bd ba 14 88 bd 73 ee 18 3d
       -0.131114 -0.11600849 -0.06644578 0.037336778
000100 75 f6 f9 bc d7 b0 2c be 0b 46 11 be 97 bb aa 3d
       -0.030513028 -0.16864334 -0.14186876 0.08336561
000110 91 69 37 bd 9f 6d d9 3d 87 11 18 bd ac 72 17 bc
       -0.04477841 0.10616612 -0.03712609 -0.0092436485
000120 ae 92 ec bd ae 74 e9 bd 46 fc b2 bd f6 fb c9 3d
       -0.115514144 -0.11399208 -0.087395236 0.09862511
000130 33 66 87 3d d6 49 e0 3c de f2 b1 bd 03 f1 6f 3e
       0.0661129 0.027378958 -0.08688901 0.23431782
000140 17 bb c1 bd 2f 5b 1e bd 17 11 3b be 7b e1 12 be
       -0.09459513 -0.03866118 -0.18268238 -0.14343826
000150 4f 1e c2 bd 32 59 05 3e 34 84 02 be ac bc 11 bd
       -0.09478437 0.13022307 -0.12745744 -0.035580322
000160 c6 e5 24 be 3b 2a 03 be 24 2e e5 bd 69 37 dc bc
       -0.16103277 -0.12809078 -0.11190441 -0.02688189
000170 c0 d9 fc bd ee d9 fb bd 12 ab 8a bd 33 16 d8 3d
       -0.1234622 -0.12297426 -0.0677091 0.10551109
000180 39 ea 28 3e ac 47 7a bb 11 c8 5d 3e c9 de 76 3e
       0.16495599 -0.0038189692 0.2165835 0.24108423
000190 96 c2 01 be 89 eb ab bd 01 c0 ce bc 28 16 29 3d
       -0.12671885 -0.08394534 -0.025238039 0.041280895
0001a0 7f 11 89 3e 58 c4 78 bb b1 91 25 3c 6a ad 8c 3e
       0.2677116 -0.0037958827 0.010105536 0.27476054
0001b0 86 bc a9 bd 0f fe df 3d 4f bc 70 3e cf 00 1f 3e
       -0.08287911 0.1093713 0.23509334 0.15527652
0001c0 a7 f9 a0 3e 89 59 61 3e 45 b8 80 bd 5e ba 08 be
       0.3144047 0.22006811 -0.062851466 -0.13352343
0001d0 d6 2b 8d 3d 6b d6 50 3e 56 e9 1d be 10 18 42 3e
       0.06893127 0.20394294 -0.15421042 0.18954492
0001e0 fd ad 55 3e 5f 58 00 3e 10 ea dc 3d 21 c0 f3 3d
       0.20867153 0.12533711 0.107868314 0.1190188
0001f0 06 67 8a bd b5 df e5 bd f4 bc 33 3d 7a 14 29 3e
       -0.067579314 -0.11224309 0.04388137 0.16511717

lstm.bias_hh_l1 f4 [128]
000000 d4 3b 62 3e 79 36 23 3e bc c0 ad 3e 2d 84 61 3e
       0.22093135 0.15938748 0.33936107 0.22023077
000010 80 24 b7 bc b4 db b7 bd 45 0e c8 3d 75 97 b7 3d
       -0.022356272 -0.08977452 0.09768347 0.08964435
000020 fa 45 a8 3d 27 8f 4b 3e e2 4a 23 3d c1 e6 84 3d
       0.08216472 0.19878827 0.039866336 0.06489325
000030 32 23 e7 3d 79 b0 ee 3d 80 16 81 3e 82 e3 e7 3d
       0.1128601 0.11654753 0.2521248 0.113226905
000040 2b 2f 96 3e d4 79 1f 3c 16 56 83 3e a4 72 3f bd
       0.2933286 0.009733636 0.25651616 -0.04674019
000050 ae c7 f6 3d 5a a9 91 3d 83 d8 fa 3d 93 d8 29 bd
       0.12049805 0.07112379 0.122483276 -0.041466307
000060 b0 c3 81 bc de 61 16 3e 60 82 3c bc 5c 3b 58 3c
       -0.015840381 0.14685771 -0.011505693 0.013197746
000070 eb 1e 37 bd 1c 93 65 3e 2f b9 f3 bd d0 28 ab 3d
       -0.04470722 0.22419399 -0.11900555 0.08357394
000080 65 1b 14 be 47 c5 97 3d 78 24 fc bd 60 a5 00 3d
       -0.14463575 0.074106745 -0.12311643 0.031407714
000090 fc de 02 be 1f 52 7c 3c ee 66 e1 3d 81 b1 11 3e
       -0.12780374 0.015400439 0.110059604 0.14227869
0000a0 72 ad 11 bd d8 6d 10 3e f3 a2 36 3e 38 00 51 bc
       -0.0355658 0.14104402 0.17835598 -0.0127564
0000b0 30 12 05 be e3 3a fe 3d 60 35 20 be 82 54 85 3d
       -0.12995219 0.124135755 -0.15645361 0.06510259
0000c0 4c bb 14 be 56 34 30 be 10 d7 5a bd c4 04 0d be
       -0.14524573 -0.17207465 -0.053427756 -0.13771349
0000d0 ac 01 42 be 62 ec f7 bd 83 e5 c6 bc b5 8f 61 bd
       -0.1894595 -0.12105633 -0.024279362 -0.05506869
0000e0 cd 25 1d 3e 67 12 1d be 91 0d 2c be 47 63 00 be
       0.15346451 -0.15339051 -0.1680205 -0.12537871
0000f0 c1 0e e3 bd 7e fa fe 3d fa 04 3e 3d 0c 31 81 3d
       -0.110867985 0.12450121 0.046391465 0.06308183
000100 75 51 ac 3c 87 8b df 3d c1 53 fb 3b 4d 52 32 be
       0.021034935 0.109152846 0.0076698964 -0.17414208
000110 eb da 01 3e 73 fa ed bd 9d 79 98 bd ed b0 f8 3d
       0.12681167 -0.11620035 -0.07445071 0.12143121
000120 ad b6 87 bd aa 12 f2 3d 76 35 fe 3d bf ad f5 b9
       -0.066266395 0.11819966 0.124125406 -0.00046859492
000130 71 e2 16 3a 42 3d d4 bc 80 8c c4 3d 0f ad 8e bd
       0.00057557883 -0.025908116 0.09597111 -0.06966602
000140 8f 40 12 3e 38 46 20 be 38 a9 ff bd 9f 10 50 bd
       0.1428244 -0.15651786 -0.12483448 -0.0507971
000150 7f aa 0d 3e f9 a8 cc bd 0f 55 2a be b7 67 bd 3d
       0.1383457 -0.099931665 -0.1663401 0.09248298
000160 8d 69 1a be 9d 8b 67 3d 23 b3 11 3d 94 65 00 3c
       -0.15079327 0.05652963 0.03557123 0.007836718
000170 6c ec 11 bc 79 56 f3 3c 4e 0f e1 bb fa b4 a5 bb
       -0.008906465 0.02970432 -0.0068682795 -0.0050569745
000180 c5 93 aa 3e e7 72 f1 3c 33 78 8f 3e af f6 1c 3e
       0.33315864 0.029473735 0.28021392 0.15328477
000190 87 f3 bd bd ee db f2 bd 41 ec 54 3e ad c5 d4 3d
       -0.09274965 -0.118583545 0.20793249 0.10389266
0001a0 24 79 84 3e 11 91 ea 3d 4c d5 18 3e e0 d4 b9 bb
       0.25873673 0.114534505 0.14925116 -0.0056711286
0001b0 df ab 15 3e fb 68 b8 bc 96 28 ed 3d a2 49 d2 3d
       0.14616345 -0.022510996 0.11580007 0.102679506
0001c0 ac e3 20 3e e9 11 7d 3d ce cf 1e 3e bc 5c cd bc
       0.1571185 0.06178466 0.15508959 -0.025068633
0001d0 02 bb 29 be 7c 31 a1 3d 5c 7a fe 3d db be e8 3b
       -0.16575244 0.078707665 0.12425682 0.00710283
0001e0 65 b4 ec 3b 6f a2 da bc d7 52 23 3e c6 16 e4 bd
       0.007223653 -0.026688782 0.1594957 -0.11137156
0001f0 87 17 f2 bd 53 3d 0a bc 39 d6 cf 3d b4 98 04 3e
       -0.11820894 -0.008437472 0.101482816 0.12948877

fc.weight f4 [1, 32]
000000 3c 6b 2b be 2a 4b 32 be f7 03 2d 3e df 7f 4e be
       -0.16740125 -0.17411485 0.16896044 -0.20165966
000010 e9 3b 0c 3d e0 b7 0a 3e d8 e7 2c be 26 cc 4a 3e
       0.034236822 0.13546705 -0.16885316 0.19804439
000020 aa 62 35 3e f3 5f 88 be f2 4e 50 3e 76 34 61 be
       0.17713419 -0.26635703 0.20342615 -0.21992669
000030 f2 f9 bc 3d 21 08 1e 3e cf ea f2 bd a1 47 81 3e
       0.09227361 0.15432788 -0.118611924 0.2524996
000040 bf 16 8c 3e a6 9d 57 3e 63 f4 5e be db e6 42 bd
       0.27361104 0.21056232 -0.21772914 -0.047583442
000050 1c bf 16 3e f7 47 12 be be 73 07 be 94 39 56 3e
       0.1472134 -0.14285265 -0.13227746 0.20920402
000060 76 7d 35 3e 53 41 8d be c5 08 17 be ed df 70 3d
       0.17723641 -0.275889 -0.14749439 0.058807302
000070 bf 2e 08 3e be f2 21 3e 2c dd 1a 3e 8b 07 d2 3d
       0.13299082 0.15815255 0.15123433 0.10255345
