lstm_model.pth (torch, 54652 bytes, 9 tensors)

lstm.weight_ih_l0 f4 [128, 1]
00000000: 7292 7e3e 2d06 7f3e adbb 033d 3145 57be
00000010: 2c86 50bd 8746 5d3a dc74 c63d 7746 4abe
00000020: 7c4f 113e 10a8 1cba b302 33be fa4e 283d
00000030: 803f 563d 73d1 8dbe 03ee c8bd 726b c73b
00000040: 26cb 743e 012a b83d e905 ed3c aba6 a13e
00000050: a47e 68bd 87b1 923e 39e6 85be 95a4 8e3e
00000060: f337 543e 29f3 d3bd 5fc1 66bd acad 123e
00000070: 3516 50be ddd6 473d c2bd 623c 0e0a f33c
00000080: 9018 2e3e 08dc 163e e49a 67bd a434 41be
00000090: 9e57 2b3e bbd1 5dbe 0ba9 7dbd 1dab 97be
000000a0: 83c4 5e3e 1fda 8f3e ca7c 8ebd 6446 66be
000000b0: 984c a23e 4734 a1be 78a1 a5be 70b1 b03c
000000c0: 17c9 8c3e bce9 9ebd cd90 19be 13c5 753e
000000d0: 4ecb 82be 4018 903e 601f 33bd 09b1 c63e
000000e0: 93ec 373e 4e46 58be 843b 6dbe ee67 563e
000000f0: 89a4 c83c 189f 6f3c adb1 8ebe ac36 6d3e
00000100: c7f7 883e c31a 9c3e d106 983e b8fd 233e
00000110: b538 03be 7bb7 ed3d af4a 04be 2654 8f3e
00000120: 3339 bebe 258a 843e 7725 863e 1d33 423e
00000130: 2c30 5d3d 5d4e 61be bffe ba3e 74bf 663e
00000140: 2e8f ff3d 1096 9f3e f5cc b43e 7534 433e
00000150: 5f4a 853e 34e3 b63e 68be f43d cc78 8e3e
00000160: 98b9 5b3e d964 97be f8ce afbe 8a7a 803e
00000170: e6bc a5be 38b8 813e 7b50 54be 8b6f 94bd
00000180: 3070 913e 6a3a 6e3e 84d6 b6bd 1b8d 4cbe
00000190: a02c 3c3e bc16 25bd d74a 623c e036 00bf
000001a0: 7777 b53e f028 b23e 66fb cabd ee2d d63b
000001b0: 4084 a73d b0d2 acbe 5580 86be be19 3abc
000001c0: 49eb 9a3e d73a 563d f31b 20be 6d3c 843e
000001d0: e907 2abe 8163 a83e f4b7 3cbe 7a74 923e
000001e0: 060e 0f3e 3db2 aabe fc9f 8ebe 0a70 383e
000001f0: 4be8 07be f800 ab3e 32d9 99be 0e8a 463e
0.24860552 0.249047 0.032161403 -0.21022488 -0.050909206 0.00084409904 0.09690258 -0.19753443
0.14190477 -0.0005975971 -0.17481498 0.041090943 0.052306652 -0.2769886 -0.09811022 0.0060858065
0.2390562 0.089923866 0.028933482 0.3157247 -0.0567614 0.28651068 -0.26152208 0.2785994
0.20724468 -0.103491135 -0.056336757 0.14324063 -0.20320971 0.048788894 0.013839187 0.02966788
0.17001557 0.14732373 -0.0565442 -0.18867737 0.16732642 -0.21662037 -0.06192879 -0.29622737
0.21754651 0.280961 -0.069573954 -0.2248779 0.3169906 -0.31485197 -0.32349753 0.021568984
0.2749717 -0.07759425 -0.14996643 0.24000959 -0.25545734 0.281435 -0.043731093 0.38806942
0.1796134 -0.21120569 -0.23167235 0.20938084 0.024492519 0.014625333 -0.2786993 0.23165387
0.2675154 0.30489168 0.296927 0.16014755 -0.12814601 0.11607262 -0.12919115 0.27993888
-0.37153015 0.25886646 0.26200458 0.1896481 0.05400102 -0.2200255 0.3652248 0.22533971
0.12478481 0.31169176 0.3531262 0.1906298 0.26033303 0.35720217 0.119503796 0.27826536
0.21457517 -0.29569128 -0.34337592 0.2509349 -0.3237068 0.2533586 -0.20733826 -0.07247838
0.28405905 0.2326447 -0.08927634 -0.19975702 0.18376398 -0.040304884 0.0138117885 -0.5008373
0.35442707 0.34796858 -0.09911232 0.006536237 0.081795216 -0.33754492 -0.26269785 -0.0113586765
0.30257633 0.052302208 -0.15635662 0.2582735 -0.1660458 0.32888415 -0.18429548 0.2860449
0.13970193 -0.3333911 -0.27856433 0.1801149 -0.13272206 0.33399177 -0.3004852 0.19388601

lstm.weight_hh_l0 f4 [128, 32]
00000000: 81e7 3a3e 049d 673c bdd9 bbbe dc31 83be
00000010: 7d4e 17be 53b5 11be 38b0 58bc adce 0abe
00000020: e19b fb3d ed56 173b 1d76 d8bd 5c45 b9bd
00000030: 91c6 2f3e fce4 223e b088 44be a168 243e
00000040: 3e55 e5bb ae3f fbbd 0d46 90be 3e7b 8cbd
00000050: 0d14 b3be 43c6 093e d996 93be e8c2 313e
00000060: 52f0 553e 449e 7e3e 8e42 a93e f127 a8bc
00000070: 0349 913e be54 183e 4055 183e 615e 97bd
00000080: a60b 383e 26fd 423e 217d 4bbe 0c25 f6bc
00000090: 0d7d 46bd 81c2 fabd 7c05 49bc 8f9f 76be
000000a0: c04b 013e e273 db3d 7b19 0a3b f281 cabd
000000b0: f40a 3e3e ac67 753d 76bc 8abe a1b6 d3bd
000000c0: 1d4a 3a3e ece4 8cbe b7fe 5cbe ce8c aabd
000000d0: 6ad6 4dbd 5f4c ef3d f779 6c3c 2612 573e
000000e0: bb55 253e 0db0 113e f641 353e 1fe0 fdbd
000000f0: 5e9d 943e b9be 05be 5807 9b3d 7674 1c3d
00000100: bd8a 7f3e 0d86 37bd 58de 1dbd 9732 9e3d
00000110: 8d01 74be a34e dc3d ea96 f6bd dfba babc
00000120: 969d bfbd e315 ef3d 2bcf 52be 83b4 6abe
00000130: 22da 6a3e 036c 323e abc0 3dbe 7579 bcbb
00000140: 3784 cd3d f157 2dbe 9643 c93d 885f 653e
00000150: 2be3 73be 5a57 c73d 7880 5dbe 54c2 c13e
00000160: cb31 883e 9526 4d3e 2cb9 073e 240e e93d
00000170: 4358 5bbd 0fd3 5e3e 58ba 673e c7c4 94be
00000180: bf2f 10be 93aa c3bd a54f 9a3d dadf c2bd
00000190: 0e81 02be 944a a6bd c823 c33d 3cbd 073e
000001a0: b1d2 1ebe 6252 b53d fc91 49be 999b 2cbe
000001b0: fd49 8dbd 32c9 1f3e d6d1 e03d 0c75 123d
000001c0: 80ad 98bd f0fb bbbd c13b 1a3e 7af2 9c3d
000001d0: 61d5 053e c29c 893d 2c2a 6cbd d27f a8bd
000001e0: c1ce e93c 51d8 7f3d 7c4b 363a 736c 223e
000001f0: 110d 303e 68fa 14be d8f6 0c3c 3af2 0bbe
00000200: e2d1 7f3d d92e eb3d 04d5 003c ade9 273c
00000210: 6ddc 99bd cf73 8b3d 724c c73d 344c b03d
00000220: b642 c63d 815b 3e3e 1727 bc3d 1efa e13a
00000230: ff33 b5bd ceb8 04be 7c05 63bd e37f 23be
00000240: 8b5b 1f3e 2acd 943d 7df3 b4bd d3c9 06be
00000250: 1acb 44be 9cd6 f53c b22d c3bd 66ea 07be
00000260: 1ea0 143e 6557 6dbd 79fa 763d a541 38be
00000270: 44af 223e 9967 b43d 5cea ecbd c99c 183e
00000280: 37b4 85bd b16d 94bd 3a27 f0bd 31b6 0d3e
00000290: db54 253d c56a c6bc e3b4 1b3e 2810 ed3d
000002a0: c5b6 e43d 7573 a5bd 00c0 063e f2c6 cf3d
000002b0: 856b f6bd 0cd9 debc 4082 ee3d abc5 ffbd
000002c0: a675 a5bd 1b35 483b dda1 a7bb 1c07 2b3d
000002d0: f535 2fbe 3f2c 8abd 78b8 e13c e821 4c3e
000002e0: 660d 15be 29ca 463e 706c eabd f773 313e
000002f0: d8cd e6bd 6df2 f6bc e699 1cbe 93ce c53b
00000300: d278 963d 59e6 eb3d 38de 27be 1d39 17bd
00000310: fe4d 0dbe 33a7 e23b 7d89 0f3d bb57 133e
00000320: 6098 173e dc4c 013c a797 163c a8e2 bfbd
00000330: ebfe 5c3b 89b9 a63b 6169 abbd b25f f03d
00000340: 1b18 1b3b a44d c0bd 658c 1cbe c2b4 f5bc
00000350: 7be4 d23d b369 fd3d 6833 49b9 31a5 00bd
00000360: a683 fb3d 2705 e83c 3f04 4a3e 2666 a8bc
00000370: 00aa 2b3c e17f ebbd 4fe9 d03b be8d e03c
00000380: e074 24bd d07c 8d3e c228 33be 02c3 883d
00000390: d95b e8bd dfd6 3ebe 3634 b0bd be58 d43d
000003a0: 9726 0d3c b919 b1bb 3b16 7fbd 6030 41be
000003b0: 4f29 823e 00e2 e5bc 4e82 663d 5daf 4a3e
000003c0: 2064 523e 9354 0abd bde3 443c 7da4 0b3e
000003d0: 650f e7bd 34bd 6f3e 5564 bf3d 76f1 e33d
000003e0: 5961 f6bc d454 543e 45f0 713d 187d 97bc
000003f0: cde9 533c caaa 873e 9032 863c 005c 4ebe
0.18252374 0.014136557 -0.3668956 -0.25623977 -0.14776035 -0.14229326 -0.013225608 -0.13555403
0.12285591 0.0023092583 -0.10569403 -0.090464324 0.17165591 0.15907663 -0.19192767 0.16055538
-0.006998687 -0.12268005 -0.28178445 -0.06859444 -0.34976235 0.13454537 -0.28826025 0.17359507
0.20892456 0.24865061 0.3305859 -0.020526858 0.28376016 0.14876077 0.1487627 -0.07391048
0.17973194 0.19041881 -0.19871952 -0.030046962 -0.0484591 -0.1224413 -0.012269374 -0.24084304
0.12626553 0.10715462 0.0021072316 -0.09888066 0.18558866 0.059913322 -0.2709691 -0.10337568
0.18192334 -0.27518404 -0.21581541 -0.083276376 -0.05025331 0.116844885 0.014433376 0.21003017
0.16145985 0.14227314 0.17700943 -0.12396263 0.29026312 -0.13061036 0.0756976 0.038197003
0.24955268 -0.044805575 -0.03854212 0.07724493 -0.23828717 0.10757186 -0.12040503 -0.022794185
-0.09356229 0.116740964 -0.20586841 -0.22920422 0.22934774 0.17424016 -0.18530528 -0.0057517835
0.100349836 -0.16928078 0.09827344 0.22399724 -0.23817126 0.09733458 -0.21631038 0.37843573
0.2660049 0.20034249 0.13254231 0.1137965 -0.05355097 0.217602 0.22629678 -0.2905638
-0.14080714 -0.09554019 0.07534722 -0.095153525 -0.12744543 -0.081196934 0.09528309 0.13255781
-0.1551006 0.08853604 -0.19684595 -0.16856231 -0.06898878 0.15604094 0.10977523 0.035756156
-0.074549675 -0.09178913 0.15061857 0.07663436 0.13069679 0.06719352 -0.057657406 -0.08227505
0.02854097 0.062462155 0.0006953997 0.15861683 0.17192484 -0.14548647 0.008603774 -0.13666621
0.06245602 0.11483545 0.007863287 0.010248584 -0.07512746 0.06809198 0.09731378 0.086082846
0.09680693 0.18589593 0.09187143 0.0017240678 -0.08847808 -0.12961122 -0.055425152 -0.15966754
0.15562265 0.072656944 -0.08835504 -0.13162927 -0.19218102 0.03000956 -0.095302 -0.1327301
0.14514205 -0.057944674 0.060297463 -0.17993791 0.15887171 0.08808822 -0.11568138 0.14903559
-0.06528514 -0.072474845 -0.11726232 0.13839032 0.040364128 -0.024220834 0.15205722 0.11575347
0.11167673 -0.08078662 0.1315918 0.10145368 -0.120322265 -0.027203105 0.11645937 -0.12488874
-0.0807908 0.0030549231 -0.005115731 0.041754827 -0.17110427 -0.067467205 0.027553782 0.19934809
-0.14555892 0.19413055 -0.11446464 0.17329393 -0.1126973 -0.030144894 -0.15293083 0.0060365885
0.073472634 0.11518545 -0.16393363 -0.0369197 -0.13799283 0.0069169044 0.03504323 0.14388935
0.1480422 0.00789186 0.00919143 -0.09369403 0.003372128 0.0050880355 -0.08369709 0.117370024
0.002366549 -0.09389809 -0.15287931 -0.029993419 0.102974854 0.12373676 -0.00019188004 -0.03140754
0.12280969 0.02832277 0.19728182 -0.02055652 0.010477543 -0.11499 0.006375469 0.027411338
-0.040150523 0.27634287 -0.17496017 0.0667782 -0.113456436 -0.18636654 -0.086037084 0.10368489
0.008615158 -0.0054046777 -0.06227706 -0.1886611 0.2542214 -0.028061867 0.056276612 0.19793458
0.20546007 -0.033772063 0.012017188 0.13636966 -0.11282233 0.23412019 0.09345309 0.111300394
-0.030075716 0.20735484 0.05906703 -0.018492267 0.01293416 0.2649749 0.016381532 -0.20152283

lstm.bias_ih_l0 f4 [128]
00000000: d812 693e 356e 313e 7f08 5cbc c118 9f3d
00000010: 3f64 ab3d e471 893c c4ed b03d 8764 1b3d
00000020: 76e8 8e3e 2917 da3d 5387 153e 58ca dabd
00000030: edab 083d df29 53bc f2bf 68bd 0c42 a73c
00000040: 9b2b fb3d c22d 913d bc6d 1abd 52d3 08be
00000050: 5ac7 593e 42ec d03d f385 81bc 5d15 6b3e
00000060: cf24 293e a1b4 f63d 1d33 3d3e 24db aebd
00000070: 7b22 2f3e 3379 0a3e f316 c9bd 76df a1bd
00000080: ba9c 313e a0ae b63d 5b04 17bd 05e1 09be
00000090: a32f debd 34cb 16be 5e63 db3d bec1 003e
000000a0: 8e94 093e e9ff fd3d 21f3 c1bc e720 1a3e
000000b0: 1fe2 37bd 3dc4 1c3e 268e fcbd 04ad 983d
000000c0: ef1a ec3d ecce 843d 8615 debd 253b 23be
000000d0: 054b d9bd 51cd b3ba ea1b ce3c 85b7 8ebd
000000e0: 9ecf 2b3e 6b8c 193b 6caf 2c3e a615 003d
000000f0: 8033 d9bc e281 e53d 8911 fbbc 19a6 063c
00000100: b634 243c 72c9 7abd 5c1a 0fbe d2b4 f7bd
00000110: 37c6 b1bd 8fac 0e3d 5b7e 7cbd d31c dd3d
00000120: 687a 193d 4e9c 0a3e 0f91 a6bd 6f8c d7bd
00000130: 956b c33d a37d 0f3d dc22 3abd 3e6b 243e
00000140: b7db 023e 5aa5 8abd c389 253c 3b06 6f3d
00000150: c300 9a3a fe0b 5b3d 5b29 4e3c deb3 3b3d
00000160: feb5 263e 5a16 033e 1a3a 043e 2bed 393e
00000170: 23a5 e53c a9d5 a73d a114 5e3d df24 67bc
00000180: 05d6 8c3d c694 6b3e ab29 1b3e 3b8c cb3d
00000190: 5f48 c83d 2c3e d23d f8a6 703d 6c30 823d
000001a0: 3ae3 973e 6228 4d3e c528 5e3d cc89 1dbe
000001b0: 40b7 bebd 8124 cb3d c068 fa3c 4241 ce3c
000001c0: e460 e9bd 763e d3bd 886f 1a3e 531b c63d
000001d0: 923a 373e fcf2 8fbb 6bd4 523a c217 293d
000001e0: 9c57 413e e51c f73c 5945 933e 161a bf3d
000001f0: a95e 383d 81c9 5b3d 1f5b dc3d a725 2a3e
0.22761095 0.17327197 -0.01342976 0.07768393 0.0836873 0.01677794 0.086391 0.037937667
0.2791173 0.10648949 0.14602403 -0.10683125 0.033367086 -0.012888401 -0.05682368 0.020417236
0.122641765 0.07088806 -0.037702307 -0.13361862 0.21267453 0.102013126 -0.015810942 0.22957368
0.16517948 0.12046171 0.1847653 -0.085378915 0.17102997 0.13522796 -0.0981883 -0.0790395
0.17344943 0.08920026 -0.036869388 -0.13464744 -0.1084893 -0.14725953 0.10712312 0.12573907
0.13435575 0.124023266 -0.023675503 0.15051614 -0.04489338 0.15309234 -0.123318 0.07454875
0.11528575 0.0648478 -0.10843949 -0.1594053 -0.10610012 -0.0013717805 0.025159795 -0.06968597
0.16778418 0.0023429643 0.16863793 0.031270646 -0.026513815 0.11206414 -0.03064801 0.008218312
0.010022333 -0.06122727 -0.13974899 -0.120950356 -0.086803846 0.034832533 -0.06164394 0.107965134
0.03747025 0.13536188 -0.081331365 -0.105248325 0.09542004 0.035031926 -0.0454434 0.16056535
0.12779127 -0.067698196 0.010103646 0.05835555 0.0011749495 0.053478234 0.012583102 0.04582583
0.16280362 0.12801495 0.12912789 0.18156879 0.028032845 0.08195049 0.054218892 -0.014107912
0.068767585 0.23005971 0.15152614 0.09938856 0.09779429 0.102657646 0.058752984 0.06356892
0.29665548 0.20034936 0.0542381 -0.15384597 -0.09312296 0.09919072 0.030567527 0.025177602
-0.113954335 -0.10314648 0.15081608 0.096731804 0.17893437 -0.0043929797 0.0008042517 0.041282423
0.18881077 0.030165145 0.28763846 0.093311474 0.04501215 0.053658966 0.107595675 0.16615926

lstm.bias_hh_l0 f4 [128]
00000000: ed29 863e 4a2f b4bd 7073 f23d b802 303d
00000010: 7c0f c0bd 27dd 653d 2bae 8f3d 99bf babd
00000020: 2a97 3d3e 9c79 ffbd 8448 22be 7fe1 21be
00000030: d25c fbbd d0d5 4a3e b733 5cbb b800 2a3d
00000040: 66ac 923d f4fb 993d 763e 683e 940e 7dbd
00000050: 1fd2 bcbc 0585 ef3d 875f 103e eb3f dfbc
00000060: b21f b43d 0d5c ca3d feff 313e d149 97bd
00000070: 3209 a03c fe02 0d3e 56f2 853d 9bf9 26be
00000080: 5dd2 cbbd 2e84 6e3d 665d 34bd dcb4 debd
00000090: bca3 f43c c158 abbd bc1d 93bd d6a7 bebd
000000a0: 9772 fa3a b562 36bc 3696 00be f64e bd3a
000000b0: 0019 b0bc c03c eabd 66ec 4dbe 5774 a23d
000000c0: f049 8ebd fbb3 323b 7cdf 143e ca75 dd3d
000000d0: 0c0c e23d ed17 39bd 192d 083e e1ed b63d
000000e0: 91be 323c cdbf 22be 5178 df3c 2139 56be
000000f0: 2acc 793c cd43 a4bc f16a 2a3e 4b5a 0d3e
00000100: 420f cd3d 7d34 b83d c7fd 4d3d 4b3e d6bb
00000110: 7b30 41be 844a 9cbd 8dcd 0c3e 26b0 27be
00000120: abee f3bd 6ab9 ad3d b171 0ebe 6bf3 a1bd
00000130: 7baf 813d ab63 3d3d 1e14 04be 017c 1dbe
00000140: f8ce 1a3e 0bf6 5fbd 360b 8cbd 3127 2d3e
00000150: dbe9 8b3c 6242 763d 2027 f5bd 7640 1a3e
00000160: 1f74 d9bc d698 023e e8af 0dbe f6ba 18be
00000170: 57cb ee3d cc1c 813d d6cc 1f3e 3063 49be
00000180: 0d7b 6e3e 8696 44bd 1276 0e3d f650 19be
00000190: d50a acbc eb11 b5bc 46d8 01be 01ca 42bd
000001a0: a9c7 493e b00c 00be cb6c ed3d fc5a f2bd
000001b0: 323b bd3d 8dab ca3c 9d50 663d d367 413e
000001c0: 93d3 e1bb 6d2a a1bc a8a9 3abd 803e 903c
000001d0: 8270 503e 6b9c 6d3e 5edf 123e b658 003e
000001e0: a48f cd3d 84a1 c53d 93a3 003e f1e5 26bd
000001f0: c1a9 853e cdf9 cd3d c6af bfbd 2465 e3bd
0.26203862 -0.08798082 0.11838424 0.042971343 -0.093779534 0.05611911 0.07015642 -0.091185756
0.18514696 -0.12474367 -0.15847975 -0.15808676 -0.122735634 0.19808125 -0.003360016 0.04150459
0.07161789 0.07518759 0.22680077 -0.06178148 -0.023049412 0.11695293 0.14098941 -0.027252158
0.08795108 0.098808385 0.1738281 -0.07387126 0.019535635 0.13770673 0.065403625 -0.16306154
-0.09952233 0.058231525 -0.044034384 -0.1087434 0.02986323 -0.08366538 -0.07183406 -0.09309356
0.0019107637 -0.011131932 -0.12557301 0.0014443088 -0.021496296 -0.114373684 -0.2010971 0.07932346
-0.06947696 0.0027267921 0.14538378 0.10813482 0.11037454 -0.045188833 0.13298453 0.089320906
0.010909692 -0.15893479 0.027279051 -0.2092023 0.01524643 -0.020051861 0.16642357 0.13803975
0.10012676 0.08994386 0.05029085 -0.0065381876 -0.1886615 -0.076314 0.13750286 -0.16375789
-0.11910757 0.084826306 -0.13910557 -0.079077564 0.06332298 0.04623763 -0.12898299 -0.15379335
0.15118015 -0.054678004 -0.06838076 0.16909482 0.017079284 0.0601219 -0.11970353 0.15063652
-0.026544629 0.12753615 -0.13836634 -0.1491507 0.11659878 0.06304321 0.15605482 -0.19666743
0.23289128 -0.047995113 0.03478057 -0.1497229 -0.021001259 -0.02210327 -0.12680158 -0.047555927
0.1970507 -0.1250484 0.11593016 -0.1183376 0.09239806 0.024740005 0.056229223 0.18887262
-0.0068916767 -0.01967355 -0.045571953 0.017607927 0.20355418 0.232042 0.1434302 0.1253384
0.10037163 0.09649947 0.12562399 -0.040746633 0.26106074 0.10057411 -0.09359698 -0.111032754

lstm.weight_ih_l1 f4 [128, 32]
00000000: 1dd9 193d b52e 19bb f711 ce3d 2ca2 d73d
00000010: 6793 39be 65ed abbd 9d5b 8e3d ef61 4c3d
00000020: 4bda 32be 5fb3 343e 141b e8bd 51c9 0fbe
00000030: 712f 50bc 93a0 96bb ed75 8b3d b3a0 5d3d
00000040: dbd6 6f3d b772 8a3e a6f0 763d 0539 4d3e
00000050: cce2 65bc dbc8 7c3b c4f8 243e e261 b9bc
00000060: 4596 6a3d cc01 f8bd f892 b0bc cd90 813d
00000070: a0ab fdbd 7d13 5f3c 1e50 1b3d d412 09be
00000080: f220 413e a85a 573e d609 db3c b5d5 4aba
00000090: 1596 8bbd 0995 8abd eebd e4bd 301e c53c
000000a0: 5039 81be c30d 633e 93c0 593d e9b9 2dbe
000000b0: 8b84 48bd 202d fa3c 4398 b3bc c1c8 1e3e
000000c0: 6b5d 513e ad83 9c3d 72df e33d 4f44 59bd
000000d0: 2f49 df3c 784d 34bd 51d4 36be 01ac 01bc
000000e0: 7b81 c93d ed2f de3d 524e a7bc b9e2 98bd
000000f0: fabb 063e 2cfe 2abc 572b 543e c79f bc3d
00000100: ad4d 933d 2875 bdbd 3927 363c 07ac d5bd
00000110: 50ba 3abe 3368 34be 0f4d 083e 7a94 2cbe
00000120: d9b6 7d3d bea2 2fbe e8f1 7bbd f5f4 1abd
00000130: 9dbc 7bbd 3e45 85bd cfa9 573c 765a 07bd
00000140: 8c1a d439 0cc8 e33d 5385 7f3d 0593 dfbd
00000150: 0213 e33c df2c 28bd 997a 453d a451 22be
00000160: 5a69 45bd 6036 f53d ca77 f13d a7cd 19be
00000170: afdf d1bd 30a7 3a3d 776e 543e 3379 43be
00000180: ddb6 3fbe d5f6 f7bd 57ee 58be e8da 20bd
00000190: f372 f2bd 0e33 aa3d d0fb efbd 9287 65be
000001a0: c36b 8ebd 8438 28be 1336 203d cf3c 0bbe
000001b0: 2bb2 063e 8012 813e de28 0d3d d6e5 a3bd
000001c0: 86bb 20bd 24cf 38bd c367 75be 0caa 8dba
000001d0: baaa 623d 9dae 66be 237c 103d 4497 0cbe
000001e0: a6ec d83d feb5 b43d 76d2 96bc ec2e 59bd
000001f0: 7e65 a93d 80f4 a5bd 8bc6 a5bd 27bf cbbc
00000200: 24b9 5bbe 6607 48bd 0820 66be 70aa de3b
00000210: 3ec7 11be a1cf 0dbe d9fa a1bd 9a98 bbbc
00000220: 23f7 c73d 8b46 a1bd 8262 19be 9315 083d
00000230: 35ec 323e e059 d93c d427 e03d e1c4 93bd
00000240: 732e 523d b537 16be 3e5e 65be f7f6 103e
00000250: 9592 51be 940b bd3d 097e dfbd fe6b 6ebe
00000260: 32be 37bd 6e9a ef3d 6a05 503e bae3 04be
00000270: 5876 4d3e 0d25 26be da9a f4bd d394 abbd
00000280: ab34 203e 06df 0b3e 707a 9c3e 2f30 5f3c
00000290: c49c da3d 39f6 d73d 7a97 263c cb1a 8c3c
000002a0: 0399 eebd 431f 173e fb97 293e 4740 823d
000002b0: 0e4e 823d 067a 41be 88af fb3d 64f9 213d
000002c0: ba81 123e 5104 1a3d 833d afbb 138f 553e
000002d0: 0b2e 8f3d 8508 573d 27b5 20bc b7bc d93d
000002e0: 3a49 b6bc d479 123e 6fc2 893b ec0f 6cbd
000002f0: fdfa 0bbe 646c b73d 359f 893d cf51 f23d
00000300: 3bd9 e7bc 03ef 1a3d 0aa6 df3c 73cb abbc
00000310: 34fd 27be cf30 df3d 7a03 07be 5a50 38be
00000320: b50e e0bc 76c4 2c3e 8706 0abe 4f73 acbd
00000330: d262 c33a 61da f33c a59c 233e dfbe e63d
00000340: 80d2 753d 475a 973d c7e4 843c 1ed7 14bd
00000350: b032 b3bd 813b 013e 5317 65bc 96e3 483e
00000360: fb6b 763d 78b2 b5bd 0157 50be 35aa 373e
00000370: f95c 4bbe 9ab5 713d bd6a 513e a51e 62be
00000380: 0dee 10be 2232 113e 5c57 dc3d f80d 9bbd
00000390: 57ac 3bbe f6db b3bd e691 0f3e be52 18be
000003a0: 3609 4a3d 4275 47bd 3b52 70bc e9c3 48bd
000003b0: 6fe1 ccbc 0882 293e 23d5 163d 6557 b23d
000003c0: ec10 3a3d 22d1 843d 4428 32be 0636 01be
000003d0: bf09 f1bc 235d 2bbe 6bf7 52be 2ca3 37be
000003e0: f4cb 343e 6d3b 4e3e 5fec 013d 5287 d0bd
000003f0: ac5a 7fbd a178 e7bd f9e6 6d3d a877 a6bd
0.03756057 -0.0023373787 0.1006202 0.10528979 -0.18122636 -0.08394889 0.069510676 0.049898084
-0.17466085 0.1764655 -0.1133329 -0.1404164 -0.012706623 -0.0045967787 0.06809602 0.054108333
0.05855451 0.27040645 0.060288094 0.20041282 -0.014031123 0.0038571868 0.16110522 -0.022629682
0.057272214 -0.12109718 -0.021554455 0.06326447 -0.123862505 0.013615486 0.037918203 -0.13386089
0.18860224 0.21030676 0.026738089 -0.00077375333 -0.06815735 -0.067667075 -0.11169039 0.024062246
-0.25239038 0.22173218 0.05316217 -0.1696545 -0.048954528 0.030539095 -0.02192319 0.15506269
0.20445792 0.07642303 0.11126603 -0.05304366 0.027256576 -0.044019192 -0.1785443 -0.007914544
0.098391496 0.10848985 -0.020423088 -0.07465119 0.13157645 -0.010436576 0.20719658 0.092101626
0.0719255 -0.092508614 0.01111775 -0.10433202 -0.18235135 -0.17617874 0.13310646 -0.16853514
0.061941955 -0.17151925 -0.061509997 -0.037831265 -0.061459173 -0.065073475 0.013163044 -0.033045255
0.0004045557 0.1112214 0.062383007 -0.109167136 0.027719025 -0.041058417 0.04821262 -0.15851456
-0.048196174 0.11973262 0.11790426 -0.15019856 -0.102477424 0.0455696 0.20745264 -0.19089203
-0.187221 -0.12107626 -0.2118467 -0.039271265 -0.11838331 0.08310519 -0.11717951 -0.22414997
-0.06954148 -0.16427809 0.03911407 -0.13597415 0.13153903 0.25209427 0.034462802 -0.08002822
-0.039241336 -0.04511942 -0.23965363 -0.0010808124 0.0553386 -0.22527547 0.035274636 -0.13729578
0.10592012 0.08823775 -0.018410902 -0.053023264 0.08271311 -0.08103275 -0.0809451 -0.024871422
-0.21457344 -0.04883518 -0.22473156 0.00679522 -0.14236161 -0.13848735 -0.079091735 -0.022899915
0.097639345 -0.07874783 -0.14978984 0.0332237 0.17472918 0.026532114 0.109450966 -0.07215286
0.05131383 -0.14669688 -0.22399232 0.1415671 -0.20466073 0.09230724 -0.10912711 -0.23283383
-0.04485912 0.11699377 0.20314565 -0.12977496 0.20064676 -0.16225071 -0.11943598 -0.08377995
0.15645091 0.13659295 0.30562162 0.013622328 0.10674432 0.1054501 0.010167951 0.01710262
-0.116502784 0.14758019 0.16561882 0.06359916 0.06362544 -0.18894204 0.12289339 0.039544478
0.143073 0.037601773 -0.005347909 0.2085536 0.06991204 0.05249836 -0.009808815 0.106316976
-0.022251714 0.14304286 0.0042040865 -0.05763237 -0.13669963 0.08956221 0.067198195 0.1183201
-0.028301826 0.037825596 0.027300853 -0.020971036 -0.16405183 0.108979814 -0.1318492 -0.17999402
-0.027350763 0.16871819 -0.13479052 -0.08420431 0.001490677 0.029767217 0.15977724 0.112668745
0.0600152 0.07390266 0.01622237 -0.036337964 -0.08749902 0.12620355 -0.013982612 0.19618067
0.060161572 -0.08871931 -0.2034569 0.17936023 -0.19859685 0.05901108 0.20450874 -0.22082002
-0.14153309 0.1417928 0.1075885 -0.07571024 -0.18327461 -0.087821886 0.140205 -0.14875314
0.04932519 -0.04869581 -0.014668043 -0.04901496 -0.025009839 0.16553509 0.036824357 0.087080754
0.045426294 0.064852014 -0.17398173 -0.12618265 -0.029423593 -0.16734748 -0.20602195 -0.17933339
0.17655927 0.20139857 0.03171956 -0.1018206 -0.06234233 -0.11302305 0.0580816 -0.08128291

lstm.weight_hh_l1 f4 [128, 32]
00000000: 2557 133e 540a 1e3d 400f 263d 7e24 c5bc
00000010: ad62 9d3c ebaf 40bd aca1 313e decd c73d
00000020: fad4 643e 608a 3b3e d8d2 8b3d 9ea2 353e
00000030: be59 62bd 9f1d d23d 90c8 933c a2bd cfbd
00000040: 1c5d 2ebe dd92 923d cac1 4b3c 752f d7bd
00000050: 2aca 8b3d b8f2 9b3d a00d fc3c 384c ce3c
00000060: a6b1 503e 00f1 333e 35a8 c23d 8e43 1a3e
00000070: 8c55 803d c877 6fbd f295 54be f47e a83d
00000080: 3826 033e 8d03 503e e090 22bd 3416 a4bd
00000090: d0d6 70be e173 3f3e bb77 1e3c c28a 833e
000000a0: 15d2 243d c909 433e d205 2f3d c395 f5bd
000000b0: f566 38be 5208 6cbd e2d5 bc3d cd28 28be
000000c0: 80ac b83c b347 0cbe f21b ecba 40c3 05be
000000d0: 3f05 a8bd 367d 51bd 4b5a 3b3d 082a 29be
000000e0: 0292 413e 80c2 833d b3b7 17be e889 02bd
000000f0: bfd0 12be 77bc c73d 320a 223d c744 353d
00000100: 782b babc e8c4 edbd 9576 aebd 9907 2e3d
00000110: 4ee9 3a3d 67b5 503d 8a02 d53c 567d 123e
00000120: 153c 12be a2ff 91bd 540e 03be 8283 bb3d
00000130: 8144 27bb 7dde 353d 00f8 153e 6a8a 4bbd
00000140: a798 2339 a787 1abe 9489 083e 5de4 d8bd
00000150: d911 15be cb38 a93d 61f9 9cbc 075f 63be
00000160: b1ff 22be 696a d4bc 735a b0bc 6aeb 73bd
00000170: b417 8d3d 9726 1bbd 27e3 0d3e 12d3 51bd
00000180: f72b 64bc 62eb 1d3e ee8f febd b29b a73a
00000190: 4862 ba3d 86f4 563e ddca 14bd 06c5 1a3e
000001a0: 103a d8bb fd6d 18be 66e8 c9bd 5cec 1dbe
000001b0: 7fee babc 8521 933d 1b91 a6bc c190 4b3e
000001c0: ea7f 303a 7e40 aebd dbbe fb3d 795a a6bd
000001d0: 8650 99bd c86c 883d 6ba7 0cbe 7c00 2cbe
000001e0: e1d8 49bb 453e 2cbe f009 773d c492 17be
000001f0: 5f9d 69bc 76cf 0c3d 50a8 f53d ec3d 0ebe
00000200: 6050 72be 8b9a 4c3e 5575 033d 594c 3d3e
00000210: c085 823c 32d9 653e 2c78 fcbb ecf1 9fbd
00000220: 45df 8a3d 3881 28bd e202 21bd 3b5f 55be
00000230: 7baa 07be cc1b f53d 125a 06be 2c20 dd3d
00000240: b540 88bd 21fe 84be b3bf 35be fa93 973d
00000250: 6e62 98bc c7ba 2abe 9215 3b3d c519 35bd
00000260: faaf 2bbe 9c99 2dbe 2c61 90bd 0102 933c
00000270: 1457 15bc 4330 523e b85c 573d 0440 fdbd
00000280: fb43 0a3e 7ee6 0bbe 5499 7dbe ecfd 52bd
00000290: ef67 3e3c 96e4 03bd b773 e53d 99d9 203e
000002a0: 1452 553d a82a 7a3e 33d5 14bd 8fb2 03be
000002b0: 97ff 2abe 53ae 69bd 4cd0 043e 2409 a7bd
000002c0: 9051 033e 3b0a 04be fdb7 07be 2f4b 04bc
000002d0: d27e b9bd e967 c43c 7485 8e3d b1ca 893c
000002e0: 2343 98bc f6b6 ee3d 116b ab3c 26c4 11bc
000002f0: 52a5 35be 9dc0 3e3e 73cb 71bc 718f 77bd
00000300: 079e dbbd dbdf 8cbd c672 6fbe 03a4 03be
00000310: 89a2 7cbe c07e 433e 0e93 f5bc 4817 7c3e
00000320: 8e45 743e 8787 753e c5da c33d 2758 f93d
00000330: da7c 64be 1dd8 763e c280 0b3e e74f b5bd
00000340: e500 6cbe b464 bb3c 07a5 4c3d 43a5 07be
00000350: 1e98 913d 282a 02be 57d8 b13d 676b 803c
00000360: d6eb 4b3e 9ed3 da3d 279c 2ebd 0b72 b4bd
00000370: 362d 4bbe d606 5ebd 4597 67be bd31 07bd
00000380: 699c 34be a8d4 bf3c 256c 44bd bc63 2abc
00000390: dec2 fbbd 3ce8 2b3e c4b9 98bc 6325 c3bd
000003a0: b60b 233e 9189 e9bd b8d2 9a3d dff4 5bbc
000003b0: d272 583c c904 f63d fae4 ea3c 5a35 12bd
000003c0: aeba 4b3c 672c 55bd fed0 e0bd 11be 2ebe
000003d0: 8b2b 89be a13f 35be 2ec2 ff3d 61d2 0dbe
000003e0: 7a65 07be b02c 733d 2ea1 8bbe 387f 0ebe
000003f0: f92c 8ebd e464 a63e 14bf d83d 9cb2 fd3d
0.14388712 0.03858407 0.040541887 -0.024065252 0.019212091 -0.04704277 0.17346829 0.09756063
0.22346869 0.18314505 0.06827325 0.17737815 -0.055261366 0.10259556 0.018039972 -0.101435915
-0.17027706 0.07156918 0.01243634 -0.105070986 0.06825669 0.07614654 0.030768216 0.025182828
0.20380268 0.17572403 0.09504739 0.15064833 0.06266317 -0.05846384 -0.20760325 0.082273394
0.12807548 0.20313855 -0.039688945 -0.080120474 -0.23519444 0.18696548 0.009672101 0.256918
0.040239412 0.19046701 0.04273016 -0.119914554 -0.18008025 -0.057625122 0.092204824 -0.16421814
0.022543192 -0.13699226 -0.00180137 -0.13062763 -0.082041256 -0.0511448 0.045740407 -0.1651994
0.18903354 0.06433582 -0.1481617 -0.0318698 -0.14337443 0.09752744 0.039560504 0.044255044
-0.022725806 -0.116098225 -0.085187115 0.042487714 0.045632653 0.05095425 0.026002187 0.14305624
-0.14280732 -0.07128836 -0.12798434 0.091559425 -0.002552301 0.044401634 0.14645386 -0.04969255
0.00015601759 -0.1509081 0.13333732 -0.10590432 -0.1455759 0.082627855 -0.019161882 -0.22204219
-0.15917851 -0.025929647 -0.021527505 -0.05955068 0.06889287 -0.0378786 0.13856183 -0.051226683
-0.013926498 0.15421823 -0.12429796 0.001278749 0.09100777 0.20991716 -0.036326278 0.15114221
-0.0065987185 -0.14885707 -0.098587796 -0.15422195 -0.022818802 0.07184128 -0.020332864 0.19879438
0.0006732928 -0.08508395 0.12292262 -0.08122725 -0.07486062 0.066613734 -0.1373574 -0.1679706
-0.0030799436 -0.16820629 0.06031221 -0.1480208 -0.014258712 0.034377538 0.11994994 -0.13890809
-0.23663473 0.19980828 0.03209432 0.18486156 0.015932918 0.22446135 -0.0077047553 -0.07809815
0.067808665 -0.041138858 -0.03930939 -0.20837109 -0.13248627 0.119681925 -0.13120297 0.10797152
-0.06652967 -0.25975135 -0.17748909 0.07401271 -0.018601622 -0.16672812 0.045674868 -0.04421403
-0.16766348 -0.16953129 -0.07049784 0.017945291 -0.009114999 0.20526223 0.052578658 -0.12365726
0.13502495 -0.13662145 -0.24765521 -0.05151169 0.011621459 -0.03220042 0.112037115 0.15708007
0.05208023 0.24430335 -0.036336135 -0.12861083 -0.16699062 -0.057051014 0.12970084 -0.0815604
0.12824082 -0.12894528 -0.1325378 -0.008074566 -0.09057392 0.02397533 0.06959048 0.016820284
-0.0185867 0.11655991 0.020925077 -0.008896863 -0.17738846 0.18628164 -0.014757979 -0.06043953
-0.10723501 -0.068786345 -0.23383626 -0.12855534 -0.24671377 0.1909132 -0.029977348 0.24618256
0.23854658 0.23977481 0.09563211 0.12175017 -0.22313252 0.24105878 0.13623336 -0.08853131
-0.23047216 0.022875167 0.04996207 -0.13246636 0.07109092 -0.12711394 0.08683842 0.015676213
0.19914183 0.10684894 -0.042629387 -0.088108145 -0.19841465 -0.054205738 -0.22616298 -0.03300642
-0.1763779 0.023416832 -0.047954697 -0.010399755 -0.12293027 0.16787809 -0.018643267 -0.09528615
0.15922436 -0.11403192 0.07559723 -0.013425081 0.013210969 0.120126314 0.028673638 -0.03569541
0.012434645 -0.0520443 -0.10977362 -0.17064692 -0.26791033 -0.17700054 0.12488209 -0.13849784
-0.13222304 0.05936879 -0.27271408 -0.13915718 -0.069421716 0.32498848 0.1058332 0.12387583

lstm.bias_ih_l1 f4 [128]
00000000: 78e3 9dbd ee03 31bd 8617 adbc 19f1 d43b
00000010: 15fa 1a3e cc7f f43b 03ac 3b3d f38d 403e
00000020: e92f 23bd 058c c8bb 2a8e 573d a74c df3d
00000030: f368 063d 4c71 19bd 6a68 c03d a785 033f
00000040: c7e8 f1bd 1b68 ce3d 9cad 2dbc 7092 af3c
00000050: 30b8 a4bd a6d0 513e 4294 fbbc 3022 993e
00000060: 34b4 943c 608b a93d 2cd5 533e fa9d 1dbb
00000070: f19f 543d 5a35 3f3e a41d 203d 2aad e7bc
00000080: c960 133e f523 a9bd c85f 1d3d 465d 73bd
00000090: 6339 0e3d 3313 b23d c722 503d 21be 903d
000000a0: 5dee 03be a1b0 113e 3b0a 473d 235b 70be
000000b0: fe3b 60be 96e2 e13b c864 0f3e cdcb 7dbe
000000c0: 4bd6 b8bc 4c4a 013e 47a6 0abe 7df4 95bb
000000d0: 2c96 5d3d ba48 cd3c 6b54 2eba 82a3 943d
000000e0: efe6 28bd d960 61be 7d54 1ebe 3fe9 98bd
000000f0: 24c8 123d 1b22 3b3d c37b 183e fa83 2bbe
00000100: 8178 1bbe ad62 cebb 9264 0cbe 682d 0b3c
00000110: d2b1 c3bd 3b4c b83b 2cba 9a3c 4b15 c2bd
00000120: 8ca3 8d3c 02c0 cb3d 1536 80bd f1ea 763c
00000130: 58a6 80bd b705 253e 23bd eb3d 91a0 c43d
00000140: b634 27bd 7c3e d6bd 8b07 233e df6e 30be
00000150: a8f5 11be 796c 263e 61d4 08bd e117 d33c
00000160: c354 1e3e 1a02 2f3e 6de5 6abd d1e8 6bbd
00000170: 05be 203d 52d8 2fbc 5ff5 c1bd 954d 133e
00000180: 7aa6 d0bd ec55 8c3d de1e 203d 4f43 5cbd
00000190: 5c48 203d 5d6b 8f3d a7b3 533d 874e 343e
000001a0: 4eae eb3d ac26 8c3c d52c c43d dde6 5d3e
000001b0: 45a4 193e a17a b6bd a715 2f3d 3779 ba3e
000001c0: ad47 cdbc 04ab 7d3d b9af 233d 5942 523e
000001d0: 8e69 273e 954c 683e 37cc 223e 5baf 123d
000001e0: 2879 2fbc 3c2a 523d bca0 a73c 476a 363e
000001f0: 047f 31bd cceb 043e b842 e1bd fef4 fa3a
-0.07709402 -0.04321664 -0.02112938 0.0064984676 0.15134461 0.0074615236 0.04581834 0.1880415
-0.039840613 -0.0061202073 0.052625813 0.10903292 0.03281493 -0.037461564 0.093949154 0.5137581
-0.11811977 0.1007845 -0.010600474 0.021432132 -0.080429435 0.2048975 -0.030710343 0.29908895
0.018152334 0.08278537 0.20686787 -0.002405046 0.051910345 0.18672696 0.039090768 -0.028280813
0.1439239 -0.082588114 0.038421422 -0.059415124 0.034722697 0.08695068 0.050814416 0.07067514
-0.12883897 0.14227535 0.04859374 -0.23472266 -0.21897885 0.006893466 0.14003289 -0.24784775
-0.02256312 0.12625998 -0.13539992 -0.0045762644 0.054098293 0.025059093 -0.00066501525 0.07257749
-0.04123586 -0.220096 -0.15461917 -0.07466363 0.0358354 0.045686822 0.14890961 -0.16749564
-0.15182687 -0.006298384 -0.1371024 0.008494712 -0.09555401 0.0056243218 0.018887602 -0.094767176
0.0172899 0.09948732 -0.06260315 0.015070663 -0.062817276 0.16115461 0.11510684 0.09600938
-0.040821753 -0.10461137 0.15920846 -0.17229794 -0.14253867 0.16252317 -0.033405665 0.025768222
0.15462022 0.17090645 -0.057347704 -0.057595078 0.039243717 -0.010732727 -0.09470629 0.14385064
-0.10188003 0.06852326 0.039091937 -0.053775128 0.039131507 0.070029 0.051685 0.17608081
0.11507855 0.017108284 0.095788635 0.21670099 0.1500407 -0.08910108 0.04274526 0.36420605
-0.025058592 0.06193067 0.039962504 0.20533122 0.1634886 0.22685464 0.15898214 0.035811763
-0.010710038 0.05130981 0.020462386 0.17813979 -0.043334022 0.12980574 -0.10999054 0.00191465

lstm.bias_hh_l1 f4 [128]
00000000: c789 66bd d9f2 013e 7d67 3c3e f1cb d3bd
00000010: 0488 ac3d ebe8 04bd fa87 5dbc 53fd 7c3d
00000020: 327d 2e3e 7770 143e 57b3 cb3c 4a5d dd3d
00000030: 008d 4e3d 6b88 ef3c 2574 143e 598b f33e
00000040: 49f3 01be c6cf a0bb 2f10 3f3e 1568 03be
00000050: 6654 cd3c ccb6 763d 0446 f43d d9e4 033e
00000060: fd8b 0f3e 4292 de3d bcef 59bd 8ed5 de39
00000070: 61e0 1d3e 93ee 4d3e 8d48 103e 0cfb acbc
00000080: dfa6 253d f8f7 90bc 4887 82bd c77d 20bd
00000090: 96b7 08be 478a 14be fdc1 a2bd 7f54 25bc
000000a0: 3170 933d 95b4 c9bd 1883 ea3d 24be cdbc
000000b0: 83d0 07be 2d67 77bc d8bc 3e3d 6e11 1fbe
000000c0: c417 fc3d 8796 0c3e 23f1 4f3b d719 46be
000000d0: 0cf5 973d 5ccf 77be a85d 6ebc 6134 aa3d
000000e0: 7094 8bbd c036 d4bb 32d7 10be 61d9 98bc
000000f0: fe36 30bd f6eb a73c df21 17bc 982f b43d
00000100: 4b7e 0cbe b09d b53c 9c07 cbbc dbf7 2fbe
00000110: 4fa0 25be 449e ee3d c555 293e 9508 083e
00000120: bd69 dd3d 1f71 2e3d db2e 293e 36c0 a7bd
00000130: 8d45 7cbd 4017 eb3d 40d2 ef3d acab a6bd
00000140: 2169 b4bd 3567 6bbc 641c 64bd 8014 a0bc
00000150: 2d0b dcbd f1a9 623d b17a b83d 79e1 1dbe
00000160: ddf9 15bd a505 f9bd a6ad 2bbe 41f1 e1bd
00000170: 625d 37be b4c5 4d3e 05af f4bd c0fa 8ebd
00000180: 9ea4 cbbd 3035 02bd 1640 ccbb c9d5 c53d
00000190: 9c7b 323e bd7e 083d 06bd 643e e09b 0c3e
000001a0: d04c 693e f9f9 cd3c ef81 79bd 5c88 90bd
000001b0: 1ff7 e03c 458c 343d 0701 d5bc 6b71 033f
000001c0: f00f c23b a6c3 86bd 23e3 54bb 8073 b43c
000001d0: 8b0f c6bd 3bdc dc3d 9598 553d 574d 983d
000001e0: 8bbe fe3c bb61 9d3e 71b0 043b 3734 6c3d
000001f0: 34f8 c5bd 6f06 253e 75e5 883d 63a7 f23d
-0.05628374 0.12690295 0.18398853 -0.10341633 0.084243804 -0.03244869 -0.013521189 0.061765026
0.17039946 0.14496027 0.02486579 0.10808809 0.050427437 0.029239854 0.1449743 0.4756725
-0.12690462 -0.004907581 0.18658517 -0.12832673 0.025064658 0.060232922 0.11927417 0.12880267
0.14018245 0.1086774 -0.053207144 0.0004250225 0.15417625 0.2011054 0.14090176 -0.021115802
0.040442344 -0.017696366 -0.06373459 -0.03918245 -0.13351282 -0.14505874 -0.079471566 -0.010090946
0.07199133 -0.098488964 0.114507854 -0.02511508 -0.13263135 -0.015100283 0.046566814 -0.15533993
0.123092204 0.13729297 0.0031729422 -0.19345795 0.07419786 -0.24200195 -0.014548697 0.08310772
-0.068154216 -0.0064762533 -0.1414459 -0.018658342 -0.043021195 0.020498257 -0.009224384 0.0879814
-0.13720052 0.022169918 -0.024783902 -0.17184393 -0.16174434 0.116512805 0.16536625 0.13284524
0.108111836 0.04258835 0.1652178 -0.08190958 -0.061589766 0.11479044 0.11710024 -0.081382126
-0.08809114 -0.014367868 -0.055691138 -0.019541025 -0.10744319 0.05533785 0.090077765 -0.15418042
-0.03661524 -0.1215928 -0.1676546 -0.11032344 -0.17906716 0.20094949 -0.11947445 -0.069814205
-0.099435076 -0.031789005 -0.0062332256 0.09659917 0.17429966 0.033323992 0.22337732 0.13731337
0.22783208 0.02514361 -0.06091493 -0.070572585 0.027461587 0.044079084 -0.026001466 0.5134494
0.00592231 -0.06580286 -0.0032484017 0.022027731 -0.09670933 0.10784193 0.052147467 0.074366264
0.031096717 0.30738625 0.002024677 0.057666983 -0.096664816 0.16115735 0.066843905 0.11848333

fc.weight f4 [1, 32]
00000000: 51bd 30be c70a f63d 0caf 363e 02df 0f3e
00000010: 62a1 593e 1086 113e d307 463e d5af 55be
00000020: d863 1ebe 6802 11be 4715 29be 40a4 a6bd
00000030: 9607 0c3e 4ed3 38be 7901 20be 47b9 833e
00000040: a73b 47be fb1a 2abe a12a bcbd 143b c0bd
00000050: 23e9 6bbe 8cc4 23be cc9f 943e b120 f0bd
00000060: b94a 40be 9060 2dbe d395 1cbe 3c25 73be
00000070: 2b3e 40be 97ae 793e 0880 233e e4d4 49be
-0.17259718 0.12013774 0.17840213 0.14049914 0.21252969 0.14211297 0.19338922 -0.20867856
-0.15467775 -0.14161074 -0.16512023 -0.08136797 0.13674769 -0.18049356 -0.15625562 0.25727293
-0.1945635 -0.16611855 -0.09187818 -0.09386268 -0.23038153 -0.15992945 0.29028165 -0.117249854
-0.18778504 -0.16931367 -0.15291528 -0.23744673 -0.18773715 0.24383007 0.15966809 -0.19710118
