model testing/GRU/gru_model.pth (torch, 57267 bytes, 5 tensors)

gru.weight_ih_l0 f4 [192, 5]
0.05294992 -0.10813649 -0.04203458 -0.12282885 0.05739789 0.061220244 -0.015084727 0.07383258
0.03564945 0.060697448 0.10246861 0.057269465 -0.041024156 -0.10777423 -0.04869534 0.004304305
-0.10050826 -0.05222585 0.046135146 -0.045405045 0.09967936 0.08202309 -0.032644495 -0.0694187
-0.085644424 0.01790785 -0.053221617 0.099399514 -0.142203 0.094375536 0.05545966 0.117071345
-0.05074735 -0.029114433 -0.08104312 0.12015246 0.08160565 -0.007564682 0.07642701 0.013801113
0.09772212 0.15337577 -0.012300786 -0.0010899344 0.013721664 0.02036735 0.112240575 0.021930965
-0.036523543 -0.11280375 -0.051235374 0.06655199 0.05793366 -0.0050327275 -0.032334443 0.14085875
0.07420939 0.015054833 -0.070764504 0.116340905 -0.091521025 0.14431079 -0.12130569 -0.0057057557
-0.084832974 -0.11771376 0.090347834 -0.11461729 0.0030255844 0.0027268287 -0.032685596 -0.055689204
0.069786996 0.03839161 -0.04333751 -0.087847754 -0.06596341 -0.05306697 0.03987599 0.09611266
-0.11189352 -0.11784565 0.034831315 -0.064542666 -0.06808303 0.03416945 -0.045190424 0.04560635
0.10917265 -0.07738547 0.012184049 0.043203317 -0.074753284 0.04818268 -0.014727074 0.06333185
-0.090501346 -0.09851978 -0.07450597 0.03252967 -0.011999724 0.0002499758 0.0853736 -0.080078356
0.1168037 0.10755634 -0.029710116 0.06632048 0.024235995 0.033890802 -0.024816923 -0.023380134
-0.0039645825 -0.12948927 0.087282546 0.017658982 0.111549936 -0.012008998 0.10014017 0.04435604
0.018590033 0.06900517 -0.028174497 -0.08767403 0.08910722 0.024557024 0.08067541 -0.122528225
-0.06760045 -0.10961427 0.038989145 0.09211273 -0.06273142 -0.037709516 -0.06810178 -0.066420086
-0.040307846 -0.04128394 0.10607943 -0.13532226 0.018671514 -0.066966295 0.034866452 -0.13184343
0.10357869 -0.08161394 -0.012027589 -0.08752046 0.066216595 -0.123052195 0.06001429 0.1153623
0.007682213 0.0017983044 -0.093549296 -0.096112505 -0.046004858 -0.06750741 0.101578735 -0.03168686
-0.025957748 0.04682994 -0.05220837 -0.0627003 -0.028860396 -0.14222588 -0.031905167 -0.05936978
-0.034720674 0.058199722 0.11186588 0.010311397 0.048120245 -0.03193041 0.11589984 0.006881381
0.08883142 -0.06067351 0.002871994 0.08547537 -0.07346065 -0.048758656 -0.010231096 -0.08761258
-0.020863026 0.061540157 -0.087192535 0.11352797 -0.05293574 -0.0030120972 0.1453074 -0.03590795
-0.060667176 0.08909695 0.04014342 0.0930814 -0.044807047 0.04556795 0.04446258 0.12023861
-0.00464066 0.052162778 -0.12251539 -0.06128093 0.06640018 -0.05133595 0.09162637 0.047095113
-0.0033567906 0.051033963 -0.00067590957 -0.045848973 -0.07466829 0.13716875 0.069264464 0.069494046
0.09374902 0.07288876 0.0074001034 -0.056916308 -0.0038212892 0.07493383 0.01835985 0.09777484
-0.027587168 0.007161076 0.11179169 -0.1091551 0.091583624 -0.11926791 -0.00929281 -0.06355218
0.09643644 -0.039201934 0.10352405 -0.01759324 0.06805805 -0.009442415 0.11448514 0.039274387
-0.06350011 0.089266784 -0.0426125 0.03371476 0.104414575 0.075201295 0.044898786 0.050401796
0.04927227 0.08862631 0.0657973 0.016139096 0.11103597 -0.017820409 0.10548928 0.063694336
00000000: 04e2 583d aa76 ddbd 742c 2cbd b18d fbbd
00000010: 0d1a 6b3d 14c2 7a3d ee25 77bc 8935 973d
00000020: 2805 123d e39d 783d 10db d13d 6393 6a3d
00000030: f208 28bd bcb8 dcbd c474 47bd 210b 8d3b
00000040: 46d7 cdbd c6ea 55bd 35f8 3c3d a4fa 39bd
00000050: b124 cc3d b9fb a73d 3cb6 05bd 642b 8ebd
00000060: 5866 afbd 7cb3 923c e9fe 59bd f991 cb3d
00000070: aa9d 11be f647 c13d ab29 633d 1ac3 ef3d
00000080: 74dc 4fbd 6481 eebc eff9 a5bd 7e12 f63d
00000090: dd20 a73d 27e1 f7bb c485 9c3d 101e 623c
000000a0: 8922 c83d 8a0e 1d3e 3c89 49bc 21dc 8eba
000000b0: d5d0 603c 6ed9 a63c 63de e53d 91a8 b33c
000000c0: b699 15bd a705 e7bd 2fdc 51bd 694c 883d
000000d0: d84b 6d3d 94e9 a4bb 1f71 04bd 473d 103e
000000e0: 18fb 973d 8ca8 763c fbec 90bd 2444 ee3d
000000f0: 606f bbbd 35c6 133e 1e6f f8bd 59f7 babb
00000100: e9bc adbd e913 f1bd 4908 b93d 78bc eabd
00000110: e248 463b 98b4 323b 55e1 05bd 5d1a 64bd
00000120: 7cec 8e3d 8540 1d3d ac82 31bd 86e9 b3bd
00000130: d317 87bd c05c 59bd 0255 233d b7d6 c43d
00000140: 6e28 e5bd 0f59 f1bd 48ab 0e3d f22e 84bd
00000150: 1e6f 8bbd 44f5 0b3d 9819 39bd b9cd 3a3d
00000160: e995 df3d 467c 9ebd 9b9f 473c f6f5 303d
00000170: 4018 99bd 345b 453d d349 71bc 21b4 813d
00000180: c558 b9bd bdc4 c9bd 9696 98bd d53d 053d
00000190: 7e9a 44bc 2f0f 8339 5bd8 ae3d 1f00 a4bd
000001a0: c736 ef3d 8046 dc3d a162 f3bc 08d3 873d
000001b0: 918a c63c 15d1 0a3d dc4c cbbc b287 bfbc
000001c0: 54e9 81bb d698 04be 31c1 b23d 92a9 903c
000001d0: 4b74 e43d 63c1 44bc 4a16 cd3d aeae 353d
000001e0: 204a 983c 9552 8d3d 34ce e6bc 718e b3bd
000001f0: d97d b63d d02b c93c 2639 a53d 14f0 fabd
00000200: 1b72 8abd 727d e0bd 15b3 1f3d 99a5 bc3d
00000210: 5579 80bd 4b75 1abd f278 8bbd 4107 88bd
00000220: d719 25bd 5919 29bd 2c40 d93d eb91 0abe
00000230: 01f5 983c a025 89bd 20d0 0e3d f701 07be
00000240: 1021 d43d 3625 a7bd 5d0f 45bc ed3d b3bd
00000250: 919c 873d ca02 fcbd 8bd1 753d 1243 ec3d
00000260: 13bb fb3b 15b5 eb3a c696 bfbd a2d6 c4bd
00000270: 976f 3cbd 5341 8abd 8308 d03d 15ca 01bd
00000280: 58a5 d4bc c0d0 3f3d 72d8 55bd 0469 80bd
00000290: a36c ecbc a9a3 11be feae 02bd ba2d 73bd
000002a0: 4437 0ebd d562 6e3d f019 e53d 22f1 283c
000002b0: bc19 453d 76c9 02bd e55c ed3d 357d e13b
000002c0: 3fed b53d c984 78bd 1038 3c3b b60d af3d
000002d0: 8a72 96bd 28b7 47bd 54a0 27bc 396e b3bd
000002e0: f0e8 aabc 8811 7c3d 0092 b2bd 5a81 e83d
000002f0: 26d3 58bd 9b66 45bb 77cb 143e 3714 13bd
00000300: 257e 78bd 7678 b63d 6d6d 243d 76a1 be3d
00000310: 9887 37bd 75a5 3a3d 651e 363d a93f f63d
00000320: ad10 98bb a3a8 553d 59e9 fabd b601 7bbd
00000330: d1fc 873d a545 52bd 9ba6 bb3d cee6 403d
00000340: 9afd 5bbb fd08 513d 862f 31ba 22cc 3bbd
00000350: b0eb 98bd f775 0c3e 87da 8d3d e552 8e3d
00000360: 7cff bf3d b446 953d 917c f23b 1321 69bd
00000370: 986e 7abb e876 993d 6567 963c 2d3e c83d
00000380: 7cfe e1bc 76a7 ea3b 0bf3 e43d b68c dfbd
00000390: 3290 bb3d bc42 f4bd df40 18bc a527 82bd
000003a0: 7880 c53d 3592 20bd 6b04 d43d b31f 90bc
000003b0: 0562 8b3d 5cb4 1abc 2f77 ea3d 2ede 203d
000003c0: 580c 82bd 81d1 b63d 728a 2ebd 7d18 0a3d
000003d0: 4fd7 d53d 2303 9a3d cae7 373d 1d72 4e3d
000003e0: b8d1 493d b681 b53d bcc0 863d 2336 843c
000003f0: d466 e33d 1bfc 91bc c30a d83d 2d72 823d

gru.weight_hh_l0 f4 [192, 64]
0.058665257 -0.09941519 -0.061850473 -0.04060773 0.0880476 -0.05082938 0.043215826 -0.069240704
0.07754247 0.014223255 0.14194587 -0.06505684 -0.044488315 -0.07442695 0.08368383 -0.0114240665
-0.04650625 0.01808751 -0.02810168 -0.037511297 0.05472264 0.027806357 -0.009939467 0.08359356
0.054185223 0.1390827 0.04567186 0.0010350973 0.08962106 0.057784196 -0.02909045 0.008828645
0.08702298 -0.117091574 0.024884978 -0.09588143 -0.030137377 -0.098980255 0.086798914 -0.07649305
-0.021646056 -0.11722387 -0.06691404 -0.06908039 -0.03344069 -0.03520488 0.07623275 -0.10826453
0.03622675 0.03597137 0.008411322 -0.043908134 0.108736545 -0.067939185 -0.007133846 0.078099534
-0.083976306 -0.05019621 -0.021347404 -0.011143332 0.06190425 0.043936558 0.043247584 0.07411501
-0.008270746 0.0090077035 -0.14197247 0.033364058 0.06413269 0.03371891 0.08980704 -0.046766974
0.06643063 0.007918553 -0.092165776 -0.10109847 -0.09749827 0.10724338 0.04580006 -0.021098353
-0.10972374 0.013596563 0.024763307 -0.0066694003 -0.014532049 0.082881115 0.055247694 -0.115671106
-0.14645678 0.038963668 -0.021299902 0.10476018 -0.12837094 -0.0014343491 0.06543241 -0.013203187
0.09226566 -0.10115956 0.037755627 0.00010661606 0.04243549 -0.04607021 -0.11946671 0.060563106
-0.12496077 -0.07840168 0.023461383 0.03389852 -0.0726252 -0.015601607 0.06114502 0.1246094
0.11968375 -0.08284716 0.07444121 0.033888154 0.04378195 -0.018875765 0.0013148716 -0.13264063
0.012040232 0.07174749 0.05746887 -0.042971212 0.09855863 -0.060000587 0.10278277 -0.021191694
-0.023169966 -0.04805468 0.08890191 0.08436373 0.019389374 0.09928656 0.09379276 -0.01887524
0.08228148 0.10541626 0.012759277 -0.07866248 -0.11272765 0.03241206 0.022457592 0.10435407
-0.01651618 -0.08942342 -0.008179993 0.02935474 -0.1080304 0.05648811 -0.08309771 0.06034261
-0.013544064 -0.03784695 -0.046663217 0.02830028 -0.029571477 -0.063775875 -0.029822867 0.022892015
0.09151669 0.065407924 -0.08514562 0.049957056 0.07879887 -0.069193624 0.023402061 -0.11233136
-0.07991476 -0.11091422 0.015535042 0.019496448 -0.13331042 0.016250344 0.004171251 -0.06001404
0.045963645 0.07137948 0.085708715 -0.08775802 0.096711054 -0.09689304 0.11513957 0.007389476
-0.10855666 -0.06719447 -0.02945839 0.13401483 0.08435471 -0.04017208 0.073458344 0.059740055
-0.09568113 -0.06440895 0.047700804 -0.13176033 0.11777823 0.014546146 0.040843103 0.077821255
-0.116672345 -0.08946476 -0.071960375 0.016681531 -0.06713359 -0.020012278 -0.1117266 -0.001962806
0.09306187 0.033391345 0.044880107 -0.04278152 -0.06340338 0.11526012 0.04827228 -0.018605819
-0.065751754 -0.015435269 -0.04944021 0.1202709 -0.03166599 0.009550655 0.027253676 0.04820201
-0.047087092 -0.0051084487 0.08634738 -0.03288542 -0.05243507 0.0559199 -0.026327487 -0.10048039
-0.04956917 0.0028152342 -0.04252939 0.13137469 -0.12933332 -0.041464746 -0.010841894 0.026604569
0.12415096 0.052286346 0.07249923 0.046193253 0.04428046 0.071102336 0.113841794 -0.09367758
0.052348763 -0.10071385 -0.081295036 -0.00060877134 0.039757635 0.104659855 0.099655055 -0.11139359
00000000: fb4a 703d 319a cbbd ec56 7dbd 4b54 26bd
00000010: 4d52 b43d 7832 50bd 1403 313d 12ce 8dbd
00000020: 96ce 9e3d a808 693c 425a 113e 853c 85bd
00000030: 6139 36bd 286d 98bd 6e62 ab3d 022c 3bbc
00000040: 567d 3ebd 422c 943c 7f35 e6bc 72a5 19bd
00000050: d924 603d 28ca e33c 25d9 22bc 1a33 ab3d
00000060: 53f1 5d3d b26b 0e3e 6b12 3b3d 1aac 873a
00000070: 3f8b b73d 1faf 6c3d 184f eebc 05a6 103c
00000080: 1b39 b23d b5cd efbd 95db cb3c 7c5d c4bd
00000090: a9e2 f6bc 29b6 cabd a1c3 b13d 63a8 9cbd
000000a0: 1253 b1bc 1113 f0bd 3a0a 89bd 057a 8dbd
000000b0: 1bf9 08bd fe32 10bd eb1f 9c3d cbb9 ddbd
000000c0: 8062 143d b756 133d a4cf 093c 04d9 33bd
000000d0: 44b1 de3d b323 8bbd 0ac3 e9bb a6f2 9f3d
000000e0: c5fb abbd 8b9a 4dbd c0e0 aebc 8692 36bc
000000f0: 508f 7d3d d2f6 333d 6124 313d 9cc9 973d
00000100: 0682 07bc 0c95 133c 3b61 11be c0a8 083d
00000110: 0058 833d d71c 0a3d c1ec b73d ba8e 3fbd
00000120: c80c 883d d2bc 013c 69c1 bcbd b70c cfbd
00000130: 2cad c7bd 6ba2 db3d d898 3b3d 74d6 acbc
00000140: d7b6 e0bd 1ec4 5e3c 6bdc ca3c fc8a dabb
00000150: d517 6ebc 93bd a93d 684b 623d f9e4 ecbd
00000160: c4f8 15be 5e98 1f3d 227d aebc 818c d63d
00000170: ac73 03be c500 bcba 6d01 863d 2e52 58bc
00000180: c7f5 bc3d be2c cfbd a5a5 1a3d 1097 df38
00000190: d6d0 2d3d 1eb4 3cbd f6aa f4bd 0511 783d
000001a0: 6feb ffbd 0f91 a0bd 1632 c03c 2dd9 0a3d
000001b0: 85bc 94bd e29d 7fbc 3373 7a3d 3733 ff3d
000001c0: c11c f53d c6ab a9bd a274 983d 4ece 0a3d
000001d0: b454 333d 59a1 9abc c557 ac3a f2d2 07be
000001e0: 6544 453c 59f0 923d 7a64 6b3d 9502 30bd
000001f0: 1bd9 c93d 2dc3 75bd c67f d23d 349a adbc
00000200: f1ce bdbc fcd4 44bd 3412 b63d e4c6 ac3d
00000210: 77d6 9e3c c156 cb3d 6b16 c03d 3fa0 9abc
00000220: 3183 a83d 7be4 d73d 490c 513c cb19 a1bd
00000230: c1dd e6bd 82c2 043d fcf8 b73c 96b7 d53d
00000240: f14c 87bc a023 b7bd 6105 06bc 5a79 f03c
00000250: 0b3f ddbd 1460 673d 222f aabd d029 773d
00000260: ece7 5dbc 6705 1bbd ee21 3fbd fdd5 e73c
00000270: e23f f2bc ed9c 82bd 164f f4bc 0988 bb3c
00000280: 1a6d bb3d 97f4 853d d460 aebd c59f 4c3d
00000290: 4d61 a13d 63b5 8dbd aeb5 bf3c fc0d e6bd
000002a0: 5aaa a3bd ff26 e3bd b086 7e3c 04b7 9f3c
000002b0: 8782 08be 711f 853c fdae 883b 48d1 75bd
000002c0: 6044 3c3d 682f 923d 0d88 af3d 7aba b3bd
000002d0: 7210 c63d dc6f c6bd 4bce eb3d 6b23 f23b
000002e0: f452 debd 419d 89bd b952 f1bc 2f3b 093e
000002f0: 2ac2 ac3d 7b8b 24bd 5471 963d fdb1 743d
00000300: 78f4 c3bd d7e8 83bd eb61 433d 2eec 06be
00000310: b635 f13d f552 6e3c 194b 273d c060 9f3d
00000320: e9f1 eebd 4d39 b7bd f65f 93bd b5a7 883c
00000330: 567d 89bd caf0 a3bc ead0 e4bd 6ca2 00bb
00000340: 3997 be3d 5dc5 083d 34d4 373d ad3b 2fbd
00000350: a2d9 81bd 7f0d ec3d 27b9 453d 3b6b 98bc
00000360: dba8 86bd 36e4 7cbc d181 4abd 9750 f63d
00000370: 32b4 01bd 5a7a 1c3c 1a43 df3c 796f 453d
00000380: 65de 40bd c664 a7bb e5d6 b03d ddb2 06bd
00000390: 28c6 56bd 440c 653d beac d7bc aac8 cdbd
000003a0: 0b09 4bbd cb7f 383b 4c33 2ebd 1687 063e
000003b0: f46f 04be f0d6 29bd 33a2 31bc d3f1 d93c
000003c0: dc42 fe3d 352a 563d 7a7a 943d 2335 3d3d
000003d0: 6d5f 353d 1a9e 913d e325 e93d 08da bfbd
000003e0: a86b 563d 1043 cebd 037e a6bd f495 1fba
000003f0: e7d8 223d e857 d63d f317 cc3d 5322 e4bd

gru.bias_ih_l0 f4 [192]
0.118674934 0.020006591 0.006948967 -0.12173705 0.11884603 -0.009903227 -0.05446161 0.08976003
-0.08571961 -0.04906408 -0.004464252 0.012093831 -0.0906085 0.09440031 -0.042429827 0.01607556
0.0441793 0.005248221 -0.09903535 -0.00016582965 0.021570789 0.06773315 -0.12704612 -0.1295206
0.057300378 -0.0042715576 0.09927981 0.035772353 0.028020041 0.10829719 -0.104892604 -0.065363474
0.104342975 -0.058277372 -0.052501947 0.096930005 0.081065066 -0.1340595 -0.023427136 0.0038974043
-0.022001956 -0.10893775 -0.05356197 0.072592765 -0.12148998 0.033725712 -0.113171965 0.011440009
0.072731905 0.013993207 0.115957916 -0.024540782 0.017342925 0.045070793 0.069076866 -0.04086538
0.007520488 0.03237119 0.06518342 0.08604344 -0.10090532 0.022681922 0.07439455 -0.031449027
0.029614942 0.053079613 -0.001719848 0.0006393639 -0.0042287 0.05638933 -0.00014374501 -0.08034499
0.0008336006 0.10028807 -0.066318616 -0.035361234 -0.10281267 -0.13981074 -0.11992482 -0.05902234
-0.06882038 0.040475897 0.056675974 -0.11436368 0.019533185 -0.052394133 0.027508672 -0.11813179
-0.08478043 0.06186214 -0.09362899 0.0046484414 -0.01676634 -0.12200888 0.09196027 -0.008871981
0.072088875 -0.06440041 -0.07854738 0.059054367 0.048678316 -0.07313437 0.06559416 -0.13178493
0.097577214 -0.027038312 -0.020232767 0.01698623 0.065886624 0.011845333 -0.10801608 -0.047137674
-0.12647654 0.044210177 0.07234607 -0.09511763 -0.07417945 -0.11682926 -0.10366725 -0.037919898
-0.14790128 0.05379356 -0.016996859 0.016902003 0.07252031 -0.14902799 -0.10440664 -0.10241135
-0.03987529 0.015785834 -0.122700006 -0.0899989 0.11171826 -0.109918386 -0.06264503 0.039398566
0.014126483 0.11318098 0.06712724 -0.0819798 0.05056359 0.061891925 0.09555655 0.12713432
-0.10474828 0.004149804 0.114346266 0.1114238 0.054118086 -0.00039310724 0.05272516 0.0892
0.022952799 0.050991535 0.09445359 -0.086551584 -0.07994145 -0.13881296 0.09633585 0.03133105
-0.009222413 -0.083025485 -0.022246286 -0.007285053 0.05201785 -0.052161116 -0.038393594 -0.1250414
0.04813083 0.06051721 -0.077402115 -0.12390931 0.10784787 -0.025767863 0.123106755 0.022300076
-0.09901388 0.08215691 0.107696645 0.052759886 0.082155526 -0.013120172 0.059792493 0.05218082
-0.031299986 -0.12116126 0.075856276 0.10615579 -0.05441684 0.018273426 -0.063369155 0.112132
00000000: d80b f33d dde4 a33c 29b4 e33b 4651 f9bd
00000010: 8c65 f33d 2541 22bc 2313 5fbd 1bd4 b73d
00000020: c38d afbd 6bf7 48bd dc48 92bb 3425 463c
00000030: f390 b9bd f354 c13d e6ca 2dbd e5b0 833c
00000040: 5bf5 343d 45f9 ab3b 0cd3 cabd 8fe2 2db9
00000050: 39b5 b03c aeb7 8a3d 6118 02be 0ca1 04be
00000060: cdb3 6a3d 6cf8 8bbb 3753 cb3d 0886 123d
00000070: 498a e53c ebca dd3d efd1 d6bd 49dd 85bd
00000080: c5b1 d53d 41b4 6ebd 480c 57bd 3d83 c63d
00000090: 7105 a63d e546 09be 44ea bfbc 986b 7f3b
000000a0: 723d b4bc c11a dfbd cc63 5bbd 84ab 943d
000000b0: bdcf f8bd f923 0a3d b4c6 e7bd e06e 3b3c
000000c0: 77f4 943d c443 653c 587b ed3d c009 c9bc
000000d0: c012 8e3c 279c 383d 2c78 8d3d 7562 27bd
000000e0: 6d6e f63b a797 043d e37e 853d 8b37 b03d
000000f0: 73a7 cebd 70cf b93c 2b5c 983d b2d0 00bd
00000100: 099b f23c 026a 593d 866c e1ba fc9a 273a
00000110: e890 8abb 80f8 663d 42ba 16b9 ea8b a4bd
00000120: fd85 5a3a d563 cd3d 0ed2 87bd f1d6 10bd
00000130: 738f d2bd 8c2a 0fbe 259b f5bd 69c1 71bd
00000140: b3f1 8cbd 0eca 253d 1125 683d 8137 eabd
00000150: 0f04 a03c 3b9b 56bd de59 e13c 14ef f1bd
00000160: 5da1 adbd 2863 7d3d 8ec0 bfbd f451 983b
00000170: 9059 89bc cbdf f9bd ab55 bc3d c95b 11bc
00000180: 55a3 933d 5de4 83bd 73dd a0bd fee2 713d
00000190: ea62 473d 79c7 95bd 3b56 863d a1f2 06be
000001a0: 90d6 c73d 737f ddbc 30bf a5bc b526 8b3c
000001b0: 91ef 863d ed12 423c 8937 ddbd 6f13 41bd
000001c0: 1183 01be bb15 353d 2d2a 943d 08cd c2bd
000001d0: 65eb 97bd 2e44 efbd 7f4f d4bd e551 1bbd
000001e0: 6f73 17be a356 5c3d ff3c 8bbc 1276 8a3c
000001f0: 8785 943d cb9a 18be 26d3 d5bd 0bbd d1bd
00000200: 4654 23bd 4b51 813c 244a fbbd 5851 b8bd
00000210: 8bcc e43d e41c e1bd 0a4c 80bd 6460 213d
00000220: c472 673c 6ecb e73d 027a 893d 06e5 a7bd
00000230: c41b 4f3d 6382 7d3d 27b3 c33d 802f 023e
00000240: 4486 d6bd 14fb 873b 602e ea3d 2932 e43d
00000250: edaa 5d3d f619 ceb9 56f6 573d 7dae b63d
00000260: 8207 bc3c 80dc 503d e270 c13d f541 b1bd
00000270: 58b8 a3bd fc24 0ebe bb4b c53d fd54 003d
00000280: 9b19 17bc 4409 aabd d83d b6bc 74b7 eebb
00000290: ab10 553d e5a6 55bd 9a42 1dbd da0a 00be
000002a0: d524 453d e5e0 773d 0085 9ebd 2ac4 fdbd
000002b0: 58df dc3d 2017 d3bc 651f fc3d a6ae b63c
000002c0: cac7 cabd e241 a83d 0f90 dc3d c01a 583d
000002d0: 2841 a83d fdf5 56bc f9e8 743d 8ebb 553d
000002e0: 6a34 00bd 6523 f8bd 895a 9b3d 3568 d93d
000002f0: 31e4 5ebd 27b2 953c b0c7 81bd 76a5 e53d

gru.bias_hh_l0 f4 [192]
-0.10850636 -0.10295343 0.036729593 0.07915072 -0.066444054 0.0833314 0.09886312 -0.07682919
0.019751282 0.09991897 0.04070756 0.0039768605 -0.102243386 0.07128806 0.14410421 -0.054888546
0.10581575 -0.07667314 0.07346973 0.10874108 0.0060794186 -0.07315663 -0.055732682 -0.11990732
0.068554595 0.08209073 -0.019421984 -0.008820733 -0.036012817 -0.048546974 -0.099365585 -0.10325197
-0.11889254 -0.033632204 0.08698401 0.10483817 -0.08606466 -0.039731953 0.10245821 0.01879289
0.047893807 -0.106975324 -0.00078868965 0.0026281455 -0.13044985 -0.046140324 0.111791626 -0.073545866
0.016929071 0.042161297 -0.03816273 -0.028832149 -0.09008156 -0.080311716 0.03500247 0.06660112
0.11248364 0.020636385 -0.01592733 -0.0119550545 0.053139117 0.072791815 -0.04188938 0.06626576
-0.09218768 -0.045216084 0.046473432 -0.07677927 -0.019634191 0.001206518 0.046059486 -0.03280009
-0.059904225 -0.112804346 -0.07157409 0.07606213 -0.15429853 -0.008812008 -0.16346563 0.012696986
-0.09226477 -0.025558429 -0.09568389 0.019343687 0.05136953 -0.030189842 0.009237291 0.0007511179
-0.15413556 0.08429017 -0.1476025 0.01158366 0.11026642 -0.044556227 -0.13190736 0.09791276
-0.073124364 0.10385135 -0.086372755 0.07459726 -0.023788448 -0.08147633 -0.09199216 0.021955067
-0.122483574 -0.122604795 -0.01980011 -0.05947711 -0.060021058 -0.0228883 -0.12352913 -0.03903801
-0.12707101 -0.07834121 0.022879174 -0.090111986 -0.13391083 -0.011921375 0.09190788 -0.121574484
-0.10194362 0.055022504 0.019167475 0.10250335 -0.039137423 0.049530935 -0.012453963 -0.11832322
0.054057535 0.084489696 0.08042992 0.069804616 0.0045967177 -0.023843331 -0.054675795 -0.11915955
0.018852096 -0.045355663 -0.08692292 -0.027760766 0.034238048 -0.11978033 0.0273835 -0.08612067
0.039464552 0.12821306 0.109406084 0.09317779 0.08513638 0.07508684 0.11165049 -0.03470303
-0.017875042 -0.06898733 0.083807446 0.039884944 0.07514041 0.030162519 -0.063530505 0.024594678
0.02432685 0.0960073 -0.0717229 0.04886534 0.023550505 -0.021398436 -0.12040277 -0.10610096
0.100116424 0.01074855 0.00016689909 -0.083547845 -0.074202 0.074217506 0.012782422 0.09868392
-0.071261995 -0.07559342 0.04864373 -0.022931535 0.04793211 0.05387362 0.057791002 0.08201424
0.0715287 0.1153991 -0.0155761065 -0.0632626 0.11468622 -0.08088522 -0.12103462 -0.06068808
00000000: 9538 debd 3fd9 d2bd c571 163d c619 a23d
00000010: d213 88bd a7a9 aa3d bf78 ca3d 9f58 9dbd
00000020: 71cd a13c 51a2 cc3d f8bc 263d 5350 823b
00000030: fb64 d1bd 79ff 913d 0e90 133e d0d2 60bd
00000040: eeb5 d83d cf06 9dbd 4c77 963d a5b3 de3d
00000050: dc35 c73b 25d3 95bd f447 64bd f891 f5bd
00000060: 5a66 8c3d 2f1f a83d da1a 9fbc d684 10bc
00000070: 2d82 13bd 31d9 46bd 2f80 cbbd c575 d3bd
00000080: ef7d f3bd ecc1 09bd ac24 b23d 65b5 d63d
00000090: ab42 b0bd f9bd 22bd 9cd5 d13d 8cf3 993c
000000a0: 4c2c 443d e115 dbbd 11c0 4eba f73c 2c3b
000000b0: a594 05be a3fd 3cbd 02f3 e43d 379f 96bd
000000c0: d6ae 8a3c 53b1 2c3d 8650 1cbd 6631 ecbc
000000d0: ae7c b8bd 787a a4bd c05e 0f3d 2b66 883d
000000e0: d35d e63d a30d a93c 087a 82bc 22df 43bc
000000f0: 67a8 593d e013 953d 3394 2bbd 58b6 873d
00000100: e5cc bcbd 8034 39bd ed5a 3e3d 733e 9dbd
00000110: e2d7 a0bc 0724 9e3a dfa8 3c3d 6359 06bd
00000120: 225e 75bd f705 e7bd 7095 92bd 76c6 9b3d
00000130: 6f00 1ebe 3e60 10bc 8963 27be 0507 503c
00000140: 50f5 bcbd e95f d1bc eaf5 c3bd a776 9e3c
00000150: db68 523d b050 f7bc 0258 173c abe6 443a
00000160: b6d5 1dbe 53a0 ac3d 1c25 17be 64c9 3d3c
00000170: 5cd3 e13d 9780 36bd b912 07be 7c86 c83d
00000180: 3ac2 95bd 04b0 d43d 33e4 b0bd 73c6 983d
00000190: fedf c2bc 10dd a6bd 6366 bcbd 1ddb b33c
000001a0: abd8 fabd 3918 fbbd d733 a2bc 459e 73bd
000001b0: a4d8 75bd 3e80 bbbc d7fc fcbd 52e6 1fbd
000001c0: e71e 02be 5b71 a0bd 1b6d bb3c a28c b8bd
000001d0: ec1f 09be df51 43bc 333a bc3d 0bfc f8bd
000001e0: d1c7 d0bd 475f 613d 1c05 9d3c 47ed d13d
000001f0: 904e 20bd f3e0 4a3d b50b 4cbc 7253 f2bd
00000200: 6f6b 5d3d ef08 ad3d 71b8 a43d b9f5 8e3d
00000210: 10a0 963b 1753 c3bc baf3 5fbd ec09 f4bd
00000220: b66f 9a3c dcc6 39bd a504 b2bd 8c6a e3bc
00000230: 323d 0c3d 644f f5bd 5d53 e03c 0960 b0bd
00000240: 95a5 213d 494a 033e 4c10 e03d ffd3 be3d
00000250: fb5b ae3d 21c7 993d 03a9 e43d c424 0ebd
00000260: ae6e 92bc 3b49 8dbd 3da3 ab3d 655e 233d
00000270: 37e3 993d 6317 f73c 481c 82bd c77a c93c
00000280: 1a49 c73c 7a9f c43d 75e3 92bd 0627 483d
00000290: fdec c03c c64b afbc ba95 f6bd 764b d9bd
000002a0: d709 cd3d b01a 303c a201 2f39 221b abbd
000002b0: 38f7 97bd 59ff 973d 5d6d 513c cc1a ca3d
000002c0: cff1 91bd b9d0 9abd a63e 473d eada bbbc
000002d0: 7654 443d 96aa 5c3d 42b6 6c3d 15f7 a73d
000002e0: a47d 923d 5d56 ec3d ed32 7fbc d28f 81bd
000002f0: 9ce0 ea3d 26a7 a5bd 00e1 f7bd 1094 78bd

fc.weight f4 [1, 64]
-0.036633376 0.023964105 -0.1331525 -0.02513898 0.06502725 0.067846484 -0.06283513 0.000978921
0.12280209 0.0080971075 -0.032834392 -0.045004927 0.042247117 0.12589422 0.13410886 0.11641213
-0.1131937 0.07300167 -0.07480648 0.0580866 0.09433366 0.009455759 -0.11594203 0.04128097
-0.11707745 0.049880497 0.09729227 0.092781655 0.041398585 0.062096838 0.04382865 -0.0193218
-0.07963879 0.0030379177 -0.104889944 0.10703024 -0.05211818 -0.07737766 -0.11612717 -0.111020714
0.08701031 -0.055089366 0.10355297 -0.10943027 0.11118883 -0.0011521946 0.06927369 0.12928325
0.09944233 0.0263737 -0.02577973 -0.034385078 -0.12551826 0.084083475 0.08568769 -0.08693464
-0.13744108 -0.046665918 -0.068616696 0.090760514 0.028301498 -0.127669 0.03468851 0.011639846
00000000: e10c 16bd 5f50 c43c 2159 08be 43f0 cdbc
00000010: 022d 853d 19f3 8a3d b4af 80bd 234f 803a
00000020: aa7f fb3d bba9 043c 5b7d 06bd 1657 38bd
00000030: 500b 2d3d 6aea 003e d553 093e 7c69 ee3d
00000040: 19d2 e7bd e681 953d 2434 99bd 37ec 6d3d
00000050: 0232 c13d 54ec 1a3c 0473 edbd 3c16 293d
00000060: 4dc6 efbd 7e4f 4c3d 2b41 c73d 4f04 be3d
00000070: 9091 293d 4159 7e3d ac85 333d c048 9ebc
00000080: a919 a3bd cd17 473b 8ad0 d6bd ac32 db3d
00000090: df79 55bd 2e78 9ebd 15d4 edbd d45e e3bd
000000a0: 7632 b23d 63a5 61bd 9413 d43d fa1c e0bd
000000b0: f8b6 e33d 3c05 97ba 5ddf 8d3d d462 043e
000000c0: 6ca8 cb3d a80d d83c 0330 d3bc 5ed7 0cbd
000000d0: dc87 00be f533 ac3d 077d af3d ca0a b2bd
000000e0: 5bbd 0cbe c324 3fbd e986 8cbd a6e0 b93d
000000f0: 8bd8 e73c aabb 02be 8a15 0e3d 0db5 3e3c
