assembling/gru_model.pth (torch, 41715 bytes, 9 tensors)

gru.weight_ih_l0 f4 [96, 1]
0.0048471875 0.18914433 -0.0122275995 -0.21812537 -0.06360873 -0.1467708 -0.071985066 0.059205297
-0.027033722 0.09347808 0.088651374 0.039720695 -0.16265133 -0.011392383 -0.046833273 -0.1528521
0.114625126 -0.017646378 0.13262786 -0.11987078 -0.12154282 0.12575185 -0.11778494 -0.082471736
0.00015423792 -0.14493713 -0.119849406 -0.083587185 -0.13337462 0.026690025 0.12891702 -0.13424893
0.16502462 0.010173018 0.03762954 -0.037454557 -0.041697696 0.16620873 0.07023836 0.12454632
-0.10382654 0.10979476 0.12092843 0.20427924 -0.15790707 0.18026926 -0.08080647 -0.055615984
0.12117399 -0.03697198 -0.14998913 0.09323366 -0.098677844 0.12421654 0.08047512 0.13294978
-0.05771357 0.08448883 -0.10068435 0.04760469 0.2167936 0.13418028 0.025028571 0.14158125
0.01906944 -0.083795585 -0.12122808 -0.022454867 0.17865747 -0.19012868 -0.15933277 -0.06619003
-0.10066693 0.011958006 0.1095299 0.06268498 -0.0922294 -0.054201126 -0.2106371 0.08968451
-0.1385357 0.015185113 0.100352414 0.22143611 -0.16903165 0.069140054 0.16776523 -0.054334577
-0.15037179 0.063499056 -0.19552258 -0.020718938 -0.07779561 -0.011878919 -0.09961941 0.16674912
00000000: 28d5 9e3b 0daf 413e 4556 48bc 425c 5fbe
00000010: 4b45 82bd 164b 16be e86c 93bd 4181 723d
00000020: d375 ddbc 7071 bf3d da8e b53d 2bb2 223d
00000030: 128e 26be 1ea7 3abc 3fd4 3fbd 4385 1cbe
00000040: 94c0 ea3d 238f 90bc 99cf 073e d07e f5bd
00000050: 71eb f8bd 18c5 003e 3b39 f1bd f1e6 a8bd
00000060: edba 2139 666a 14be 9b73 f5bd c22f abbd
00000070: 5b93 08be 0aa5 da3c d302 043e 8d78 09be
00000080: 37fc 283e bbac 263c 6f21 1a3d f369 19bd
00000090: 34cb 2abd 9f32 2a3e 21d9 8f3d 2412 ff3d
000000a0: 02a3 d4bd 13dc e03d 53a9 f73d 942e 513e
000000b0: 64b2 21be 8198 383e dd7d a5bd 96cd 63bd
000000c0: 122a f83d ee6f 17bd c096 19be 4af1 be3d
000000d0: 9c17 cabd 3e65 fe3d 24d0 a43d fd23 083e
000000e0: 1065 6cbd 7b08 ad3d 9933 cebd 23fd 423d
000000f0: 24ff 5d3e 8e66 093e b808 cd3c adfa 103e
00000100: 8437 9c3c 059d abbd 6d46 f8bd 45f3 b7bc
00000110: fcf1 363e 18b1 42be 2128 23be a38e 87bd
00000120: 772a cebd 83eb 433c 3651 e03d fc60 803d
00000130: c5e2 bcbd 0002 5ebd 40b1 57be 83ac b73d
00000140: 4ddc 0dbe fbca 783c 9185 cd3d 26c0 623e
00000150: a216 2dbe 4d99 8d3d a6ca 2b3e ef8d 5ebd
00000160: 10fb 19be cb0b 823d 1237 48be c3ba a9bc
00000170: 4e53 9fbd cc9f 42bc 4305 ccbd 48c0 2a3e

gru.weight_hh_l0 f4 [96, 32]
-0.09409785 -0.14444056 0.060941815 -0.10822421 0.14314629 -0.026653063 0.13774069 -0.024088157
0.09551828 -0.11754773 0.06275652 -0.1340088 0.08529033 -0.16991907 -0.1788149 0.16628675
0.015804525 0.13752818 -0.062810406 0.1441662 -0.116324805 0.07093028 -0.11791789 -0.008853844
-0.18093713 0.12427326 0.11926136 -0.18388428 -0.14384973 0.04844905 0.06672218 0.14337526
0.032715186 -0.21271273 -0.14252949 0.045113645 -0.06408385 -0.14626074 -0.053458948 -0.15910892
-0.14909424 0.0334997 0.16636279 -0.16112542 0.01336411 -0.060316823 0.10434053 -0.17495917
-0.13410553 0.11541287 -0.1209362 -0.15340665 0.043636687 -0.16756196 0.20699228 -0.14711763
0.045829847 0.056159183 0.057222556 -0.0992252 -0.09417995 0.1713305 0.011906761 -0.0796102
0.07012281 0.018424373 -0.087787755 -0.11046196 -0.18567544 0.038504776 -0.03387304 -0.10921101
0.029766997 -0.061822265 -0.14861526 -0.08911807 -0.0067730397 -0.08111233 -0.023422118 0.117706284
-0.060084905 0.07464123 -0.10588466 -0.026968753 0.20771974 -0.057895374 -0.1908167 -0.05032609
0.100884415 -0.13505317 -0.022219699 0.19968057 0.0046364754 -0.016647596 0.11568831 -0.016022695
0.18815744 -0.050562892 0.09223452 0.050485346 -0.18027504 0.1383172 0.06688321 -0.12916249
0.077717066 -0.10229902 0.11431847 0.09457188 0.091601826 -0.09666994 0.105610445 -0.03299104
-0.015684186 0.09370163 -0.007987862 -0.05475148 -0.072558865 0.021703847 0.0886826 -0.19313188
0.061732806 0.015112365 0.08793554 -0.005020959 -0.09693444 0.038225554 0.003852311 -0.14126627
-0.1251088 0.18627602 0.03030592 -0.024109505 -0.14683771 0.13786723 -0.06424405 0.1800698
-0.12569582 -0.081154995 -0.22009827 -0.15246746 -0.009968521 0.0035233179 0.06267945 -0.008178347
0.14371325 -0.058488656 0.10850508 -0.17123273 0.18047066 0.0064425156 -0.20465666 -0.06980756
0.118081786 -0.15329486 0.07382356 -0.09835445 0.012777341 0.103189 0.059304275 -0.04397005
-0.16109182 0.0058929296 0.032971177 0.048448704 -0.15368286 -0.10615557 0.2094385 0.17927012
0.14786948 -0.00525107 -0.031451207 -0.12030743 -0.11871332 -0.029513314 0.12513345 -0.16418172
0.2047048 -0.0635217 -0.030424558 -0.2037493 0.1713643 -0.21766877 -0.019736733 -0.05130465
0.056983974 -0.17584284 -0.015113011 0.014492471 0.012924755 0.13469411 -0.03152423 -0.12238378
0.048063725 -0.05037844 -0.18668513 0.035349656 0.012134666 0.13031505 -0.14924613 0.056971513
0.0030614159 -0.034872938 0.16397825 -0.19173442 -0.013812846 -0.13330199 -0.20864022 0.08683816
-0.13548473 0.07297265 0.058901872 0.02233308 0.16495483 -0.1206596 0.004197472 0.11579212
-0.136119 0.17471185 -0.11358283 0.11865578 0.10728213 0.08787718 -0.0972751 -0.15068968
0.027312774 -0.17423844 -0.13689506 -0.15146674 0.097598456 0.16465665 -0.1728894 0.1066071
0.17057101 -0.10050968 0.028557437 -0.0905595 0.04667554 -0.089241125 -0.16462396 -0.1709281
0.07209963 -0.097333305 -0.09487113 -0.098604135 0.020236688 0.1748586 -0.04301938 -0.14910723
0.12292269 0.17371443 -0.020665996 0.17694186 0.17576165 -0.09482768 0.11040874 -0.16870327
00000000: 60b6 c0bd 3ae8 13be 209e 793d a8a4 ddbd
00000010: f194 123e 8657 dabc e50b 0d3e 8754 c5bc
00000020: 179f c33d ddbc f0bd 7e86 803d 9a39 09be
00000030: b2ac ae3d 44ff 2dbe 411b 37be 1347 2a3e
00000040: 7e78 813c 30d4 0c3e bea2 80bd 4ea0 133e
00000050: b33b eebd e543 913d ef7e f1bd b70f 11bc
00000060: 9547 39be fb82 fe3d 4d3f f43d 294c 3cbe
00000070: 584d 13be 8372 463d a3a5 883d f7d0 123e
00000080: 5c00 063d 5ed1 59be 40f3 11be 16c9 383d
00000090: 653e 83bd 60c5 15be c5f7 5abd 73ed 22be
000000a0: 29ac 18be fb36 093d 025b 2a3e 10fe 24be
000000b0: 24f5 5a3c c60e 77bd 7db0 d53d 7f28 33be
000000c0: f652 09be 955d ec3d 66ad f7bd a216 1dbe
000000d0: 62bc 323d 5d95 2bbe c9f5 533e 01a6 16be
000000e0: 14b8 3b3d 2c07 663d 3362 6a3d 9536 cbbd
000000f0: 6be1 c0bd 4371 2f3e 9314 433c ac0a a3bd
00000100: 8c9c 8f3d b6ee 963c 11ca b3bd e139 e2bd
00000110: b421 3ebe 2fb7 1d3d 75be 0abd 06aa dfbd
00000120: ebd9 f33c 5839 7dbd 992e 18be 8983 b6bd
00000130: 60f0 ddbb 391e a6bd bedf bfbc fe0f f13d
00000140: 971b 76bd 80dd 983d 0eda d8bd 93ed dcbc
00000150: 7cb4 543e b323 6dbd 7465 43be bb22 4ebd
00000160: 7d9c ce3d 614b 0abe 1606 b6bc 1079 4c3e
00000170: 93ed 973b 8a60 88bc feed ec3d 0742 83bc
00000180: 58ac 403e 091b 4fbd 74e5 bc3d b9c9 4e3d
00000190: 059a 38be 06a3 0d3e 10fa 883d 2c43 04be
000001a0: 202a 9f3d 2682 d1bd cd1f ea3d e7ae c13d
000001b0: bd99 bb3d e4fa c5bd 4a4a d83d 9d21 07bd
000001c0: 1f7c 80bc a4e6 bf3d 86df 02bc 1743 60bd
000001d0: be99 94bd 44cc b13c 399f b53d 5dc4 45be
000001e0: 8adb 7c3d da99 773c 8c17 b43d db86 a4bb
000001f0: 9085 c6bd 6692 1c3d 0e77 7c3b 1ba8 10be
00000200: 851c 00be 24bf 3e3e 1f44 f83c 4c81 c5bc
00000210: a05c 16be 112d 0d3e 6292 83bd 3864 383e
00000220: 68b6 00be 9734 a6bd 7161 61be 6e20 1cbe
00000230: 0253 23bc 77e7 663b 155e 803d 79fe 05bc
00000240: 9129 133e cd91 6fbd e937 de3d a257 2fbe
00000250: 4dcd 383e bd1b d33b 8491 51be 44f7 8ebd
00000260: ddd4 f13d 54f9 1cbe ce30 973d 0f6e c9bd
00000270: 0d58 513c c154 d33d 0ae9 723d f019 34bd
00000280: 41f5 24be 7a19 c13b c90c 073d 2672 463d
00000290: 0a5f 1dbe 1768 d9bd 0c77 563e 9692 373e
000002a0: 196b 173e 2b11 acbb fbd2 00bd be63 f6bd
000002b0: f81f f3bd e8c5 f1bc fc22 003e 411f 28be
000002c0: 239e 513e aa17 82bd ec3c f9bc a8a3 50be
000002d0: 207a 2f3e 90e4 5ebe eeae a1bc d324 52bd
000002e0: 0768 693d 2510 34be 909c 77bc d471 6d3c
000002f0: 5ac2 533c 41ed 093e 8d1f 01bd 59a4 fabd
00000300: 78de 443d a059 4ebd 632a 3fbe cdca 103d
00000310: 7ad0 463c 4f71 053e fad3 18be f65a 693d
00000320: 09a2 483b edd6 0ebd eae9 273e 0756 44be
00000330: 464f 62bc 5180 08be c8a5 55be 35d8 b13d
00000340: 82bc 0abe af72 953d 1743 713d ddf3 b63c
00000350: ebe9 283e 611c f7bd f28a 893b 6b24 ed3d
00000360: c762 0bbe aae7 323e 1d9e e8bd cd01 f33d
00000370: bcb6 db3d f3f8 b33d 2b38 c7bd 654e 1abe
00000380: 0abf df3c 906b 32be 382e 0cbe 191a 1bbe
00000390: b3e1 c73d c19b 283e eb09 31be d354 da3d
000003a0: 2baa 2e3e 05d8 cdbd 49f1 e93c 4277 b9bd
000003b0: da2e 3f3d 0dc4 b6bd 2f93 28be c707 2fbe
000003c0: f9a8 933d af56 c7bd cc4b c2bd f7f0 c9bd
000003d0: 69c7 a53c 220e 333e 1735 30bd 91af 18be
000003e0: e4be fb3d 32e2 313e bc4b a9bc 3f30 353e
000003f0: ddfa 333e 0435 c2bd fa1d e23d 8dc0 2cbe

gru.bias_ih_l0 f4 [96]
0.00632436 -0.14110106 -0.03637599 0.13731761 0.077437475 -0.03486242 -0.034093935 0.12643011
0.044753492 0.0067170016 -0.12915686 0.03714676 -0.111721195 -0.16434686 0.22039738 0.14845838
0.032678675 0.11929742 0.1557609 -0.10347275 -0.15676178 -0.078336224 0.019310337 -0.1234867
0.043159284 -0.10105016 -0.10979535 0.09015461 0.025259582 -0.07101266 -0.148045 0.106914505
0.029724738 0.0383588 -0.021567713 0.13386764 0.049698412 -0.12821746 -0.03934457 -0.03990689
0.11408773 0.031003684 0.038822144 -0.028211731 0.02439574 0.0043593543 -0.09999766 0.03188816
-0.17409256 0.197738 -0.017641231 0.016545644 0.05700045 -0.14165096 -0.0719085 -0.17719832
0.07991442 0.011864608 -0.17206112 0.15576568 -0.16440114 -0.048055526 -0.202222 0.026561279
0.13760014 0.033795767 -0.023962885 -0.1092122 -0.086904004 0.036073714 0.03228588 0.13986842
0.00040269954 0.024828104 -0.0037542498 -0.0939553 -0.085340135 0.13890946 -0.049319893 -0.13195813
-0.041395742 -0.04342248 0.04541157 -0.10831169 0.10283445 -0.021342786 0.030185184 -0.18601608
0.13169149 0.07846349 0.09804592 0.009154089 -0.009511635 0.07630247 0.07221819 -0.13820313
00000000: 943c cf3b cc7c 10be fdfe 14bd fd9c 0c3e
00000010: 8a97 9e3d e6cb 0ebd 15a6 0bbd e576 013e
00000020: 704f 373d 4b1a dc3b b241 04be 3327 183d
00000030: 15ce e4bd 8b4a 28be daaf 613e 7905 183e
00000040: 13da 053d 3552 f43d c97f 1f3e 85e9 d3bd
00000050: 2986 20be be6e a0bd b630 9e3c 98e6 fcbd
00000060: cac7 303d 63f3 cebd 62dc e0bd fba2 b83d
00000070: 2fed ce3c 166f 91bd 1c99 17be fef5 da3d
00000080: 4b81 f33c 1e1e 1d3d c6ae b0bc 9914 093e
00000090: 9090 4b3d 704b 03be c627 21bd 6875 23bd
000000a0: d4a6 e93d 70fb fd3c f803 1f3d 4a1c e7bc
000000b0: 93d9 c73c ead8 8e3b 93cb ccbd 299d 023d
000000c0: 5245 32be d57b 4a3e 5884 90bc bb8a 873c
000000d0: 4e79 693d f30c 11be c344 93bd 7a73 35be
000000e0: 2caa a33d c663 423c ca30 30be 0a81 1f3e
000000f0: c658 28be dfd5 44bd 4913 4fbe 0a97 d93c
00000100: 0de7 0c3e 6e6d 0a3d d04d c4bc a5aa dfbd
00000110: bafa b1bd 08c2 133d 333e 043d ab39 0f3e
00000120: 6b21 d339 4f64 cb3c dc09 76bb a36b c0bd
00000130: cfc6 aebd 483e 0e3e a803 4abd 0820 07be
00000140: 958e 29bd c5db 31bd 7c01 3a3d 85d2 ddbd
00000150: de9a d23d 11d7 aebc eb46 f73c 007b 3ebe
00000160: 22da 063e 77b1 a03d 4dcc c83d 08fb 153c
00000170: b0d6 1bbc 7844 9c3d 21e7 933d 1f85 0dbe

gru.bias_hh_l0 f4 [96]
-0.045778144 0.050929446 0.030548545 0.057835277 -0.07971325 -0.1242677 0.13264401 0.12365823
0.1566134 -0.021630172 -0.07452969 0.13415655 -0.087638855 0.07706583 0.056591757 0.06368527
0.19882682 0.017929897 0.19978328 -0.16651244 -0.049870707 -0.07490873 0.13831404 0.14675297
0.11487063 -0.17715366 0.18516146 0.060303945 -0.04127849 0.058707952 0.04391344 -0.12339955
0.1296802 -0.0056900443 -0.13770933 -0.104377024 -0.007887515 0.1058784 -0.083231635 0.15702291
-0.14629371 -0.05452874 0.072312914 -0.070599094 0.09124785 0.0182671 0.118073195 0.06583928
-0.11043771 -0.049657702 -0.035532314 0.12219702 0.03299975 -0.03511764 0.09439908 0.0059676934
-0.14713177 0.16269463 -0.004672887 -0.15091528 0.003916842 0.14513025 -0.015811069 0.085114546
-0.05120152 -0.08367481 0.05997213 0.06263288 0.006716685 0.14629258 -0.18626134 -0.20680612
0.011595296 -0.0753104 0.104948275 -0.16269293 -0.027602794 -0.03562508 -0.06594783 0.05231872
-0.032794524 -0.08198103 0.19720365 -0.0014753971 0.008502642 0.07617477 -0.022985458 0.12170612
0.14071241 -0.118840285 -0.10853234 0.14270553 0.09540601 0.16505238 -0.14968081 -0.01895833
00000000: dd81 3bbd 659b 503d f140 fa3c afe4 6c3d
00000010: b340 a3bd 1080 febd d5d3 073e 8740 fd3d
00000020: 435f 203e c231 b1bc 06a3 98bd 5660 093e
00000030: 007c b3bd b1d4 9d3d c2cc 673d 6c6d 823d
00000040: 4299 4b3e b8e1 923c fd93 4c3e 3d82 2abe
00000050: 3a45 4cbd c069 99bd 32a2 0d3e 6946 163e
00000060: 4b41 eb3d c567 35be f79a 3d3e 4501 773d
00000070: a213 29bd c077 703d 94de 333d e7b8 fcbd
00000080: e3ca 043e 8d73 babb ad03 0dbe 9fc3 d5bd
00000090: a33a 01bc c6d6 d83d 5975 aabd 9dca 203e
000000a0: 05ce 15be 8759 5fbd cb18 943d 4296 90bd
000000b0: 27e0 ba3d e3a4 953c 5cd0 f13d bfd6 863d
000000c0: 2b2d e2bd e065 4bbd 558a 11bd 6e42 fa3d
000000d0: bf2a 073d 84d7 0fbd 4e54 c13d a48c c33b
000000e0: b6a9 16be 6c99 263e 041f 99bb 8989 1abe
000000f0: da58 803b 069d 143e 3786 81bc 8950 ae3d
00000100: afb8 51bd b35d abbd 56a5 753d ab45 803d
00000110: a317 dc3b b9cd 153e 4bbb 3ebe fcc4 53be
00000120: 32fa 3d3c 573c 9abd 1fef d63d fa98 26be
00000130: 411f e2bc 9beb 11bd a80f 87bd 274c 563d
00000140: 8d53 06bd ace5 a7bd c1ef 493e 1d62 c1ba
00000150: aa4e 0b3c 8501 9c3d 004c bcbc 0f41 f93d
00000160: ea16 103e 8962 f3bd 3446 debd 6621 123e
00000170: 3a64 c33d 7e03 293e ed45 19be 804e 9bbc

gru.weight_ih_l1 f4 [96, 32]
0.16077656 0.101523444 0.10383314 0.11877758 -0.06623864 -0.0067107654 -0.10670353 -0.15891558
0.084312096 0.18196392 -0.03850404 0.08830559 -0.13445073 0.058256995 -0.13987136 -0.032632887
-0.13064809 0.080144584 0.16611464 0.023011582 0.02347409 0.023416145 0.0077649723 -0.19434428
0.08204853 -0.11887181 0.029089233 -0.092408545 0.16543569 -0.045116886 0.08426429 -0.09221506
-0.06441856 -0.020186776 -0.014417773 -0.13702703 0.11916356 -0.039912224 0.21540883 -0.080248356
0.051366474 -0.1849418 -0.067610905 0.09196032 0.025151925 -0.120009914 0.1950538 -0.012905454
0.18242341 0.114711374 -0.21564713 0.047522444 0.17015766 -0.05000249 0.094280325 0.18512945
0.026581395 0.089118175 0.024439085 0.07125036 -0.03381844 0.17781942 -0.062199336 0.05468819
0.19572762 -0.006473625 0.0073062917 -0.20061544 0.11403121 -0.1909325 -0.18502639 0.15089616
-0.07660183 -0.031055644 0.17428823 0.043906346 -0.1084668 0.15323983 0.017803365 -0.10300092
-0.13579722 0.1507014 0.20088659 0.0010945745 -0.061740525 -0.07356613 -0.122315176 0.09037862
-0.12493928 -0.090351656 -0.05057173 -0.14511833 0.09753357 0.12727292 0.094069496 -0.10794007
-0.10232778 0.053642143 -0.1986387 0.16425128 0.07851607 0.055680607 -0.18432005 0.05615889
0.023384234 0.12466014 -0.04473642 0.09704943 -0.0026452 0.16947217 0.042894732 0.13490403
-0.16818674 0.032190766 0.026924232 0.08185601 -0.16891678 0.13735491 0.039092533 -0.0022465703
0.03972361 0.12319643 -0.03405038 0.07241516 0.035506796 -0.13693117 -0.11921405 0.06736903
-0.105729 -0.12387407 -0.032421164 -0.102108695 -0.0154885845 -0.07882956 0.21189739 0.031776454
0.02063964 0.12220915 0.03817058 -0.029720562 -0.10249215 0.16177349 0.005769313 -0.19836012
0.09037288 0.104773924 -0.15343791 -0.20373222 0.15296826 -0.09252299 -0.0911899 -0.1280526
0.15355971 -0.05928393 -0.08879618 0.117062405 0.0893302 0.15624012 0.073133774 -0.0018280807
-0.006256805 0.0011565932 -0.09899477 0.03665371 -0.12714991 0.030432742 0.14571626 0.022708148
-0.06455259 -0.069635384 -0.2075211 0.09087949 -0.0555619 -0.089994654 0.11181201 0.08175999
0.124288194 0.076401636 0.057961892 -0.16492105 0.17162049 -0.0764176 -0.0034703 0.06687641
-0.07425503 0.10833007 -0.10275106 0.08612589 -0.12928335 -0.15425433 -0.10805192 -0.19526245
-0.06440566 0.10397497 0.11893081 0.0608264 0.097121 -0.1555092 -0.14525375 0.15168107
0.08945657 0.10528836 0.11000628 0.128208 0.10925886 -0.08045534 -0.17422141 -0.062977314
0.010026718 0.118923485 0.068814926 -0.15393692 0.010927569 0.108940944 -0.009769353 -0.18438262
0.043152433 -0.06938028 0.080589086 0.09159873 -0.09585258 -0.015960013 -0.004758502 -0.089705326
-0.014681345 -0.034758545 0.03572178 -0.0419628 -0.14765172 0.08062067 -0.038446732 0.20261118
0.20547661 0.13610968 -0.2091051 0.029318048 0.041335747 -0.09900099 0.20147961 -0.10089684
0.032189246 0.1115502 -0.15321532 0.12771192 0.04231403 -0.1332675 -0.19114634 -0.043675356
0.13795002 0.006449299 0.18017972 -0.06334728 0.0056062737 0.08831263 -0.086461686 -0.06384018
00000000: 9ca2 243e 86eb cf3d 78a6 d43d a941 f33d
00000010: 20a8 87bd fbe5 dbbb 6187 dabd c4ba 22be
00000020: d2ab ac3d c054 3a3e 6ab6 1dbd 90d9 b43d
00000030: 74ad 09be e39e 6e3d 703a 0fbe 10aa 05bd
00000040: 9dc8 05be d822 a43d f519 2a3e c982 bc3c
00000050: bc4c c03c 37d3 bf3c 4f71 fe3b 3002 47be
00000060: 0f09 a83d 1073 f3bd 8b4c ee3c b140 bdbd
00000070: f967 293e 7ccc 38bd c292 ac3d 40db bcbd
00000080: e1ed 83bd bd5e a5bc 8638 6cbc d050 0cbe
00000090: 060c f43d 007b 23bd 2294 5c3e 4059 a4bd
000000a0: a765 523d 6261 3dbe 9677 8abd b155 bc3d
000000b0: 690b ce3c c2c7 f5bd 2fbc 473e 6671 53bc
000000c0: 34cd 3a3e cced ea3d 9ad2 5cbe e5a6 423d
000000d0: cf3d 2e3e 69cf 4cbd 0b16 c13d 9392 3d3e
000000e0: 3ac1 d93c 9783 b63d 7a34 c83c b5eb 913d
000000f0: 3485 0abd 4b16 363e bbc4 7ebd b900 603d
00000100: d26c 483e b420 d4bb 9e69 ef3b 226e 4dbe
00000110: 3289 e93d cf83 43be 8f77 3dbe 8684 1a3e
00000120: 6ce1 9cbd 6868 febc 9d78 323e 24d7 333d
00000130: d723 debd e7ea 1c3e 5dd8 913c 25f2 d2bd
00000140: 6d0e 0bbe 7851 1a3e 37b5 4d3e d377 8f3a
00000150: a2e3 7cbd d7a9 96bd 6180 fabd 6d18 b93d
00000160: 2ae0 ffbd 4a0a b9bd 4d24 4fbd e699 14be
00000170: aebf c73d d553 023e 82a7 c03d af0f ddbd
00000180: 3a91 d1bd ddb7 5b3d f267 4bbe 7d31 283e
00000190: 09cd a03d 5911 643d 65be 3cbe dd06 663d
000001a0: 4b90 bf3c d14d ff3d 893d 37bd dac1 c63d
000001b0: 175b 2dbb 1d8a 2d3e 63b2 2f3d 4824 0a3e
000001c0: 2539 2cbe 77da 033d 3590 dc3c 20a4 a73d
000001d0: 85f8 2cbe c4a6 0c3e 7e1f 203d 323b 13bb
000001e0: 39b5 223d 694e fc3d 6978 0bbd 664e 943d
000001f0: 936f 113d af37 0cbe 7f26 f4bd c6f8 893d
00000200: 7288 d8bd b0b1 fdbd 0ecc 04bd 5d1e d1bd
00000210: d5c3 7dbc 6471 a1bd a1fb 583e 0728 023d
00000220: 7614 a93c ca48 fa3d c158 1c3d 8978 f3bc
00000230: 68e7 d1bd f3a7 253e 810c bd3b ea1e 4bbe
00000240: 6b15 b93d b693 d63d d41e 1dbe 2e9f 50be
00000250: b6a3 1c3e b27c bdbd c5c1 babd 3920 03be
00000260: c23e 1d3e b5d3 72bd c6da b5bd 6abe ef3d
00000270: c0f2 b63d 69fd 1f3e 29c7 953d 369c efba
00000280: e205 cdbb d498 973a c5bd cabd 3322 163d
00000290: 9633 02be 164e f93c a536 153e 7006 ba3c
000002a0: 2634 84bd ff9c 8ebd 6980 54be 071f ba3d
000002b0: e094 63bd 1e4f b8bd b2fd e43d c871 a73d
000002c0: cf8a fe3d 7678 9c3d 7369 6d3d 10e1 28be
000002d0: 48bd 2f3e d580 9cbd f96d 63bb 80f6 883d
000002e0: 0513 98bd 28dc dd3d 266f d2bd c562 b03d
000002f0: db62 04be d9f4 1dbe 534a ddbd e1f2 47be
00000300: 1de7 83bd d4f0 d43d ff91 f33d 1a25 793d
00000310: 60e7 c63d ce3d 1fbe 66bd 14be 4852 1b3e
00000320: 0235 b73d 6ca1 d73d f94a e13d f548 033e
00000330: 1cc3 df3d c5c5 a4bd 1967 32be 40fa 80bd
00000340: 1a47 243c 288e f33d d7ee 8c3d a4a1 1dbe
00000350: 8c09 333c 6e1c df3d a30f 20bc ccce 3cbe
00000360: 9bc0 303d 4017 8ebd e40b a53d 1d98 bb3d
00000370: 5c4e c4bd 93be 82bc 35ed 9bbb 6db7 b7bd
00000380: 068a 70bc fa5e 0ebd 0051 123d 2fe1 2bbd
00000390: 0332 17be 731c a53d 527a 1dbd 4e79 4f3e
000003a0: 7668 523e 5660 0b3e a61f 56be 672c f03c
000003b0: ac4f 293d 08c1 cabd ac50 4e3e 01a3 cebd
000003c0: dfd8 033d 6e74 e43d 7ae4 1cbe eac6 023e
000003d0: 7a51 2d3d 4777 08be debb 43be eee4 32bd
000003e0: c542 0d3e a454 d33b 0881 383e 38bc 81bd
000003f0: d5b4 b73b 41dd b43d d312 b1bd a4be 82bd

gru.weight_hh_l1 f4 [96, 32]
0.07832297 0.06210823 -0.029169956 -0.11467656 -0.088044286 0.09505034 0.07840754 0.12158769
0.028164696 -0.20038778 -0.1125455 -0.027889661 -0.13179165 0.11950297 0.12166166 -0.009367341
0.0895648 -0.024132768 -0.05654423 0.05419621 0.0337061 -0.21345569 0.056645274 -0.061943084
0.15699953 -0.057766367 0.11089212 -0.17254086 0.022229915 0.05707863 0.12565413 0.18386582
0.02723335 -0.07527868 0.1597763 0.012701688 0.052211065 -0.048254944 -0.13914178 -0.01717155
0.12088453 -0.11347442 0.120633274 0.09072126 0.008754499 0.058093395 -0.109368704 0.06503914
-0.052440267 0.105562024 -0.07934797 -0.06325108 0.058765724 -0.03557785 -0.07871859 0.032672327
0.13255714 0.08965837 0.09693887 -0.05293247 -0.14675951 0.029602602 -0.04031318 0.1688553
-0.20540228 -0.05858779 -0.13908581 0.13141254 -0.012250687 0.13961859 0.031467542 0.018959362
-0.14144416 0.21597454 -0.11644009 -0.022340685 0.18166459 -0.15656576 0.0033918724 -0.12228984
-0.019805199 0.05654116 -0.15868063 -0.06977546 -0.15817828 -0.041211516 0.08805047 0.012472613
0.10778319 0.12094709 -0.10224446 0.09387794 0.008506423 -0.14351228 -0.12655789 -0.13206132
-0.03282981 -0.061235357 -0.110215425 -0.063054025 0.040302325 0.028807485 0.16649684 0.043245807
-0.17431125 -0.09777759 -0.17018639 0.14782484 0.15104382 -0.05358801 0.020971429 -0.11319849
-0.12089984 -0.015646314 0.13780694 0.1883034 0.13088973 -0.045365445 -0.11536671 0.1534218
-0.18612424 0.10365005 -0.025651699 -0.10867118 -0.0513196 0.03113624 0.014898116 -0.1768572
-0.0076100556 -0.06980955 0.1194995 0.089038424 -0.049336303 -0.10321822 -0.0064763715 -0.0005172296
0.057934966 0.018665057 0.12324556 0.046907216 -0.04188893 -0.11227962 -0.1905128 -0.12898031
-0.03828223 0.17573245 -0.08150516 0.009706193 -0.12205004 -0.2189051 -0.071635835 0.0034606066
-0.05191721 -0.18280645 0.19462045 0.04867998 -0.1587111 0.21466263 0.1251547 0.023603383
-0.0069708824 0.0867084 0.16788898 -0.116232336 -0.036790814 -0.03262183 -0.08345923 -0.14684783
0.1216518 -0.14298016 -0.16475426 0.18022808 -0.07783264 -0.06384265 -0.12931672 0.015760241
0.16678932 -0.099646755 0.11805049 -0.16359721 -0.09113417 -0.014139042 -0.09300634 0.07324753
-0.11596469 -0.14873545 -0.04632113 -0.045218486 -0.09465752 -0.09824712 -0.082795896 -0.08356314
-0.112405434 0.04268557 -0.034486897 0.053329013 0.04649484 0.11265736 -0.1411134 0.07133315
-0.12811342 0.007716979 0.06309408 -0.034512244 0.15827176 0.11378181 -0.016419558 0.11395399
-0.004168949 -0.025981365 0.031500313 0.076490454 -0.09478296 -0.1905829 -0.09095528 -0.03630552
-0.18049781 -0.16987607 -0.16915844 -0.037190806 -0.08374999 0.090956174 0.02700392 -0.12005948
-0.0777244 0.16555227 0.16698548 0.06910287 -0.14692192 -0.030029103 -0.14430399 -0.12265193
0.105482265 -0.14854854 -0.028889606 -0.04894999 0.03882176 0.0017369207 0.020593273 -0.13957115
-0.03186848 -0.047273926 0.026446471 -0.14759071 0.059919175 0.03211166 -0.20668545 -0.018583914
-0.119184114 -0.021839995 0.14764968 -0.12038394 0.070261635 0.032879833 -0.09195595 -0.099326596
00000000: cb67 a03d 3365 7e3d d5f5 eebc 8bdb eabd
00000010: 9050 b4bd c1a9 c23d 2294 a03d f802 f93d
00000020: a6b9 e63c 7432 4dbe 417e e6bd dc78 e4bc
00000030: 64f4 06be f9bd f43d c029 f93d 7a79 19bc
00000040: c06d b73d 15b2 c5bc ec9a 67bd d8fc 5d3d
00000050: 680f 0a3d 2194 5abe e004 683d 08b8 7dbd
00000060: 7cc4 203e 6d9c 6cbd 681b e33d 8dae 30be
00000070: 831b b63c 48cb 693d 7aab 003e 5247 3c3e
00000080: 7918 df3c b52b 9abd 669c 233e be1a 503c
00000090: 45db 553d faa6 45bd 2f7b 0ebe 5aab 8cbc
000000a0: 4f92 f73d 4765 e8bd 940e f73d 11cc b93d
000000b0: 086f 0f3c 57f3 6d3d b3fc dfbd 3e33 853d
000000c0: 9bcb 56bd e730 d83d 3081 a2bd c889 81bd
000000d0: 54b4 703d 14ba 11bd 3637 a1bd 6bd3 053d
000000e0: 0fbd 073e cf9e b73d e387 c63d b8cf 58bd
000000f0: 2048 16be 2881 f23c 6f1f 25bd 67e8 2c3e
00000100: fa54 52be c0f9 6fbd 836c 0ebe 0291 063e
00000110: 1bb7 48bc 2df8 0e3e 1ce4 003d aa50 9b3c
00000120: bdd6 10be 6e28 5d3e 2478 eebd d003 b7bc
00000130: 4806 3a3e c652 20be 2d4a 5e3b 1873 fabd
00000140: 833e a2bc b497 673d 2d7d 22be 70e6 8ebd
00000150: 7df9 21be 68cd 28bd ce53 b43d ee59 4c3c
00000160: 6fbd dc3d 1cb3 f73d 8b65 d1bd 1443 c03d
00000170: 865e 0b3c e2f4 12be 6498 01be 153b 07be
00000180: 8d78 06bd edd1 7abd a0b8 e1bd 7822 81bd
00000190: 0d14 253d adfd eb3c 267e 2a3e 8422 313d
000001a0: a67e 32be 9e3f c8bd 5745 2ebe 655f 173e
000001b0: 3bab 1a3e 1a7f 5bbd 46cc ab3c 9cd4 e7bd
000001c0: 569a f7bd b32c 80bc 431d 0d3e 9bd2 403e
000001d0: f507 063e 1ed1 39bd 6245 ecbd 9b1a 1d3e
000001e0: 5a97 3ebe 7a46 d43d 8323 d2bc ff8e debd
000001f0: 8034 52bd 6e11 ff3c 3a17 743c 0e1a 35be
00000200: c65d f9bb 4ff8 8ebd 27bc f43d c759 b63d
00000210: dd14 4abd 1364 d3bd be37 d4bb b196 07ba
00000220: 374d 6d3d 76e7 983c 2b68 fc3d c821 403d
00000230: ba93 2bbd dbf2 e5bd ca15 43be 6a13 04be
00000240: d4cd 1cbd 35f3 333e 2dec a6bd b906 1f3c
00000250: 5ff5 f9bd a928 60be cfb5 92bd 58cb 623b
00000260: 24a7 54bd 9d31 3bbe 954a 473e a964 473d
00000270: 2a85 22be 85d0 5b3e 8e28 003e e25b c13c
00000280: 006c e4bb 2c94 b13d 17eb 2b3e 380b eebd
00000290: f7b1 16bd 789e 05bd acec aabd 475f 16be
000002a0: 9424 f93d 6469 12be 57b5 28be b68d 383e
000002b0: b866 9fbd efbf 82bd 9a6b 04be 9f1b 813c
000002c0: d2ca 2a3e 9913 ccbd 75c4 f13d 0786 27be
000002d0: 8da4 babd 71a7 67bc 1c7a bebd cd02 963d
000002e0: e57e edbd 1b4e 18be 3abb 3dbd 0537 39bd
000002f0: cddb c1bd c935 c9bd e590 a9bd 2723 abbd
00000300: d234 e6bd 10d7 2e3d 2242 0dbd 866f 5a3d
00000310: 6071 3e3d e7b8 e63d 0880 10be 1d17 923d
00000320: 2a30 03be b6de fc3b 7837 813d b65c 0dbd
00000330: fe11 223e 7006 e93d 4f82 86bc b660 e93d
00000340: ae9b 88bb dfd6 d4bc 7906 013d 07a7 9c3d
00000350: 921d c2bd 2a28 43be c346 babd 19b5 14bd
00000360: 6bd4 38be fef3 2dbe df37 2dbe 6355 18bd
00000370: 1d85 abbd 3b47 ba3d 5337 dd3c bfe1 f5bd
00000380: f82d 9fbd 8986 293e 3efe 2a3e ce85 8d3d
00000390: b372 16be 98ff f5bc 6dc4 13be ef30 fbbd
000003a0: 1607 d83d 1c1d 18be e5a9 ecbc c97f 48bd
000003b0: 9103 1f3d 63a9 e33a 39b3 a83c bdeb 0ebe
000003c0: 8688 02bd 4ea2 41bd 45a6 d83c 0522 17be
000003d0: cf6d 753d 8487 033d 5aa5 53be 4b3d 98bc
000003e0: cd16 f4bd cae9 b2bc 7a31 173e db8b f6bd
000003f0: 55e5 8f3d 01ad 063d 6753 bcbd be6b cbbd

gru.bias_ih_l1 f4 [96]
0.023446735 -0.1441334 -0.09995144 -0.1697883 -0.110263646 0.1154885 0.14795734 0.13034494
0.104669735 0.1386408 0.1308247 -0.11214647 0.051918425 -0.07679447 -0.18361488 -0.061761927
-0.08049968 0.022232573 -0.07507007 0.16896987 0.113089636 -0.047814943 0.11422521 0.13551985
-0.005711385 -0.0051731146 0.11124667 0.16275093 -0.011937444 0.069756895 0.027243381 0.16133359
0.035728086 0.09563896 -0.15847549 -0.18630297 -0.1463088 -0.0353892 -0.06157222 -0.1661094
-0.20069364 -0.13646558 0.0055091525 0.090436496 0.077555455 0.03026631 -0.061526954 -0.03631909
0.07142771 0.027466735 -0.028050147 -0.19154526 -0.16996042 0.04420234 0.121769965 0.112247355
-0.014472308 0.076881655 0.12863599 -0.046431627 0.029344447 -0.16041678 -0.08157447 -0.124707766
-0.0363359 0.1689803 -0.031294253 -0.04214858 0.0068215295 -0.15988639 -0.1415103 0.11818434
0.12374921 0.071608506 -0.14537178 0.1444702 0.067988686 -0.059312567 -0.123301096 -0.15401398
-0.0636643 -0.15180086 -0.11616176 0.023575185 -0.06092368 -0.026751105 -0.08512465 0.05004975
-0.18305886 0.033258982 -0.045226913 0.09771601 -0.16901855 -0.14525568 0.07856358 0.11438547
00000000: 5e13 c03c b597 13be 57b3 ccbd fcdc 2dbe
00000010: e8d1 e1bd 3c85 ec3d 2182 173e 2579 053e
00000020: 165d d63d dbf7 0d3e e9f6 053e 0cad e5bd
00000030: 6aa8 543d 6b46 9dbd 8a05 3cbe 13fa 7cbd
00000040: 04dd a4bd 1621 b63c 56be 99bd 7006 2d3e
00000050: 8a9b e73d 9ad9 43bd e8ee e93d b7c5 0a3e
00000060: 9226 bbbb 3b83 a9bb 4bd5 e33d 2ea8 263e
00000070: 4595 43bc b4dc 8e3d 832d df3c a234 253e
00000080: 9d57 123d 5cde c33d 6647 22be 35c6 3ebe
00000090: f9d1 15be 44f4 10bd 2733 7cbd 9518 2abe
000000a0: a282 4dbe a2bd 0bbe 1f86 b43b c536 b93d
000000b0: 65d5 9e3d 0df1 f73c b003 7cbd 53c3 14bd
000000c0: b148 923d eb01 e13c 6cc9 e5bc 7124 44be
000000d0: 1b0a 2ebe 830d 353d 8862 f93d f1e1 e53d
000000e0: 421d 6dbc 2174 9d3d 27b9 033e 172f 3ebd
000000f0: c463 f03c 4c44 24be 8410 a7bd c966 ffbd
00000100: f4d4 14bd 2c09 2d3e 672e 00bd fda3 2cbd
00000110: 2387 df3b 42b9 23be 13e8 10be a20a f23d
00000120: 3a70 fd3d 7ba7 923d 57dc 14be ffef 133e
00000130: a73d 8b3d bcf1 72bd 4985 fcbd d7b5 1dbe
00000140: 6e62 82bd af71 1bbe 38e6 edbd bf20 c13c
00000150: 1c8b 79bd 2225 dbbc d555 aebd f700 4d3d
00000160: c873 3bbe 923a 083d db3f 39bd 551f c83d
00000170: 3313 2dbe e8bd 14be f1e5 a03d ee42 ea3d

gru.bias_hh_l1 f4 [96]
0.0843916 -0.17028162 -0.07234136 -0.004629105 -0.040523008 0.16880625 0.13108224 -0.14592195
0.0046917526 0.04335175 -0.13390377 -0.10915594 0.14702116 -0.092223294 -0.073705904 -0.13062833
0.060520686 -0.15314205 -0.04654506 0.0358816 -0.017767955 -0.024103962 -0.11883403 0.05916359
0.0014182406 -0.011335487 -0.072618574 -0.09616583 0.092974864 -0.11334718 -0.030603351 -0.11824572
0.032442257 0.14795138 0.05533614 0.12956181 0.0015678726 0.122524165 0.07320019 -0.06159815
-0.111703426 -0.1848011 0.15578854 0.11239179 -0.15216672 -0.074103594 -0.012653989 0.08173073
-0.12193195 0.054978054 0.11031624 -0.04493747 0.027883617 0.114146344 -0.07293412 0.102938905
0.042398017 0.006410656 0.02720758 0.067253366 0.14756355 -0.0671204 -0.06363259 -0.17381209
0.0461264 0.016678985 -0.116379835 -0.14343783 0.05717463 -0.15101284 0.17081791 -0.11689515
-0.06955427 -0.08892961 0.09195552 0.1272083 -0.15723164 0.06445765 -0.035177168 -0.14814633
-0.10429421 0.14645475 0.0008869645 -0.12173584 -0.16603017 -0.024813795 -0.104404874 0.16901135
0.16237171 0.12956427 -0.050820973 -0.04267463 0.047703132 0.068637915 -0.0015154395 -0.116626754
00000000: 81d5 ac3d 4e5e 2ebe b527 94bd bfaf 97bb
00000010: 74fb 25bd 8cdb 2c3e 6c3a 063e 906c 15be
00000020: 46bd 993b 9b91 313d 121e 09be 268d dfbd
00000030: b78c 163e 91df bcbd 1ff3 96bd 6fc3 05be
00000040: 8ae4 773d 45d1 1cbe 08a6 3ebd 96f8 123d
00000050: 1a8e 91bc ac75 c5bc 425f f3bd 8555 723d
00000060: 42e4 b93a 7ab8 39bc 0cb9 94bd 97f2 c4bd
00000070: 9b69 be3d 9122 e8bd e1b3 fabc d02a f2bd
00000080: 2ce2 043d 9180 173e 26a8 623d daab 043e
00000090: 1381 cd3a f3ed fa3d fbe9 953d 574e 7cbd
000000a0: c4c4 e4bd 803c 3dbe 0887 1f3e ab2d e63d
000000b0: 98d1 1bbe a0c3 97bd ad52 4fbc 7162 a73d
000000c0: 75b7 f9bd ab30 613d 7bed e13d 5a10 38bd
000000d0: 2f6c e43c 8fc5 e93d 7c5e 95bd a2d1 d23d
000000e0: 8ba9 2d3d 7b10 d23b 6ee2 de3c 22bc 893d
000000f0: e61a 173e 6c76 89bd ce51 82bd ccfb 31be
00000100: 09ef 3c3d 5ea2 883c 8d58 eebd 5ee1 12be
00000110: f22f 6a3d 1ca3 1abe e4ea 2e3e b966 efbd
00000120: 7872 8ebd ba20 b6bd 2d53 bc3d e542 023e
00000130: 5501 21be 5f02 843d ef15 10bd acb3 17be
00000140: 3498 d5bd 3cf8 153e 2e83 683a a450 f9bd
00000150: d003 2abe 4d46 cbbc 39d2 d5bd 5011 2d3e
00000160: c544 263e 7fac 043e a729 50bd 98cb 2ebd
00000170: 5c64 433d 0992 8c3d b6a1 c6ba 02da eebd

fc.weight f4 [1, 32]
0.06528499 -0.008016196 -0.044225942 -0.17659336 0.029746613 0.13396291 0.1366806 0.116815306
-0.0749341 0.18302596 0.12326644 -0.13061832 -0.07366478 0.1563608 -0.0068452773 -0.039406937
-0.10200558 -0.054808885 0.12093472 0.120305076 0.01055497 0.052099243 0.18742982 0.097564906
-0.04363126 0.10160196 -0.18313201 0.08701917 -0.0012874353 -0.14398599 0.10527887 -0.062311042
00000000: 23b4 853d 5d56 03bc 4326 35bd e4d4 34be
00000010: 2baf f33c 932d 093e 00f6 0b3e dd3c ef3d
00000020: 0d77 99bd 286b 3b3e 1e73 fc3d cfc0 05be
00000030: 8fdd 96bd 0c1d 203e 594e e0bb 2b69 21bd
00000040: 4de8 d0bd 487f 60bd 9fac f73d 8262 f63d
00000050: c1ee 2c3c 0466 553d 9aed 3f3e 1cd0 c73d
00000060: b1b6 32bd b014 d03d f586 3bbe 1b37 b23d
00000070: 29bf a8ba 1071 13be 739c d73d dd39 7fbd
