assembling/gru_model.pth (torch, 41715 bytes, 9 tensors)

gru.weight_ih_l0 f4 [96, 1]
0.07764782 -0.10758934 -0.1913319 -0.03212818 0.034541138 0.046659112 0.09593484 0.03971395
0.021905122 0.02169285 0.13731824 0.12429848 0.12184402 -0.12686366 -0.041623395 -0.19595236
-0.058876928 -0.090709165 -0.16782312 -0.034051705 -0.17907317 -0.18203609 -0.14663328 0.15625028
0.1009665 -0.10377099 -0.10028786 -0.14994858 -0.19248162 -0.035307884 0.046768337 0.14142841
0.08843333 -0.08427139 -0.15433002 0.10091723 0.042630654 -0.06630369 0.10055427 -0.012304042
0.1300696 -0.037557937 -0.0267559 0.12127165 -0.10483197 0.031153731 -0.07875085 0.002159314
0.028006468 0.19190176 -0.09146341 -0.03329227 -0.041746356 -0.15232322 0.16951479 -0.10604111
0.13882306 0.06785538 0.16374837 -0.074745044 0.11945046 0.07086344 0.107077226 0.040101014
0.13696957 -0.1361022 -0.122441284 -0.083585754 -0.21054049 0.023274556 -0.19877414 -0.12553816
0.053829357 -0.2020653 -0.19655925 0.116675965 0.17723352 0.0436146 0.1717157 0.18004134
-0.045483977 -0.09624996 -0.1546468 0.057516374 0.17545193 0.14836246 0.18087932 0.13451476
-0.09652364 0.17802219 0.09341518 -0.088316806 0.047241207 -0.05102772 0.08716664 -0.03349204
00000000: d205 9f3d cd57 dcbd 82ec 43be d798 03bd
00000010: 027b 0d3d a01d 3f3d 7c79 c43d 18ab 223d
00000020: 5f72 b33c 34b5 b13c 279d 0c3e 3490 fe3d
00000030: 5c89 f93d 8ce8 01be 4b7d 2abd bca7 48be
00000040: ef28 71bd bac5 b9bd d3d9 2bbe cd79 0bbd
00000050: f55e 37be ab67 3abe 0927 16be 1300 203e
00000060: 86c7 ce3d e385 d4bd b963 cdbd 1f8c 19be
00000070: e719 45be 009f 10bd 2890 3f3d 9cd2 103e
00000080: 891c b53d 7b96 acbd b008 1ebe b1ad ce3d
00000090: 7b9d 2e3d 3bca 87bd 66ef cd3d e496 49bc
000000a0: f730 053e 5ad6 19bd 302f dbbc 455d f83d
000000b0: 25b2 d6bd 1c36 ff3c 2048 a1bd 4783 0d3b
000000c0: d26d e53c e581 443e 2b51 bbbd 7a5d 08bd
000000d0: 3afe 2abd 9efa 1bbe 4995 2d3e 152c d9bd
000000e0: a227 0e3e c3f7 8a3d a7ad 273e ee13 99bd
000000f0: 71a2 f43d da20 913d 4e4b db3d f640 243d
00000100: c041 0c3e 605e 0bbe 7fc2 fabd 022f abbd
00000110: ed97 57be 48aa be3c 738b 4bbe 138d 00be
00000120: 2c7c 5c3d 35ea 4ebe d446 49be cff3 ee3d
00000130: b47c 353e 39a5 323d 3ed6 2f3e c25c 383e
00000140: 684d 3abd b31e c5bd bb5b 1ebe 4a96 6b3d
00000150: aca9 333e 54ec 173e 6e38 393e 3dbe 093e
00000160: 30ae c5bd 734b 363e 7550 bf3d 71df b4bd
00000170: ff7f 413d 7102 51bd 6c84 b23d f32e 09bd

gru.weight_hh_l0 f4 [96, 32]
0.12753464 0.13452093 0.0070924778 -0.018002016 -0.07779342 -0.058111873 0.06659535 -0.013695067
-0.02529299 -0.17367986 -0.15338293 -0.06818533 0.16242687 -0.083628125 0.20117491 0.18362147
-0.06612853 0.037587434 -0.043683223 0.15491131 0.2003483 0.1322397 -0.031014275 0.14269604
-0.10408606 0.13234021 -0.043981094 -0.07490209 0.19102752 -0.11165437 -0.113181345 0.0015094229
0.10030293 0.14343736 0.1569926 0.009140403 -0.12928937 0.1171206 0.13638893 -0.13538055
0.1457554 -0.13201378 -0.0045457687 -0.14374156 -0.0776056 -0.111426435 0.030294206 -0.056043554
0.0947387 0.089594744 -0.0862312 0.028081272 -0.16001254 -0.18272154 -0.032942567 -0.13917151
0.015615379 -0.1885205 0.008101544 0.051634423 0.07814652 0.078289405 -0.12397418 -0.1387839
0.1251912 -0.0052527324 0.13291396 -0.13682401 0.19255044 0.12833779 0.14077336 0.14968929
-0.11463588 -0.048128374 0.14591089 0.0965835 0.02383866 -0.15273954 0.18059845 -0.06479911
0.06281154 0.025271134 -0.0035947915 -0.06842794 -0.094327256 -0.13961647 -0.086938776 0.05006995
0.043062188 0.04699161 -0.16456872 -0.101598494 0.07469378 0.054991454 0.075545855 0.05106965
-0.0621451 -0.12041975 -0.10907633 -0.08619048 0.017641952 0.054329414 0.08634654 0.0055029974
-0.0026406052 0.1852294 -0.134586 -0.1698249 0.007490763 -0.113322005 -0.12469321 0.06399306
0.06621509 -0.044040594 0.05444296 0.09216696 -0.10077317 0.07216109 -0.19267862 0.12527944
0.16656154 0.1419288 0.08308501 0.13828646 -0.12185367 -0.094966836 -0.09801658 0.16546658
-0.19098605 0.08891714 0.16193648 0.05322234 -0.03421906 -0.060798302 -0.09457186 0.12751536
0.10905961 0.17712252 0.068581566 0.06734614 0.012346749 0.012053637 0.13969508 -0.18837865
-0.03062976 0.116156295 -0.11305924 0.12835878 0.018257517 0.024223467 -0.033724796 -0.20930046
-0.03898078 -0.022366442 0.05956773 -0.10040459 0.06927987 -0.08366541 -0.17576629 0.14429349
0.20146443 -0.016581796 -0.037260465 -0.05599584 -0.018510517 -0.06691514 -0.15864629 -0.025044711
-0.012331763 0.1254043 0.007341624 0.057841428 -0.12622254 -0.12185507 0.20768909 -0.16828017
-0.06906399 -0.22225651 0.081853 0.10984993 0.0038502372 -0.10235215 0.051468633 0.09467503
-0.041001964 0.18156174 -0.09115501 -0.17762175 -0.14143233 0.08161056 0.010947888 0.18253516
0.054240797 -0.1326497 -0.16042913 -0.15969108 0.00082362257 0.12855521 -0.14715087 -0.106052645
-0.01035509 0.078447595 -0.04774077 -0.027409956 0.04114911 -0.101577826 0.20262955 0.08966585
-0.14756899 0.06079987 -0.0913959 -0.058770433 -0.06448099 -0.14251699 0.098456174 -0.08266151
0.023962662 -0.06036818 0.059882674 -0.0784789 0.1283894 -0.19575489 0.059676655 0.046232704
-0.008271455 -0.18831705 -0.06757919 -0.13916832 0.111086585 0.01942227 -0.12596758 -0.08410451
-0.030734824 0.0747898 0.13095686 0.09795785 -0.09480272 0.17508453 -0.06915956 -0.113967106
-0.10352889 0.10664346 -0.083567165 -0.13557133 0.03899172 0.17158793 0.14946929 -0.025652515
0.021254612 0.21074377 0.17677319 0.037808683 -0.12723787 -0.05381447 -0.014699392 -0.06920307
00000000: 7198 023e dbbf 093e 0468 e83b f778 93bc
00000010: 2852 9fbd b706 6ebd 2563 883d 4661 60bc
00000020: 3f33 cfbc 22d9 31be 6a10 1dbe c0a4 8bbd
00000030: 3b53 263e 3945 abbd cc00 4e3e 4407 3c3e
00000040: 656e 87bd 48f5 193d 2eed 32bd 12a1 1e3e
00000050: 1b28 4d3e d869 073e a611 febc e91e 123e
00000060: 122b d5bd 3184 073e 8525 34bd 4466 99bd
00000070: b89c 433e 0cab e4bd 9fcb e7bd d4d7 c53a
00000080: 9f6b cd3d 3ee1 123e abc2 203e a1c1 153c
00000090: 6f64 04be eddc ef3d 8aa9 0b3e 33a1 0abe
000000a0: e740 153e 9f2e 07be acf4 94bb fd30 13be
000000b0: afef 9ebd 8b33 e4bd 8e2b f83c ed8d 65bd
000000c0: 5d06 c23d 737d b73d fc99 b0bd b20a e63c
000000d0: 54da 23be 5b1b 3bbe c9ee 06bd fa82 0ebe
000000e0: a6d7 7f3c 850b 41be 57bc 043c 9e7e 533d
000000f0: 480b a03d 3256 a03d 2de6 fdbd 5e1d 0ebe
00000100: 1f32 003e 1d1f acbb 991a 083e 981b 0cbe
00000110: f12b 453e fb6a 033e e426 103e 2648 193e
00000120: 37c6 eabd 4222 45bd aa69 153e 92cd c53d
00000130: 4b49 c33c c167 1cbe cdee 383e 65b5 84bd
00000140: 56a3 803d 6905 cf3c 9896 6bbb f323 8cbd
00000150: a62e c1bd 9ff7 0ebe f50c b2bd 2616 4d3d
00000160: fa61 303d 467a 403d b484 28be df12 d0bd
00000170: 0df9 983d b83e 613d c9b7 9a3d 692e 513d
00000180: dc8b 7ebd a19e f6bd 6963 dfbd a284 b0bd
00000190: db85 903c 8588 5e3d 74d6 b03d 7d52 b43b
000001a0: 010e 2dbb c7ac 3d3e ead0 09be 94e6 2dbe
000001b0: 1375 f53b 5e15 e8bd 275f ffbd cb0e 833d
000001c0: c79b 873d e963 34bd 95ff 5e3d 08c2 bc3d
000001d0: 2a62 cebd 32c9 933d 8b4d 45be 4149 003e
000001e0: 1c8f 2a3e c955 113e 7928 aa3d f79a 0d3e
000001f0: 6b8e f9bd f97d c2bd ebbc c8bd 1270 293e
00000200: d991 43be 311a b63d add2 253e abff 593d
00000210: 4929 0cbd a407 79bd e4ae c1bd 6393 023e
00000220: a55a df3d 9b5f 353e 7e74 8c3d c6ec 893d
00000230: 054a 4a3c 9e7c 453c 3a0c 0f3e 55e6 40be
00000240: 43eb fabc 5ae3 ed3d 9a8b e7bd 7c70 033e
00000250: ca90 953c 4b70 c63c 0323 0abd dc52 56be
00000260: 4faa 1fbd d439 b7bc 4bfd 733d eca0 cdbd
00000270: 9be2 8d3d c558 abbd 14fc 33be acc1 133e
00000280: b14c 4e3e 8cd6 87bc 6e9e 18bd e55b 65bd
00000290: 5ea3 97bc ce0a 89bd 2c74 22be 912a cdbc
000002a0: 2a0b 4abc fc69 003e 0192 f03b 22eb 6c3d
000002b0: 7b40 01be 278f f9bd 73ac 543e a351 2cbe
000002c0: 6c71 8dbd 3697 63be 8ca2 a73d 00f9 e03d
000002d0: 4354 7c3b 019e d1bd c6d0 523d fbe4 c13d
000002e0: adf1 27bd 52eb 393e 7aaf babd 7ae2 35be
000002f0: a3d3 10be 7023 a73d c55e 333c 7fea 3a3e
00000300: 992b 5e3d 53d5 07be 8947 24be 0f86 23be
00000310: 60e8 573a faa3 033e b8ae 16be 2132 d9bd
00000320: 65a8 29bc 22a9 a03d d38b 43bd d88a e0bc
00000330: f88b 283d 0908 d0bd 1f7e 4f3e bba2 b73d
00000340: 531c 17be 4909 793d c62d bbbd 44b9 70bd
00000350: 9c0e 84bd f9ef 11be 64a3 c93d 704a a9bd
00000360: 584d c43c a044 77bd 8947 753d 8cb9 a0bd
00000370: 8378 033e f873 48be 826f 743d 815e 3d3d
00000380: ff84 07bc 2fd6 40be f566 8abd 2482 0ebe
00000390: 5d81 e33d 741b 9f3c a5fd 00be fc3e acbd
000003a0: 99c7 fbbc 652b 993d 8e19 063e 209e c83d
000003b0: ee27 c2bd 5c49 333e 87a3 8dbd 9667 e9bd
000003c0: f406 d4bd e367 da3d 4325 abbd 36d3 0abe
000003d0: c8b5 1f3d bfb4 2f3e 7a0e 193e 3925 d2bc
000003e0: 271e ae3c 37cd 573e 0804 353e 47dd 1a3d
000003f0: a54a 02be 906c 5cbd b8d5 70bc 57ba 8dbd

gru.bias_ih_l0 f4 [96]
0.0817838 0.1814124 -0.11629858 0.15398003 0.11428824 -0.054443732 -0.103305414 -0.002474719
0.07616761 -0.09669875 -0.04287581 0.15558463 0.069890566 -0.058527645 0.10815041 -0.06548558
0.13557838 0.034738872 -0.14712076 0.086363584 0.13306683 0.0827981 -0.023664264 0.15487026
0.10965483 0.10999032 -0.005987868 -0.02744782 -0.06683753 -0.087646395 0.08154529 0.09189847
-0.003524834 -0.03736779 -0.112035714 -0.073700294 -0.019737856 0.19021736 -0.20025417 -0.20175992
0.080414645 -0.08729625 -0.18218245 -0.069349945 -0.06551852 -0.1121328 0.057655223 -0.1534567
-0.017734302 0.076931335 -0.14351793 -0.07417749 -0.131165 0.055226672 0.09619709 0.058896452
-0.15189537 0.15411901 -0.17806657 0.043934923 -0.14854446 -0.074241035 0.07215112 0.083248824
0.060608 0.10069235 0.029861497 0.04070143 -0.06964383 0.041414548 -0.14799562 -0.029966932
0.061683282 -0.15860605 -0.0011728628 -0.07159336 0.0076031922 -0.015101063 0.21522865 -0.15295424
-0.014232065 -0.11689094 -0.069051035 -0.010910802 -0.013851007 -0.10986153 0.015595348 0.05728623
0.15148565 -0.016078817 -0.071985275 -0.10369761 -0.028426038 -0.16202392 0.17267947 0.14323339
00000000: 447e a73d 2cc4 393e f32d eebd f1ac 1d3e
00000010: f40f ea3d 6400 5fbd ca91 d3bd e52e 22bb
00000020: c4fd 9b3d ff09 c6bd 8c9e 2fbd 9451 1f3e
00000030: c922 8f3d afba 6fbd f67d dd3d 4e1d 86bd
00000040: 0fd5 0a3e 594a 0e3d d3a6 16be 64df b03d
00000050: ac42 083e 0d92 a93d 8fdb c1bc 4f96 1e3e
00000060: b692 e03d 9b42 e13d e135 c4bb 40da e0bc
00000070: 1de2 88bd f47f b3bd 3801 a73d 4435 bc3d
00000080: e700 67bb f80e 19bd fb72 e5bd 2ef0 96bd
00000090: 49b1 a1bc 57c8 423e 6e0f 4dbe 279a 4ebe
000000a0: 6fb0 a43d 60c8 b2bd 098e 3abe 5807 8ebd
000000b0: 932e 86bd e2a5 e5bd e227 6c3d c123 1dbe
000000c0: 8747 91bc 2d8e 9d3d 5df6 12be 5eea 97bd
000000d0: 1e50 06be 5d35 623d fb02 c53d 683d 713d
000000e0: 768a 1bbe 60d1 1d3e 1557 36be 1bf5 333d
000000f0: 0a1c 18be af0b 98bd f7c3 933d 5c7e aa3d
00000100: 1840 783d ca37 ce3d 19a0 f43c 8bb6 263d
00000110: 6da1 8ebd 4da2 293d 2a8c 17be 367d f5bc
00000120: 9ca7 7c3d a069 22be bfba 99ba 8a9f 92bd
00000130: 3324 f93b 736a 77bc e664 5c3e 09a0 1cbe
00000140: 9b2d 69bc 8464 efbd a16a 8dbd 38c3 32bc
00000150: 56ef 62bc 15ff e0bd a183 7f3c f7a4 6a3d
00000160: 0e1f 1b3e b9b7 83bc 046d 93bd 6a5f d4bd
00000170: b9dd e8bc 99e9 25be e3d2 303e c6ab 123e

gru.bias_hh_l0 f4 [96]
-0.1397199 -0.120991796 0.03878017 -0.07267854 -0.16059881 -0.13638987 -0.034074333 0.15241382
0.08027228 -0.10058036 0.07803827 0.14423096 0.042769857 0.09912266 -0.033039078 0.16416311
0.17230411 -0.13199127 -0.15313551 0.017246755 0.056749187 -0.09805803 -0.012655398 0.15061967
0.16416189 -0.042604398 0.021628354 0.051624652 0.1414695 -0.059096668 0.17729403 0.15676747
-0.076736756 -0.07711358 0.033828586 0.0048933392 -0.12372607 0.05960186 -0.01982931 0.11480709
0.09239243 -0.040263563 -0.18917833 -0.08206982 0.06504285 -0.036173068 0.116500035 -0.098832235
0.13104546 0.011617446 -0.16822204 -0.006862023 0.085948214 -0.08879585 0.043655418 -0.17951833
-0.14874335 0.1210679 0.10091225 -0.10039098 0.10848416 0.16722433 0.046148006 -0.0442334
0.15712863 -0.028744455 0.06277734 0.030816654 0.07033519 0.093958326 -0.064155065 -0.16533053
-0.10000862 -0.029978627 0.17105106 -0.13368095 -0.10756427 0.17237478 0.104987755 -0.081293084
0.073664725 0.09366016 0.004404506 -0.072555415 0.048067667 -0.1643488 -0.116534255 -0.06563659
0.12810148 -0.0022670089 0.017158156 -0.082131565 -0.02050875 -0.04697953 -0.1258647 0.16461363
00000000: bc12 0fbe 8cca f7bd f5d7 1e3d 7dd8 94bd
00000010: 0474 24be c9a9 0bbe 8791 0bbd 5e12 1c3e
00000020: cb65 a43d 13fd cdbd 87d2 9f3d 48b1 133e
00000030: 722f 2f3d d200 cb3d fc53 07bd 601a 283e
00000040: 7d70 303e b828 07be 8ecf 1cbe 1149 8d3c
00000050: d671 683d a6d2 c8bd 9658 4fbc 0b3c 1a3e
00000060: 0e1a 283e f381 2ebd f22d b13c 5f74 533d
00000070: 61dd 103e 590f 72bd 918c 353e a787 203e
00000080: 2928 9dbd baed 9dbd d88f 0a3d 4e58 a03b
00000090: 1864 fdbd 1421 743d 1471 a2bc fb1f eb3d
000000a0: 3e38 bd3d 68eb 24bd f7b7 41be 3914 a8bd
000000b0: 3035 853d 362a 14bd 9297 ee3d 8e68 cabd
000000c0: c830 063e 1a57 3e3c 6642 2cbe d2da e0bb
000000d0: 9e05 b03d 99da b5bd 06d0 323d a7d3 37be
000000e0: 2d50 18be 72f2 f73d 15ab ce3d c999 cdbd
000000f0: f12c de3d db3c 2b3e b105 3d3d 152e 35bd
00000100: 54e6 203e 7e79 ebbc 6891 803d 3573 fc3c
00000110: e50b 903d 396d c03d bb63 83bd 684c 29be
00000120: 52d1 ccbd bd95 f5bc 0228 2f3e a9e3 08be
00000130: a84a dcbd 0483 303e d203 d73d fd7c a6bd
00000140: 88dd 963d e6d0 bf3d ad53 903b ef97 94bd
00000150: 9ae2 443d 0d4b 28be 83a9 eebd 7a6c 86bd
00000160: 092d 033e 1992 14bb 438f 8c3c 9834 a8bd
00000170: f701 a8bc 9c6d 40bd ade2 00be 7a90 283e

gru.weight_ih_l1 f4 [96, 32]
-0.013102443 0.019396646 -0.09011838 0.08044447 -0.03223892 -0.13253027 0.03234811 0.07039161
-0.029263997 -0.0032491826 0.056469414 -0.17511639 -0.12636219 -0.19579323 -0.050273 -0.12622789
0.10131864 0.03610541 0.09161392 0.13555828 -0.09101451 0.08023558 0.14852142 -0.09929381
0.06401704 -0.017278358 -0.06897695 0.032669302 -0.12629569 0.08524638 0.106312 -0.009452845
0.001673471 -0.037727613 0.069260664 0.1544594 0.0678301 -0.05436399 -0.12992802 0.1156664
-0.16547579 -0.02946181 -0.039745204 0.09521577 0.074853495 0.003934271 -0.17085503 -0.16275656
-0.11894641 -0.036471814 0.02081274 -0.006533188 -0.0076777516 0.07942823 -0.14854366 -0.0724582
0.016826177 0.0053096195 -0.116772234 -0.0129260635 -0.14918019 -0.0782327 0.16620463 0.1264871
-0.069580495 -0.059555434 0.008791322 -0.074388355 -0.08678493 -0.105944596 0.18182237 0.0505086
0.100566745 0.058580097 0.16452725 -0.09167147 0.05879154 0.09388397 0.1599508 -0.16645154
-0.03878438 0.12085512 -0.045039814 0.015027479 -0.050006468 0.06999454 0.05717909 -0.19691366
0.074965976 0.12895697 0.07603469 0.11907116 0.10890347 0.10241115 0.13725773 -0.10416521
-0.21171214 -0.13725445 0.05892443 0.13906075 -0.003769903 -0.114611804 0.08585613 0.030927826
-0.14366962 -0.10682803 0.001730761 -0.083393544 0.107980855 -0.14896935 -0.09491249 0.13771148
-0.1821023 0.08458892 0.14525212 0.009272769 0.03063044 0.19084732 0.12819628 0.11809714
-0.051851496 -0.05737219 -0.08889858 0.21447629 -0.1505349 0.17308335 -0.12102295 -0.034730084
0.114906706 -0.021422079 0.18098034 -0.053049207 -0.13680063 -0.04138797 -0.033890564 0.08534658
0.010184279 -0.09418499 0.16214348 -0.020139668 0.04875858 -0.021567278 -0.07475679 0.051413685
0.02370099 0.072380096 0.08319486 0.13386528 0.092479534 -0.0681256 -0.048365276 -0.025483292
0.103459224 0.04621977 -0.0063617635 -0.060161382 0.10127583 0.06699714 0.05228499 0.009017507
0.15457724 -0.14148135 -0.13376634 0.10029913 0.0965487 -0.04681403 -0.08280433 -0.09612873
0.053076807 0.110654674 0.05875196 -0.029382212 -0.0016920224 -0.052475244 0.15951622 -0.13803998
0.018099593 -0.054619744 0.041623034 -0.14798406 -0.053773794 -0.054660223 0.10126397 0.16443206
-0.18325981 0.03537668 0.1294136 0.12673831 0.08611217 0.12386335 0.07873722 -0.12321321
-0.0021521028 -0.0055848965 0.111910656 0.07741605 0.004844711 0.07832662 0.124232516 0.06370411
0.06748628 -0.07366906 0.094664924 0.009373305 0.03568368 -0.037750106 0.023437168 -0.048760056
0.0017421913 0.05322969 0.071771294 0.08966216 -0.065472834 0.16451846 0.08649599 -0.16334517
0.05700736 -0.030966995 -0.13401675 0.025547884 0.076888524 0.1988792 0.03686584 -0.1832195
0.04019442 0.14240237 0.029756237 0.018309386 -0.07998108 -0.08356073 0.13905358 -0.09880538
-0.16443388 0.17296362 -0.15181074 0.10678576 -0.0851017 -0.076890714 -0.08252729 0.14631534
0.15322922 -0.05687576 -0.006149576 -0.06858151 -0.15199044 -0.11730657 0.037423793 -0.017386777
-0.12786748 -0.0003291102 -0.08878243 -0.18034396 -0.117513925 0.08139075 0.16387546 0.058037724
00000000: a1ab 56bc b7e5 9e3c fc8f b8bd 12c0 a43d
00000010: f50c 04bd 04b6 07be 747f 043d 7a29 903d
00000020: 0dbb efbc 3df0 54bb 794c 673d b651 33be
00000030: 1765 01be 057e 48be 10eb 4dbd e241 01be
00000040: 2680 cf3d 44e3 133d 14a0 bb3d cacf 0a3e
00000050: d165 babd 8d52 a43d 0016 183e 8e5a cbbd
00000060: 5e1b 833d 588b 8dbc ca43 8dbd 3fd0 053d
00000070: a853 01be a795 ae3d 1bba d93d 1be0 1abc
00000080: 5e58 db3a 4588 1abd 89d8 8d3d 9b2a 1e3e
00000090: 82ea 8a3d c6ac 5ebd da0b 05be 81e2 ec3d
000000a0: 7c72 29be e559 f1bc decb 22bd 7c00 c33d
000000b0: ca4c 993d 0feb 803b 9ff4 2ebe a8a9 26be
000000c0: 2d9a f3bd 7863 15bd 7b7f aa3c 5a14 d6bb
000000d0: a695 fbbb 45ab a23d d41b 18be f764 94bd
000000e0: 0dd7 893c 51fc ad3b 4826 efbd d7c7 53bc
000000f0: b1c2 18be 7738 a0bd 8c31 2a3e d685 013e
00000100: 3880 8ebd 66f0 73bd 7a09 103c ec58 98bd
00000110: 4cbc b1bd 7bf9 d8bd a52f 3a3e 1be2 4e3d
00000120: f0f5 cd3d aff1 6f3d d579 283e 40be bbbd
00000130: 66cf 703d 3d46 c03d 24ca 233e 4672 2abe
00000140: 5fdc 1ebd e482 f73d ab7b 38bd d135 763c
00000150: 95d3 4cbd 4c59 8f3d 9f34 6a3d bca3 49be
00000160: c387 993d 4c0d 043e 13b8 9b3d 95db f33d
00000170: c808 df3d f0bc d13d 4a8d 0c3e 9254 d5bd
00000180: 11cb 58be 6e8c 0cbe be5a 713d f165 0e3e
00000190: 7a10 77bb 98b9 eabd 57d5 af3d 5a5c fd3c
000001a0: 211e 13be a7c8 dabd b4da e23a 3cca aabd
000001b0: 1125 dd3d 6c8b 18be 7b61 c2bd 3d04 0d3e
000001c0: 0679 3abe f53c ad3d f9bc 143e d0ec 173c
000001d0: b0ec fa3c 7b6d 433e e345 033e eadc f13d
000001e0: 3c62 54bd 1aff 6abd 7510 b6bd ac9f 5b3e
000001f0: d225 1abe c33c 313e e1da f7bd 2241 0ebd
00000200: 3554 eb3d 5b7d afbc e952 393e 204a 59bd
00000210: 7715 0cbe 6f86 29bd d5d0 0abd 30ca ae3d
00000220: f6db 263c 0fe4 c0bd f108 263e f2fb a4bc
00000230: 14b7 473d dcad b0bc 171a 99bd 2897 523d
00000240: 9428 c23c 043c 943d 1162 aa3d fb13 093e
00000250: e965 bd3d 6f85 8bbd ab1a 46bd 56c2 d0bc
00000260: 6ee2 d33d f150 3d3d 5776 d0bb c86b 76bd
00000270: b469 cf3d cc35 893d c928 563d 2abe 133c
00000280: 7f49 1e3e 7de0 10be 0bfa 08be a169 cd3d
00000290: 53bb c53d 11c0 3fbd 5195 a9bd 24df c4bd
000002a0: 1167 593d eb9e e23d e5a5 703d f7b2 f0bc
000002b0: dac6 ddba 48f0 56bd 3858 233e 5a5a 0dbe
000002c0: 9945 943c f4b8 5fbd ea7c 2a3d 2289 17be
000002d0: e941 5cbd 66e3 5fbd 7c63 cf3d e160 283e
000002e0: 76a8 3bbe 23e7 103d 0085 043e b0c7 013e
000002f0: 945b b03d 11ac fd3d fb40 a13d 3557 fcbd
00000300: 4b0a 0dbb 8201 b7bb 6a31 e53d 4e8c 9e3d
00000310: 62c0 9e3b b569 a03d 9e6d fe3d 4d77 823d
00000320: 3f36 8a3d cedf 96bd afdf c13d 7e92 193c
00000330: 0d29 123d db9f 1abd 4eff bf3c a0b8 47bd
00000340: 3d5a e43a 6007 5a3d d4fc 923d cba0 b73d
00000350: 9f16 86bd 8777 283e cf24 b13d f543 27be
00000360: 8d80 693d 7fae fdbc b03b 09be cc49 d13c
00000370: bb77 9d3d fda6 4b3e a300 173d e59d 3bbe
00000380: e7a2 243d edd1 113e 5ac3 f33c 91fd 953c
00000390: 1fcd a3bd e321 abbd 1064 0e3e 7a5a cabd
000003a0: 5b61 28be 601d 313e 4674 1bbe 7eb2 da3d
000003b0: cd49 aebd e178 9dbd 1104 a9bd b0d3 153e
000003c0: 1fe8 1c3e 8ff6 68bd 6282 c9bb 7674 8cbd
000003d0: 62a3 1bbe 6d3e f0bd b149 193d b76e 8ebc
000003e0: b1ef 02be 6c8c acb9 90d3 b5bd 16ac 38be
000003f0: 24ab f0bd 32b0 a63d f8ce 273e f7b8 6d3d

gru.weight_hh_l1 f4 [96, 32]
-0.15186909 -0.008780737 -0.13228904 -0.15809949 -0.19263345 -0.14277066 -0.16698317 -0.18395613
-0.047153708 -0.06675672 -0.06671468 0.14011696 0.04897261 0.026150625 0.12224315 -0.01767411
0.12815723 -0.055748962 0.09273152 -0.15936938 0.1426844 0.1523095 -0.062376272 0.14164042
0.08522846 -0.18671009 -0.12607391 -0.132244 -0.097157635 0.15229742 0.0868697 -0.14047703
-0.09431517 -0.089677095 -0.11168839 0.050180003 -0.010897675 -0.007916279 0.08061404 -0.120158896
0.062699065 -0.13796118 -0.05885475 -0.13811827 -0.0063880836 -0.042795323 -0.12155081 0.028831132
0.15855853 -0.014082782 0.050802495 0.047159217 0.06406305 0.19277185 -0.14039831 -0.12456053
0.060180075 0.11920965 0.015544483 0.013461519 0.028019965 -0.13884048 0.06520559 -0.05511438
-0.14370921 -0.089959316 0.058775783 -0.054875575 0.09350964 0.08039354 -0.107806094 0.09624498
0.08942168 0.04112619 -0.06778265 -0.04874479 0.1750475 0.18986444 -0.18617284 0.05702868
0.0014000351 0.06610361 -0.022338903 -0.19475663 0.043538656 0.18290669 -0.13095419 -0.13936293
0.022661371 -0.1498511 -0.008269822 -0.12228853 0.016819363 -0.1308339 -0.081801035 -0.046733048
-0.17826656 -0.0028198748 -0.08965601 -0.1518793 -0.03321405 -0.08128065 -0.20948038 -0.19006844
0.14752991 -0.17666084 0.13746539 -0.008767209 -0.15969104 -0.028397078 0.14633231 -0.1983316
0.20014305 0.0075824065 -0.1587858 0.06955976 0.0018292107 0.045904048 0.20474868 0.21266888
-0.11041402 -0.045887314 0.15892918 0.12359094 -0.17083539 0.17117849 0.08671742 0.06502741
0.07981869 0.1419712 0.19190909 -0.066899285 -0.12639341 0.10251665 -0.19264096 0.05376126
0.12989755 -0.0018959579 0.0437752 0.105588034 -0.008189515 0.098442525 -0.11636732 0.18143387
-0.063618 0.14846401 0.1247775 0.033829514 -0.08401505 0.14207312 0.12325597 -0.13267224
-0.13946094 -0.063217014 -0.06878209 0.02908768 -0.08898348 0.16470435 0.13390835 -0.1662602
0.09462475 0.14758623 -0.041790165 -0.15100631 -0.12550649 0.073911466 -0.0014757408 0.10615455
-0.00019641759 0.18778953 -0.20442882 -0.09451759 0.07172006 0.12718691 -0.034366056 -0.05795351
-0.09460276 -0.11657826 0.14078528 -0.14051665 -0.13599259 0.016547343 -0.14794527 -0.04793907
0.1267987 0.09628502 -0.027379932 0.0018186511 0.046865106 -0.043646827 0.025528966 0.0030082348
0.13374996 0.03377119 -0.06913587 0.14999402 -0.16900703 -0.11936793 0.006279039 -0.034248352
0.004466926 0.013682282 0.08623576 -0.18910785 -0.061271586 -0.047747128 0.010313406 0.037786268
-0.070253275 0.16682081 0.12507251 -0.14405507 -0.016012257 -0.06857911 -0.136036 -0.023660138
-0.055860203 0.10071807 0.15339497 -0.1094095 -0.14986417 -0.006028164 -0.21014963 0.029021408
-0.053550143 -0.16174103 -0.06950679 -0.07199054 -0.10438061 0.1315402 -0.09989112 -0.07409923
-0.061655737 -0.08127085 -0.10881696 -0.08215568 0.061497517 0.15816759 -0.05087431 0.1518008
0.120956525 -0.06619602 -0.14431322 -0.10570689 0.008800447 -0.011651773 0.106592335 0.14631265
0.062531285 0.10567237 -0.06453316 0.03081886 0.083507754 -0.08451742 -0.016636845 0.026232988
00000000: 9283 1bbe 15dd 0fbc c776 07be d5e4 21be
00000010: b441 45be 7932 12be a3fd 2abe ff5e 3cbe
00000020: 3f24 41bd bfb7 88bd b5a1 88bd d27a 0f3e
00000030: 8197 483d d639 d63c 9e5a fa3d 4cc9 90bc
00000040: a63b 033e 0659 64bd 06ea bd3d ba31 23be
00000050: dc1b 123e 06f7 1b3e 437e 7fbd 300a 113e
00000060: 428c ae3d ee30 3fbe 8519 01be f96a 07be
00000070: 95fa c6bd dbf3 1b3e bee8 b13d 36d9 0fbe
00000080: 5028 c1bd a0a8 b7bd e2bc e4bd 8c89 4d3d
00000090: 298c 32bc 48b3 01bc f918 a53d de15 f6bd
000000a0: 5e68 803d b245 0dbe ae11 71bd e06e 0dbe
000000b0: 2153 d1bb 264a 2fbd a2ef f8bd 442f ec3c
000000c0: 2b5d 223e 78bb 66bc 4716 503d 062a 413d
000000d0: 7d33 833d fc65 453e 93c4 0fbe 9719 ffbd
000000e0: 627f 763d 3024 f43d 4aae 7e3c b48d 5c3c
000000f0: 208a e53c 332c 0ebe 828a 853d 9ebf 61bd
00000100: 8228 13be 973c b8bd e0be 703d 36c5 60bd
00000110: fb81 bf3d 5ea5 a43d 71c9 dcbd 171c c53d
00000120: b722 b73d f073 283d a1d1 8abd 9ea8 47bd
00000130: a73f 333e d36b 423e 18a4 3ebe e896 693d
00000140: 6281 b73a 5461 873d 1300 b7bc 486e 47be
00000150: 9755 323d e44b 3b3e db18 06be 28b5 0ebe
00000160: 57a4 b93c 9172 19be 267e 07bc 6972 fabd
00000170: c3c8 893c 52f9 05be 4d87 a7bd 276b 3fbd
00000180: 828b 36be a6cd 38bb 929d b7bd 3f86 1bbe
00000190: 750b 08bd 7876 a6bd 0682 56be 4da1 42be
000001a0: 1512 173e 94e6 34be bac3 0c3e 57a4 0fbc
000001b0: 0c86 23be fda0 e8bc 23d8 153e 7017 4bbe
000001c0: 4df2 4c3e d675 f83b bf98 22be 5975 8e3d
000001d0: 20c2 ef3a e205 3c3d a3a9 513e dfc5 593e
000001e0: bf20 e2bd 56f4 3bbd 55be 223e 3f1d fd3d
000001f0: 79ef 2ebe 6a49 2f3e e798 b13d 172d 853d
00000200: fb77 a33d e660 113e d183 443e 7e02 89bd
00000210: 466d 01be 40f4 d13d ac43 45be c434 5c3d
00000220: dd03 053e ca81 f8ba a04d 333d 8a3e d83d
00000230: 512d 06bc 3c9c c93d fd51 eebd cdc9 393e
00000240: 274a 82bd f306 183e 598b ff3d d190 0a3d
00000250: 1510 acbd 9e7b 113e a06d fc3d 3bdb 07be
00000260: d9ce 0ebe ec77 81bd a0dd 8cbd 4949 ee3c
00000270: f93c b6bd 42a8 283e 451f 093e 1d40 2abe
00000280: 9fca c13d d820 173e 2a2c 2bbd 66a1 1abe
00000290: c684 00be e55e 973d a56d c1ba 8f67 d93d
000002a0: 72f5 4db9 e64b 403e ca55 51be 7092 c1bd
000002b0: f8e1 923d 493d 023e 6cc3 0cbd a960 6dbd
000002c0: 18bf c1bd 95c0 eebd 042a 103e 99e3 0fbe
000002d0: a441 0bbe 4b8e 873c f77e 17be c25b 44bd
000002e0: 85d7 013e 1531 c53d e14b e0bc ce5f ee3a
000002f0: a0f5 3f3d 04c7 32bd 1f22 d13c ce25 453b
00000300: c0f5 083e a953 0a3d 1b97 8dbd 0898 193e
00000310: 2e10 2dbe 2c77 f4bd 66c0 cd3b 0048 0cbd
00000320: 4b5f 923b a62b 603c 609c b03d 7da5 41be
00000330: eaf7 7abd 7e92 43bd 8ff9 283c c6c5 1a3d
00000340: f3e0 8fbd 13d3 2a3e 0213 003e 2c83 13be
00000350: 232c 83bc 3473 8cbd 054d 0bbe e8d2 c1bc
00000360: abcd 64bd 4745 ce3d 9213 1d3e 1712 e0bd
00000370: fe75 19be e887 c5bb 7731 57be 4ebe ed3c
00000380: 6557 5bbd 719f 25be 9359 8ebd c76f 93bd
00000390: 80c5 d5bd 79b2 063e b793 ccbd 56c1 97bd
000003a0: ba8a 7cbd 5571 a6bd 6ddb debd 3d41 a8bd
000003b0: d2e4 7b3d aff6 213e 9561 50bd ab71 1b3e
000003c0: 0eb8 f73d c791 87bd d8c6 13be db7c d8bd
000003d0: c02f 103c 14e7 3ebc 154d da3d fcd2 153e
000003e0: 6710 803d c16a d83d f629 84bd d577 fc3c
000003f0: 1d06 ab3d 7817 adbd fe49 88bc 90e6 d63c

gru.bias_ih_l1 f4 [96]
0.062112536 -0.10244377 0.0600716 0.10608372 -0.052510098 0.120179206 -0.15692937 0.15144102
-0.09912234 -0.045621824 0.06562958 0.10016213 0.027890487 0.12388044 0.17524803 -0.11868495
0.15693249 -0.016452936 0.084679686 0.08868398 -0.050377764 -0.16485836 -0.094601125 -0.05304308
-0.050151605 -0.0022332917 0.08092731 -0.029988887 -0.049587324 0.015520545 -0.08997241 0.059119828
0.13581517 -0.08188473 -0.016512418 0.11362796 0.10083587 -0.175359 0.01787483 -0.09959309
0.107056 0.117128074 0.032037072 -0.13912216 0.16450982 -0.1059535 -0.058636308 0.12406311
0.12729003 -0.1768637 -0.16297291 -0.10567036 -0.13391691 0.069981776 0.0020432144 0.10337561
0.11954401 -0.053540207 0.039970737 0.016910736 0.19680446 0.114636086 -0.1810016 -0.15939647
0.13662864 -0.11198004 -0.10982799 0.017965535 0.0062810536 -0.031632144 0.03350515 -0.021030044
-0.050569795 0.07417838 -0.11582762 0.0050800745 0.15295011 -0.05030334 -0.05774715 0.12975378
-0.12431922 -0.08507058 0.0098714875 -0.10221636 0.14194255 -0.008665729 0.046731785 -0.18077795
0.02103297 -0.09933069 -0.14891608 0.072762094 0.050781798 -0.08346574 0.09127331 0.14773764
00000000: b769 7e3d 0ace d1bd a30d 763d 6c42 d93d
00000010: d414 57bd 8420 f63d 18b2 20be 5b13 1b3e
00000020: a700 cbbd f3dd 3abd cd68 863d ce21 cd3d
00000030: 977a e43c 07b5 fd3d 3874 333e 1811 f3bd
00000040: e9b2 203e 4fc8 86bc 8b6c ad3d f29f b53d
00000050: ea58 4ebd a1d0 28be 3cbe c1bd b343 59bd
00000060: c56b 4dbd 6b5c 12bb 38bd a53d 41ab f5bc
00000070: 141c 4bbd e249 7e3c 7443 b8bd a227 723d
00000080: 2213 0b3e 2eb3 a7bd 0d45 87bc c7b5 e83d
00000090: 0983 ce3d 4f91 33be 3c6e 923c 76f7 cbbd
000000a0: 2d40 db3d d8e0 ef3d 4e39 033d 0a76 0ebe
000000b0: 4375 283e 26fe d8bd a02c 70bd cd14 fe3d
000000c0: 5158 023e c21b 35be 5fe2 26be b469 d8bd
000000d0: 8421 09be 9b52 8f3d 73e7 053b 98b6 d33d
000000e0: 7dd3 f43d fa4c 5bbd 5bb8 233d 6288 8a3c
000000f0: 1c87 493e 53c6 ea3d 7c58 39be d438 23be
00000100: 61e8 0b3e cb55 e5bd 7fed e0bd 752c 933c
00000110: 4cd1 cd3b b590 01bd b23c 093d 3347 acbc
00000120: 4622 4fbd d6ea 973d 0837 edbd c176 a63b
00000130: f49e 1c3e e00a 4ebd 4788 6cbd 2dde 043e
00000140: 139b febd 7c39 aebd 05bc 213c d056 d1bd
00000150: 6359 113e b4fa 0dbc d469 3f3d db1d 39be
00000160: 564d ac3c e46d cbbd 757d 18be 4b04 953d
00000170: 9300 503d 16f0 aabd 80ed ba3d 8948 173e

gru.bias_hh_l1 f4 [96]
0.12082021 -0.04101808 -0.063916974 0.062744625 0.09757761 0.0324206 -0.14892833 -0.08287832
0.10040286 0.061634805 -0.114111766 -0.019653963 -0.13667639 -0.14398147 -0.1521422 0.006340329
-0.051205948 -0.026965756 0.0877838 0.15610664 0.1572998 -0.004619419 -0.048781272 0.06975101
0.16374505 0.18628311 0.12574777 -0.0937197 0.13066131 -0.19756079 0.071848094 -0.12938498
-0.11149108 -0.13337044 0.074313186 -0.12726879 0.03986206 0.1107106 0.05540125 0.09622025
0.024661444 0.13621439 0.07944508 0.124464646 -0.03119969 -0.10457989 0.0855169 0.054878026
-0.05330792 0.116776906 -0.17745224 -0.16802564 0.065842964 0.062358815 0.020376202 0.14711387
-0.1640257 -0.1324583 -0.04987496 -0.13118753 -0.14607622 0.009936103 -0.13026986 0.0063976003
-0.07236759 -0.133041 -0.027821526 -0.00800676 0.11475665 0.047324944 0.0076427995 -0.08026624
0.110231206 0.14695913 0.010176111 0.1250983 0.13863423 0.033374958 -0.05223427 0.18324207
-0.006290362 -0.08828132 -0.09854829 -0.085841835 -0.018898087 -0.05639442 0.02236873 0.08471132
0.075946055 0.06959929 -0.046930797 0.11505333 0.1861352 -0.11185792 0.16216145 -0.1027789
00000000: 9670 f73d 9302 28bd e7e6 82bd 4180 803d
00000010: c5d6 c73d 77cb 043d ab80 18be 1cbc a9bd
00000020: 04a0 cd3d c774 7c3d 6eb3 e9bd 5901 a1bc
00000030: e5f4 0bbe e16f 13be 2acb 1bbe 89c2 cf3b
00000040: 54bd 51bd 4ae7 dcbc fec7 b33d 6bda 1f3e
00000050: 3313 213e 7f5e 97bb dfce 47bd 9ed9 8e3d
00000060: c8ac 273e 00c1 3e3e 06c4 003e 1df0 bfbd
00000070: 14cc 053e 604d 4abe 1825 933d 7f7d 04be
00000080: 6f55 e4bd 4392 08be 8331 983d c052 02be
00000090: 6646 233d 3dbc e23d 6cec 623d 1f0f c53d
000000a0: cc06 ca3c c97b 0b3e 1ab4 a23d 52e7 fe3d
000000b0: 7e96 ffbc fb2d d6bd 7c23 af3d c8c7 603d
000000c0: 6859 5abd bb28 ef3d 0ab6 35be ea0e 2cbe
000000d0: add8 863d f56b 7f3d feeb a63c 05a5 163e
000000e0: 5af6 27be 26a3 07be b049 4cbd 0656 06be
000000f0: 0195 15be 09cb 223c 7665 05be f6a2 d13b
00000100: 7635 94bd e63b 08be f8e9 e3bc c92e 03bc
00000110: 8905 eb3d cdd7 413d 7370 fa3b a062 a4bd
00000120: e6c0 e13d 747c 163e b4b9 263c c519 003e
00000130: 22f6 0d3e 2eb4 083d 9af3 55bd cfa3 3b3e
00000140: 621f cebb d6cc b4bd b0d3 c9bd d8cd afbd
00000150: 29d0 9abc d6fd 66bd a03e b73c 217d ad3d
00000160: 9b89 9b3d 138a 8e3d 823a 40bd 15a1 eb3d
00000170: 3a9a 3e3e c415 e5bd a70d 263e be7d d2bd

fc.weight f4 [1, 32]
-0.047549494 0.0023548072 -0.14804849 -0.03978898 -0.105056934 -0.113968015 -0.0869697 0.10281484
-0.1531992 0.16981952 -0.10665885 0.0591173 -0.02963407 0.09953345 0.1401925 -0.1846353
-0.06212715 -0.14257903 0.16634159 0.07155812 -0.121577494 0.09518582 0.11335578 0.19132482
0.15758854 0.09425217 -0.113413274 0.013637575 -0.13385674 -0.04109532 0.07562856 -0.1753042
00000000: 42c3 42bd 1c53 1a3b 069a 17be c5f9 22bd
00000010: 1728 d7bd 1068 e9bd 2c1d b2bd 9690 d23d
00000020: 40e0 1cbe 2be5 2d3e f56f dabd fb24 723d
00000030: 26c3 f2bc 32d8 cb3d 9f8e 0f3e 0911 3dbe
00000040: 0a79 7ebd 3d00 12be 7355 2a3e 108d 923d
00000050: 9ffd f8bd c8f0 c23d 1327 e83d a7ea 433e
00000060: e45e 213e 4807 c13d 3845 e8bd 2370 5f3c
00000070: be11 09be 9153 28bd 25e3 9a3d f282 33be
