assembling/gru_model.pth (torch, 41715 bytes, 9 tensors)

gru.weight_ih_l0 f4 [96, 1]
00000000: 68dc 8dba d7c6 16be fca9 0cbe 9b3f 36be
00000010: 1603 403b 2a05 79bd 74b6 dd3d 5048 50bd
00000020: 86ea 163d 2783 39be 8509 28be 0dd5 b0bd
00000030: 40ed 1e3d efd9 6fbd 85bb 123d 2cc9 0dbe
00000040: 6366 cf3d 3332 b23c b930 243e 5f9f 3dbe
00000050: ac47 1e3e 1cea acba ef08 8bbc 01a7 c13d
00000060: 05ee e4bd ed52 32be c6fd 833d 08f9 9fbd
00000070: 6eb8 843b 64fd b13b 8adc d6bd ce98 63bc
00000080: c16c 8abd 3d35 b43d 505b bbbd 10de fc3d
00000090: 531a ee3d fa2b ab3d b905 48bd 9a63 a03b
000000a0: 10a5 043e 734f 743d 22b3 05be 4491 d5bd
000000b0: 6aa1 5abd d49c 013e 024b c2bc be57 1bbb
000000c0: e6b4 92bd 3c50 05be 9ac1 e7bd df86 4cbd
000000d0: 77b8 91bb 5961 9dbc 96fd 8dba 80e2 2bbd
000000e0: ceb8 33bb 1657 2f3e 4470 e5bd 653f 5a3e
000000f0: 7e1d 94b9 045e b63d aae0 453c 327f dfbd
00000100: fdce 433e 27f2 aabd 1327 0bbe 1a3a 47bd
00000110: 5025 cfbd d4f0 f33d 06d7 ae3d 6570 463e
00000120: d12f 7ebc adc2 2d3e a3ac 96bd 8766 3fbe
00000130: 8a84 8c3c eef4 233e 6ebb a23d 4bf4 1039
00000140: 6a8c 19be 9983 aa3c e9af ecbd 93ef ecbd
00000150: ee5d 0cbd 0ee2 5b3e beac d9bd 9270 11be
00000160: e6fc bd3d b9b0 b53d b00f c2bd 4d5e 533d
00000170: 7ac8 293e cc0f 8fbd cf44 fdbc 87b3 96bd
-0.0010823132 -0.14724289 -0.13736719 -0.17797701 0.0029298714 -0.06079594 0.10825816 -0.050850213
0.036844753 -0.18116437 -0.16409881 -0.08634386 0.038800478 -0.058557447 0.035823364 -0.13846272
0.101269506 0.021752452 0.16034211 -0.18517826 0.15457028 -0.0013192329 -0.016972033 0.094556816
-0.11178211 -0.17414446 0.06444888 -0.07811171 0.004050306 0.005431818 -0.10491283 -0.013891412
-0.067590244 0.08799217 -0.09148276 0.123470426 0.11626115 0.08357997 -0.048833583 0.004894686
0.12953591 0.05964608 -0.13056615 -0.10428098 -0.053376593 0.12657481 -0.023717407 -0.0023703421
-0.0716341 -0.13018888 -0.113162234 -0.04993331 -0.0044470388 -0.019211458 -0.0010833021 -0.041964054
-0.0027423385 0.17123064 -0.112030536 0.21313246 -0.00028250733 0.08904651 0.01207749 -0.109129325
0.19121929 -0.08346968 -0.13589124 -0.048639394 -0.10114539 0.11911169 0.08537106 0.19378813
-0.01551433 0.16968794 -0.073571466 -0.18691455 0.017153043 0.16011402 0.079459056 0.00013823916
-0.1499497 0.020814704 -0.1155699 -0.11569133 -0.034269266 0.21472952 -0.10628651 -0.14203098
0.09276752 0.08871598 -0.094756484 0.051603604 0.16580382 -0.06985435 -0.0309166 -0.07358461

gru.weight_hh_l0 f4 [96, 32]
00000000: 223c e93d 091d 473e cbf2 33bd b978 783d
00000010: 48a0 833d 5812 48be d58b 353d d373 d4bd
00000020: a87f 12bd aba2 2bbd dd73 93bd 34b3 0bbd
00000030: 5993 babd ea14 183e 9085 403d b6f2 ecbd
00000040: 861f 483e 3ead b33d 56ec df3c 4f6d ec3c
00000050: fa21 babd 3b25 1fbe 7a5e 323e f8fa aa3d
00000060: fe40 a0bd a2f8 00be 64d5 12bd 1cb1 ba3d
00000070: e537 38be da8b ecbc cc0c ca3d 9be7 2b3e
00000080: ae04 ffbd 687c 17be b36c 003e a9cc 1bbd
00000090: 281f 2dbe 972c 1ebc 0bba 94bd 7773 463e
000000a0: 6aa4 85bd 1375 ce3d 660a 1c3e ea45 39bc
000000b0: e430 193d 4579 d0bc 9b62 e83d 6e29 bdbd
000000c0: 904b ce3d 8645 97bd cf2f 8b3d a37f 3cbd
000000d0: c636 263e 400a 613d c990 2cbe 26a8 4dbd
000000e0: 83d0 b1bd 37d2 273d 67b0 99bc d85f 0b3e
000000f0: 0b50 01be 846b 59bd 0704 a73d 8734 0cbe
00000100: 4e73 143d 5208 0dbd 8d10 333e 3d50 93bd
00000110: c986 c0bd 5533 cdbd fbd9 3ebd 75df 2dbe
00000120: 587c c9bd 0430 453b 7a25 e33d a607 f1bd
00000130: 11f6 113e 0cf8 053e cfac adbb ea13 9c3c
00000140: 6712 bfbd 5ae9 af3d 4aa7 7ebd 3bb7 9ebd
00000150: dddc 03bb f9d8 acbd 1c22 1bbe 617d 2e3e
00000160: bc29 1d3e cf54 1abe f676 84bd fc0a 94bd
00000170: 7f8b f13d 723d b8bc d0ba 3bbd 878f 1bbe
00000180: 7939 0ebe e302 6f3c 4e4e 1abe 6559 1fbe
00000190: 9e56 813b 971e 07bd ea33 6c3d fe53 cfbd
000001a0: c47a 023e e884 0a3d 7eab 6abc 9cab 2cbd
000001b0: 2155 bf3c f245 15be 029b 26bc 9e5f 593d
000001c0: 3df4 283e ecd2 533d 9fd5 8cbd 3b85 ec3d
000001d0: 86e0 83bd 626e 153e 5537 31be ccbd f43d
000001e0: 431c f03d ac4c 25be 4f7f 1e3e a6cc 01bd
000001f0: f872 20be 88eb 0a3e a767 953c 9058 f2bd
00000200: 2254 b5bd c4f3 173e e2f8 c13d 4a2c 87bd
00000210: cb05 95bd ae41 fabd b18e 133e 0e5f b13d
00000220: fb88 05be 0437 bdbd 7d51 1dbb e36e a1bd
00000230: a8f0 3d3d a244 19be 1e73 5d3d ed1c d13d
00000240: 2610 143d 2e2e 4f3d a985 913d 29a6 3ebc
00000250: 6fb5 c93d 8bef 283e 49fd b8bd 9ec8 0fbd
00000260: 81bf dbbd fecf cbbc 096a d9bd 05ec f33d
00000270: 5e91 893d c0aa 96bd 7a40 62bd db3f 4abd
00000280: a63b e7bc 73aa f4bd 9826 f0bc 8a26 3b3e
00000290: a197 503d 5f18 053b a45a 5e3d fb02 35be
000002a0: 02ff 25be 1c7d ecbd 0d20 673d afc7 0ebe
000002b0: 3a9a e7bd 2b0c d9bb 66c5 e83d 7dba e93d
000002c0: 2b4a 523e e363 a63d 51a1 f1bd ffb5 a8bd
000002d0: 1d7f 0b3e f58a b6bd 3d6d 29be 956c dbbd
000002e0: bc53 50bd 9d51 d03d af50 6fbd 54b3 db39
000002f0: d380 a1bd 867e 99bd 34e8 31bd 7e82 04be
00000300: 688c 46be b4d0 f73d 8dd8 4c3d 0abd 313e
00000310: 8f59 283e 2178 26be a197 d2bc d59c c03d
00000320: 4ee5 973d 074b b43d d18b 06be bc52 a83d
00000330: 81a8 fd3c 5200 953c d77d eabb 38b0 d53c
00000340: f44a 5e3e dc35 d3bc 19eb cc3d 4367 133e
00000350: be04 8abc a19b 03bb 81df a73d 30b8 34bd
00000360: 8078 cd3d 49e4 a8bd d39a 3dbd fdea 22bd
00000370: 331a 73bd ba14 9a3d 0042 20bd de86 953d
00000380: e21b 183e 82a7 1ebe 040c c2ba 6c73 9d3d
00000390: 759f 1a3e 2ce4 d1bd b333 ee3d b36a 133e
000003a0: 7b87 e0bd c815 623d 6292 d03d 51e0 ccbd
000003b0: 8fab 11bd 4a07 15be 4815 343e 0a85 d8bd
000003c0: 1c57 443e c05e 643d bfba 23bd a997 0ebd
000003d0: 289f f9bd fe7b a8bd 2402 853c 2356 e73c
000003e0: fb60 babd 169f 273e a840 d73d dc5f e0bc
000003f0: 16de 61be de79 08be 2514 f4bd cb7a fd3b
0.113884225 0.1944467 -0.043932717 0.060662005 0.064270556 -0.19538248 0.044322807 -0.10373654
-0.035766274 -0.04190318 -0.071998335 -0.03410645 -0.091101356 0.14851728 0.047002375 -0.11569731
0.19543275 0.08773278 0.027334373 0.028860716 -0.09088512 -0.15541546 0.17418852 0.0834865
-0.07824896 -0.12594846 -0.035848036 0.09115812 -0.17990072 -0.02887528 0.09865722 0.16787569
-0.124520645 -0.14793551 0.12541465 -0.038036976 -0.16906416 -0.009654186 -0.072620474 0.19379984
-0.065255 0.10080924 0.15238342 -0.011308173 0.03740014 -0.02544845 0.113469325 -0.09236418
0.10073006 -0.073863074 0.06796228 -0.04602016 0.16231832 0.054941416 -0.16852106 -0.050209187
-0.086823486 0.04097196 -0.018760873 0.1361078 -0.1262819 -0.05308105 0.08155065 -0.13691913
0.036242776 -0.034431763 0.17486782 -0.071930386 -0.09400708 -0.100195564 -0.0465946 -0.16979773
-0.0983817 0.0030088434 0.110911325 -0.11769037 0.14254023 0.13082904 -0.0053001414 0.019052465
-0.09329682 0.0858943 -0.062171258 -0.07749792 -0.0020120658 -0.08439822 -0.1514973 0.17040016
0.15347952 -0.15071414 -0.064680025 -0.072286576 0.11794185 -0.022490237 -0.045832455 -0.1519147
-0.13889112 0.014588091 -0.15068933 -0.15561445 0.003947093 -0.032988157 0.057666697 -0.10123442
0.12742144 0.033818156 -0.0143231135 -0.042155847 0.023356022 -0.14577463 -0.010168793 0.053069703
0.1649942 0.051714823 -0.068766825 0.11548849 -0.06439309 0.14592889 -0.17306264 0.119502634
0.117241405 -0.16142529 0.15478252 -0.03168931 -0.15668857 0.1356641 0.018237902 -0.11833298
-0.08853938 0.14839083 0.09471299 -0.06600244 -0.072764955 -0.12219559 0.14409901 0.08660708
-0.13040535 -0.09239009 -0.002400487 -0.07882478 0.046372086 -0.14967588 0.054064862 0.10210595
0.036148213 0.05058115 0.07105572 -0.011636295 0.09849059 0.16497628 -0.09032685 -0.035103433
-0.10729886 -0.024879452 -0.10615928 0.119102515 0.0671718 -0.07356787 -0.05523727 -0.049377304
-0.028226685 -0.11946573 -0.029315278 0.1827642 0.050925855 0.0020308716 0.05428566 -0.17676918
-0.16210559 -0.115473 0.05642705 -0.13943361 -0.11308713 -0.006623765 0.11365776 0.11412523
0.20536105 0.08124521 -0.11798347 -0.08237838 0.13622709 -0.08913223 -0.16545577 -0.1071407
-0.050861105 0.101718165 -0.058426555 0.00041904545 -0.078858994 -0.074948356 -0.043434337 -0.12940404
-0.19389498 0.12100354 0.050011206 0.17357269 0.16440414 -0.16256763 -0.025707068 0.09404913
0.07416783 0.08803373 -0.13139273 0.08218905 0.030964138 0.01818863 -0.0071561146 0.026085004
0.2170828 -0.025782518 0.10005779 0.1439486 -0.016847964 -0.0020081776 0.08196927 -0.044120967
0.10032749 -0.08246667 -0.04629023 -0.039774884 -0.059351157 0.075234845 -0.039125443 0.073011145
0.14854386 -0.15493587 -0.0014804606 0.076880306 0.1509989 -0.102485985 0.116309546 0.14396171
-0.10963341 0.055196553 0.1018417 -0.100037225 -0.035564 -0.14553562 0.17586243 -0.1057225
0.19173855 0.055754423 -0.039973017 -0.034812603 -0.1218856 -0.08226775 0.016236372 0.028239315
-0.09100529 0.1636928 0.10510379 -0.02738946 -0.22057375 -0.13327739 -0.11917905 0.0077355853

gru.bias_ih_l0 f4 [96]
00000000: 7edd 823d 92ca 36be 0afa a83d f2f2 013e
00000010: a22a 25be 9be9 60bd d976 49bd a33e f83d
00000020: f2a0 92bd f75b 34bd d7e8 eabd a039 bb3d
00000030: 9ddf 96bd f54c f33d 41c3 c4bd ad2f 1f3e
00000040: 64d6 383e 4f37 a83c 871b 31be 7bfc 34be
00000050: 1560 37be 34e3 7d3d 8651 4f3d 4db5 c3bc
00000060: 6490 37be 660b 9cbd 923b bdbd 1b62 913c
00000070: 9c5e a13d 9c57 8a3d 53ef 323d 9a18 463e
00000080: 7513 24be da4e 953b 0764 afbd 8a8b 853d
00000090: 3e2f 933d b184 bdbd 8220 b03d 0cd2 34be
000000a0: 9793 123e c951 48be 773d c2bc a855 0bbd
000000b0: 570e 49bd 260d fa3b c649 cfba 2556 883d
000000c0: 24cc 83bc 520f 993d acc6 323e c045 fbbd
000000d0: 4863 07be 3f90 ef3d 4d60 623c e577 c8bd
000000e0: 13e0 edbd 1415 b4bd 9f0a d1bd 3189 f53d
000000f0: ca0c d23d ffce d6bd 1296 f9bc 68e5 48be
00000100: 8b42 edbd c37a 203d 5555 b63d 8088 0c3e
00000110: b70c aa3d c756 fdbc cffc 39be 57af 7ebd
00000120: 32d6 463d 84b3 0f3c 37af e73d 1298 79bd
00000130: 7ac1 683c 3018 98bd 5e4d eebd d6e0 cebd
00000140: b1fe 17be c6d3 05be 2067 cb3c 717f 873d
00000150: 2745 d4bd a5e5 003e cddc 14be f3e1 02bd
00000160: 2ef4 4a3c 0861 7cbc 788e e03d 357a 07be
00000170: fd67 043e 2069 da3d 3f8f e4bc 90a5 76bd
0.063899025 -0.17850712 0.08250816 0.12690333 -0.16129544 -0.054910284 -0.049185608 0.12121322
-0.07159604 -0.044033017 -0.11470192 0.091418505 -0.073668696 0.11879913 -0.09607554 0.1554553
0.18050534 0.020534186 -0.17295657 -0.17674439 -0.17907746 0.061984256 0.050614856 -0.023890162
-0.17926174 -0.076193616 -0.09239878 0.017746976 0.078793734 0.067549914 0.04368527 0.19345322
-0.16023047 0.004556519 -0.085640006 0.065207556 0.07186745 -0.092538245 0.085999504 -0.17658252
0.14314114 -0.19562449 -0.02371095 -0.034017235 -0.04908594 0.007630962 -0.0015814833 0.06657056
-0.016088553 0.07473625 0.174586 -0.12269163 -0.13221467 0.11697435 0.013816905 -0.09788493
-0.116150044 -0.08793083 -0.10207104 0.11989058 0.102563456 -0.104887 -0.030467067 -0.19618762
-0.11584958 0.039179575 0.089029945 0.13723946 0.083032064 -0.030925168 -0.18162845 -0.062178936
0.048544116 0.008770827 0.113127165 -0.06093604 0.014206285 -0.074264884 -0.1163585 -0.10101478
-0.14843251 -0.13069066 0.024829447 0.066161044 -0.10364752 0.12587602 -0.14537354 -0.031953763
0.012387319 -0.015403993 0.10964674 -0.13230212 0.12930293 0.10664582 -0.027900336 -0.060216486

gru.bias_hh_l0 f4 [96]
00000000: 59cb 4f3d 9edf cfbc 897e d73d f8e7 57bd
00000010: 9103 3abe 7735 e9bd 7d2b 543d 270c 25be
00000020: 1afa 053e 73e4 cabd d4d2 643d 8af1 1b3e
00000030: 0bb6 f4bd 2d5d 863d 35b6 e0bc 8ea0 ce3d
00000040: 4957 2c3d 1a81 14bc e6ab 87bd b4ce 06be
00000050: 1e42 dabd 8ebc 90bd cfb1 053e 7e46 dcbc
00000060: a627 203d b551 b93d fe04 15be 5a67 03be
00000070: 7307 473e 22a1 073e 5709 bebd 6755 b83d
00000080: fd4a 6e3d 56b6 bfbd 5a6c 59bc 3a78 c3bd
00000090: e748 97bd becc 9bbd c3a6 babd 75bb 58bc
000000a0: 1ab2 8cbd 0b76 15be 8336 653d 2572 293d
000000b0: f042 ffbb 1e5b bb3d bc93 a2bd f398 bc3d
000000c0: 454b 45be 356c a3bd 692e 1fbe 5e1a debd
000000d0: 6aa2 c2bc 7fce a33d 71d7 09be 0f7f bc3d
000000e0: 12ea fbbd 204c 753b b341 0dbb 6056 963d
000000f0: 7e6e 0ebe f225 3cbe 564b 5b3d fa68 8bbb
00000100: bf4c 15be ecc0 193e b0b6 0a3d 994a e43c
00000110: f5bf 17be 42e0 9bbc b5b0 20be ca14 1bbe
00000120: 286d a6bd 071a 8bbd 4838 133e 6786 f93d
00000130: ae5d 17be c999 c2bc b1d2 abbd 0aa2 3e3d
00000140: df5f 113e d71c 393e 71f3 0b3e 25f3 1e3e
00000150: c7e9 3fbd 3915 f73c e3df 233d c132 2bbe
00000160: 2b6c 1ebe 4e50 8bbd 591a a43d aa24 b73d
00000170: 8261 a6bc 28e9 34be 5cb1 dd3d af0c 2cbd
0.050731037 -0.025375184 0.105221815 -0.052711457 -0.18165423 -0.11387151 0.051799286 -0.16117917
0.13083687 -0.099068545 0.055865124 0.15228859 -0.119487844 0.065607406 -0.027430633 0.10089217
0.04207543 -0.009063983 -0.06624584 -0.13164788 -0.10657142 -0.07067214 0.1305611 -0.026889082
0.03910031 0.090487875 -0.14552686 -0.12832394 0.19436435 0.13245061 -0.09279125 0.09000664
0.058176983 -0.0936095 -0.013270462 -0.09544416 -0.07386952 -0.07607411 -0.091138385 -0.013228287
-0.06869908 -0.14595811 0.05596019 0.041368622 -0.007789962 0.091482386 -0.07938334 0.0920886
-0.19266994 -0.07979623 -0.15545048 -0.10844873 -0.023759086 0.079983704 -0.1346109 0.09203922
-0.12300505 0.0037429407 -0.0021554052 0.073406935 -0.13909337 -0.1837385 0.053538643 -0.0042544575
-0.14580058 0.15015 0.03386563 0.027867602 -0.1481932 -0.019027833 -0.15692408 -0.15144649
-0.08126289 -0.06792074 0.14376938 0.12183838 -0.1478183 -0.023754971 -0.083897956 0.04654125
0.14196728 0.18077408 0.13667084 0.1552244 -0.046853807 0.030161487 0.040008437 -0.1671858
-0.1547095 -0.06802426 0.08012838 0.0894254 -0.020310167 -0.17667067 0.10824844 -0.042004284

gru.weight_ih_l1 f4 [96, 32]
00000000: 5e4f e4bd 957c 99bd fce6 13bd e127 a9bd
00000010: b0f4 893d 6643 19be f719 0b3e 4223 213e
00000020: ac4a 12be 1551 d63c 8a0c 20be 9b75 033e
00000030: ceeb 59bd e41f d73d c89d dabd 3d0a 12bd
00000040: 871d 483d 5be6 3abe ffb7 373e a7b7 463d
00000050: da03 863d ced0 103d 921b b8bd 2898 b53d
00000060: 3cc2 833b 382f 643b d96d e7bd ab33 ad3d
00000070: 308c 5f3c fc7b b23d bec8 c93d 6f3c a2bd
00000080: 4f97 933d 7794 3f3c 3433 0dbe 3967 7d3d
00000090: 7b1b 35bd d679 a53d 4315 f63d 9cb9 ba3d
000000a0: 188b 9c3a 9c7e 203e 03fd bd3d c9ae 51be
000000b0: 15e9 9c3b ed69 65bd 380b c1bd 497d 17be
000000c0: 841e 30be 0a34 c0bd c408 983a e6d6 4a3d
000000d0: 2613 e8bd 2754 2c3e 61ba d7bd 6463 17be
000000e0: 6e2b 143e 78d1 7f3d dc49 8fbd e89d ffb9
000000f0: 1a2f a83d e51a 473c bc34 1abe 4961 e5bd
00000100: 378a 083e 4c71 21be 28fa bbbd 1147 0ebe
00000110: 8427 333e 6f06 2cba 75a3 90bd 8ebb 063e
00000120: d45b 003e 236f 19be b8f6 2f3e 7c51 343e
00000130: 1917 d13d 9d1e 13bd 8fd9 ecbd bf48 1abd
00000140: 14ac 8cbd 8aab a3bd bf85 7e3d 9fd8 ab3b
00000150: c5f1 95bd f997 bdbd bc07 b93d 70de c6bd
00000160: 1bee 80bd 3ec3 11be 06ed 07be 8692 5bbd
00000170: fa75 cabd cdd7 a3bc b2a5 11be f7bc 343e
00000180: 318f 1c3c 9f57 83bd f370 5f3d 6c07 f93d
00000190: b7ca ffbd 3645 dd3d 7f24 3c3e 593a 013e
000001a0: e918 debc dd24 063e 1205 0dbd 29af cd3c
000001b0: 438d 073c 92a0 ddbd e0ea 523e 7a91 da3d
000001c0: a9d4 ef3b d0d6 19bd 9d76 1dbc c8d6 bbbb
000001d0: 5f1a b23d ea8a 943d f61d 66bd 5629 e53d
000001e0: 48ba dc3d beb8 f33d d6f0 64bd 28a8 303e
000001f0: 0565 a6bd 36ea f03d ecb8 c1bd 640a 3f3d
00000200: f7c3 f63d f062 08be b268 ccbd 4dfd cd3d
00000210: afde 24be 93c6 153c 7db8 183e e685 b5bc
00000220: 38bb 183d 3070 32be b32d a7bd b868 5bbd
00000230: b9c9 8f3c 0d33 ccbc 0e7e 01be cda7 fabd
00000240: 572d bbbd 83c1 893d 629c fc3d 3327 2ebe
00000250: 587c afbd de03 45be fa74 31bd c397 4f3e
00000260: c57f 65bd 9860 e2bd 127d 08be fc03 503d
00000270: bc2f 30bd 92c5 00be 7a95 623d 3866 3fbd
00000280: 28dd 003e 784f 123e 3a88 28be 406d 8c3d
00000290: 0f7a d53d 33e2 163d 0997 fcba e1c0 0f3e
000002a0: c32b 743d a880 0b3e 455d 9d3c df4d 503d
000002b0: 5a91 0abe ced9 b73c 3c8d fdbd 0a0b fb3c
000002c0: 01d5 f2bc eca5 513d 19b8 bfbc 5055 c0bd
000002d0: b49f 31be 5e86 f1bd 745e 053d 68df 0bbe
000002e0: 3bfe a13d 53d8 35be 32c5 1d3e 280d 26be
000002f0: 55db 8a3d 58f0 a73c eddb 0b3e 51a0 25bd
00000300: 4ff3 143d 4590 1cbe 117d d8bd 9c37 373d
00000310: 9961 c9bd 2285 edbd bc6d d13d cf26 d0bd
00000320: 14cd 143e 15ac 3bbd 6433 913c 37e7 e8bc
00000330: 352d 81bd 5882 3dbe d25f 96bd 5784 09be
00000340: 575e 063e ad20 c53c 019b c73d 8e49 2abd
00000350: 8ca8 c83d dd14 013e 7d8a a7bd ca45 fc3d
00000360: 14d4 76bd 148d 4dbe 0e0c 453e 648f f1bd
00000370: 99db cebc ea10 3c3d f535 163e 96ac 05be
00000380: dc01 8f3d aa8b 5fbc 8fa2 11be 6d3a cdbc
00000390: bf33 163e 6bb1 3dbe afda 25be 21b1 bd3d
000003a0: 6fd8 043e cc93 bebd 948f 6e3d 4622 323e
000003b0: 23fc 1c3e 97d6 a73c 59da 3a3d 82db 98bd
000003c0: 5783 9cbd 8ae9 30be e29f 1f3d 5574 363e
000003d0: ceba c6bd e9b3 41be ed3a 3e3e 065c c33d
000003e0: 6b9e 9bbc aad1 d93d 8f73 1f3e 7d6c f53d
000003f0: 5499 40be f4a9 053e 8603 debd 5264 213e
-0.111479506 -0.07494465 -0.036108956 -0.082595594 0.067361236 -0.14967117 0.13584124 0.15736106
-0.14286298 0.02616171 -0.15629783 0.12837832 -0.053203396 0.105041295 -0.10674626 -0.035654295
0.048856284 -0.18251936 0.17941283 0.04851499 0.065437034 0.03535538 -0.089896336 0.08866912
0.0040209573 0.0034818184 -0.11300249 0.084571205 0.013644263 0.087150544 0.09852742 -0.07921683
0.07206594 0.011693112 -0.13789064 0.06186602 -0.04421566 0.08079879 0.12015774 0.091174334
0.0011943309 0.15673298 0.09276774 -0.20476831 0.0047885277 -0.05600922 -0.09425968 -0.14793886
-0.17199141 -0.09384926 0.0011599292 0.04952135 -0.11331777 0.16828977 -0.10533596 -0.14784008
0.14469692 0.062455624 -0.069965094 -0.0004875504 0.08212109 0.012152408 -0.15059179 -0.11200196
0.13333975 -0.15765876 -0.09178573 -0.13894297 0.17495543 -0.0006562238 -0.07062427 0.13157484
0.1253503 -0.14983802 0.1718396 0.17609209 0.10209484 -0.035917867 -0.115649335 -0.037667032
-0.06868759 -0.07991703 0.06213927 0.005244329 -0.073215045 -0.09257502 0.09034678 -0.09710395
-0.06295415 -0.14234635 -0.13274011 -0.053606533 -0.098857835 -0.020000363 -0.14223364 0.1765021
0.009555624 -0.06413197 0.054551076 0.12159619 -0.12489837 0.108042166 0.18373297 0.12619914
-0.027111487 0.131 -0.034428664 0.025107937 0.0082734255 -0.10821642 0.2059741 0.10672279
0.0073190522 -0.037558377 -0.009610799 -0.005732391 0.08696436 0.07253058 -0.056180917 0.11189525
0.10777718 0.11900471 -0.05589374 0.17251647 -0.08124737 0.11763422 -0.09459099 0.04664077
0.12049096 -0.13318992 -0.099809065 0.10058079 -0.16100572 0.009141582 0.14914127 -0.022158574
0.03728792 -0.17425609 -0.08163013 -0.053566664 0.017552244 -0.024926687 -0.12645742 -0.12239037
-0.09139507 0.067263626 0.12334515 -0.17007141 -0.085686386 -0.19239756 -0.04332445 0.20272736
-0.056030054 -0.1105358 -0.1332896 0.05078505 -0.043014273 -0.12575367 0.055318333 -0.046728343
0.12584364 0.14288127 -0.16458216 0.06856775 0.104236715 0.036836814 -0.0019271086 0.14038421
0.059612047 0.13623297 0.019209513 0.050855514 -0.1353201 0.022442725 -0.12380454 0.030644912
-0.029642584 0.051183626 -0.023403214 -0.09391272 -0.17346078 -0.11793207 0.03256078 -0.13659441
0.07909819 -0.17758302 0.15407255 -0.16215956 0.067801155 0.020500347 0.13658114 -0.040436093
0.03636485 -0.1528941 -0.105707295 0.044730768 -0.098330684 -0.11597659 0.10226008 -0.10163652
0.14531356 -0.045818407 0.0177247 -0.028430564 -0.06307451 -0.18506753 -0.07342495 -0.1342939
0.13121925 0.024063433 0.097463615 -0.041574053 0.09797773 0.12605615 -0.081807114 0.12317999
-0.060260847 -0.20073348 0.1924288 -0.11794928 -0.025251197 0.045914568 0.1466902 -0.13054118
0.069827765 -0.013644138 -0.14222167 -0.025052274 0.14668177 -0.18524711 -0.16196702 0.092623
0.12973188 -0.09305534 0.058242396 0.17395887 0.15330558 0.020488067 0.04561839 -0.07463743
-0.076422386 -0.17276588 0.038970836 0.17817815 -0.09703599 -0.18916287 0.18577166 0.095390365
-0.018996438 0.10635693 0.15571426 0.11983583 -0.1880849 0.13053113 -0.10840516 0.15760925

gru.weight_hh_l1 f4 [96, 32]
00000000: efad 1dbd 945c e1bc 46b3 0b3d 272f 8c3d
00000010: 30e4 693d 5330 26bd 884f 1e3e 7ba4 303d
00000020: 52f5 cdbd f859 333d e75e 22bd 944a 46bd
00000030: e73f 623d fece 0dbd 9456 32bd 2586 fe3d
00000040: 97bd c03c c0b6 2fbd 924d 8c3d 055f b2bd
00000050: 5675 adbd 0951 a5bd d583 f9bc 0aca 8c3d
00000060: 50aa e43d cd6e e6bd 5a45 f43d 3392 e9bd
00000070: a528 033e 9088 cabc 5bac f6bc 55fe f93d
00000080: ba7e cd3d 3f21 2dbe b720 903d 60e2 e23d
00000090: 9cd7 3bbe 7d1f 043e a7c3 0f3e 3298 18be
000000a0: f1bb 13be 297a 41bd 28af e3bd d078 1dbe
000000b0: c24f fcbb 553d ee3d d5be 193e a253 e5bd
000000c0: 91e9 de3d cf84 b9bd 83d9 163e ccfb b03d
000000d0: 0c7a c5bd 3a4c 123e 496b 5bbd 3dbf f7bd
000000e0: 8a1f 2abd 370e 933c a841 333e 0a3b 183e
000000f0: 9e3c 3abe dbb3 ee3d 36e7 9f3c 560e e33c
00000100: ecde 053e 1739 34be 3e79 f7bd e80f b1bd
00000110: 0fe3 643d 2414 4d3e 45dc a03d 1017 18be
00000120: af19 813d d86e 20be fd8b d4bc 8119 fbbd
00000130: 75ee fcbd dbf9 04be 226a a13d e2f3 de3d
00000140: 2826 c1bc 65ce 2c3d 9108 3ebe ba8e 493d
00000150: 6d69 523c a2c6 a3bd 9295 3bbd 89d7 0e3e
00000160: 1398 03be 6535 3dbe 657c dd3c 8078 0fbe
00000170: 674d ccbd 9433 aabd 3e15 49be f3f5 03be
00000180: d1d3 533d 8059 99bd 980c 9e3c 6c75 efbd
00000190: 2df5 9cbd 3da3 e7bd 620d 97bd fc53 373d
000001a0: 7a35 3ebc 9384 2cbd e8cc 86ba c16c cb3d
000001b0: 8b15 573c 5294 08be 0880 bb3d 2355 de3d
000001c0: 067d e0bd 5a35 d1bd 0b10 1bbc e046 043e
000001d0: cb44 b9bd c472 17be 1f38 093e 693f 0d3e
000001e0: df15 473d 4847 94bc b328 05be df9e 203e
000001f0: 503a 33be 129b 2d3d 0c9c c1bd bb6e 8dbb
00000200: 0921 253e 2c7f 2ebe dff5 d4bd e78c 29be
00000210: 6cc0 123e 4351 3fbd b169 e6bd 5b40 21be
00000220: d34b 25be ef2f 2fbd 7bb3 0ebd 6aff dcbd
00000230: 95a0 8bbd c7bf 8c3d ccd0 dcbb c8d1 bcbd
00000240: b86a 903d 4ed7 643d 7fbd 0f3e 396b 103e
00000250: b9c0 3ebd 2220 bb3d ceb2 f93d f679 cabd
00000260: c606 91bd b40e 51bd 08e2 16be 9959 57bd
00000270: 1449 3d3d 05eb e33c 068b 22be f53d b33d
00000280: 3919 b53d ca5e d1bd 4fdb 813c 2d74 33be
00000290: bac1 e43d 6da7 14be c5d8 3dbe 26cc 153e
000002a0: 70d5 2fbe f696 cfbd 7cdb 33bd 876a 6d3d
000002b0: 6d96 e6bd dade 5c3d 5e80 883d 5771 003c
000002c0: 41b8 ecbd 642a dd3d 83e1 bf3d 1d88 ddbd
000002d0: e604 8f3d 27b2 e53c 5907 5e3d 935c d83d
000002e0: 3294 de3d c542 8c3d 8a81 e0bd 7fe2 26bd
000002f0: 7f07 403e 3cda f9bd 13b8 c53b 7ab7 fc3c
00000300: 40f9 25bd 43d6 a8bd 1f1f babd f307 813d
00000310: e40e ac3c ba79 64bd ed7a 2a3e 2172 7e3d
00000320: 9908 d0bd a712 713c 8c45 a9bd 75c7 093e
00000330: 8413 bf3d fdf6 22be 85ad dbbd 9d93 85bc
00000340: 41e4 e73c 13b6 05bd 5b04 b1bd 557b e4bd
00000350: f980 92bd 8f39 a8bd 6852 02bd 69da 3ebe
00000360: 01d6 493c 5b8c b8bc 5773 90bd b27f 4f3d
00000370: d75b 2b3d 6181 10be 9337 2abe 2a12 0c3c
00000380: a8ed e43d 4b2c 05be 73cc adbd 478a a63d
00000390: 00d0 9b3c 63f1 023e 7b46 043e 44d3 043e
000003a0: cacf 953d b6f7 b53d 0471 173e 3234 043d
000003b0: 3e04 39bc f76c 9e3b dbb8 27be 7f36 813d
000003c0: 2402 033c 571e dfbc 2e9f dcbd 114d e8bd
000003d0: 8864 38bd d5a9 1a3d e4e5 9d3c 50f0 efbd
000003e0: f545 223e 7383 80bd 79df 073e 7f0b 7dbc
000003f0: e8f6 503d be26 5e3d 5bfd a53d 2910 48bd
-0.038495954 -0.027509965 0.034106515 0.06844931 0.057102382 -0.04057343 0.15460026 0.04312561
-0.10056557 0.043786973 -0.039641287 -0.048410967 0.055236723 -0.03462123 -0.0435396 0.1242793
0.023527903 -0.042898893 0.06850733 -0.0870953 -0.08469646 -0.08072097 -0.03045837 0.068744734
0.11165297 -0.11251602 0.1192729 -0.114048384 0.12808473 -0.024723321 -0.030111482 0.12206713
0.10033937 -0.16907214 0.0703749 0.11078334 -0.18343967 0.12902637 0.14039479 -0.14901808
-0.14427163 -0.04723564 -0.11117393 -0.15378118 -0.0076999376 0.11632792 0.15014203 -0.11197592
0.10884393 -0.09058534 0.14731412 0.086417764 -0.09642419 0.1428689 -0.053569112 -0.12097023
-0.041533984 0.017951114 0.17505515 0.14866272 -0.18187186 0.116553985 0.01951943 0.027716797
0.13073319 -0.17599903 -0.12083672 -0.08645612 0.055880602 0.20027214 0.07854513 -0.14852548
0.06303727 -0.15667284 -0.025945658 -0.12260724 -0.123501696 -0.12985937 0.07881571 0.10886361
-0.023577765 0.04218902 -0.18557955 0.04920838 0.012842518 -0.079968706 -0.04579694 0.13949408
-0.1285098 -0.184774 0.027036855 -0.14010811 -0.09975701 -0.08310619 -0.1963701 -0.12886791
0.051715676 -0.07487774 0.019293115 -0.11692318 -0.07663951 -0.11310432 -0.073755994 0.044757828
-0.0116094295 -0.04211862 -0.0010284455 0.099328525 0.013127695 -0.1333783 0.091552794 0.10856082
-0.10961346 -0.10215254 -0.009464274 0.12917662 -0.09046324 -0.14789873 0.13400315 0.1379372
0.048604842 -0.018100396 -0.13003807 0.15685605 -0.17502713 0.042384215 -0.09453592 -0.0043161786
0.16125883 -0.170407 -0.10398459 -0.16557656 0.14331216 -0.046708357 -0.11250628 -0.15747206
-0.16142206 -0.042770322 -0.034839135 -0.10790904 -0.06817738 0.06872516 -0.0067387577 -0.092197
0.07051605 0.055869393 0.14037131 0.14103402 -0.046570513 0.09136988 0.121923074 -0.098865435
-0.0708137 -0.051039413 -0.14734662 -0.05257568 0.04621227 0.027822027 -0.15873346 0.08752052
0.088427015 -0.10223158 0.015851645 -0.17524786 0.11169763 -0.14516993 -0.18539722 0.14628658
-0.17171264 -0.101362154 -0.04391049 0.05796292 -0.1125916 0.053923465 0.06665109 0.007839522
-0.11558581 0.10799101 0.09369185 -0.10816977 0.06983356 0.028039051 0.054206226 0.10564532
0.1086811 0.06848673 -0.109622076 -0.040743347 0.1875286 -0.12199828 0.0060339062 0.030849207
-0.040520906 -0.08243992 -0.09087967 0.06300344 0.021003194 -0.05578015 0.16648455 0.06212056
-0.1015789 0.01471392 -0.08265218 0.13454993 0.09329894 -0.15914531 -0.107264556 -0.016305739
0.028307082 -0.032644343 -0.08643409 -0.11156336 -0.07153506 -0.082141034 -0.03181687 -0.18638004
0.012319089 -0.022527864 -0.07053249 0.05065889 0.041835632 -0.14111854 -0.16622762 0.0085492525
0.11178142 -0.13005178 -0.08486261 0.08131843 0.01902008 0.12787394 0.12917511 0.12971216
0.07315023 0.08885138 0.14789206 0.03227634 -0.011292515 0.004834767 -0.1637911 0.063092224
0.007996116 -0.027236147 -0.107725486 -0.11342824 -0.04501775 0.03775962 0.01927466 -0.11715758
0.15846999 -0.06275072 0.13268842 -0.015444635 0.05101672 0.054236166 0.08104964 -0.048843537

gru.bias_ih_l1 f4 [96]
00000000: eb5e 44bd 408f 2d3d e760 193d 7021 63bc
00000010: 378c fd3d 6e53 c9bd 194e 3e3c add3 e73d
00000020: 6e82 debd 1c26 f1bd f63b 113e 6fa8 1ebd
00000030: a739 a33c b138 663d 8073 ce3d 4de4 edbd
00000040: 4192 0e3e 1999 a43d b195 083c d4f0 d13d
00000050: 1324 c43d 39a1 04be 63a8 833d ebf9 67bd
00000060: 3a96 fdbd 68ff ef3b 02ce 13be 1c56 e43d
00000070: 0a5f 50bc 3a18 dbbd 9d98 133d 0258 833c
00000080: df13 8e3c eb01 f03c f0dc 063e 796f 1abd
00000090: 27ed 3cbe 0d08 f9bc 6128 0d3e 1a59 af3d
000000a0: 9633 733d d7c3 c2bc 7100 02be 1022 2ebe
000000b0: c74f f53d 641e cb3d fbb0 393e 311e 01be
000000c0: 3513 eabd 4afe 52bd f541 783d dd28 c6bd
000000d0: fe20 3f3e eae7 06be 81c4 d43c 08db 69bb
000000e0: f4e2 07be 6d03 123d c5c8 ad3d 23f2 853d
000000f0: b617 2cbd e736 5b3d b205 02be ea4e a23d
00000100: 49ab 2e3e e586 f73d 7bbb c2bd 1f3a 4ebd
00000110: 43dc 83bd d58e 0c3e 8bad cebd 3bfe 9cbc
00000120: 0731 c0bd dba4 783d 5a5f f63d 9ead ad3d
00000130: 267e dc3d a3b2 b03c 41f5 45bd 824a 9dbd
00000140: 3b20 33bd a832 03be 1364 013e 3ea0 0e3e
00000150: fe3f 09be cafd fa3c 2c42 19be b8cd 253d
00000160: ac88 dc3c 628b e6bb 2d7f 953d 598c c9bd
00000170: 921e 0b3e eca2 9e3c 1f0c 733c 66fc 1dbe
-0.047942083 0.042372942 0.03744593 -0.013862953 0.123802595 -0.09830366 0.0116153 0.11319671
-0.10864721 -0.11774847 0.1418303 -0.03873485 0.019924952 0.05620641 0.100806236 -0.116158105
0.13922979 0.080370136 0.00833647 0.102510124 0.09577193 -0.12952127 0.064286016 -0.056634825
-0.12382169 0.007324148 -0.14434054 0.111492366 -0.012717972 -0.1069798 0.036034215 0.016033176
0.01734346 0.02929779 0.13170218 -0.037703965 -0.18449841 -0.030399347 0.13784935 0.08561917
0.059375368 -0.023775024 -0.12695481 -0.17005181 0.11978107 0.09917906 0.18133919 -0.12609173
-0.11429445 -0.05151204 0.060609777 -0.09675763 0.1866493 -0.13174406 0.025972607 -0.0035683531
-0.1327017 0.0356478 0.084855594 0.065403245 -0.0420148 0.053519156 -0.12697485 0.07925208
0.17057528 0.12086276 -0.09508415 -0.050348397 -0.06438496 0.13726361 -0.100916944 -0.019164195
-0.09384351 0.060704093 0.120299056 0.084803805 0.107662484 0.021569556 -0.048329595 -0.07680227
-0.04373191 -0.12812293 0.12635832 0.13928315 -0.13403317 0.030638594 -0.14966649 0.04047939
0.026920639 -0.0070356587 0.072996475 -0.09841222 0.1358588 0.019364797 0.014834433 -0.15428314

gru.bias_hh_l1 f4 [96]
00000000: ec8a 46be 2f93 e53d 57aa 43be ca9b 69bd
00000010: 0f39 173e b964 ef3c 98ca f43d 8e4c fd3d
00000020: 255f b03d 0080 c13d 9d57 e03c aace e73d
00000030: a065 2abd 8172 06be bc21 0a3e 7622 fdbd
00000040: d6fe cabd 6695 183e 2768 d6bd 8a85 e7bd
00000050: cdc7 5a3d 51dd b1bd 995d 76bd 11eb a1bd
00000060: e530 353d 826b 84bd 1e4a 0cbe 5ef2 2f3d
00000070: 16f8 39bd 843c 33bd 96f3 313d 8101 14be
00000080: 9b09 1bbe 1e1a 31bc 7fd2 d7bd 88f3 d5bd
00000090: 05d2 2c3d 8efb 8dbc 8890 c63d 08d4 fd3d
000000a0: fbc1 3bbe 6f41 39bd d350 e3bd c44b 1d3e
000000b0: f5e9 36be 74b0 8cbb 1920 a3bd 4887 00be
000000c0: 080e 2a3c 53db 6abd 2ad5 3c3e 3d46 1c3e
000000d0: c8fc f13d 27b3 2cbe 9c5a 5fbd eb56 2f3e
000000e0: 4717 3c3e 204b 483d 4742 29be 4d21 f63d
000000f0: 6fad 1f3e af58 3a3d b54e 503d 5b8a 26be
00000100: 02e5 eb3d cee9 e23d 92e3 10be fb46 ad3d
00000110: 3bb2 df3d 92e3 3abe e69f cc3d a327 36bd
00000120: c6c7 0bbe 1920 98bd e5d7 0b3e bdee 90bd
00000130: 7cfa f1bd 32dd f13d b313 193e 1693 fdbd
00000140: 9070 a5bd 2d28 0b3e 8e55 153e 6de0 af3d
00000150: e431 dbbb d739 09be 199e 943d a04d 583d
00000160: d716 253e d25e a13c e033 24bd 59d5 e2bd
00000170: 07ab 21be 0f96 82bd 05a3 063d 1272 813d
-0.19388932 0.11209714 -0.19107948 -0.057033338 0.1476786 0.029222833 0.11952704 0.12368117
0.086118974 0.09448242 0.027385527 0.11318715 -0.041600823 -0.13129617 0.13489431 -0.123600885
-0.09911887 0.14900741 -0.10469084 -0.113047674 0.0534132 -0.08684791 -0.060147855 -0.079061635
0.044236083 -0.06465818 -0.13700148 0.04295575 -0.04540261 -0.043758884 0.043445192 -0.14453699
-0.15140383 -0.0108094495 -0.10538196 -0.104468405 0.042192478 -0.017331865 0.09695536 0.123939574
-0.18335716 -0.045228418 -0.110994 0.15360934 -0.17862685 -0.004293496 -0.079651065 -0.12551606
0.010379322 -0.05733807 0.1844069 0.15261169 0.11815792 -0.16865216 -0.05452977 0.17123
0.18368255 0.04889977 -0.16529189 0.1201807 0.15593503 0.04549473 0.05085631 -0.16263716
0.11518289 0.11079751 -0.14149311 0.08460804 0.10922667 -0.18250874 0.09991436 -0.044471394
-0.13650426 -0.07427997 0.13656576 -0.07076786 -0.11815354 0.11809768 0.14948921 -0.1238157
-0.0807811 0.13589545 0.14583418 0.08587728 -0.006689297 -0.1340097 0.07256717 0.052808404
0.16121994 0.019698534 -0.040088534 -0.11075849 -0.15787898 -0.06376278 0.03287031 0.06320585

fc.weight f4 [1, 32]
00000000: 3bb2 7abd dbf7 103e b978 da3d e940 9a3c
00000010: 081e 203b 3151 81bb 6c56 c4bd 5c54 443e
00000020: c15a c4bd a646 1c3e 6765 b7bd 3d6b babd
00000030: 158a 723d 1e9a 1cbd 293f 1b3d 5bc7 19be
00000040: 3ad3 843d eb18 48bd 22bf d8bd d53f 3cbe
00000050: 9b72 273e c712 b5bd 2e33 863d 9be4 613d
00000060: fd8f 753d bd09 123e 22ad 6bbd eb87 e7bc
00000070: d02b 3b3d 97b1 10be 114a 503e 8bf2 cfbd
-0.06120513 0.1415705 0.10667557 0.01882978 0.0024431963 -0.0039464463 -0.09586796 0.19172806
-0.095876224 0.15261325 -0.08954888 -0.09102485 0.059213717 -0.038232915 0.03790203 -0.15017454
0.06485601 -0.04885189 -0.10583331 -0.18383725 0.16352312 -0.08841472 0.065527305 0.055149656
0.05995177 0.14261527 -0.05753816 -0.028263053 0.04569608 -0.14130245 0.20340754 -0.10153683
