assembling/lstm_model.pth (torch, 54652 bytes, 9 tensors)

lstm.weight_ih_l0 f4 [128, 1]
0	0x3e520228	0.20508635
1	0x3d12e586	0.03586342
2	0x3cd17d16	0.025572341
3	0x3d4e2636	0.05032941
4	0xbe517098	-0.20453107
5	0xbe7cc42c	-0.24684209
6	0xbe121145	-0.142644
7	0xbd876d57	-0.06612652
8	0xbd84eab2	-0.06490077
9	0xbdb94a0d	-0.09047327
10	0xbe2d5ce8	-0.16929972
11	0xbdc4f047	-0.09616142
12	0xbe3c22e9	-0.18372692
13	0x3ed61aa8	0.41817212
14	0xbe499229	-0.19684662
15	0x3d8bb011	0.068206914
16	0x3cbf1fa5	0.023330519
17	0xbc889cc3	-0.016676312
18	0x3d27ddfe	0.040983193
19	0xbd1d9266	-0.038469695
20	0x3e4e9be5	0.20176657
21	0xbd453bd1	-0.04815275
22	0x3e93dc44	0.28878987
23	0x3e4de304	0.20106131
24	0xbe15a933	-0.14615326
25	0xbe0ec8df	-0.13943814
26	0x3c99bf4c	0.018767975
27	0xbcd4d60a	-0.025980968
28	0x3e1a6e9c	0.15081257
29	0xbdb879d0	-0.09007609
30	0x3e9a8dbc	0.3018626
31	0xbdb5389d	-0.08848689
32	0xbd9e8acc	-0.07741317
33	0xbe55e351	-0.20887496
34	0xbe2e62fd	-0.17029949
35	0x3e1e747c	0.15474123
36	0xbe3ce71d	-0.18447538
37	0xbe35ce15	-0.17754395
38	0xbb9d2040	-0.0047951043
39	0x3dda870d	0.1067029
40	0xbe1c05af	-0.15236543
41	0xbd743742	-0.05962301
42	0xbe3c9400	-0.18415833
43	0x3dbed2e1	0.09317566
44	0xbe9f4be2	-0.31112581
45	0x3f042a0c	0.5162666
46	0x3d2dbd53	0.04241688
47	0xbe13f1ec	-0.14447755
48	0x3d59a616	0.053136908
49	0x3c826795	0.015918532
50	0xbe264f18	-0.1624111
51	0xbe1c09bd	-0.1523809
52	0x3e45ae0a	0.19304672
53	0x3cff8c0a	0.031194706
54	0x3e0c4351	0.13697554
55	0x3e871e0c	0.2639011
56	0x3d253261	0.04033125
57	0xbc81d224	-0.015847273
58	0xbe2ebd86	-0.17064485
59	0x3e42e600	0.1903305
60	0x3d1aba0d	0.037775088
61	0xbdcf7399	-0.101294704
62	0xbcc64f74	-0.024207808
63	0xbcc3ec0e	-0.02391627
64	0x3ee7223c	0.45143306
65	0x3eb1a91c	0.34699333
66	0x3d820748	0.06349045
67	0x3e8a9b8b	0.27071795
68	0xbcce7380	-0.025201559
69	0x3e5baef6	0.21453461
70	0x3ec1d66d	0.37858906
71	0xbe7dd64a	-0.24788776
72	0xbe1f58ec	-0.15561265
73	0x3e1f0b81	0.15531732
74	0xbe82efea	-0.25573665
75	0xbe93c7fc	-0.28863513
76	0xbd3ba667	-0.04581299
77	0xbe9f0c6c	-0.31064165
78	0xbeb69982	-0.35663992
79	0xbe23456b	-0.1594445
80	0x3dc65df8	0.09685892
81	0x3e97b5af	0.296308
82	0xbe82ddd4	-0.25559866
83	0xbe645754	-0.22298938
84	0xbe269492	-0.16267613
85	0x3eb93021	0.36169532
86	0x3e8f755b	0.28019223
87	0x3e9d65bd	0.30741683
88	0x396bd4d8	0.00022490637
89	0x3eadaa37	0.33918926
90	0xbd32bbe3	-0.043636214
91	0x3eb131b3	0.3460823
92	0x3e2599a0	0.16171885
93	0xbeb86e7a	-0.36021787
94	0x3d301f31	0.042998496
95	0xbeb261c8	-0.34840226
96	0x3e7da29d	0.24769063
97	0x3d855b3b	0.065115415
98	0x3db47de8	0.08813077
99	0x3e22f19f	0.15912484
100	0x3dd78cfa	0.10524936
101	0xbd0d77c0	-0.03453803
102	0xbd1a0c22	-0.037609227
103	0xbd501900	-0.05080509
104	0xbe93cf32	-0.28869015
105	0x3df2a1ed	0.11847291
106	0x3da7715b	0.08175918
107	0x3836e2ac	4.3603286e-05
108	0xbe03a1b5	-0.12854655
109	0x3f03938e	0.51397026
110	0xbe0c8c0d	-0.137253
111	0xbe29f734	-0.16598207
112	0x3c46f594	0.012143511
113	0xbdeb920d	-0.11502466
114	0x3cf43f3e	0.029815312
115	0xbce71c20	-0.028211653
116	0x3e8deabc	0.2771815
117	0xbdf752fd	-0.12076376
118	0x3e3cb738	0.18429267
119	0x3eef562a	0.46745425
120	0xbcdb8cb7	-0.026800497
121	0xbc1db641	-0.009625972
122	0xbe845920	-0.25849247
123	0x3e9937ff	0.29925534
124	0x3e763b97	0.24046169
125	0xbbd4832f	-0.006485365
126	0x3eac4cd2	0.3365236
127	0x3d5627da	0.0522841

lstm.weight_hh_l0 f4 [128, 32]
0	0xbda49cda	-0.080377296
1	0x3de2ca6f	0.110737674
2	0xbd056bd6	-0.032573543
3	0xbd8b27ae	-0.06794678
4	0x3d9fbbc9	0.07799489
5	0xbcb400ca	-0.021973033
6	0x3dd04fc7	0.10171466
7	0xbbe5c761	-0.007012293
8	0x3df0fb0f	0.117666356
9	0xbe05c5ca	-0.13063732
10	0xbe02a88d	-0.1275961
11	0xbe1b4ff0	-0.15167212
12	0x3e2a0d8a	0.16606727
13	0xbe2860c3	-0.16443162
14	0xbd97c258	-0.07410115
15	0xbe0d2249	-0.1378261
16	0x3d081486	0.033222698
17	0xbb0db207	-0.0021621005
18	0xbe4ad32c	-0.19807118
19	0x3c0df3fa	0.008664126
20	0x3bcadced	0.006190887
21	0xbe2b49dc	-0.16727394
22	0x3e3a0d2d	0.18169089
23	0x3dcfeafb	0.10152241
24	0xbd7fe710	-0.062476218
25	0x3dfecaba	0.12441011
26	0x3de0b09d	0.10971186
27	0x3d14259b	0.036168676
28	0x3d3137ed	0.043266226
29	0x3c67b16f	0.014141425
30	0x3d727bae	0.05919998
31	0x3dfc405c	0.12316963
32	0xbd497766	-0.049186133
33	0xbe51c56e	-0.2048547
34	0x3d059ba5	0.032619137
35	0xbd93cdac	-0.07216963
36	0xbe16456b	-0.14674918
37	0x3d12d2c3	0.03584553
38	0xbe516da7	-0.20451985
39	0x3e35d32b	0.17756335
40	0xbdbcc2a5	-0.09216813
41	0xbd505485	-0.050861854
42	0x3c6f9463	0.0146227805
43	0xbc33c1f5	-0.010971536
44	0x3d1ea1f9	0.038728688
45	0xbea84248	-0.3286307
46	0xbcbc4b9f	-0.022985278
47	0x3e357920	0.17721987
48	0xbdcbe8b9	-0.09956498
49	0xbd645523	-0.055745255
50	0x3ce5e286	0.028062116
51	0xbcf30a3b	-0.029667964
52	0xbe81bdf3	-0.25340232
53	0xbe19cf5f	-0.15020512
54	0xbbb0ed29	-0.0053993654
55	0x3dd3705f	0.103241675
56	0x3e241f38	0.16027534
57	0x3b4a8335	0.003090096
58	0x3d986685	0.07441429
59	0xbd994ce4	-0.07485369
60	0x3e1b11df	0.15143536
61	0xbcd25e3a	-0.025679696
62	0x3d1744a7	0.036930706
63	0x3d5c9a19	0.053857896
64	0x3de22f08	0.11044127
65	0xbd7b7ce4	-0.0613984
66	0x3e108bc3	0.14115815
67	0x3d8f50da	0.06997843
68	0x3c98afb6	0.018638473
69	0x3e11c550	0.14235425
70	0xbd1a324a	-0.037645616
71	0x3e09e77c	0.1346721
72	0xbd02948f	-0.031879958
73	0x3e361c21	0.17784168
74	0x3deb4f66	0.114897534
75	0x3e0a4fbd	0.1350698
76	0xbe4355da	-0.19075719
77	0xbcd69b64	-0.026197143
78	0xbdb2f040	-0.0873723
79	0xbd690328	-0.056887776
80	0x3e567646	0.20943555
81	0x3ddc3cc7	0.1075378
82	0x3e123fed	0.14282198
83	0xbe0d62a3	-0.13807158
84	0xbdedcab9	-0.11610932
85	0x3da2983f	0.07939195
86	0x3afc49ae	0.0019248032
87	0xbe39aa6c	-0.18131417
88	0xbd9906b1	-0.074719794
89	0x3a3148a8	0.0006762841
90	0x3d736f5a	0.059432365
91	0x3d115b8a	0.03548769
92	0x3e10b03f	0.14129733
93	0xbdcb734d	-0.09934101
94	0x3d793e7b	0.0608506
95	0xbd10e974	-0.03537889
96	0xbe7842eb	-0.24244277
97	0xbdddfd23	-0.108392976
98	0xbd3fd30e	-0.046832137
99	0xbd243148	-0.04008606
100	0xbe8409af	-0.25788638
101	0xbe7fdfb3	-0.24987678
102	0xbe88c19a	-0.26710206
103	0x3de94945	0.11390928
104	0x3eb84e2a	0.35997134
105	0xbd20784d	-0.039177228
106	0x3e48b3a2	0.19599774
107	0x3e1669ed	0.14688845
108	0x3e96b13b	0.2943209
109	0xbe85adaf	-0.26109073
110	0xbd110596	-0.035405718
111	0x3e463dda	0.19359532
112	0xbd534a4c	-0.051584527
113	0x3bdcf3d6	0.0067429347
114	0xbcdd36eb	-0.027003726
115	0x3e12d237	0.14338003
116	0x3e125a8a	0.1429235
117	0xbe709df5	-0.23497756
118	0x3da90583	0.082530044
119	0x3e5c86df	0.21535824
120	0x3ea0e419	0.31424025
121	0x3c8c2ef6	0.017112236
122	0xbd9fe1e3	-0.07806756
123	0xbdc7058e	-0.09717856
124	0xbe2b8d82	-0.167532
125	0x3e95818f	0.29200408
126	0x3df669c3	0.12031891
127	0xbdc7b849	-0.097519465
128	0x3d4a9b6e	0.049464636
129	0x3e47a532	0.19496611
130	0x3e5139db	0.20432226
131	0xbda8a05b	-0.082337104
132	0x3e1fec9b	0.15617602
133	0x3e115014	0.14190704
134	0x3e5948aa	0.21219125
135	0x3dfe3050	0.12411559
136	0xbda8a877	-0.08235257
137	0x3e2bbb1c	0.16770595
138	0xbda01f39	-0.07818455
139	0x3da9898b	0.08278187
140	0x3df4d384	0.11954406
141	0x3dedadf3	0.11605444
142	0x3d094dc7	0.03352144
143	0xbe2a3cd5	-0.16624768
144	0x3d2045d6	0.0391291
145	0x3e00b425	0.1256872
146	0xbe351c6b	-0.17686622
147	0x3d912980	0.070879936
148	0x3d01874d	0.031623174
149	0x3d0efda4	0.03490986
150	0x3d2b9857	0.04189333
151	0x3af3b2e6	0.0018592745
152	0xbe08859b	-0.13332216
153	0xbe17441c	-0.14772075
154	0x3e395342	0.18098167
155	0xbd1296fd	-0.035788525
156	0xbe2b0fee	-0.16705295
157	0xbb561376	-0.0032665408
158	0xbd937c05	-0.07201389
159	0x3de5c44b	0.112190805
160	0x3cfeedaa	0.031119186
161	0xbe130c18	-0.14360082
162	0xbdcc2f6e	-0.09969984
163	0x3e191a48	0.14951432
164	0xbe1baae2	-0.15201905
165	0xbc7541fe	-0.014969347
166	0x3d2f5b6d	0.0428118
167	0x3c041dd6	0.008063754
168	0xbe0f600e	-0.14001486
169	0x3cf470e5	0.029838989
170	0xbce46640	-0.027880788
171	0xbdd6b0c8	-0.10482937
172	0x3e29afa3	0.16570906
173	0xbe7db304	-0.2477532
174	0xbd92a793	-0.071608685
175	0x3dce3e99	0.10070533
176	0xbd0d8346	-0.03454902
177	0xbe020362	-0.12696603
178	0x3da3557b	0.079752885
179	0x3e00a337	0.12562262
180	0xbde80a81	-0.113301285
181	0x3be7bfae	0.0070724105
182	0x3d713e24	0.058897153
183	0x3e81ac0c	0.25326574
184	0x3d9008f3	0.07032957
185	0xbe3cecd3	-0.18449716
186	0x3e11d06d	0.14239664
187	0x3df64b07	0.12026029
188	0x3e507251	0.20356108
189	0xbd5579ad	-0.052117992
190	0x3e040885	0.12893875
191	0x3d3e237c	0.04642056
192	0xbd97e4b9	-0.07416672
193	0xbe3a7c08	-0.18211377
194	0x3e03fe6e	0.12890026
195	0x3e2aa67a	0.16665068
196	0x3de7d1f5	0.11319343
197	0x3d93c6c6	0.072156474
198	0xbd916890	-0.07100022
199	0xbdd291d0	-0.10281718
200	0x3c4de348	0.012566395
201	0x3d889439	0.06668896
202	0xbcd98d2c	-0.026556574
203	0x3dcf332c	0.10117182
204	0x3e1825c3	0.14858155
205	0xbf5bc5ca	-0.8584868
206	0x3c216d03	0.009852651
207	0xbcfbad88	-0.030722395
208	0x3ca3182f	0.019908993
209	0xbd89327a	-0.06699081
210	0xbdb73290	-0.08945191
211	0x3e0ac059	0.13549937
212	0xbedf358d	-0.43595544
213	0xbe2a5cbd	-0.1663694
214	0x3de078bf	0.109605305
215	0x3f2c66a0	0.67344093
216	0x3b714e93	0.0036820516
217	0x3dbc7496	0.092019245
218	0x3d4e3d23	0.050351273
219	0x3ea2f074	0.31824076
220	0x3eb264ad	0.34842435
221	0x3e2b8df6	0.16753373
222	0x3e19cb4e	0.15018961
223	0x3e39d58f	0.18147872
224	0x3bde2764	0.006779598
225	0x3e0d51ca	0.13800731
226	0x3d13f5c5	0.036123056
227	0x3e21a406	0.15785226
228	0x3df694b2	0.1204008
229	0xbd807181	-0.06271649
230	0x3d8260a5	0.0636609
231	0x3e1a8900	0.15091324
232	0x3e1c7195	0.15277703
233	0xbd825df6	-0.06365578
234	0x3d544760	0.05182588
235	0xbddac16a	-0.10681422
236	0x3ddc2a14	0.10750213
237	0xbe20710d	-0.15668125
238	0xbd457d6c	-0.048215315
239	0x3e1b6ce1	0.15178253
240	0xbe40223d	-0.18763061
241	0xbe31e956	-0.17374167
242	0x3e0ea3f0	0.13929725
243	0xbd675511	-0.05647761
244	0xbde861cf	-0.113467805
245	0x3be21803	0.006899835
246	0x3ca6c27b	0.020356407
247	0x3dcc7a97	0.0998432
248	0x3c8747e9	0.016513782
249	0xbe108675	-0.14113791
250	0xbe3493ad	-0.17634459
251	0x3def94b6	0.11698286
252	0x3dc534f7	0.09629243
253	0x3d2d1bc6	0.042262815
254	0x3cea5425	0.028604576
255	0x3d5ded63	0.054181468

lstm.bias_ih_l0 f4 [128]
0	0x3ec5b0ee	0.3861155
1	0x3e3df49d	0.18550344
2	0x3dcd266c	0.10017094
3	0x3e58984a	0.21151844
4	0xbe8f77f0	-0.28021193
5	0x3c1c355d	0.009534207
6	0x3e98ef5e	0.29870123
7	0xbdf433a5	-0.11923913
8	0x3e38dd39	0.1805314
9	0xbe755905	-0.2395974
10	0x3e08824c	0.13330954
11	0x3e3091fe	0.17243192
12	0x3c9595af	0.018259851
13	0x3d0f0023	0.03491224
14	0x3e23fd8e	0.16014692
15	0x3dabdd65	0.08391837
16	0xbe18c0d0	-0.14917302
17	0x3e2a6101	0.16638567
18	0xbd9f1cec	-0.07769188
19	0xbde25608	-0.110515654
20	0xbe06b024	-0.1315313
21	0x3ddf946b	0.1091698
22	0xbda657ce	-0.08122216
23	0x3e1b9449	0.15193285
24	0xbe6c038f	-0.23048232
25	0xbd6c4c46	-0.057689928
26	0x3d253cac	0.040341064
27	0xbc1892d0	-0.009312347
28	0xbe6b11ef	-0.2295606
29	0xbc7899a8	-0.015173353
30	0xbe93e0bd	-0.288824
31	0x3e25e124	0.16199166
32	0xbc5320f1	-0.012886272
33	0x3dd49ed3	0.10381856
34	0xbd8ae65b	-0.06782218
35	0xbcc8e49c	-0.024523072
36	0xbe5c2c91	-0.21501376
37	0x3d460ec0	0.04835391
38	0x3d6b9ea8	0.057524353
39	0xbe208766	-0.1567665
40	0xbdb4ff34	-0.08837739
41	0xbe82b8e0	-0.25531673
42	0x3c31ef09	0.010860213
43	0x3cc27d12	0.023741279
44	0x3d2876f4	0.041129068
45	0xbc642e0c	-0.013926994
46	0xbc44dae9	-0.012015083
47	0x3d27fe18	0.041013807
48	0x3da5baf5	0.080923
49	0xbd6d4f1e	-0.05793678
50	0xbe1b6541	-0.15175344
51	0x3dcccb8f	0.09999763
52	0xbe40396c	-0.18771905
53	0x3d1b2572	0.037877508
54	0xbe3b70a5	-0.18304689
55	0x3dbd1e39	0.0923428
56	0xbe2d11ac	-0.16901273
57	0x3dd744d8	0.10511178
58	0xbe3ffa0c	-0.18747729
59	0x3c9696b6	0.018382411
60	0xbe81434f	-0.25246665
61	0xbe4a4ec5	-0.1975661
62	0xbe809aeb	-0.25118193
63	0x3e511d1d	0.20421262
64	0xbd5e99eb	-0.054346006
65	0xbd4fe205	-0.05075266
66	0xbc99631c	-0.018724017
67	0xbd0bcc1e	-0.03413021
68	0x3d82fde0	0.06396079
69	0x3d507860	0.05089605
70	0xbd7468dc	-0.059670314
71	0xbd530816	-0.051521383
72	0x3dddef00	0.10836601
73	0x3d52d8bf	0.051476236
74	0x3df256af	0.1183294
75	0xbd3a7c81	-0.045528892
76	0xbd45d085	-0.048294563
77	0xbb160531	-0.0022891278
78	0x3de2d51b	0.11075803
79	0x3d8ae4de	0.06781934
80	0xbd528ce0	-0.05140388
81	0xbd3616b6	-0.044455253
82	0xbdfce62b	-0.123485886
83	0x3e0cb4ad	0.13740797
84	0xbd1dc06e	-0.038513593
85	0xbd69b9c5	-0.05706193
86	0x3d23b145	0.03996398
87	0x3e3147fd	0.17312618
88	0xbd8ff825	-0.07029752
89	0x3cb42103	0.021988397
90	0xbcf95833	-0.030437564
91	0xbc89a51d	-0.016802365
92	0xbc281d73	-0.0102609275
93	0x3de512bd	0.11185215
94	0x3cbc768e	0.02300575
95	0xbe13efdc	-0.14446968
96	0x3eb5282e	0.35382217
97	0x3e549c25	0.2076269
98	0x3dd5cfa4	0.10439995
99	0x3e016df0	0.12639594
100	0xbe9c5570	-0.30533934
101	0xbba525a3	-0.005039887
102	0x3e75093c	0.23929304
103	0x3de1f591	0.11033166
104	0xbe344f31	-0.17608334
105	0x3c8fb43c	0.017541997
106	0xbd5c5eed	-0.053801466
107	0x3e8463f2	0.25857502
108	0xbdf4aef4	-0.11947432
109	0x3dd3521c	0.103183955
110	0xbd33061a	-0.04370699
111	0xbdbf5324	-0.0934203
112	0xbde4bdf3	-0.111690424
113	0x3cd232ec	0.025659047
114	0x3e454460	0.19264364
115	0x3e290526	0.1650587
116	0xbe2bef1c	-0.16790432
117	0x3d12e7a7	0.035865452
118	0xbd9d3f6e	-0.07678114
119	0x3bc5256a	0.006016423
120	0xbe4ad762	-0.19808725
121	0x3e81674e	0.25274128
122	0xbd87203a	-0.065979436
123	0x3da4add9	0.08040971
124	0xbe6ad933	-0.22934417
125	0xbd7b20df	-0.061310645
126	0xbe926a3c	-0.28596675
127	0x3e0b5456	0.1360639

lstm.bias_hh_l0 f4 [128]
0	0x3e38b4c6	0.1803771
1	0x3d23f5c9	0.04002932
2	0xba845e97	-0.0010098991
3	0x3e6eddc3	0.23326783
4	0xbe03dadb	-0.12876455
5	0x3e55bdcb	0.20873182
6	0x3eca5f2d	0.39525738
7	0x3d1beffb	0.03807066
8	0xbce17fc8	-0.027526751
9	0xbd4290a9	-0.04750124
10	0xbda135e9	-0.07871611
11	0x3e3233df	0.174026
12	0xbe5c670e	-0.21523687
13	0x3e00f493	0.12593298
14	0x3e24849f	0.16066216
15	0x3cc44c51	0.023962172
16	0x3c469f75	0.012122978
17	0x3cc28c96	0.023748677
18	0x3d2ca727	0.042151596
19	0x3e50a39b	0.2037491
20	0xbddc413f	-0.10754632
21	0x3e52ebaf	0.20597719
22	0xbd170930	-0.036873996
23	0x3d52ae3e	0.0514357
24	0xbe665125	-0.22491892
25	0x3e5e4619	0.21706428
26	0xbcb9288d	-0.022602344
27	0xbd8aa13e	-0.06769036
28	0xbe74561e	-0.23860976
29	0xbb836e6b	-0.0040109656
30	0xbe9d720e	-0.3075108
31	0x3e5bd3d0	0.21467519
32	0xbe43d4ce	-0.19124147
33	0x3e15b559	0.1461996
34	0xbe1133e6	-0.14179954
35	0xbdc7fb56	-0.097647354
36	0x3d435a66	0.047693633
37	0x3e0ea123	0.13928656
38	0xbd4bf4b3	-0.04979391
39	0x3d902854	0.07038942
40	0x3e17a652	0.1480954
41	0xbb1585e6	-0.0022815405
42	0xbd1a918a	-0.037736453
43	0x3e0ffa5a	0.14060345
44	0xbe6ad11c	-0.22931331
45	0xbd0c1760	-0.03420198
46	0x3c8ec006	0.017425548
47	0xbda3d595	-0.07999722
48	0xba47f6e7	-0.0007628039
49	0x3e07b7a3	0.13253646
50	0x3e194924	0.14969307
51	0xbe0012cb	-0.12507169
52	0xbe44dadb	-0.19224112
53	0x3d647adc	0.05578123
54	0xbe52b27f	-0.20575903
55	0xbdd077c3	-0.10179093
56	0x3c3fab40	0.011698544
57	0xbd8b76ef	-0.06809794
58	0xbe32af38	-0.17449653
59	0xbda624c2	-0.0811248
60	0xbe911126	-0.28333396
61	0xbd98fc68	-0.07470018
62	0xbe03c30c	-0.12867373
63	0x3d361730	0.044455707
64	0xbd458ce9	-0.048230086
65	0xbdaa7d3f	-0.0832467
66	0xbdc1b23a	-0.09457822
67	0xbd42a559	-0.04752097
68	0xbd9421f6	-0.0723304
69	0xbe05c30e	-0.13062689
70	0xbc02424b	-0.007950376
71	0x3dc01f83	0.093810104
72	0xbd21ed79	-0.039533112
73	0xbd8c73c7	-0.0685802
74	0xbd8fccd3	-0.07021489
75	0x3c568016	0.0130920615
76	0x3dd8bfff	0.10583495
77	0xbe56e97e	-0.20987508
78	0x3bf79ec0	0.0075567663
79	0x3ab64ac2	0.0013907778
80	0x3cfbaf2c	0.030723177
81	0x3c2b6dce	0.010463191
82	0x3df5a99d	0.11995242
83	0xbc5a099c	-0.013307955
84	0x3c19510f	0.009357705
85	0xbd6e1086	-0.058121227
86	0xbdd98e9b	-0.10622903
87	0xbd8f8bd2	-0.070090905
88	0x3e075db6	0.13219342
89	0xbd53af38	-0.051680773
90	0xbd772c0e	-0.06034475
91	0xbdd65505	-0.10465435
92	0x3cc393b4	0.023874141
93	0x3d9ef6df	0.07761931
94	0xbd08a470	-0.033359945
95	0x3e3179c7	0.1733161
96	0x3e180bde	0.14848277
97	0x3d97c2e7	0.074102215
98	0xbc628d8a	-0.013827691
99	0x3e3adbc8	0.18247902
100	0xbdf6516c	-0.12027249
101	0xbc4d1c87	-0.0125190085
102	0x3e2380ea	0.15967146
103	0xbdb4990f	-0.08818256
104	0x3e0cb182	0.13739589
105	0xbd10cb72	-0.03535027
106	0x3d223cb6	0.03960868
107	0x3e63c149	0.22241701
108	0x3da9c93c	0.082903355
109	0x3c6a7216	0.014309427
110	0x3e921511	0.28531697
111	0xbd6c6bdd	-0.057720054
112	0xbddb567b	-0.10709854
113	0x3e1aad80	0.15105247
114	0xba9f3a05	-0.0012148028
115	0x3e64fe6b	0.22362678
116	0xbd362419	-0.04446802
117	0xbd01bd18	-0.031674474
118	0xbdfdf674	-0.12400523
119	0xbdc58ca9	-0.096459694
120	0x3dcdb700	0.1004467
121	0xbc6fe922	-0.014642986
122	0xbe423722	-0.18966344
123	0x3e2eeb17	0.17081867
124	0xbe23326c	-0.15937203
125	0x3e314886	0.17312822
126	0xbe8d535e	-0.27602667
127	0x3d061245	0.032732267

lstm.weight_ih_l1 f4 [128, 32]
0	0x3da5f113	0.08102622
1	0xbe2b9624	-0.16756493
2	0x3d99a69b	0.075024806
3	0x3d874f6f	0.06606948
4	0xbbc995bf	-0.0061518843
5	0xbc87df29	-0.016585903
6	0x3cb2baf7	0.021817667
7	0x3e4c97ae	0.19979736
8	0xbdd8fa13	-0.10594573
9	0xbd940f3a	-0.07229467
10	0x3e37db21	0.17954685
11	0xbabaa53a	-0.0014239915
12	0xbdcedb0b	-0.10100373
13	0xbecd5b90	-0.4010892
14	0x3d6d5977	0.05794665
15	0x3e263489	0.16230978
16	0x3d81c03f	0.06335496
17	0xbe383ac4	-0.17991167
18	0x3e290c5a	0.16508618
19	0x3c5ffd92	0.013671296
20	0xbd9736ae	-0.07383476
21	0xbde97d12	-0.114008084
22	0xbdacf69d	-0.08445475
23	0x3e10a78f	0.14126419
24	0xbe15ce1a	-0.14629403
25	0xbe365553	-0.17805986
26	0xbdcbdb1e	-0.09953903
27	0x3d8e67fa	0.06953426
28	0x3e5b21cb	0.2139961
29	0xbc99e32d	-0.018785084
30	0xbd23c557	-0.03998312
31	0x3d277dd3	0.04089148
32	0x3de2df38	0.11077732
33	0xbe774911	-0.24148966
34	0xbdf1ad37	-0.11800616
35	0xbd239446	-0.039936326
36	0x3dc08deb	0.09402069
37	0xbe31607d	-0.17321964
38	0x3c277aa5	0.010222112
39	0x3def0cb2	0.11672343
40	0xbd9d3250	-0.07675612
41	0xbcbc462f	-0.022982685
42	0x3cccc7e4	0.024997659
43	0x3dc99bfb	0.09844204
44	0xbd8cda21	-0.06877542
45	0x3e141c9f	0.14464043
46	0x3cbb9973	0.022900319
47	0x3d7996f4	0.060934976
48	0xbdf9232e	-0.12164913
49	0xbc16b9a3	-0.009199533
50	0xbd3a31a3	-0.045457494
51	0x3daa3b02	0.08312036
52	0x3e06019f	0.13086556
53	0xbe0b8c17	-0.13627659
54	0xbe5db420	-0.21650743
55	0xbe6d2a88	-0.23160756
56	0x3bdbe95b	0.0067111677
57	0xbcf73915	-0.030178586
58	0x3d26bc5c	0.040706977
59	0xbe28a3c4	-0.16468722
60	0x3d7ad34c	0.061236665
61	0x3e744746	0.23855314
62	0x3d9acbf5	0.07558433
63	0xbce3f5d9	-0.02782719
64	0x3d83faca	0.064443186
65	0xbdb42bed	-0.08797441
66	0xbe349891	-0.17636324
67	0xbe316fc1	-0.17327787
68	0x3e11898a	0.14212623
69	0xbe458799	-0.19290008
70	0x3de78411	0.113044865
71	0xbd495b98	-0.049159616
72	0xbdbf5c1b	-0.093437396
73	0x3b58882d	0.0033040151
74	0x3d9a45e0	0.07532859
75	0x3d8ba604	0.06818774
76	0x3e03a290	0.12854981
77	0xbe1efa46	-0.15525159
78	0x3d035956	0.03206762
79	0x3d51cc56	0.05122026
80	0xbd831b72	-0.06401719
81	0x3d7a5977	0.061120477
82	0xbda016fc	-0.07816884
83	0xbdb9e10f	-0.0907613
84	0xbe610af1	-0.2197683
85	0x3daabaee	0.08336435
86	0xbd298f2d	-0.04139631
87	0xbe2bccc7	-0.16777335
88	0xbd45024f	-0.048097905
89	0xbe4476a7	-0.19185887
90	0x3dc3c340	0.09558725
91	0x3d19b471	0.037525598
92	0x3dda7914	0.10667625
93	0x3dca4f3b	0.09878393
94	0xbd779509	-0.060444865
95	0x3dbc00e4	0.091798574
96	0xbc4b959b	-0.012425805
97	0xbea69bbf	-0.325407
98	0xbe3c782d	-0.18405218
99	0xbda7b62f	-0.08189046
100	0x3ab75c79	0.0013989351
101	0xbd600852	-0.054695435
102	0xbe334b28	-0.17509139
103	0xbe0cafaf	-0.13738893
104	0x3f05df9a	0.52294314
105	0xbea38a13	-0.3194128
106	0xbcfda780	-0.03096366
107	0xbbe50a07	-0.0069897207
108	0x3e1d0fd5	0.1533807
109	0xbf79182e	-0.9730252
110	0xbc8b6544	-0.01701606
111	0x3e7323da	0.23744145
112	0xbe2bdf0c	-0.16784304
113	0xbe1643d2	-0.14674309
114	0xbc78a791	-0.01517667
115	0xbe0d5684	-0.13802534
116	0xbf478dd9	-0.7795082
117	0x3da476b7	0.080304556
118	0x3df3c9fd	0.119037606
119	0x3f28fccd	0.66010743
120	0xbd38d1ae	-0.04512184
121	0x3d070fb9	0.03297398
122	0x3d842d72	0.064539805
123	0x3e2b70f9	0.16742314
124	0x3ecdac26	0.401704
125	0x3e2db27d	0.16962619
126	0x3e8e4057	0.27783462
127	0xbdc60a42	-0.09669925
128	0x3dc39705	0.09550289
129	0xbe16a449	-0.14711107
130	0x3de01750	0.109419465
131	0xbe1720a3	-0.14758544
132	0xbdaedacd	-0.08537827
133	0xbe2091f1	-0.15680672
134	0x3da0e62a	0.078564
135	0x3da309ba	0.079608396
136	0x3dece40d	0.11566935
137	0xbd6bc3b5	-0.057559688
138	0x3e3ca764	0.1842323
139	0x3d2e14cd	0.042500306
140	0x3d58bae7	0.05291262
141	0x3eb3c944	0.3511449
142	0x3bf671b9	0.007520881
143	0x3e614c30	0.2200172
144	0xbe20b6eb	-0.15694778
145	0x399a40ee	0.00029421545
146	0x3e335982	0.17514613
147	0xbdceaad9	-0.1009118
148	0x3da2d28b	0.07950314
149	0xbd5f716d	-0.05455153
150	0xbe8e1498	-0.27750087
151	0xbde1a54e	-0.110178575
152	0x3e14f246	0.14545545
153	0xbe4df763	-0.20113902
154	0xbdea85dd	-0.11451314
155	0x3d694774	0.05695291
156	0xbdc0942f	-0.09403264
157	0x3e0295fc	0.12752527
158	0xbe022631	-0.12709881
159	0x3e45b25e	0.19306323
160	0x3e3c317e	0.18378255
161	0x3d8a0476	0.06739132
162	0xbdcd567f	-0.100262634
163	0x3e9faadd	0.31185046
164	0x3d5649e2	0.052316554
165	0xbbc47a90	-0.005996056
166	0x3e23e601	0.16005708
167	0xbe8e8f42	-0.27843672
168	0xbd5224cc	-0.051304623
169	0xbe566cee	-0.20939991
170	0xbea25f29	-0.31713226
171	0xbe7824e4	-0.24232823
172	0xbe21ce9c	-0.15801471
173	0xbe6b3945	-0.22971065
174	0xbe8ab818	-0.27093577
175	0xbd6d0f67	-0.057876017
176	0x3ddd3560	0.10801196
177	0x3e9c07f6	0.30474824
178	0xbdc0656f	-0.09394347
179	0xbe9c0710	-0.30474138
180	0xbd95f19f	-0.07321476
181	0x3e05d4e4	0.13069493
182	0x3dc27039	0.09494061
183	0x3ea6b12b	0.32557043
184	0xbe90f608	-0.28312707
185	0x3d78b86c	0.060722753
186	0x3e0de9ad	0.13858671
187	0x3e951f6d	0.29125538
188	0x3d6963f7	0.0569801
189	0x3cbaa759	0.022784876
190	0x3d9db192	0.076998845
191	0xbda207e6	-0.07911663
192	0x3e109467	0.14119111
193	0xbe1062da	-0.14100209
194	0xbe5a86b0	-0.21340442
195	0x3ddafff1	0.10693348
196	0xbdb7866d	-0.089611866
197	0xbe810048	-0.25195527
198	0xbe60f310	-0.21967721
199	0xbd8d9840	-0.06913805
200	0x3ea695b5	0.32536092
201	0xbe5cee48	-0.21575272
202	0x3e85282a	0.26007205
203	0x3dab5b8a	0.08367069
204	0x3e0c688c	0.13711756
205	0xbfd2bbb7	-1.6463536
206	0x3e94543d	0.2897052
207	0x3e078700	0.13235092
208	0xbe820909	-0.25397518
209	0xbe3181c2	-0.17334655
210	0xbccb61a9	-0.024826841
211	0x3e819a2c	0.25312936
212	0xbf8a5b2d	-1.0809075
213	0xbe59b1d4	-0.21259242
214	0x3f037a83	0.51358813
215	0x3fa919e2	1.3211024
216	0x3e8756e4	0.2643348
217	0x3df329dd	0.11873219
218	0xbe456c0c	-0.19279498
219	0x3db7c4fe	0.0897312
220	0x3f187288	0.5954976
221	0x3d9ebb6d	0.077505924
222	0x3e0fa6cc	0.14028472
223	0x3e318f52	0.17339829
224	0xbd7ab3f4	-0.061206773
225	0x3d390ec4	0.045180097
226	0xbdd9de25	-0.10638074
227	0xbd12f278	-0.035875767
228	0x3e3916df	0.18075131
229	0xbd8d09f1	-0.06886662
230	0x3e0fea8a	0.14054313
231	0xbe1e52ec	-0.1546132
232	0xbda0f615	-0.078594364
233	0x3da2ff50	0.07958853
234	0x3ddeb8f1	0.108751185
235	0xbe10c53f	-0.14137743
236	0x3db9d436	0.09073679
237	0xbe36b5e8	-0.17842829
238	0x3daefebd	0.08544681
239	0xbdc633f0	-0.09677875
240	0xbcbb4b81	-0.022863152
241	0xbd39d48b	-0.045368712
242	0x3d9bace5	0.076013364
243	0xbdc81792	-0.09770121
244	0xbd599ab9	-0.05312607
245	0x3dc0251a	0.093820766
246	0x3caa17d5	0.020763317
247	0x3dd250c1	0.10269309
248	0x3e045148	0.12921631
249	0x3e19a630	0.15004802
250	0x3caadd55	0.020857492
251	0xbdf30356	-0.11865871
252	0x3dc905a2	0.098155275
253	0xbe61bdc9	-0.22045054
254	0x3e4568c0	0.1927824
255	0xbbbada06	-0.00570226

lstm.weight_hh_l1 f4 [128, 32]
0	0xbe162928	-0.14664137
1	0xbe015f9b	-0.12634127
2	0x3e2aadce	0.16667864
3	0xbd4bc197	-0.04974517
4	0x3d7d8cad	0.061901737
5	0x3e14fcaf	0.14549516
6	0x3d0617ec	0.032737657
7	0xbd619385	-0.055072326
8	0xbdc69ddd	-0.09698079
9	0x3d4a854d	0.04944353
10	0x3d6c6dbc	0.05772184
11	0xbc86cb3a	-0.016454328
12	0x3d8bddd5	0.068294205
13	0x3dbc1505	0.09183697
14	0x3da6ac0c	0.08138284
15	0x3d5604f6	0.052250825
16	0xbd3f2e6f	-0.046675142
17	0x3da1dbba	0.07903238
18	0x3e2dc0bc	0.16968054
19	0xbda98d4c	-0.08278903
20	0x3e36ab81	0.17838861
21	0x3e120944	0.14261347
22	0x3d4b1df9	0.04958913
23	0xbdeaaa36	-0.114582464
24	0xbdf838b0	-0.12120187
25	0xbc6e2883	-0.014536026
26	0xbde887c3	-0.113540195
27	0xbe05cab8	-0.13065612
28	0x3ddb76e3	0.10716035
29	0xbd3cfd93	-0.046140265
30	0xbe02a67d	-0.12758823
31	0x3e2ee624	0.17079979
32	0x3deaae36	0.11459009
33	0xbdcf17fd	-0.10111997
34	0x3d39119d	0.045182813
35	0xbdf1fdba	-0.118159726
36	0xbd4cbe71	-0.049986307
37	0x3d80a26a	0.06280978
38	0x3c5aa6d6	0.013345441
39	0xbb5269a2	-0.003210642
40	0x3dddf5b4	0.1083788
41	0x3dd8b257	0.105808906
42	0xbe08af19	-0.13348044
43	0x3e1b68cd	0.15176697
44	0xbd4f1eb7	-0.0505664
45	0x3e3ba82c	0.18325871
46	0x3da6dafb	0.08147236
47	0x3d2be423	0.041965615
48	0x3e1da78a	0.15395942
49	0xbd99f031	-0.07516516
50	0x3e41f60a	0.18941513
51	0xbcb7b1a4	-0.022423573
52	0xbc038bcd	-0.008028937
53	0xbb85311c	-0.004064692
54	0xbe0b5b71	-0.13609101
55	0xbe426ca4	-0.18986756
56	0xbde43f6b	-0.111449085
57	0xbe379adb	-0.17930166
58	0xbe41b8ba	-0.18918124
59	0xbe10a78e	-0.14126417
60	0xbdb9e1d9	-0.0907628
61	0x3ddf0c18	0.108909786
62	0x3cc5ec85	0.024160633
63	0x3cef078c	0.029178403
64	0xbe1ff3f6	-0.15620407
65	0xbe3a6315	-0.1820186
66	0xba8c75e5	-0.0010716288
67	0x3e095320	0.13410616
68	0xbde57746	-0.1120439
69	0x3da923b2	0.082587615
70	0x3d523500	0.051320076
71	0x3cb6025d	0.022217924
72	0x3c489fcb	0.012245129
73	0xbe20a388	-0.15687382
74	0xbe311a3c	-0.17295164
75	0xbe130319	-0.1435665
76	0xbdaaa523	-0.083322786
77	0x3dcc51d5	0.09976546
78	0xbdc66024	-0.09686306
79	0x3c57f350	0.013180569
80	0x3defebfb	0.117149316
81	0x3e39a93f	0.18130969
82	0x3c8cc913	0.017185723
83	0xbde7f030	-0.11325109
84	0xbdef4ae9	-0.1168421
85	0x3e0f41a4	0.13989884
86	0xbda86f8e	-0.08224402
87	0xbe24099f	-0.16019295
88	0xbaab99d9	-0.0013092115
89	0xbe1d8e78	-0.15386379
90	0x3d468b03	0.048472416
91	0xbe0111f2	-0.12604502
92	0x3dc1f923	0.09471347
93	0x3e0452d5	0.12922223
94	0x3a949438	0.0011335677
95	0xbdcd32d8	-0.10019463
96	0x3c12ed31	0.008967684
97	0xbe21ebd9	-0.15812625
98	0x3e0f1ade	0.13975093
99	0xbda304bc	-0.079598874
100	0x3df43174	0.11923495
101	0x3f025f6b	0.50926846
102	0x3bdfe546	0.0068327514
103	0x3ea4db93	0.32198772
104	0xbf28e7f4	-0.6597893
105	0xbde40c88	-0.11135203
106	0x3cbc490f	0.022984056
107	0x3dd93cbd	0.10607288
108	0xbe3bba1e	-0.18332717
109	0x3e482c94	0.19548255
110	0x3db590e2	0.08865525
111	0x3d483505	0.04887869
112	0xbdbb2c5d	-0.09139321
113	0x3d54e592	0.051976748
114	0x3c10d8b3	0.008840728
115	0xbce98bac	-0.028508984
116	0xbd0e8007	-0.034790065
117	0x3e963860	0.29339886
118	0xbe0df869	-0.13864292
119	0xbf291257	-0.6604361
120	0x3da9c493	0.08289447
121	0xbe85b929	-0.26117828
122	0xbe31a667	-0.17348634
123	0xbd825dfb	-0.063655816
124	0x3dda8fdf	0.106719725
125	0xbe81304d	-0.25232163
126	0x3dbb50b0	0.09146249
127	0x3edd500a	0.43225127
128	0x3e19dc1d	0.15025373
129	0x3da56e70	0.08077705
130	0x3c9cfc27	0.019163204
131	0x3d6c078d	0.05762439
132	0x3e1bda83	0.15220074
133	0x3e31e3dd	0.17372079
134	0xbcea93ef	-0.028634993
135	0x3db1f4b0	0.086892486
136	0xbdd4f216	-0.10397737
137	0x3cc206f0	0.023684949
138	0xbdfc1525	-0.123087205
139	0x3dc88cf8	0.09792513
140	0xbda83495	-0.08213154
141	0x3e24f76b	0.16110007
142	0x3e2bdf22	0.16784337
143	0x3e02c5da	0.12770787
144	0xbe288cf2	-0.16460016
145	0x3da0da27	0.07854109
146	0x3d9ccaae	0.076558456
147	0x3d06cee2	0.032912143
148	0xbd8bd0e1	-0.0682695
149	0x3d1df0d3	0.038559746
150	0xbb3ab19e	-0.0028487216
151	0x3dbc9539	0.092081495
152	0x3dc71f99	0.09722824
153	0xbe048286	-0.12940416
154	0xbc88bb4c	-0.016690873
155	0xbe14a951	-0.14517714
156	0xbe2a1b46	-0.16611966
157	0x3c51d498	0.012807034
158	0x398bda7c	0.0002667493
159	0xbd5c274a	-0.053748406
160	0xbddf5d9e	-0.10906528
161	0xbdad70ad	-0.08468757
162	0xbcfddae3	-0.030988162
163	0x3e449be2	0.1920009
164	0x3dd44a3f	0.10365724
165	0x3e9dbc90	0.30807924
166	0x3e33bc03	0.1755219
167	0x3e8c85e8	0.27445912
168	0xbe409d7b	-0.18810074
169	0x3df14102	0.117799774
170	0x3e025845	0.12728985
171	0xbbb15cdb	-0.0054126806
172	0x3e0e3c0c	0.13890094
173	0x3da9e938	0.08296436
174	0x3deedc2d	0.11663089
175	0x3dffa179	0.1248197
176	0xbc7b943c	-0.015355166
177	0xbda4412e	-0.080202445
178	0x3c857b9e	0.016294297
179	0x3dea17f0	0.11430347
180	0x3d825c1f	0.06365227
181	0x3e206e6f	0.15667127
182	0x3ddd29ed	0.10799012
183	0xbdde1215	-0.108432926
184	0x3de75179	0.112948366
185	0xbe0e0713	-0.13869886
186	0xbebba712	-0.36650902
187	0x3df09b5d	0.11748383
188	0xbccfd5d7	-0.025370521
189	0xbdc190dd	-0.094514586
190	0x3da3b1de	0.0799291
191	0xbe3baad1	-0.1832688
192	0x3d2d953b	0.042378645
193	0xbf02ef87	-0.5114674
194	0x3e8bdcdc	0.2731694
195	0x3d2a1739	0.041526053
196	0x3ef943e0	0.48684597
197	0x3f637123	0.8884451
198	0xbd98ce74	-0.07461253
199	0x3f11ed7e	0.5700301
200	0xbf998fd1	-1.1997014
201	0xbb81eade	-0.003964766
202	0xbdac46c5	-0.08411936
203	0x3c70b661	0.01469192
204	0xbc3e1fc6	-0.011604255
205	0xbd31b93a	-0.043389536
206	0x3e3758e7	0.17905007
207	0x3eb7010c	0.35742986
208	0xbe01f6c3	-0.12691788
209	0x3e99d09e	0.30041975
210	0x3eb72352	0.35769135
211	0x3c035a07	0.00801707
212	0x3e2d64c8	0.16932976
213	0x3f0033e2	0.50079167
214	0xbe866c46	-0.2625448
215	0xbf95fb85	-1.1717383
216	0xbd6435ac	-0.055715248
217	0xbf1a0c43	-0.6017496
218	0xbf9c7573	-1.2223343
219	0xbdef9803	-0.11698916
220	0x3e672b3a	0.22575083
221	0xbe908b90	-0.28231478
222	0x3e00ae26	0.12566432
223	0x3e1301d7	0.1435617
224	0x3d8c6bb0	0.06856477
225	0xbe08b616	-0.1335071
226	0x3e092802	0.13394168
227	0x3d7440a4	0.05963196
228	0xbc89bd4a	-0.016813893
229	0x3dbfa068	0.09356767
230	0x3e17afb0	0.14813113
231	0xbd84cc8c	-0.06484327
232	0x3d3d0b95	0.046153624
233	0xbdda0c7e	-0.10646914
234	0x3cd0ef91	0.02550486
235	0x3db909b8	0.09035057
236	0x3c9d35c4	0.019190677
237	0xbe634097	-0.22192608
238	0x3e0d7d1e	0.1381726
239	0x3e41b817	0.18917881
240	0xbe15a934	-0.14615327
241	0x3dab757b	0.08372017
242	0x3d99a4c3	0.07502129
243	0xbdace9a9	-0.08443005
244	0x3dc9a2d7	0.09845512
245	0x3dd7c606	0.10535817
246	0x3ac34fab	0.0014901062
247	0xbd88cd34	-0.066797644
248	0xbdf33e41	-0.11877108
249	0xbe566ce6	-0.20939979
250	0x3c00ec30	0.0078688115
251	0xbe217a69	-0.15769352
252	0x3e1590d8	0.14606035
253	0xbd77b3ea	-0.060474314
254	0x3d93676d	0.07197461
255	0x3dbd58b5	0.09245435

lstm.bias_ih_l1 f4 [128]
0	0x3e3d6d4d	0.18498726
1	0x3db5cc25	0.08876828
2	0x3dfca7cb	0.123366915
3	0x3f54f45c	0.8318536
4	0x3e4afb7c	0.19822496
5	0x3e1bb054	0.15203983
6	0x3f1d678e	0.61486137
7	0xbdef2ef5	-0.11678878
8	0x3d974337	0.07385867
9	0xbdb72246	-0.08942084
10	0x3e6db8d8	0.23215044
11	0x3dbbf198	0.0917694
12	0x3daa1c02	0.08306123
13	0x3e566191	0.20935656
14	0x3eb945c6	0.36186045
15	0x3e06aaf9	0.13151158
16	0x3deeda35	0.116627134
17	0x3d3d6cd1	0.046246354
18	0x3e753407	0.23945628
19	0x3e7fe8bf	0.2499113
20	0x3e1634b2	0.14668539
21	0x3e46e65f	0.19423817
22	0xbdb0fb8d	-0.086417295
23	0x3e628d63	0.22124247
24	0x3dc772cc	0.09738693
25	0x3e39afb5	0.18133433
26	0x3cd28845	0.025699744
27	0xbd2daa23	-0.042398583
28	0x3de9cc54	0.114159256
29	0x3dff5dd0	0.12469065
30	0x3df15a57	0.11784809
31	0x3e5f52c4	0.21808916
32	0x3e11dd65	0.14244612
33	0x3bb9657f	0.005657851
34	0xbe019dcf	-0.12657855
35	0xbd5768c0	-0.05259013
36	0x3dc9dceb	0.0985659
37	0xbc92eef2	-0.017936204
38	0xbe2d3905	-0.16916282
39	0x3d72f454	0.05931504
40	0xbbe0d8db	-0.0068617887
41	0x3d32d6aa	0.04366175
42	0xbc9ab506	-0.018885147
43	0xbde5fb90	-0.11229622
44	0xbdde9360	-0.10867953
45	0xbe51b326	-0.20478496
46	0xbe26c078	-0.16284359
47	0xbdda6660	-0.10664058
48	0xbe5fca3f	-0.21854495
49	0x3ddba41e	0.10724662
50	0xbe0582a2	-0.13038114
51	0xbec3791c	-0.38178337
52	0x3923bd1c	0.0001561534
53	0xbdf91367	-0.12161904
54	0x3dcd05a9	0.10010845
55	0x3dfc6284	0.12323478
56	0x3d390724	0.045172825
57	0xbdaf080e	-0.08546458
58	0x3a9f25ed	0.001214204
59	0x3d642da3	0.055707585
60	0xbdf8cfd2	-0.121490136
61	0xbd8dcff1	-0.06924427
62	0xbe162ea4	-0.1466623
63	0xbe19963b	-0.14998715
64	0xbdd4ccca	-0.10390623
65	0xbcfd4039	-0.030914413
66	0xbe204fad	-0.15655394
67	0xbd9b72a6	-0.07590227
68	0x3e03af87	0.12859927
69	0x3e2d7d2a	0.16942278
70	0x3db212d3	0.08694997
71	0xbd19df5d	-0.03756653
72	0xbdce81aa	-0.10083325
73	0xbd0cd576	-0.03438326
74	0x3ba2e34d	0.004970944
75	0xbd5dbbd6	-0.054134212
76	0x3d670255	0.05639871
77	0x3e1cb565	0.15303572
78	0x3e0cfa55	0.13767369
79	0x3abfc7c7	0.0014631682
80	0x3dd9495f	0.106096976
81	0x3e0d85d0	0.13820577
82	0x3c879c91	0.016554149
83	0xbc0734d4	-0.008252341
84	0xbcebf1cc	-0.028801821
85	0x3e0bab30	0.13639522
86	0xbdac1d8b	-0.084040724
87	0x3d0f2ea1	0.03495658
88	0xbe27cfeb	-0.16387908
89	0xbdefd85a	-0.11711188
90	0xbe0a8fd6	-0.13531432
91	0xbe333ad1	-0.17502905
92	0x3df515fe	0.11967085
93	0xbdc0651f	-0.09394287
94	0x3d70848e	0.058720164
95	0x3d587c15	0.05285271
96	0xbd514d24	-0.051098958
97	0xbd236e4e	-0.039900117
98	0xbcf27fa4	-0.02960188
99	0x3f59a44c	0.8501632
100	0xbdf07d1d	-0.117426135
101	0xbdcd2e3c	-0.10018584
102	0x3ecabb5c	0.3959607
103	0xbdfe05dc	-0.12403461
104	0xbd996f1d	-0.07491896
105	0x3de15373	0.11002245
106	0x3de2f821	0.11082483
107	0x3e34155a	0.1758627
108	0x3e5f1cb4	0.21788293
109	0xbce2869b	-0.027652076
110	0x3d9a72fd	0.075414635
111	0xbd3aee67	-0.045637514
112	0x3ef20f62	0.4727736
113	0xbe25eb95	-0.16203149
114	0xbda0a462	-0.078438535
115	0x3e932b3e	0.2874393
116	0x3d88f8cc	0.06688079
117	0x3e452357	0.19251762
118	0xbd98ed84	-0.074671775
119	0x3d61efb7	0.05516025
120	0xbddad23c	-0.1068463
121	0x3d7371e0	0.05943477
122	0x3d98ab86	0.074545905
123	0x3d0ac652	0.03388054
124	0xbcf07686	-0.029353391
125	0x3d6731f9	0.056444142
126	0x3da6fd3a	0.08153768
127	0x3e5876a2	0.21139005

lstm.bias_hh_l1 f4 [128]
0	0x3d6624ab	0.056187313
1	0x3e45f82a	0.19332948
2	0x3ddf4fbf	0.10903882
3	0x3f1da56b	0.6158053
4	0xbcec843e	-0.028871652
5	0x3da3e31c	0.08002302
6	0x3f01da85	0.5072406
7	0xbc764ab5	-0.01503246
8	0xbdac1522	-0.08402468
9	0x3dbadbd8	0.09123963
10	0x3db4fd26	0.08837347
11	0x3e2afbe1	0.16697647
12	0x3d5f20a1	0.054474477
13	0x3dcd4b5a	0.10024138
14	0x3e8d72b5	0.27626577
15	0x3e869c5b	0.26291165
16	0x3ed2fdf5	0.4120938
17	0x3d4b1411	0.049579684
18	0x3e1e51c4	0.15460879
19	0x3ed3e466	0.41385192
20	0x3dac807e	0.084229454
21	0x3e9037c6	0.28167552
22	0x3e68d74d	0.2273838
23	0x3e18f368	0.14936602
24	0xbdbd967e	-0.0925722
25	0xbd713ee6	-0.058897875
26	0x3e0d098f	0.13773178
27	0x3d114787	0.035468604
28	0x3e1daf15	0.1539882
29	0x3d327a9f	0.04357397
30	0xbc94fa2d	-0.0181857
31	0x3db83d52	0.08996071
32	0x3d817377	0.06320851
33	0xbdc13c82	-0.09435369
34	0xbe1ddc78	-0.15416133
35	0xbde07626	-0.10960035
36	0x3d04416d	0.032288957
37	0x3b97a754	0.0046281014
38	0xbdfdaa45	-0.12385992
39	0xbe6d0427	-0.23146115
40	0x3d8db802	0.06919862
41	0xbe1bca8f	-0.15213989
42	0x3deabe3e	0.11462067
43	0x3c396f68	0.011318065
44	0xbe6b7905	-0.22995384
45	0xbe25cf5c	-0.16192383
46	0xbdac5dcd	-0.084163286
47	0xbe3146bc	-0.1731214
48	0xbe8d52c1	-0.276022
49	0x3decdd12	0.11565603
50	0x3d255d18	0.040371984
51	0xbe97f55d	-0.29679385
52	0x3d2efc56	0.042721115
53	0xbe006758	-0.12539423
54	0xbd85a5ff	-0.06525802
55	0xbd36897e	-0.044564717
56	0xbe0d704c	-0.13812369
57	0x3e40f1a6	0.18842182
58	0xbd12864d	-0.03577261
59	0x3e24cd7f	0.16094016
60	0xbd8fea72	-0.07027139
61	0x3df8a8a1	0.121415384
62	0xbe505b54	-0.20347339
63	0xbd33d48d	-0.043903876
64	0x3d173d3c	0.036923632
65	0xbe1a62c0	-0.15076733
66	0x3e0fd1bf	0.14044856
67	0x3c43ed08	0.011958368
68	0x3df8cf93	0.12148967
69	0x3d1684e7	0.03674784
70	0x3d44f709	0.048087154
71	0x3c99f14e	0.01879182
72	0x3dd6f726	0.104963586
73	0x3cd7f26f	0.026360719
74	0xbd528263	-0.051393878
75	0x3cfafaeb	0.030637225
76	0xbd94d0bd	-0.07266376
77	0xbd5d4c17	-0.054027643
78	0xbd9daf5f	-0.07699465
79	0x3d8716af	0.065961234
80	0xbdcfe6d3	-0.10151448
81	0x3de49080	0.11160374
82	0x3c242952	0.010019617
83	0xbd086eba	-0.033308722
84	0x3ce86619	0.028368996
85	0xbe027da1	-0.12743236
86	0x3d074f5e	0.033034675
87	0xbe1216b6	-0.14266476
88	0x3e1c8e19	0.15288581
89	0xbd8e2adb	-0.06941768
90	0x3db7b310	0.089697
91	0x3e1f8145	0.15576656
92	0x3db4fca7	0.08837252
93	0xbd32e517	-0.04367551
94	0x3d634889	0.055489097
95	0x3d684196	0.056703173
96	0xbd782652	-0.06058342
97	0x3dbca6c1	0.09211493
98	0xbdd780ae	-0.105225906
99	0x3f459052	0.7717334
100	0xbd1a562c	-0.037679836
101	0xbd533cc9	-0.05157164
102	0x3edc0ce1	0.42978576
103	0x3db5dcb0	0.088799834
104	0xbc4f6943	-0.012659374
105	0xbe253723	-0.16134314
106	0x3e5ab221	0.21357013
107	0x3dd02440	0.10163164
108	0x3e48be29	0.1960379
109	0x3e40bd79	0.18822278
110	0x3e8b135f	0.27163216
111	0x3c416375	0.011803498
112	0x3e4f43b4	0.2024067
113	0xbcf5dcf8	-0.030012593
114	0xbd86811b	-0.06567594
115	0x3e695ac0	0.22788525
116	0x3d55d023	0.052200448
117	0x3d8170de	0.06320356
118	0x3df020f3	0.117250346
119	0x3d6ecd86	0.05830147
120	0x3d8f0edb	0.06985255
121	0x3df177e8	0.117904484
122	0x3e532624	0.20620018
123	0xbda7e128	-0.08197242
124	0xbc000541	-0.007813753
125	0x3d547dac	0.051877663
126	0x3e005ff1	0.12536599
127	0x3da033ff	0.078224175

fc.weight f4 [1, 32]
0	0xbe69d03d	-0.22833343
1	0x3e402c82	0.18766978
2	0xbe3848fc	-0.17996591
3	0x3e4865ba	0.19570056
4	0xbdf051d0	-0.117343545
5	0x3e561244	0.20905405
6	0xbebd49bd	-0.3697032
7	0x3dbdc55d	0.0926616
8	0xbe020730	-0.12698054
9	0x3c4bc788	0.012437709
10	0x3e29c569	0.16579212
11	0x3e31527a	0.17316619
12	0x3e02b5e2	0.12764695
13	0x3e3c2d32	0.18376616
14	0xbe3fd862	-0.18734887
15	0xbe1759e6	-0.14780387
16	0xbe066c9f	-0.13127373
17	0xbdee5d1a	-0.116388515
18	0xbe1db623	-0.15401511
19	0x3e246e75	0.16057761
20	0xbd9b1099	-0.07571525
21	0x3e5a5a97	0.2132362
22	0x3de5ab3d	0.11214302
23	0xbe83001a	-0.25586015
24	0x3d95e5e8	0.07319242
25	0x3e605814	0.21908599
26	0xbe73d30c	-0.23810977
27	0x3e20257f	0.15639304
28	0xbdd13fde	-0.1021726
29	0x3d014ff1	0.03157038
30	0x3e2debfa	0.16984549
31	0xbe5574be	-0.20845315
