assembling/lstm_model.pth (torch, 54652 bytes, 9 tensors)

lstm.weight_ih_l0 f4 [128, 1]
00000000: dada 35be 3962 6dbe 6c12 8fbd 3c6f 5dbe
00000010: 9bfd 5e3c 12f6 d13e 7b7e 7dbd 57e2 413e
00000020: 9a2a 57be ace9 12be 7ba3 ad3d 59cf 94bd
00000030: 78af aebc 5e71 b1bd 1490 10be 8f4f 87be
00000040: 01b5 febd c14c 87be 7bbc ab3d c161 32bd
00000050: f1ca 083f 48ff 36bc 71af 46be 72cd d43d
00000060: 0f76 19bd 1fd6 78be ee97 50bd ba06 a1be
00000070: eef0 02be cc5f 4fbd 23ca 233e f920 85bd
00000080: 5df7 90be b2dc adbd 7d99 99bc 9d85 94be
00000090: ebf3 49bd 5a4a de3e d9ca a93e 4a48 313e
000000a0: 6106 85be 4d67 ab3d d268 873e 882b adbe
000000b0: 8ea2 5a3c d539 16be e4b9 8f3b d1a8 d9bd
000000c0: bda6 7fbe 2caa 5ebe da24 e3bd eaa9 123e
000000d0: 9b67 cd3e 5775 12be a256 89bd 9b1d 083c
000000e0: cd6b d1bc 94a5 16bd c476 b13d 6d8b ba3a
000000f0: 84cb cdbd 29ee 20bc 0095 183e a627 09be
00000100: a46b 723e 6eef 83be 4ab7 37be 9ed1 dfbd
00000110: 4e31 523e 74db ad3e 67cd bfbe aa06 b83e
00000120: aa1b 7e3e 993c 843e 2171 8e3e 1329 c3be
00000130: 66a6 443d 852a 333d 2d1c 3fbe 3560 9a3e
00000140: 2b6d a13e 367e 4abe 6013 7b3e 59f7 cd3d
00000150: 7049 b73e 4214 09be 196e 153e c68d 953e
00000160: c068 81be dcf8 9dbe dae2 4b3e d817 82be
00000170: 9879 a8be 0cc5 87be 0a4a 9dbd 69d1 91be
00000180: 40db 20bd d4b2 4abe c50c 7abe a985 40be
00000190: 8a6b bbbd f0d4 0a3f c832 9f3d 3ed3 883e
000001a0: ec5f 61bc 3f5d 00bd 141e 903e d634 2cbe
000001b0: 656a 0a3e 80f2 4fbe 93ee c8be 96a5 80be
000001c0: b2d2 4dbe e14a 90be 0bc7 55bd 140f 9fbb
000001d0: 3185 3e3f b6f2 5cbe 29cc 83be 1453 f4bb
000001e0: 6701 8cbd e0f2 a8be ccf4 3f3e 30b1 2abe
000001f0: 16d3 20be 4769 34be 2971 d03e c67c b3bd
-0.17759266 -0.23182 -0.069859356 -0.21624464 0.013610269 0.4100805 -0.0618882 0.18933998
-0.21012345 -0.14346951 0.08478447 -0.07266111 -0.021323904 -0.08664201 -0.14117461 -0.26427886
-0.124368675 -0.26425746 0.08385559 -0.043550257 0.53434664 -0.011169262 -0.19402863 0.10390748
-0.037466105 -0.2430043 -0.05092614 -0.31450444 -0.1278722 -0.05062847 0.15995078 -0.0650043
-0.28313723 -0.0848936 -0.018749947 -0.2900819 -0.049304884 0.434161 0.33162573 0.17312732
-0.2598143 0.083693124 0.2644716 -0.33822274 0.01334442 -0.14670499 0.0043861736 -0.10627902
-0.2496595 -0.21744603 -0.11091013 0.1432263 0.40118107 -0.14302574 -0.06705977 0.00830784
-0.025564099 -0.036779 0.08665231 0.0014232226 -0.10048583 -0.009822407 0.14900589 -0.13394031
0.23673874 -0.25768608 -0.17941013 -0.10928653 0.20526621 0.33956492 -0.37461397 0.35942584
0.2481524 0.25827482 0.27820686 -0.38117275 0.048010252 0.04374172 -0.18663092 0.30151525
0.315286 -0.19774708 0.2451911 0.100569434 0.35798216 -0.13386634 0.1459278 0.29209727
-0.2527523 -0.30853927 0.19910756 -0.25408816 -0.3290527 -0.26517522 -0.076801375 -0.2848008
-0.039271593 -0.1979478 -0.24418934 -0.18800987 -0.09151371 0.54231167 0.07773358 0.26723665
-0.01375578 -0.031338926 0.28147948 -0.1681703 0.13517149 -0.2030735 -0.39244518 -0.25126332
-0.20099905 -0.28182128 -0.052191775 -0.0048540924 0.74421984 -0.21576962 -0.257417 -0.0074561927
-0.06836205 -0.329978 0.18745726 -0.16669154 -0.15705523 -0.17618285 0.40711334 -0.08764033

lstm.weight_hh_l0 f4 [128, 32]
00000000: b774 febc c033 573d ee19 a03d 300a 283e
00000010: e393 47be 80aa cdbc e1d9 803c 68c0 7c3d
00000020: ada1 7a3d 9c4c c03d 8dc4 96bd 9ab9 433e
00000030: 4123 8cbb 593b ffbd efd2 d5bd e8aa aa3d
00000040: 617f e13d 97c0 7c3d 4a33 03be 3b8a 3a3e
00000050: 9b0e 81bd ccd3 d83d 1918 bcbc 23a4 17be
00000060: b2b0 92bd 3638 fe3c bf42 573e e520 bb3d
00000070: 67b7 94bd 3c1c a5bd e9c0 eabd a06d f53c
00000080: fdde 5cbd 9d0a 73bd 9fdb 9dbd 9634 ccbc
00000090: 1955 46bd f606 3c3e 2768 cabd 1d39 5c3e
000000a0: b0de 32be 4d12 ac3d 25cb 013e 7cde 8f3d
000000b0: aaca 3a3e 3ab2 fd3d ee44 dfbd 6e42 63be
000000c0: 765d 24be e1d5 633e de26 cfbd 9771 a5bd
000000d0: 816b 073e 7939 37bd ba61 35be e801 adbd
000000e0: 2f93 8a3d 8225 abbd 4e2f 16bd 82df 453e
000000f0: 4f4c 573e 549d 143e 8e64 52be a0e3 3c3e
00000100: ee46 343c 47f5 013e d84c e9bc f5a0 b0bd
00000110: a836 1abe 1a72 823e 87ec 05be 1d89 323e
00000120: 8368 56be cdd8 393d 7c53 d63d 04aa ddbc
00000130: 9553 fe3d ef25 4e3e 7715 d73d 12ba 87bd
00000140: 4357 623c aeb4 f33c 5aa3 d63d 3be1 cf3d
00000150: 24cc d73d ddbd 4d3d d96b ffbd 5647 ee3d
00000160: ddb9 7e3d 0172 b43d 08fb fa3c 0db0 2e3e
00000170: dea1 243e 2560 2c3e 730f 30be dba8 1c3e
00000180: 2e5f 27be 285f 343e a32b 143e bb4e 6abc
00000190: 8e43 273e f92a cbbd 8e0e b5bd 52d2 92bd
000001a0: 1610 d1b6 a8f0 9dbd af0f 17be b825 b3bc
000001b0: 9269 e1bc c525 9ebd a604 cb3d 9d63 d5bc
000001c0: b17a 5cbd b097 003e c7d7 1e3e 8f05 debd
000001d0: 79ff 193d 63ae d83d a66b 003e 3c77 26be
000001e0: 1490 73bb c01a af3d 8041 233e a2bb 2c3d
000001f0: 65de f23d 99e9 01bd 4e15 b3bd e323 0a3e
00000200: 1402 503d 7916 353e 5d55 08bc 2ae4 c93b
00000210: dc71 d0bd d37f 643d 6750 febd cc4c de3c
00000220: d9c6 0bbe 5e1f 2b3b 334a d73d 60b6 04bd
00000230: 3287 a9bd 8313 493e 486b 1f3e 1ef2 a5bd
00000240: 54a6 d63b 500e 0f3e 3d9a 023e ebf1 443e
00000250: 0c2e 763e 77ee ecbd 3b11 cdbd ffea 083d
00000260: 6368 06be cc7e 75bc cf41 b7bc 30e7 323d
00000270: bad3 833d 8f69 643d d4b7 c73d dd5f 6fbc
00000280: 068f d3b8 0e39 fa3d 7638 983c bb1c 483e
00000290: ce51 023c 31de 1bbd 5601 7dbe b67a 673e
000002a0: 096b 1cbe eba5 24be 3cc2 bc3b 364f 3d3e
000002b0: 23ae d1ba b17c 5f3e 35bd c03e fe51 0bbe
000002c0: 54de b93d d79a 3f3e 8a63 1bbe a8f0 8c3e
000002d0: ac8d b83d b26c ad3e 222c 8fbe c96e 523e
000002e0: 4615 643e a04f 523e 764d fa3d f673 ff3c
000002f0: 4804 dc3d d6c4 933e 33f6 a13d 8447 b83d
00000300: beed 51bd b88a ac3d 7ff6 1a3e adce 4e3e
00000310: 6b77 06be 7862 b03e 4db8 f3bd 6aa6 553e
00000320: eefa 1a3d a49d 5cbe 377d 513e cc82 7bbb
00000330: ba14 613d d438 343e ec48 7a3e 70d7 d7bd
00000340: 90f2 26bd f73f 023e 6212 75be ff6a bf3d
00000350: 370e 293e 64a0 143e 00be 51be dafb a33d
00000360: b2ea 643e 6188 233e 3013 243d 622c 673e
00000370: eb37 3a3b 0f48 43bd cb61 c3bd 1b34 f23d
00000380: c91e 12bd 705e 633d d3c4 9a3e c68d 983d
00000390: c83f 54be 7929 99bc 8259 6cbe 3a17 603e
000003a0: e6d7 07be 92c2 f3bd b3c7 443d ce4a 6dba
000003b0: d229 b93d 2331 73bd ae28 913e 1d90 dc3c
000003c0: 64c2 21be fb41 363e 10e2 f83c 206e 81bc
000003d0: 41fb e03d 3be3 923e d93a a0be c1db 0a3e
000003e0: 86fc 673e d62b a13d e277 8bbd 4783 3b3e
000003f0: 45d6 1f3b 403d 82bd c39c 02be 3c51 833e
-0.031061513 0.052539587 0.07817446 0.16410136 -0.19490008 -0.025105715 0.015728893 0.06170693
0.061189342 0.09389612 -0.07361708 0.1911377 -0.0042766635 -0.124624915 -0.10440623 0.08333379
0.11010624 0.061707105 -0.12812534 0.18216793 -0.06301614 0.10587272 -0.02296071 -0.14808707
-0.07162608 0.031032663 0.21021555 0.091371335 -0.07261544 -0.08062026 -0.11462576 0.0299595
-0.053923596 -0.059336293 -0.07707905 -0.024927419 -0.048421 0.1836203 -0.09883147 0.21506162
-0.17467761 0.08401928 0.1267515 0.070248574 0.18241373 0.1238751 -0.10901819 -0.2219331
-0.16051278 0.22249557 -0.10114835 -0.08078306 0.13224603 -0.044732545 -0.17713061 -0.08447629
0.06766354 -0.083567634 -0.036666207 0.19323543 0.21025203 0.14513141 -0.20546171 0.18446207
0.011003239 0.12691222 -0.028479025 -0.0862445 -0.15059912 0.25477678 -0.1307851 0.17435117
-0.20938306 0.045372773 0.10465142 -0.027058609 0.12418286 0.20131658 0.10502141 -0.06627287
0.01381475 0.02974924 0.104803756 0.10150381 0.105369836 0.050229896 -0.12471742 0.116347
0.06218897 0.08810807 0.03063728 0.17059346 0.16077372 0.16833551 -0.17193393 0.15298788
-0.16344902 0.17614424 0.14469771 -0.014300997 0.16334364 -0.09920306 -0.08840667 -0.07169022
-6.230558e-06 -0.07711917 -0.14752077 -0.021868572 -0.02751616 -0.07722048 0.09912996 -0.026048476
-0.053827945 0.12557864 0.15512 -0.10840904 0.037597153 0.105801366 0.12541065 -0.16256422
-0.0037164735 0.08550024 0.15942955 0.042171128 0.11858825 -0.031716917 -0.08744298 0.13490252
0.05078323 0.17684354 -0.008321133 0.0061612325 -0.10177967 0.055785965 -0.12417679 0.027136229
-0.13650073 0.0026111226 0.10512199 -0.03240049 -0.082777396 0.1963635 0.15568268 -0.08102821
0.0065505896 0.13970304 0.1275415 0.1923291 0.24041003 -0.11568921 -0.10013052 0.033427235
-0.13125758 -0.014983844 -0.022370247 0.04367751 0.06436868 0.05576473 0.09751859 -0.014610258
-0.00010087904 0.122179136 0.01858161 0.1954221 0.007954074 -0.038053695 -0.24707541 0.22605404
-0.15275206 -0.16078918 0.005760459 0.18487248 -0.0015997331 0.2182491 0.37644354 -0.13605496
0.09075609 0.1871141 -0.1517469 0.27527356 0.09011397 0.3387199 -0.27963358 0.20550074
0.2227374 0.20538187 0.12221806 0.031183224 0.10743004 0.2886111 0.07908287 0.089980155
-0.05125212 0.08424896 0.15133093 0.20196028 -0.13131492 0.34450126 -0.11900387 0.20864263
0.03783696 -0.2154451 0.20457922 -0.0038377522 0.054951407 0.17599803 0.2444188 -0.10539138
-0.04075867 0.12719713 -0.23932794 0.0934658 0.16509329 0.14514309 -0.20482635 0.08007021
0.22355154 0.15969993 0.04005736 0.22575524 0.0028414677 -0.047676142 -0.09540137 0.118263446
-0.03567389 0.055509984 0.3022829 0.07448916 -0.20727456 -0.018696534 -0.2308102 0.2188386
-0.13265952 -0.11902346 0.04804201 -0.0009051979 0.0904118 -0.059373032 0.2835135 0.026924187
-0.1579681 0.17798607 0.030381233 -0.015799582 0.10985423 0.28688988 -0.31294897 0.13560392
0.22654924 0.07869689 -0.06809975 0.18311797 0.002438919 -0.06359339 -0.12755112 0.25647914

lstm.bias_ih_l0 f4 [128]
00000000: e3ff 163e 4b1b 4e3e 99d4 84bc b82c 25be
00000010: 6b1c 21bb 5390 ce3c 946d 443e d0f6 a2bd
00000020: 10b0 be3d cb79 193b 5b23 15bd ef6e 963d
00000030: dd2c 843d e456 923d 0856 a23d 051a 193e
00000040: f97f e03d c379 fc3c 0ebc 413e d64d 74bc
00000050: ba3e a93d 0926 be3c 70ca 82bd da3b 88bd
00000060: 483e e23d 1af7 4e3d 963e 903a adc1 983d
00000070: aa2a 0d3e 384e ebbb 786e 203e 0f43 5b3d
00000080: f0e7 b4bd 04f7 0abe 5e62 123e 1668 b63d
00000090: 0f3f c4bd 9365 fe3d 5bad 8f3b 2bbb 3a3c
000000a0: 028e 6dbd 178f 0ebe ccbb 323d bfde 02bd
000000b0: 6a03 c23d e013 df3d d2f5 31be 6c14 2f3e
000000c0: f253 f6bd 1327 013e c253 e0bd 9a48 7abd
000000d0: 44e3 2c3d 60da bc3d 03e0 d6bd e155 4ebe
000000e0: 1e67 5dbd 7de8 da3d 41ef db3d fb4d 743c
000000f0: e830 70bd c27b 60be df7a 49bc 6669 2c3c
00000100: 4d5d 1abe 6b8a e33d 4272 e03d 4154 f33d
00000110: cd7b adbd d1f5 203e dad4 8dbd e333 d13d
00000120: fcc7 14be 0813 b5bc 3f6d 973d 300c f43d
00000130: fdf2 f8bc e8af ef3d ee87 a33d 55cc cc3d
00000140: 6461 553c 4660 8c3d e4fb d6bd c3fa c9b9
00000150: 56b6 643e ffb9 e33d f98b a4bd 6c86 4e3d
00000160: fe35 153d b5c4 093e f4b1 9d3d 55e3 06be
00000170: f42d 283d 0e0b d53d 0d83 c03c 6299 0c3d
00000180: b7b1 5b3e afd5 d03c c2dc 093e 0bb7 74bd
00000190: c0ec 46bd 341b 773e 6831 973b b5f0 853b
000001a0: ceb7 5b3d 261c af3c 1b0e a33d 55d0 b63d
000001b0: 0122 1fbd 5892 7f3d 942e fa3d 0ff1 123e
000001c0: 4f3b f33d ec01 013e 9758 a53d 7ed8 ae3d
000001d0: 3aac 5d3e e7d8 ffbd f319 9fbd 2fe5 f13d
000001e0: e0c7 963e de59 233e 5430 f63c d028 473e
000001f0: 4982 823e 3cd5 043d efa5 47be 8fce 573c
0.1474605 0.20127599 -0.016214656 -0.1613034 -0.0024583589 0.025215304 0.19182426 -0.07957232
0.09310925 0.0023418542 -0.03641067 0.07345378 0.064538695 0.07145479 0.079265654 0.14951332
0.10961909 0.03081978 0.18919393 -0.014911136 0.08263917 0.023211496 -0.06386268 -0.06652041
0.110470355 0.050528623 0.001100498 0.07458816 0.13785806 -0.0071809553 0.1566714 0.05353075
-0.08833301 -0.13570791 0.14295337 0.089065716 -0.0958234 0.124217175 0.0043846793 0.011397163
-0.057996757 -0.13921772 0.04363613 -0.03195071 0.094733074 0.10892463 -0.1737893 0.17097634
-0.1202773 0.12612562 -0.109534755 -0.061104394 0.042208925 0.09221339 -0.104919456 -0.20149948
-0.05405342 0.10688875 0.107389934 0.01491117 -0.05864039 -0.2192221 -0.012297361 0.010523176
-0.15074654 0.111103855 0.10959293 0.118813045 -0.08470879 0.15718772 -0.06925364 0.10214975
-0.14529413 -0.022103801 0.07393884 0.11916387 -0.030389303 0.11703473 0.07984911 0.09999911
0.013023708 0.068543 -0.10497263 -0.0003852454 0.2233518 0.1111946 -0.0803451 0.050421163
0.036428444 0.13453944 0.076999575 -0.13172658 0.04105945 0.10402499 0.02349999 0.034325965
0.21454512 0.025492517 0.13463119 -0.059744876 -0.048565626 0.24131471 0.004614044 0.0040875324
0.053642087 0.021375727 0.07961675 0.08926455 -0.038850788 0.062395424 0.12215915 0.14349769
0.118765466 0.1259839 0.08073538 0.08537386 0.2164773 -0.12492543 -0.07768621 0.118112914
0.29449368 0.1595225 0.030052342 0.19449162 0.25490025 0.03242992 -0.19496892 0.013171806

lstm.bias_hh_l0 f4 [128]
00000000: 922c 4fbd 591e 0d3c e966 783d 9f08 45bd
00000010: 23b9 c73d f87d 123e 9af6 a63b 9dc8 f03d
00000020: 197b 96bd 3615 513e edb1 01be 5a57 a33e
00000030: 6276 923d 1f90 1c3e 086c ce3d 7171 96bd
00000040: 7698 143e ee46 323e 13be e03b 1e33 f83d
00000050: b17d 193e 5eb6 92bc 14a5 ba3c 7752 c13b
00000060: a620 463e 3d0a bb3b d2d4 053e fbce d93b
00000070: 0336 073e d34c 793e 9c36 9abd c45a 9abd
00000080: cdd4 f7bc 8721 033c 4925 d93d d0fa c23d
00000090: 0d85 98bc 092c 213e e131 2bbe 06fe 7b3a
000000a0: f10f 1fbe 4e47 723c f0e6 4c3d b37e 50be
000000b0: 968f 38be ed20 363d 8bdf 1e3e 99e0 1a3e
000000c0: 6805 8c3d 5d78 0e3d cbb2 52be 929f a23d
000000d0: 4f95 3e3e 79a7 b03c bf99 f43c 46ff f6bd
000000e0: 9fea 4ebe 03f7 1b3e 79c0 18be 1452 2bbe
000000f0: 1b64 2a3e 8c47 693c 14d6 88bd b846 dabd
00000100: 281f abbc 4884 1abd 096f 02bb 8d5f 0a3e
00000110: afc9 10be 3151 d7bc a3a7 debd ed26 383e
00000120: 3acd 303c 3028 843d f1a8 aa3d b1fa b8bd
00000130: f402 823d 1b22 233e e6d1 1cbd 0b41 b9bd
00000140: a690 68bd 6584 353d 1314 cc3a 28e5 cf3d
00000150: df36 c5bc 4e87 d3bd 7c3d d53d 6d52 15bd
00000160: 7358 3c3d 27d7 153e aa3c c33d 1493 223d
00000170: aba7 06bc 5858 24bd 80fd 2bbe 78c3 393c
00000180: 30f8 963d 205a 133d 2203 233e 25cc d73c
00000190: 48ae 133e 6f8b 653e 451d d0bc cd14 bcbd
000001a0: 11e4 b83d f142 fd3d eec3 843d 9ead 0a3e
000001b0: e80c 9cbc faf3 9bbc 7f70 173d b928 703e
000001c0: caf5 913e 8b18 2c3e 4cd0 573e b259 fdbd
000001d0: 5146 783d 6163 c6bc 5965 f73d 8a6e 09bc
000001e0: 5ea9 2b3e 8aaa 9b3d f77f 3fbd 71ca 70b9
000001f0: 1cbf afbc 77e7 663d 424a d23d 73e6 7a3d
-0.050579615 0.0086131925 0.060645018 -0.048103925 0.09752109 0.14305866 0.005095315 0.11757014
-0.07347698 0.20418248 -0.1266553 0.3190258 0.07151486 0.15289353 0.10079199 -0.07345856
0.14511284 0.1740987 0.006858596 0.12119125 0.14989354 -0.017909225 0.022783794 0.005899723
0.19348392 0.0057080076 0.13069466 0.0066469884 0.13204198 0.24345712 -0.07529947 -0.075368434
-0.030252839 0.008003599 0.10602815 0.09520495 -0.018618131 0.15739454 -0.16718246 0.00096127426
-0.15533425 0.014787508 0.050024927 -0.20360832 -0.18023524 0.044464994 0.15514962 0.1512474
0.06836969 0.034782756 -0.20576017 0.07940592 0.18611644 0.021564232 0.029858468 -0.12060408
-0.20206688 0.15230946 -0.14917172 -0.16730529 0.1663975 0.0142382495 -0.06681457 -0.1065802
-0.02088888 -0.03772381 -0.0019902608 0.13513012 -0.14139436 -0.026283832 -0.10871818 0.17983599
0.010791117 0.06452978 0.08333004 -0.090321906 0.063482195 0.15930979 -0.038286112 -0.09045609
-0.056778572 0.044315714 0.0015569947 0.1015113 -0.024074016 -0.10328542 0.10412118 -0.03645556
0.04598279 0.14632855 0.09533055 0.039691046 -0.008218686 -0.040123314 -0.16795921 0.011338107
0.07371557 0.03597462 0.15919164 0.02634246 0.14421952 0.22416471 -0.025404582 -0.09183655
0.09027875 0.12366284 0.06482683 0.13542792 -0.019049123 -0.019037236 0.03697252 0.23453034
0.28507835 0.16806237 0.21075553 -0.12370624 0.060613934 -0.02421731 0.120798774 -0.008388171
0.16763827 0.07600887 -0.046752896 -0.00022963599 -0.021453433 0.056373086 0.1026807 0.06125493

lstm.weight_ih_l1 f4 [128, 32]
00000000: 4e71 eebd 9dbd 4abd eefa 6b3e 61ad dbbd
00000010: f028 2cbe bb10 0ebe c396 203e 6fb3 a8bd
00000020: d12c e1bd 0902 88be 7232 0d3e 6a70 203e
00000030: 37a9 3b3e 6749 1f3e 8175 64bd ad5b 1abd
00000040: 1817 4abe ad5c 523e e010 3abd 1602 013e
00000050: 04c3 fb3d fff8 f13d f8f1 61be dc23 2c3c
00000060: cd52 f53d 7b33 aebc 647e 4e3d c452 e4bc
00000070: 4fca 33bd 0149 8e3e 71b0 c8bd 94b0 aebd
00000080: 6bee 6bbe 9640 a23d a127 c53d d8c4 513e
00000090: 4608 ebbd 4286 043e 379f c8bd fadd b73d
000000a0: f5cd d33d fb72 313d b861 5b3e b400 53bc
000000b0: e0d4 a3bd 1d64 1e3e 45d4 6f3e e71b 18be
000000c0: 6fdc d43d cfa3 503e 677c 56be 8ff8 1abd
000000d0: 2cc6 993e 15dd 783e 73da 0bbd 8952 483e
000000e0: 2357 3b3e 3c0b 343d 3f7c 2a3e 09d4 6a3e
000000f0: e97e 1e3e 3c4f 16bc dfb8 cfbe a1a3 e2bd
00000100: dca8 d23d 1d15 0dbe 4409 18bd 07dc 4a3d
00000110: b32c 8e3d 6ab9 193e 2b66 55be cfc4 813e
00000120: ad87 de3d e147 07bd badb b03d fe30 1a3d
00000130: 5deb 89bd 52b3 ddbb bf21 253c 31b0 103e
00000140: 6dad 453d b8fb 4cbd 0b76 6dbd 97aa 5aba
00000150: 5dc1 7f3e 56af d0bd e8b3 2bbe 05bd ad3d
00000160: ed4a 15be 6894 8cbd ed24 f33c ca2e 0ebe
00000170: 6512 0f3e 01fe e3bd ce3b c5bd ae26 a4bd
00000180: 3ef1 debd 7d00 253d 899b aa3c c183 f8bd
00000190: b26c 043e 3789 f5bb 1bef 98bd 56e1 5c3d
000001a0: c8e3 9bbd 1630 0a3e 1ea4 d13d b3dd 7cbe
000001b0: 6466 123d b4d7 453d e8f9 1abd 6a4e 843e
000001c0: 4baa 583e 02b6 213d 60d6 113d 2743 0abe
000001d0: f0b1 163e e50a bc3d a4cd a63d 7ab8 db3d
000001e0: 7106 dcbd 2478 35bd ef5c 57be 7337 13bd
000001f0: f30d ce3c b773 ee3a bf65 b73d 9d0c c9bd
00000200: 4839 84bd b466 9abd bdc2 223e d45f 9fbd
00000210: 10a3 a0bd d87a 0db8 91b6 eb3a 643c 93bd
00000220: 9e5b dcbd 765c 0ebe bc51 f23d 3364 e6bc
00000230: 91b6 193e 9546 a6bd 66df b33d 29da d8bd
00000240: 1971 f33c 6e09 66bd 10bc 30be 68e7 303e
00000250: 89d2 653d 0c3f 193d dbdf 65be 664a 1bbe
00000260: 3bb5 91bd b768 463e e309 373e 652e 533e
00000270: d293 513e ea2d a93e 1bf6 22bd 4ba6 aebc
00000280: 76a5 4dbe 1fb8 f33d e024 1d3e 7783 af3e
00000290: ec6b 5abe 9697 243f 91fb 9dbe 259b cc3e
000002a0: 2aa3 25be ff39 fcbc a6a9 b93e 60ba d43c
000002b0: b996 1f3e 46f3 9b3e b5c8 a73e 708d 8bbe
000002c0: 7f60 85be 62fa ae3d cf4d 2dbd a274 163e
000002d0: 5ec5 143f 6ac3 403e bf62 9bbc ba55 a33d
000002e0: 525c 61bd 8c2f a03e a1fc a53e d44d e43b
000002f0: 16a2 933d af17 193d d04e 46bf 46ac 1d3e
00000300: 3450 88bc 52d5 a9bc bd06 1a3e f755 ec3c
00000310: c2b6 87bd ceee 20be 6c33 d1bd 4c69 3abe
00000320: 7fb0 3b3d cf83 3ebd 01cd a3bd 5d3e b43c
00000330: faf4 c7bc 045b c6bd 870b 833c 82cd 22be
00000340: 96bb c4bc f069 013e 15d0 4cbe 21df 0d3e
00000350: 4495 943d 109d 733e 6027 7abe 50e7 2fbe
00000360: c6c7 9c3d d3a1 50bd 7247 cebd 7d30 8c3d
00000370: 6a60 813c 824e 5b3d b44d 853d 12c3 853e
00000380: 3951 3abe 044f 343e 104b fd3d d203 80bd
00000390: d4dd 223d 7d85 1e3e a97c e83d 236d 1c3e
000003a0: 614c ac3d 760e fcbd f996 15bb d6b4 66bd
000003b0: 4ba6 553d 7994 0c3e 3bfe 353e 6665 33be
000003c0: f13c c8bd cbca 9dbd c392 a0bd 29b4 743d
000003d0: e2a0 453d 1c22 fd3d f9e3 e3bd 7baf f5bc
000003e0: 5374 053e f6cd 183e dc01 f83c 4ab6 783e
000003f0: dd54 1b3e 3cbb 6a3e 304e 20bd 2123 b63d
-0.11642705 -0.049497236 0.23044941 -0.10726429 -0.16812491 -0.1387357 0.15682511 -0.08237349
-0.10994876 -0.26564053 0.13788775 0.15667883 0.18326269 0.15555345 -0.055776123 -0.037685085
-0.19735372 0.20543166 -0.04542625 0.12598452 0.12293056 0.1181507 -0.2206496 0.010506596
0.119786836 -0.021264782 0.050413504 -0.027871497 -0.04389411 0.27790073 -0.097992785 -0.08529773
-0.23040168 0.07922475 0.09626699 0.20485246 -0.114761874 0.1294184 -0.09795993 0.089778855
0.103420176 0.043322545 0.21423995 -0.012878586 -0.07999587 0.15467878 0.23420818 -0.14854394
0.10393607 0.20374988 -0.20945893 -0.0378347 0.30034006 0.24303086 -0.034143876 0.19562735
0.18294959 0.043956026 0.16648959 0.22932447 0.154781 -0.009174164 -0.40570733 -0.11066366
0.102861136 -0.13777585 -0.03711821 0.04952624 0.069421194 0.15012136 -0.20839755 0.25345466
0.10865722 -0.033027533 0.086356595 0.03764438 -0.06734345 -0.0067657614 0.0100788465 0.14129712
0.048261095 -0.050044745 -0.057973903 -0.000834146 0.24976106 -0.10189693 -0.16767848 0.08483318
-0.14579363 -0.06864244 0.029680694 -0.13885036 0.1397186 -0.11132432 -0.096305475 -0.0801519
-0.10885857 0.04028367 0.020826118 -0.12134505 0.12932089 -0.007493164 -0.07467481 0.053925835
-0.07611805 0.13494906 0.10236381 -0.24693947 0.03574218 0.048301414 -0.037835985 0.25841075
0.21158712 0.039480217 0.035604835 -0.13502179 0.14716315 0.091817655 0.081446916 0.107285455
-0.10743416 -0.04430403 -0.21031545 -0.035941552 0.025153136 0.0018192445 0.089549534 -0.09816859
-0.06456238 -0.0753912 0.158946 -0.0778195 -0.07843602 -3.3731427e-05 0.0017983486 -0.07189253
-0.10759662 -0.13902459 0.11831996 -0.02812395 0.1501105 -0.08118931 0.08782844 -0.10588486
0.029717015 -0.056161337 -0.1725924 0.17275774 0.056108985 0.03741364 -0.22448675 -0.151651
-0.07114645 0.19375883 0.17874865 0.20623167 0.20466545 0.33042842 -0.039785486 -0.021319529
-0.2008265 0.11900353 0.15346098 0.34279987 -0.21330231 0.642938 -0.30855992 0.39962116
-0.16175523 -0.030789373 0.36262244 0.025967777 0.1558484 0.3045904 0.32770315 -0.27256346
-0.26050183 0.085438505 -0.042310532 0.1469293 0.5811366 0.18824545 -0.018967984 0.079753354
-0.055019684 0.31286275 0.32419303 0.0069672856 0.0720865 0.037376102 -0.7746401 0.15397748
-0.016639806 -0.020731602 0.15041633 0.028849585 -0.06626655 -0.15716097 -0.10214886 -0.1820423
0.045822617 -0.04651242 -0.07998086 0.022002393 -0.024408806 -0.096853286 0.015996708 -0.15898708
-0.02401523 0.12638068 -0.20001252 0.13854648 0.07255033 0.23790383 -0.24429083 -0.17178082
0.07655291 -0.050935578 -0.10072221 0.06845186 0.015793044 0.053541668 0.06508961 0.2612539
-0.18195046 0.17608267 0.12367833 -0.06250729 0.039762333 0.15480609 0.11351902 0.15276007
0.084130056 -0.12307446 -0.0022825582 -0.056324802 0.052160542 0.13728513 0.17772762 -0.17519149
-0.09777249 -0.07704695 -0.078404926 0.059742127 0.048249133 0.123600215 -0.11127467 -0.029990902
0.13032655 0.14922318 0.030274324 0.24288288 0.15169092 0.22922987 -0.039137065 0.08893419

lstm.weight_hh_l1 f4 [128, 32]
00000000: 8cfe 453d 71a1 82bb 91f2 6ebb dbc4 063d
00000010: 706d 7abd 5947 543d 4291 c93d 27e4 17be
00000020: 136f 47bd 828b 1a3e 872a 923e 0e2d 44bd
00000030: d9b7 a9b8 6737 d7bd bfcb 37be 18de c33d
00000040: 2947 6cbe 044d 19bd 979b 25be 3b44 3cbd
00000050: e7be cc3c 0195 c73d 79ae c5bd 7474 16be
00000060: 3861 f9bd 1cc0 89bd b496 19be 75bb e8bd
00000070: b257 52bc 8656 133e 7124 f03d 89a9 1b3e
00000080: c123 cebd 91e0 813d b0e3 f63d ddea 3b3e
00000090: 104f 8fbb 6963 043e dd2d 15bd cfc7 863e
000000a0: 4e33 30be 334b 3d3e 17fd aa3e e67b 2dbb
000000b0: b6c8 b4bd dd77 65bc a8a6 17be 8bb2 7d3e
000000c0: 0d51 9cbe e638 3c3e f326 373d 0315 73be
000000d0: eac4 94bd bf51 eabd b926 813d d9ba 783d
000000e0: 8df6 d23d 1a4b cfbd 8996 4fbe ba5a 27be
000000f0: 0b30 9fbc 522a 4a3e 1633 64be 24e9 4cbe
00000100: b23c 843d 5221 3e3e 5a98 4739 5969 603e
00000110: d227 f4bd 8895 343e 5bbe 87be 8b30 083e
00000120: 931c 5b3d f91a a03d bb01 313d 8bb1 203a
00000130: 14a1 0d3e 9160 65bd cb19 04bd 64fc a73d
00000140: 5aaa af3d 8723 023d 7294 febc fe1b 86bd
00000150: 32b8 1bbd 1d1a 733d 027d e83d 7dd5 153d
00000160: 0bca debd 3645 2bbe 5fa0 663d f18a 4fbd
00000170: b6d6 023d 60db 0a3e ef69 6cbc 1c96 463b
00000180: 28fc a33d 0f83 9dbd d282 e6bd bda2 8bbc
00000190: ce07 f1bc 5edd 1cbd d1e2 b2bc 0f0d af3d
000001a0: 842b c9bc dba1 43be c127 303a f6a1 2f3e
000001b0: 76c2 eebd 8a6c e73d a6ca 31be f385 60bd
000001c0: d872 c4bd f8c8 813c 40be 85bd 3685 813d
000001d0: 8502 3abe cab7 e23d 32fb 03bd db3e d93d
000001e0: f24b 423d a13e edbc 4331 093d 7d53 8abd
000001f0: 7fbc 023e f0d7 0fbe 692a 08bc 479f db3c
00000200: 590c eebd 8d93 763d 9a5d 873e 1415 31bd
00000210: 911d 27be d51e 23be 2847 d53c 4217 07be
00000220: 9c68 fdbd cde8 73bd 21fd 913e f141 933d
00000230: 3a0d 223d 4167 d8bd 10ec d13d c448 523d
00000240: cebc 263d 7328 1e3e 0aa8 b63c 2c70 8dbe
00000250: 3e62 e4bd cd41 c53c 2101 3bbd e089 8fbc
00000260: 24ef 733d de94 18be a6a9 f3bd f46d a33b
00000270: 0301 ca3d 1ceb a3bd e882 afbc 20af 07be
00000280: 2431 753c 150b 353e dc1b 543e 07d3 033e
00000290: 72d6 6dbe c745 dd3c dc44 50be 6074 393e
000002a0: 2f00 8abe d5eb af3d 795a e53e 1cbf 90be
000002b0: c173 16be 034b a43e c6cb e33c 32f4 303f
000002c0: 2db4 ebbe 6e02 083e 8ebb d13d 800a 17be
000002d0: 24e8 e23b 1630 283e 7e1d 8d3e 207d 783e
000002e0: f270 8fbd 1221 a4be efd2 96be 595b cebe
000002f0: 299f 4ebe b7c8 813d 02f6 abbe 2cbf 59be
00000300: ea7d 01be 535f d53c 3a57 97bd ee98 d8bc
00000310: eb47 38bd 0858 3ebd cf33 37be f7b8 203e
00000320: 1bcb 11be b24b 33bd 0205 a0bd b034 c1bd
00000330: da02 81be 1a31 77bc 48f8 523e 6bec 2c3e
00000340: f7d0 b139 d637 ac3d 5851 303e 9dc3 f03a
00000350: 252f 94bd 760e 423e 56b4 2b3e db49 dfbd
00000360: 9c5b bfbd 3ab0 013c ad15 aebd dac8 3c3c
00000370: b051 923d 7f2f 1f3e 737a a9bc d3cb d33d
00000380: 114a 97bd 7d3c 91bd d2a8 9b3d 25ec 183e
00000390: 4f7f a63b eb99 7cbb aa70 09be 330d c8bd
000003a0: f254 37be b46a 16be 021e 043e 98e1 bc3d
000003b0: cd51 2ebe e3ec 603d c728 2c3e ce76 de3e
000003c0: bd7c 8dbe cf79 d13d 7c60 a4bd 2650 b9bc
000003d0: 7c30 bf3d 21b4 a2bd bd4a 0c3e e302 713c
000003e0: 6e46 d6bd 7af6 72be 721f 60bd 4d4b 8ebd
000003f0: a298 ea3c 3c39 943a 5f96 16be 1c4b 3c3c
0.048338458 -0.0039865305 -0.0036460499 0.03290258 -0.061139524 0.051825855 0.09842159 -0.14833127
-0.048689913 0.1509228 0.2854807 -0.04789453 -8.092792e-05 -0.10508614 -0.17948817 0.095638454
-0.2307402 -0.037426963 -0.16172634 -0.045963507 0.024993373 0.09745217 -0.09652419 -0.14692861
-0.12176746 -0.06726095 -0.14998895 -0.113638796 -0.012838291 0.14388475 0.11725701 0.15201391
-0.10065413 0.06341661 0.12055147 0.18351312 -0.0043734387 0.12928547 -0.03642069 0.26324317
-0.17207071 0.18485717 0.33396217 -0.0026471554 -0.08827345 -0.014005628 -0.14809668 0.2477514
-0.30530587 0.1838108 0.04471488 -0.23738484 -0.07264121 -0.11441373 0.06306214 0.060725067
0.10300932 -0.10121746 -0.20272268 -0.16343203 -0.019432088 0.19742706 -0.22285113 -0.20010811
0.06456889 0.18567398 0.00019034874 0.21915187 -0.119216576 0.17635167 -0.26512417 0.13299768
0.053494047 0.078176446 0.04321454 0.00061299716 0.13830978 -0.056000296 -0.03225116 0.082024366
0.08577414 0.031772163 -0.031076644 -0.06548308 -0.03801746 0.059351075 0.11351968 0.03658055
-0.108783804 -0.1672562 0.056305286 -0.050669614 0.031943046 0.13560247 -0.014429553 0.0030301875
0.08007079 -0.07691013 -0.11255421 -0.017045373 -0.029422667 -0.03829705 -0.02183667 0.085474126
-0.024556883 -0.19104712 0.0006719791 0.17151627 -0.11658184 0.11299999 -0.1736246 -0.054815244
-0.09592217 0.0158429 -0.06530428 0.06324236 -0.18165024 0.11070211 -0.03222198 0.10607692
0.04743571 -0.028960528 0.033494245 -0.067542054 0.12767218 -0.14047217 -0.008310893 0.026809348
-0.11623449 0.06019931 0.264386 -0.043232992 -0.16319872 -0.1592973 0.026034907 -0.13192466
-0.12373468 -0.059548188 0.28513435 0.07190312 0.039563395 -0.10566569 0.102501035 0.051338926
0.040707402 0.15445118 0.022296924 -0.27624643 -0.11151551 0.024079228 -0.045655373 -0.017521799
0.059554234 -0.14900538 -0.11897592 0.0049874727 0.09863474 -0.08003828 -0.021424726 -0.13250399
0.014965329 0.17680009 0.20713753 0.1287347 -0.23226336 0.027010811 -0.20338768 0.181108
-0.26953265 0.08589903 0.44795588 -0.28270805 -0.14692594 0.3208848 0.027807128 0.6912261
-0.460359 0.13282177 0.10240851 -0.14750099 0.006924646 0.16424593 0.27561563 0.24266481
-0.070039645 -0.3205648 -0.29457805 -0.40304068 -0.20177902 0.063371114 -0.33586127 -0.21264333
-0.12645689 0.02604643 -0.07389684 -0.02644011 -0.04499046 -0.046470672 -0.17890857 0.15695558
-0.14237635 -0.04377336 -0.07813455 -0.094338775 -0.25197488 -0.01508739 0.20602524 0.16887061
0.00033915762 0.08409087 0.1721853 0.0018368844 -0.072355546 0.18950829 0.16768011 -0.10902759
-0.09343645 0.007915551 -0.08500228 0.011522496 0.07144487 0.15545462 -0.020688271 0.10341611
-0.07387174 -0.07091615 0.07600559 0.14933832 0.0050810943 -0.003854389 -0.13421884 -0.097681426
-0.17903498 -0.14689142 0.12902072 0.09222716 -0.17023392 0.054913413 0.1681243 0.43450016
-0.2763423 0.10228311 -0.080262154 -0.022621226 0.093354195 -0.07944513 0.13700385 0.014710161
-0.10462652 -0.23726836 -0.05471749 -0.06947956 0.028637234 0.0011308561 -0.147058 0.011492517

lstm.bias_ih_l1 f4 [128]
00000000: 8655 25bd 818c a23d 2ca5 143e 0d33 c3bd
00000010: 1673 1c3e 2903 033f 77ae 1f3e ea8f fd3c
00000020: cd80 813c f3bb 0f3e 2b70 1ebd cbaa 563d
00000030: 60b3 753d 27b5 3fbe a76b 983e 2abc 633d
00000040: 155c 123e e449 813e de53 f33d 8c61 da3e
00000050: 4887 d9bc 6c7c 443e 32e0 893e fc87 4e3e
00000060: 3be7 883d 1589 0dbe 7cff 80bc aa3c 4c3e
00000070: 834a d1bd cc45 9f3d cc65 1bbd 627c 88bd
00000080: 9359 4bbd aa58 e93d 9191 bdbd d47b 12be
00000090: aa13 a5bd a3c7 6bbe fb3b f8ba 1277 edbc
000000a0: d786 8abb 8785 c0bd abe7 c13d 684b b7bd
000000b0: aafa d33d e4f3 64be 652d 22ba b33c ee3c
000000c0: 4262 f7bd 5897 9dbd 7bf3 e73d add3 abbc
000000d0: 0287 c93d 1344 f3bd 3400 75bd 842d 1cbe
000000e0: 848e eb3c 920f 86bd eabf b1bd 7efd 1bbe
000000f0: 7c90 363d 8074 ffbd f45f 983c 3b27 a53c
00000100: c4f5 24be c2af bdbd 0f96 1a3e e07e 47bd
00000110: e98c 3bbd e454 c83a cebc c2bc 77d2 f83d
00000120: c585 16be ff2d c9bc 22d3 f43b 7a61 4dbd
00000130: a732 39bc 2375 58bd a951 0c3d 7c37 b8bc
00000140: 681e c1bd 799f df3d e409 b13d fe79 c33c
00000150: e19d a63d 0f6c 83bd fa73 9d3a db5b 213e
00000160: 6284 d83d 85f3 493c ec43 22bd 938f d1bc
00000170: 69da babc 6616 ce3c 31d0 a13d 2203 223d
00000180: e3b8 d4bd e217 953e 147a c03c 4fed 41be
00000190: 5a9f 123d e48f a03e c0f8 e2bc d45b 3c3e
000001a0: b83f cb3d 06d2 513d 0d9d 8b3d 597d 503d
000001b0: 8496 643e b2ea 06be 8016 673e 4984 4dbb
000001c0: a03b 2c3e 9f5a 1e3e 0c87 e33d c0ee fd3e
000001d0: 8e03 9a3d fe02 d1bd e19d 993d 9d26 0bbe
000001e0: 9c99 063e 7b1c 44bd ec46 8cbc 0308 7bbd
000001f0: 6ff7 423e 2d17 05be 5a4c 41be 23bc 17bd
-0.040364765 0.07936955 0.14516133 -0.095312215 0.15278277 0.51176697 0.15593897 0.030952413
0.015808487 0.1403654 -0.03868119 0.052408975 0.05998552 -0.18721448 0.29769632 0.05559937
0.14292939 0.25251687 0.11881231 0.42652547 -0.026553765 0.19188088 0.2692886 0.20169061
0.06684729 -0.13821824 -0.015746824 0.19945017 -0.1021929 0.077769846 -0.037938878 -0.06664349
-0.04964597 0.113938645 -0.0925628 -0.14305049 -0.08060391 -0.23025374 -0.0018938774 -0.028987441
-0.0042275 -0.09400468 0.09468015 -0.089499295 0.10350545 -0.22358662 -0.0006186574 0.029081678
-0.12079288 -0.07694882 0.11325737 -0.020974958 0.09840204 -0.118782185 -0.059814647 -0.15251738
0.02875448 -0.065459386 -0.08679183 -0.15233418 0.044571385 -0.124733925 0.018600442 0.020160308
-0.16109377 -0.09262039 0.15096305 -0.04870498 -0.04578868 0.0015284088 -0.02377167 0.12149518
-0.14699467 -0.024558065 0.007471458 -0.05014179 -0.01130358 -0.052846085 0.034257565 -0.022487395
-0.09429628 0.10919089 0.086444646 0.023861881 0.08135582 -0.06417095 0.0012012713 0.15757696
0.10572125 0.012326126 -0.039615557 -0.025581157 -0.022809224 0.025157165 0.079010375 0.03955377
-0.10386827 0.29119784 0.023495711 -0.18938182 0.0357965 0.3135978 -0.027706504 0.18394405
0.09924263 0.051225685 0.068170644 0.05090079 0.22323042 -0.13175467 0.22567177 -0.0031359366
0.1681962 0.15464257 0.111097425 0.49596214 0.07520209 -0.10205649 0.07500816 -0.13588949
0.13144535 -0.047878724 -0.017123662 -0.061286937 0.19039701 -0.12997122 -0.18876782 -0.037044656

lstm.bias_hh_l1 f4 [128]
00000000: dfcc 53bd 365f a63e 067f cbbd 7827 5d3b
00000010: 9460 e63d 72fb 473e e577 bd3d f968 6abd
00000020: 8f32 8c3d 446b 783d 9261 6fbd fbd5 ad3d
00000030: f3f1 ebbb 16de 1ebe 1c34 8a3e 733e 0dbd
00000040: a29e d3bd 7327 1abd 0152 76bb aee7 033f
00000050: 75d1 f13d 19e8 2c3d 1599 793e 8c7e b7bd
00000060: 11c4 a8bd 8b3a 02be 08da b73d 7ef6 323e
00000070: 73f9 313e 759c e03d 22d3 4dbd aff7 363e
00000080: c384 36be 2976 8fbd be1b de3c 4e72 1a3d
00000090: de0d f9bd 986c 6ebd a35e da3d e01a d7bb
000000a0: 0fa7 e53d 07a1 0f3e 7298 d23d 923b 863d
000000b0: a565 073e 57a8 c1bd 1c85 533d ec99 9dbd
000000c0: 0de2 29bd eef1 ddbd 9502 f5bc 5cb7 08bd
000000d0: 9c69 d1b9 2527 20be 6bb4 86bd 2172 063e
000000e0: 0763 7abd eb6d 33be 1942 b9bd 8854 86bd
000000f0: 1db4 de3c 3f44 003e 59ab 7dbe 010c 1b3e
00000100: d5f2 fb3d d385 38bc 972e dc3c e747 f43d
00000110: c2ed 05be 8111 ae3c adab 17bd a01b babd
00000120: 5e85 c23d 6a41 a73d ab30 393e 899e 843c
00000130: 797e c43d 015f de3d ff84 c3bd 331c 013e
00000140: 41b3 2bbe 23dd 1ebe 2fed 02be 3e6d 0bbc
00000150: d83d 0a3c e47f 8f3d aed5 c33c c0c1 a7bd
00000160: 91c7 19be 82b9 bebd 145f a7bd 403f a6bd
00000170: 5617 2ebd b1a4 103e 9cba fdbd fd7a 073d
00000180: 6e84 5b3d 75b8 963d d732 cf3d 85b1 c1bd
00000190: 0109 e4bc 3d79 873e b028 7abd 5de2 4c3e
000001a0: cda4 4f3e 3a54 1e3e bc01 40bd 5c1f a1bd
000001b0: 7f34 613e f616 ef3c bee8 063e 7622 363e
000001c0: aecc cbbd 6e45 833e 510d 673e b735 0b3f
000001d0: bf88 be3d 6987 b83d bef1 b93e d22c 2e3e
000001e0: 2118 693e d5cb 87bc 0e7c 20bd 31f5 1e3e
000001f0: e71c 4b3e 1447 cebd ba0e 44be 3f94 4c3e
-0.051709052 0.32494515 -0.09936337 0.003374545 0.112488896 0.19529513 0.09251384 -0.057229016
0.06845581 0.06064917 -0.05844266 0.08488079 -0.0072004735 -0.15514407 0.2699288 -0.034483384
-0.10332991 -0.037635278 -0.00375855 0.5152539 0.11807529 0.042213533 0.24374802 -0.08959684
-0.08240522 -0.12717645 0.08977133 0.17476842 0.17380314 0.10967342 -0.05025018 0.17867921
-0.17824082 -0.07004959 0.027112838 0.037706666 -0.12160848 -0.05820903 0.10662582 -0.006564483
0.112135045 0.14026271 0.10282983 0.06554331 0.13222368 -0.094559364 0.051640615 -0.07695374
-0.041475344 -0.1083716 -0.029908458 -0.03337799 -0.00039942272 -0.15639932 -0.06577381 0.13129474
-0.061129596 -0.17522399 -0.0904581 -0.06559092 0.027185494 0.12526034 -0.24772395 0.15141298
0.12302176 -0.011262375 0.026877685 0.11927777 -0.13078979 0.02124858 -0.037028957 -0.090873
0.09498094 0.081667736 0.18084972 0.016188877 0.09594435 0.10857964 -0.09546851 0.12608413
-0.16767599 -0.15514044 -0.12785791 -0.008509932 0.008437596 0.07006815 0.023905601 -0.08191252
-0.15017535 -0.093127266 -0.081724316 -0.08117533 -0.042502724 0.14125325 -0.123891085 0.033076275
0.05359309 0.07359401 0.10117119 -0.09457687 -0.027836325 0.26459685 -0.06107396 0.20008226
0.2027771 0.15461817 -0.046876654 -0.078673095 0.21992682 0.029185753 0.13174722 0.17786583
-0.09951149 0.25638908 0.22563674 0.5437884 0.09303426 0.090102024 0.36317247 0.17009285
0.2276311 -0.016576687 -0.039180808 0.1552322 0.19835244 -0.10072151 -0.19146243 0.19978426

fc.weight f4 [1, 32]
00000000: e057 673e a7a7 48be 1da2 0b3e 3e04 bbbc
00000010: ba48 3c3e 3d95 7cbe d1b8 b23d 55a1 d9bd
00000020: 5b16 b63d cd5c 10be 39d6 f03d 82e4 f43d
00000030: 11de 2c3e 72b4 413d 37cc 01be 69fe 353e
00000040: 8285 40be e9b5 96be a556 3bbe afb5 99be
00000050: 0a5c 8ebd ae68 84be 3604 593e 97a3 0cbe
00000060: 1b7a 463e 6499 84bd 5783 fbbb 965c 51be
00000070: 3034 9c3d 4556 96bd dbcd e2ba f0d4 633e
0.22592115 -0.19595204 0.1363606 -0.022829171 0.18387118 -0.24666305 0.08726657 -0.10626475
0.08890983 -0.140979 0.1175961 0.11957647 0.16881587 0.047291227 -0.12675558 0.17772831
-0.18800929 -0.2943566 -0.18294771 -0.30021426 -0.06951149 -0.25861114 0.21193013 -0.1373428
0.19382517 -0.064745694 -0.007675569 -0.20445475 0.076271415 -0.07340673 -0.0017303781 0.22249198
