model testing/LSTM/lstm_model.pth (torch, 54652 bytes, 9 tensors)

lstm.weight_ih_l0 f4 [128, 1]
000000 1b 21 b3 bd dd 5d 13 bc 5a ae 34 be 35 1b 1b 3e
       -0.08746549 -0.008994547 -0.17644635 0.15147097
000010 65 db a2 bd bb 30 e1 3d 70 2c bf bd 13 4a 18 3e
       -0.079520024 0.10995623 -0.09334648 0.14872007
000020 c6 b7 e8 3e f1 c3 c1 3e bc bd 11 bd 45 5f bd bc
       0.45452708 0.37844804 -0.035581335 -0.023116717
000030 a2 3d 4d bd 4c 6e 94 3d ed 19 3a 3e 92 59 48 be
       -0.050107606 0.072476 0.18173952 -0.19565418
000040 d9 3a 3d be ee 67 ac 3e 86 82 9c 3e 86 04 d9 39
       -0.1847948 0.33673042 0.3056833 0.00041392836
000050 cf 0c 5a 3e 24 5b 70 be 9a e9 3f be 69 70 68 bc
       0.21293949 -0.23472267 -0.18741456 -0.014186957
000060 0f 35 99 bd 9e f2 2a 3e 9c e1 71 3e 3b 72 21 be
       -0.07480823 0.16694114 0.2362122 -0.15766232
000070 ee b4 72 3d 31 6a 64 bd 53 63 8d bd 17 47 fb bd
       0.05925458 -0.055765335 -0.0690371 -0.12269419
000080 4f 47 c3 3d dc 09 af 3d b8 b7 2f be ad ea 3d 3e
       0.095350854 0.085468024 -0.17159927 0.18546553
000090 d6 77 2f be 6e b3 b2 3d c8 1d d6 bd 67 24 cb 3e
       -0.17135558 0.0872563 -0.10454899 0.3967621
0000a0 70 29 9f 3e b8 1a bb 3e cd 6b f0 bc f2 ed 72 3d
       0.31086302 0.36543822 -0.029348278 0.059308954
0000b0 ff f0 0a 3e f9 d4 82 3d bc 50 d3 3e 1f d0 79 be
       0.13568495 0.063882776 0.41272533 -0.24395798
0000c0 32 69 04 be 86 f0 73 3e 47 a6 02 3e 0a dd da 3d
       -0.12930754 0.23822221 0.12758742 0.10686691
0000d0 cc ba ce 3e 54 6e 9f bd 42 fb 63 be 14 88 2b bd
       0.4037689 -0.07784715 -0.22263816 -0.04187782
0000e0 a0 66 f3 3d ae ee 84 3e 67 e8 76 3e 48 52 dd 3d
       0.118848085 0.25963348 0.24112092 0.108067095
0000f0 d5 d9 90 3d 2b 55 68 bd 9b 6c e7 3d 48 ce e6 bd
       0.07072798 -0.056721848 0.11300012 -0.11269814
000100 e9 74 14 3e 95 d2 65 3e b2 24 2b be 51 18 99 3e
       0.14497723 0.22443612 -0.16713217 0.29901364
000110 5a 5c 8a be a0 19 98 3e 48 dd 5d be d4 05 c4 3e
       -0.27023584 0.2970705 -0.21666443 0.38285697
000120 4c 44 81 3e 30 d2 b6 be 47 83 99 be d1 aa 9a 3e
       0.2524742 -0.35707235 -0.2998297 0.30208448
000130 a8 57 8d 3e 1f b6 08 be 9a d0 ab be 92 be 92 3e
       0.2760594 -0.13350724 -0.33557588 0.2866102
000140 65 03 95 3d fb 27 91 3e 34 9a 19 bd 1e 88 0f be
       0.07276038 0.28350815 -0.037500575 -0.14016768
000150 cc 9e b9 be 48 f3 b9 be 87 93 95 3e 35 09 b3 3e
       -0.36253965 -0.3631842 0.29214117 0.34967962
000160 cd 28 d7 3e 9d e5 ad be d2 f3 a7 3e 90 ac 82 3e
       0.42023316 -0.33964244 0.32803208 0.2552228
000170 e4 0d 6d be 26 b0 95 be 8e 9e ba be e0 b2 37 be
       -0.2314983 -0.29235953 -0.36449093 -0.17939329
000180 a2 bb 28 be 70 68 a3 3b bf b8 bf bc 31 ce 89 3e
       -0.16477826 0.004986815 -0.023403523 0.26915124
000190 e6 b3 32 be 6e dd 64 3e ea 18 6b 3d 31 d3 5c 3e
       -0.17451438 0.22350094 0.057396807 0.21564938
0001a0 1b 2e 02 3f 57 f5 ba 3e c3 30 99 3d d4 02 2d 3d
       0.508516 0.36515304 0.07480004 0.042239025
0001b0 b9 ca 12 3d b9 e9 7e 3c ec 99 9d 3e 30 2e 7b be
       0.035837863 0.0155586535 0.30781496 -0.24529338
0001c0 ad 88 a9 3d f6 a4 e6 3e dd 79 e6 3e bb 09 40 bd
       0.08278022 0.4504773 0.4501485 -0.04688428
0001d0 32 f2 be 3e 7e 43 53 be 2a 29 aa bd aa e3 04 be
       0.37294155 -0.20631215 -0.08308633 -0.12977472
0001e0 93 c8 ef 3b 79 0f e9 3e d1 c4 26 3e 57 81 ae be
       0.0073176115 0.45519617 0.16286017 -0.34083053
0001f0 e8 4e 02 be 57 78 9e 3d f4 0d 87 bc 16 17 56 be
       -0.12725413 0.07737797 -0.016486146 -0.20907244

lstm.weight_hh_l0 f4 [128, 32]
000000 73 99 9b bd b6 07 19 3d 23 e1 95 bd 10 9b 4d 3e
       -0.075976275 0.03736087 -0.07318332 0.20078683
000010 21 05 09 be ca 1a 3c 3b 06 bc 51 bd d5 24 d6 bc
       -0.13380863 0.002870249 -0.051204704 -0.02614061
000020 54 01 70 bd 01 28 8b bd 2c ed d4 bd 0e 76 92 bd
       -0.058595017 -0.067947395 -0.103967994 -0.071514234
000030 c0 53 2e 3d b0 f6 60 be d2 89 00 3e f7 c4 0a 3b
       0.04256034 -0.21969104 0.12552574 0.002117453
000040 f9 29 34 3e 3d 58 96 3c ab 55 93 3d 76 3b b2 3c
       0.17594136 0.018352622 0.07194074 0.021756869
000050 66 82 60 3e 69 55 c9 3d 58 55 dd 3d a6 e6 91 3c
       0.21924743 0.09830744 0.10807294 0.017810177
000060 bb 6e 35 bc 30 18 d5 3d 8b 8d ae 3d f2 be 1a bc
       -0.0110737635 0.10405004 0.08523091 -0.009444939
000070 83 6b d9 3d 8f 9a 7e 3d 1c 7c 13 3e 6f 39 63 3d
       0.10616209 0.062159117 0.14402813 0.055474695
000080 03 e6 41 be d3 69 bd bc 6c f0 4d 3e 18 c6 18 bd
       -0.18935399 -0.02312175 0.20111245 -0.037298292
000090 b6 8f 66 3e cb 9b 70 3c 07 bb 4f 3e 81 8c bc 3d
       0.22515759 0.014685581 0.20286189 0.092064865
0000a0 03 42 6a 3e 80 1d d2 bc d2 1b 57 bd cb e7 3a be
       0.22876744 -0.025648832 -0.052516766 -0.18252485
0000b0 18 82 3c be d9 72 d8 3d db 61 3d be a6 8f cf 3d
       -0.18409002 0.105687805 -0.1849436 0.10134821
0000c0 0f b2 e2 3b 0a 8b 27 3c 1c 23 ab 3d f1 d5 24 3e
       0.006918199 0.010226021 0.08356306 0.16097237
0000d0 2f e3 81 bd 12 0b a6 bd ad 38 3c be 05 18 bf bb
       -0.0634216 -0.0810758 -0.18380995 -0.005831721
0000e0 a9 0c e2 3d 9c 2d 14 be 1c 3a 41 bd b8 02 9d 3d
       0.11037571 -0.14470524 -0.047174558 0.07666534
0000f0 e6 90 15 3e 60 7e 02 3d 1e f0 07 3d 6c 87 15 be
       0.14606056 0.0318588 0.033187978 -0.1460244
000100 0e 20 de bd 40 da fd bd 71 0e ac bd b6 ac 35 3e
       -0.10845958 -0.123951435 -0.08401192 0.17741665
000110 46 fd 09 bc 60 8b 73 3d 0a 8c 2e be 1c 40 a9 bd
       -0.0084222015 0.05945909 -0.17045608 -0.08264181
000120 ed 3d 93 bd ed 29 4d be ec f5 22 be e4 98 90 3d
       -0.07189546 -0.20035525 -0.15914124 0.070604116
000130 9f 7b fb 3d d6 ae 49 be b9 b6 3f bd a0 23 40 be
       0.12279438 -0.19695601 -0.046805117 -0.1876359
000140 6f ab b1 bd c7 bb 2e 3d 9e 8f ed 3c 2b 9a 66 bd
       -0.086752765 0.042659547 0.028999146 -0.05629937
000150 5f 2f ff 3d 4b f4 06 bc 66 83 81 3d 10 44 38 3c
       0.12460207 -0.008236955 0.063238904 0.011246696
000160 6d 07 19 be dd 70 dd 3a e2 20 a6 bd 5d 32 d7 3d
       -0.14944239 0.0016894598 -0.08111741 0.10507653
000170 cc 74 b9 3d de c9 aa 3d 76 c6 f3 3d 1d 05 20 be
       0.0905548 0.08339284 0.11903088 -0.1562695
000180 6b 90 82 bd 35 43 73 be 4d 91 0f 3f c4 c2 e8 3d
       -0.06375202 -0.23756106 0.56081086 0.113652736
000190 1a 19 cc 3e 68 3b 6a bd 00 b7 87 3e 0a bb 4f 3e
       0.398629 -0.05718556 0.26506805 0.20286193
0001a0 b1 3c 3c 3d c7 f7 79 be dc 80 50 ba bf 4f e8 be
       0.045956317 -0.24410926 -0.0007953772 -0.4537334
0001b0 ad e2 c7 bc b8 e4 04 be 3f 4a bf be 80 8c ee be
       -0.02440008 -0.12977874 -0.37361333 -0.46591568
0001c0 a0 a9 c3 be e6 44 9a 3d 67 eb b1 bd 37 37 37 3e
       -0.3821535 0.075326726 -0.086874776 0.17892157
0001d0 81 a1 8b be 0b 42 9d 3d 7c c7 9a bd 2f 31 54 be
       -0.27271655 0.07678612 -0.0755758 -0.20721887
0001e0 72 02 da bd 0c 16 ca bd a2 5d 35 bd 54 08 9e 3d
       -0.10644998 -0.09867486 -0.04427875 0.07716432
0001f0 ba 16 b0 3e 14 6d 8e 3d 4c 1f 8e 3d 7a e6 b2 3c
       0.3439234 0.06954399 0.06939563 0.021838415
000200 1b 6f bb 3d 47 4c 6a 3d 4b c9 9d 3d c7 dd 7d 3e
       0.09152051 0.05720165 0.07704409 0.24791633
000210 b7 ad 46 3e bb be 31 bd d9 2f c0 3d bc bf 18 3e
       0.19402204 -0.043394785 0.09384126 0.14916891
000220 64 8f b3 3d f2 2b 70 be e0 65 ba bc 28 72 2e bd
       0.08767584 -0.23454264 -0.022753656 -0.042589337
000230 e2 40 22 bd 37 ca e5 bd 09 ab 58 be 88 d7 48 bc
       -0.03961266 -0.1122021 -0.21158995 -0.012258418
000240 8c 21 55 be a9 1f b3 3e 24 ab f1 bd 42 84 60 bd
       -0.20813578 0.34985092 -0.118002206 -0.05481363
000250 89 73 23 be f7 e0 ba bd 75 18 71 be 3d b0 66 be
       -0.15962042 -0.0912494 -0.23544486 -0.22528167
000260 5d ba 74 bc 7a 25 28 be 9f 9f 06 be 1f 9d e6 3d
       -0.014937011 -0.16420546 -0.13146828 0.11260437
000270 c9 44 c8 3d b9 09 5c bb 82 7f 3e 3d dc 9b 94 bd
       0.09778745 -0.003357513 0.04650832 -0.0725629
000280 9c 5f 0d bd 03 2a a6 bd 8a 51 4b 3e ee d3 d3 bc
       -0.03451501 -0.08113482 0.19855323 -0.025857892
000290 28 6f a9 bc 6b a1 ce 3d 98 71 77 3e b4 a3 d9 3c
       -0.020682886 0.10089382 0.24164426 0.026567318
0002a0 eb 49 14 3e d5 8c a6 bd 8c b8 68 3e 69 f5 aa bd
       0.14481322 -0.0813233 0.22726649 -0.083475895
0002b0 33 b3 f7 bc e2 f1 6e 3e b1 9d 4b be 7a e0 8c be
       -0.030236816 0.23334458 -0.19884373 -0.27515012
0002c0 a0 6f 4f be c4 f2 4a 3c 6d fc b0 bd 8e ab 80 bc
       -0.20257425 0.012386981 -0.086418964 -0.015706804
0002d0 17 f5 96 3d cf 40 4c 3e 94 d4 8a be 6a eb 2a be
       0.07370966 0.19946598 -0.2711531 -0.16691366
0002e0 74 f1 31 be 5c 5b 2c be 56 f4 c9 bd f1 8d 8e 38
       -0.17377263 -0.16831726 -0.098610565 6.797526e-05
0002f0 8b 80 74 3e 83 df 98 3b 5a 1e 42 3e 9a 8c a8 3d
       0.2387716 0.0046653165 0.1895689 0.082299426
000300 05 b1 ed 3d 3b dc 76 3d 0b e7 84 bc be 46 ee bd
       0.116060294 0.060268622 -0.016223451 -0.11634587
000310 ee d4 d0 3d 66 3c 1c bc 4c 09 26 bd 21 ba d9 3d
       0.10196863 -0.0095358845 -0.04053621 0.106312044
000320 b4 7f 95 3d 89 8c 88 bc 23 06 ea 3c 9e 08 43 be
       0.07299748 -0.016668575 0.02856738 -0.19046256
000330 51 66 10 3e da 0a fd 3b a6 12 bb bd d9 e4 a9 3d
       0.1410153 0.007722241 -0.09134416 0.08295602
000340 4e 37 f5 bc 42 51 40 b8 c5 4e 7e 3d 5f 1d 02 be
       -0.029933598 -4.5852044e-05 0.06208684 -0.12706517
000350 a4 37 1a 3e 8b a8 f7 bc 57 e5 b4 bd bf 23 92 3d
       0.15060288 -0.030231735 -0.088328056 0.07135724
000360 d3 87 43 3d dc 1e 97 bd 84 23 0b 3d f3 8c f0 3d
       0.047736954 -0.07378933 0.033969417 0.11745634
000370 7a 12 46 3e fa d2 09 be a9 76 00 3d b7 f2 dd 3d
       0.19342986 -0.13459387 0.031363163 0.1083731
000380 d6 7c 95 be d2 27 d4 bd ac 3b f8 3e 9e 69 11 bd
       -0.29196805 -0.103591576 0.48483026 -0.035501115
000390 0d 6e 96 3e 5b e5 07 3d 16 88 69 3e f1 9b 22 bd
       0.29380837 0.033177715 0.22805819 -0.0396995
0003a0 c3 f6 49 bd 5d cb 4e be 9c 2a 4a 3e 22 8a 62 be
       -0.049307596 -0.20194764 0.19742817 -0.22123006
0003b0 68 1e d3 bd 55 5b 4d 3d b6 a9 9c 3d 94 d5 9a be
       -0.10308534 0.05013593 0.07649557 -0.30241072
0003c0 63 fe 2b bd 87 98 b8 bb a8 35 2b 3c a3 cb 17 3e
       -0.04199065 -0.005633417 0.010449804 0.14823775
0003d0 20 dc f3 bd 3f 3d 1d 3e b7 13 8d be dd d7 29 be
       -0.1190722 0.15355395 -0.27554104 -0.16586252
0003e0 1b 8d 11 be 93 dd 4e 3c 0c 25 6a 3d a3 26 c2 3c
       -0.14213984 0.01262607 0.057164237 0.023700064
0003f0 65 00 32 3e 30 5a 5c 3d e9 72 40 3e ac f7 88 3b
       0.17382963 0.053796947 0.18793835 0.0041799154

lstm.bias_ih_l0 f4 [128]
000000 c3 46 57 bb b5 8a 22 3d dc d2 15 be f9 9c c2 3e
       -0.0032848574 0.039683063 -0.14631218 0.38010386
000010 90 39 21 3e 07 02 0f 3e a4 28 29 be 50 b7 0d 3e
       0.15744615 0.13965617 -0.1651941 0.1383946
000020 2d ea 8e bd 70 03 7f bc 92 aa bb 3d 49 85 fd 3b
       -0.06978259 -0.015564784 0.09163393 0.007736836
000030 a2 42 3d 3e 75 6f d3 3c 4b f3 4d bc d0 28 27 3e
       0.1848245 0.025809983 -0.012570213 0.16324162
000040 ec 89 05 3c 75 02 d7 3b e4 fe 9a be fe 36 a3 be
       0.008150559 0.006561572 -0.3027259 -0.31877893
000050 4b e6 a8 bd 79 88 cd 3e d6 c1 a0 3e b2 7f 48 3c
       -0.0824705 0.40143183 0.31397885 0.012237476
000060 61 07 84 3e 6f bc 51 bd 95 d8 b3 bc 86 e0 c6 bd
       0.2578688 -0.051205095 -0.02195386 -0.09710793
000070 fe ee 8c 3d 0a dc c9 bc fc fa d5 ba fe b2 ef 3d
       0.06881522 -0.024641056 -0.001632541 0.11704062
000080 e0 b1 69 bc ed 0a 98 3d 2a ba 44 3d 00 07 44 be
       -0.0142636 0.07423959 0.048029102 -0.19143295
000090 4a cf 2d 3e 7b 9a 14 3e d3 8c 14 3e cc dd 11 3d
       0.16973606 0.14512055 0.14506845 0.035611913
0000a0 70 e8 8a be 8f da a0 3d 23 c5 9d 3d 57 cc 1f be
       -0.2713046 0.07854187 0.077036165 -0.15605293
0000b0 b6 d8 d0 bd 2d b2 66 be d8 cb 1f 3c bf 4b c0 3d
       -0.10197584 -0.22528906 0.00975319 0.093894474
0000c0 37 ce 8a bc 36 fe d7 3c 34 4d 4b be 80 5b 5c be
       -0.016944034 0.026366334 -0.1985367 -0.2151928
0000d0 82 74 11 be 3e 80 1e be 12 33 2f 3e 28 6a 9b 3d
       -0.142046 -0.15478608 0.17109326 0.07588607
0000e0 8b 75 01 be 4a f2 85 3d d4 88 97 3d 08 fd c9 bc
       -0.12642495 0.065403536 0.07399145 -0.024656788
0000f0 80 dd 02 be b8 19 39 3c 86 a3 03 be 87 c5 7f 3d
       -0.12779808 0.011297636 -0.12855348 0.062444236
000100 8f f2 1d bd 0d b8 8e bd 36 95 ed 3d 9d a5 89 bd
       -0.0385614 -0.06968699 0.11600725 -0.06721041
000110 2d c2 78 3d 9f ec 8b 3c 5d b4 ae 3d 72 34 9c bb
       0.060732055 0.017080603 0.08530495 -0.004766994
000120 1c 4d aa bd 32 1d ae bc a0 61 f6 bc ae 2c 97 bc
       -0.08315489 -0.021254156 -0.030075848 -0.018453922
000130 29 46 e8 3d 17 5c d6 bb da 7d f3 bd f8 9d 01 bb
       0.11341507 -0.0065417397 -0.11889239 -0.0019777995
000140 e9 de f9 bb 42 72 fc 3d b6 d0 6d bb df 08 32 3d
       -0.00762545 0.123264804 -0.0036287731 0.04346549
000150 ea f1 90 bd b5 aa 1a bd 46 8a c8 bd 89 54 d1 bd
       -0.070773914 -0.037760455 -0.097919986 -0.10221202
000160 72 24 cb bd 09 53 41 bd 92 c0 15 bd 60 59 20 bc
       -0.09919061 -0.04719833 -0.036560602 -0.009786934
000170 2b 23 80 bc 53 f6 ce bc fa 03 df ba 00 0b 3a 3d
       -0.01564177 -0.02526394 -0.0017014735 0.045420647
000180 e4 e9 35 be b8 70 53 3e 9d 6d 72 3d 5c 34 b9 3e
       -0.17765003 0.20648468 0.059186567 0.3617276
000190 53 cf 37 3e 81 17 0a 3e f8 00 a0 3c 28 01 0a bd
       0.17950182 0.13485529 0.019531712 -0.03369251
0001a0 81 72 11 be c8 23 2d 3e 7e 82 c1 3d a7 53 69 3d
       -0.14203836 0.1690818 0.094487175 0.056964543
0001b0 c0 52 18 3e 6e 62 5d be bd b7 73 3c 39 95 14 3e
       0.14875317 -0.21619579 0.01487535 0.14510049
0001c0 62 06 bb 3d f6 d1 0d be 0c 10 85 be d6 82 7c be
       0.09132077 -0.13849625 -0.25988805 -0.24659285
0001d0 ad ac 10 bd c2 b5 c4 3e d8 eb f3 bb ec 9b 18 3e
       -0.035320926 0.3841992 -0.0074438863 0.1490323
0001e0 4a e2 61 3e 25 aa 9b bb 62 81 8e 3e 17 e2 93 3d
       0.22058979 -0.0047505074 0.27833086 0.072208576
0001f0 1c 7d 0f be ec 71 a4 3d 53 12 ab 3d 07 3e 26 3e
       -0.14012569 0.080295414 0.083531044 0.16234599

lstm.bias_hh_l0 f4 [128]
000000 77 32 e1 3d d0 10 d7 3d bc ac 92 bd 04 f5 9d 3e
       0.109959535 0.105012536 -0.07161853 0.30850995
000010 18 bc c5 3c e5 56 68 3d 44 10 de bd 34 c2 76 3c
       0.024137542 0.056723494 -0.10842946 0.01506095
000020 a8 54 dd bb cb 21 6d 3e a1 b4 00 3e e1 9c 91 bc
       -0.0067544766 0.23157422 0.12568904 -0.017775001
000030 bd 9b 8c 3d e4 7b 73 bb dd 11 02 3e 8f d5 08 3e
       0.06865642 -0.0037152702 0.12702127 0.13362716
000040 df 27 57 bd e1 b8 ee bd 69 e6 29 be 1d 79 54 be
       -0.05252826 -0.116563566 -0.16591801 -0.20749326
000050 87 ca 3b 3d 98 49 40 3e 5b fe 86 3d 9c 03 b9 3d
       0.045847442 0.18778074 0.06591483 0.090338916
000060 c6 7e 41 3e e1 e5 8d 3d 8d 1a 62 3e 8e 99 6a bb
       0.18896016 0.069286115 0.22080441 -0.0035797092
000070 23 ec 1b 3e 9a e6 fc 3d 3e ad 38 3d 02 15 76 bd
       0.15226798 0.12348671 0.04508709 -0.06007863
000080 77 73 32 3d 41 1c 2d 3e 9f c3 8e 3d d4 3b 08 be
       0.043567147 0.1690531 0.069709055 -0.13304073
000090 6d ec 1c 3e 83 c3 1c 3e 7d 79 28 3e 33 9e 0f 3c
       0.15324564 0.15308957 0.16452594 0.008765745
0000a0 93 0f 91 be cd c2 07 be 7d e2 c6 bd 4d 57 fd 3d
       -0.28332195 -0.13257904 -0.09711168 0.12370167
0000b0 cc 1e a6 bd d2 b7 58 be 73 ff 39 be 24 43 ee 3d
       -0.08111343 -0.21163872 -0.18163852 0.116339
0000c0 bf 58 05 bd 60 db b1 bd 0b 47 84 bd 2a 61 7a be
       -0.032555338 -0.086844206 -0.06458863 -0.24451128
0000d0 90 a1 3b be 85 d8 dd bd 72 69 04 bd be f8 41 3e
       -0.1832335 -0.108323134 -0.032327123 0.18942544
0000e0 f8 0a 17 3d a3 21 36 be 8d 3b 3a 3e d9 f9 6c bd
       0.036875695 -0.17786269 0.1818678 -0.05785546
0000f0 93 97 11 3e e9 d6 2e 3e 7c 45 95 3c f0 4a e9 bd
       0.14217977 0.17074169 0.01822161 -0.11391246
000100 ed 7f 12 bd 1f 2e df 3c 45 6a 5b bd dd a9 85 3d
       -0.03576653 0.027243672 -0.053568143 0.065265395
000110 98 d3 5b bd e3 55 f3 3d 3a d1 38 3d bf 6b b8 bc
       -0.05366859 0.11881616 0.04512141 -0.022512315
000120 5c fd a9 3d 6d d4 ac bd 55 aa 5e 3d f7 16 d8 3b
       0.083002776 -0.084389545 0.05436166 0.0065945345
000130 05 a2 fb bd 5d 45 28 3d a1 90 fc bd bd af a4 bd
       -0.12286762 0.041081775 -0.12332273 -0.08041332
000140 93 9d ac bd 2e f7 97 3d b3 e8 ea bb 36 c8 6a 3d
       -0.084284924 0.07420193 -0.007168853 0.057319842
000150 13 f1 42 bc 25 ef be 3c e4 63 5b 3d 8a f7 a4 3d
       -0.011898297 0.023307392 0.05356206 0.08055027
000160 1a 82 80 bc 11 1b d5 bd 64 43 d7 3d 02 9b bd 3d
       -0.015687037 -0.10405553 0.105109006 0.09258081
000170 41 19 67 3d a2 46 0f 3d ef 2a 73 3d f6 b1 db bc
       0.05642057 0.03497947 0.059367117 -0.026818257
000180 a6 4e 58 be ea 7d a5 bd bb 80 e8 3d 9f 82 5f 3e
       -0.21123752 -0.08080657 0.113526784 0.21827172
000190 e6 fe 40 3c 82 49 62 3d 56 c9 c4 3d 89 4d 86 bb
       0.0117795225 0.055245884 0.09608714 -0.0040985984
0001a0 60 39 da bd b9 27 b8 3d d4 de ab 3d 50 80 7f 3d
       -0.10655475 0.089919515 0.083921105 0.062378228
0001b0 3c db 4e 3e c0 11 35 be c2 77 fa bd 05 fe 05 3d
       0.20200819 -0.17682552 -0.12229873 0.032712955
0001c0 b7 d9 3d be d3 c2 d9 bd 44 f1 9f bd a1 0a 81 be
       -0.18540083 -0.10632863 -0.0780969 -0.25203422
0001d0 c0 66 bd 3d f4 dc 74 3e fc 3e 4a 3e 51 c5 fb 3b
       0.09248114 0.23912412 0.19750589 0.007683434
0001e0 cd b4 1c 3e 6a 43 2d 3d c4 32 9f 3d 98 bb 53 3e
       0.15303345 0.04230062 0.07773355 0.2067703
0001f0 2e 6b 9a bb 0a 4d 2d 3e 35 4b aa bc 72 b5 f4 bd
       -0.004712484 0.1692392 -0.020787815 -0.119486704

lstm.weight_ih_l1 f4 [128, 32]
000000 0c cf 83 3d 51 3a 83 3e 73 ea a1 be 21 0b 9c bd
       0.064359754 0.2563043 -0.31624183 -0.0761931
000010 ac 82 b4 be 22 d0 b8 bd ae 76 9d bd a1 df 0a 3d
       -0.35255945 -0.09024073 -0.07688652 0.033904675
000020 be e7 1b bd c5 95 65 3e e0 f8 49 be b6 1c 1c 3e
       -0.038062803 0.22420414 -0.19723845 0.15245327
000030 9e 05 9d 3d 82 68 d6 3d 9d 95 3f 3e f5 29 a9 3e
       0.07667087 0.10469152 0.18709417 0.33039823
000040 90 56 93 3d 98 5a 60 be aa f2 2a 3e b7 02 00 be
       0.07194245 -0.21909559 0.16694131 -0.12501036
000050 f8 19 d6 3d fa 21 24 be 71 51 95 3d d1 9a 86 3e
       0.10454172 -0.16028586 0.07290924 0.2628999
000060 97 19 2b bc 4e 50 a0 3e 84 40 ca bd f6 1c 4b bc
       -0.010443113 0.31311268 -0.09875587 -0.012397042
000070 1d 72 66 be 55 5b 56 bc ed fc e5 bd a0 1c 9f be
       -0.22504468 -0.013083299 -0.112298824 -0.31076527
000080 50 ae ba 3c 03 c2 e0 bd 28 4f 04 3e 45 ae fb bd
       0.022788197 -0.10974505 0.1292082 -0.12289099
000090 02 bf 72 3c f0 53 ce bd 38 a2 5a 3d b7 5e df 3d
       0.014816048 -0.100746036 0.05337736 0.10906737
0000a0 ef 98 5e 3e f6 cc 5a bc 5a d6 8d bb 3c 3d ed 3d
       0.21738027 -0.013354531 -0.004328531 0.11583945
0000b0 45 66 e4 3c c2 b4 d5 bd 9a d3 5d bc 4b 6e 4f bd
       0.027880797 -0.104348674 -0.013539219 -0.050642293
0000c0 84 c6 51 be a2 b4 e2 bd 31 d8 9a bd 13 74 67 bc
       -0.20485884 -0.11069609 -0.075607665 -0.014126795
0000d0 d4 37 93 bd 7e d4 07 3e 5d 87 68 bd 08 9e cf bd
       -0.07188383 0.13264653 -0.056769717 -0.10137564
0000e0 5a ab b2 3d 32 22 32 be a6 c0 50 be d8 e2 67 be
       0.08724089 -0.17395857 -0.2038599 -0.22645128
0000f0 1c 44 58 3e 13 3d f3 3d 0d ec 4e 3e 58 a4 a6 3d
       0.21119732 0.11876883 0.20207234 0.08136815
000100 cf f6 5b bd b2 82 cd bb 72 dc 2c be 5c 0f a7 3d
       -0.053702172 -0.0062716836 -0.16880968 0.081572264
000110 4c 1f 8f bd a1 10 98 3e 5f ba d3 3d 1a a6 a9 3d
       -0.06988391 0.29700187 0.10338282 0.082836345
000120 b6 e7 f6 3d 2f c9 69 be ba b9 be bb a9 7a e6 3d
       0.12055914 -0.22830652 -0.00582048 0.11253864
000130 bf af 85 3e 30 0a 80 bd 8d d9 ff bd 61 68 b3 3d
       0.26110646 -0.06251943 -0.124926664 0.08760143
000140 e3 7d ab 3e 87 73 3f 3e e2 80 ff ba 94 bb fe bd
       0.3349448 0.18696414 -0.0019493366 -0.124381214
000150 fd aa eb bd 23 71 58 3d f9 a6 bc 3e 6c fe c9 3d
       -0.11507223 0.05284227 0.3684614 0.0986298
000160 08 a9 6f 3e 4e 27 31 be 8f 07 8d 3e 75 48 07 be
       0.23404324 -0.1730015 0.2754483 -0.13211234
000170 96 17 72 be 6a 64 d2 bd e9 76 16 bd 48 97 0e be
       -0.2364181 -0.10273059 -0.036734495 -0.13924897
000180 67 a3 20 be fa 37 8d 3d ef d1 ec 3c cd da a1 3e
       -0.15687333 0.06895442 0.028908698 0.31612244
000190 d3 f6 20 3d ca d7 93 3e 3e ef 42 3d 4a 8a 8b 3e
       0.03929789 0.2887557 0.04759144 0.27253944
0001a0 d6 0f 29 3e ec 16 94 be 45 04 74 bd 90 61 6b 3d
       0.16509947 -0.28923738 -0.059574384 0.05746609
0001b0 0c 6b 67 3d 7b 22 04 be b8 41 bd be d4 a3 84 be
       0.056498572 -0.12903778 -0.36964202 -0.2590624
0001c0 f4 d9 8e bc 3c 94 3c 3e 7b 9d 6a be 1c d1 09 3e
       -0.017437913 0.18415922 -0.22911637 0.13458675
0001d0 27 16 ae bd 01 99 35 3e 74 c2 aa bd 72 56 26 3e
       -0.08500319 0.17734148 -0.0833787 0.16243914
0001e0 43 e9 12 3e 95 f3 5e be b9 86 fd 3d 03 36 40 3e
       0.14346795 -0.21772607 0.12379212 0.18770604
0001f0 de ab 87 3c 37 75 cc bd da 72 11 bd 94 0c 08 3d
       0.016561445 -0.099832945 -0.03550992 0.03321512
000200 d0 61 65 3d 1d 40 27 bd a9 fc 2e 3e 30 e6 c4 3c
       0.056001484 -0.040832628 0.1708857 0.024035543
000210 f1 26 66 3a 5c fe 02 be 95 60 c4 3b de 51 13 3e
       0.00087796064 -0.12792343 0.005992959 0.14386699
000220 c8 96 d8 3d 44 d9 fd bd 2a d3 6e 3e ec ad 08 bc
       0.10575634 -0.12394956 0.2332274 -0.008342247
000230 79 2a 4b bd 1d 1a cc bd 2c e5 2f 3c 1f e6 ea bd
       -0.049601052 -0.09965918 0.010735791 -0.11469673
000240 9b 72 dd 3c b4 8d 4f bd 9f fd 57 be 34 1e 30 be
       0.027032187 -0.050672248 -0.21092843 -0.17199022
000250 ef 55 d9 3d 70 02 85 bd e3 82 eb bb 63 40 35 be
       0.10612094 -0.064946055 -0.007187234 -0.17700343
000260 48 4d dd bd 9a 2e d8 bd d1 7c 59 be bd 6c a9 bd
       -0.10805756 -0.105557635 -0.2123902 -0.08272693
000270 2e 1c 0c 3e 54 aa 18 3d 31 ef c3 3d 8d 23 a3 3d
       0.13682625 0.037271813 0.095671065 0.07965765
000280 cb 8e 08 be b2 94 28 be db e1 12 3e 41 95 0f 3e
       -0.13335721 -0.16462973 0.1434397 0.1402178
000290 db af 0e 3e 6b 2c 02 bd a1 75 34 3c fb 5f aa bd
       0.13934271 -0.03178064 0.011014373 -0.08319088
0002a0 4f a9 bd 3e a9 3e 62 be 19 6a b6 bd d6 ec 1d bd
       0.37043235 -0.22094215 -0.08906955 -0.038555942
0002b0 72 52 89 3d 14 ee 12 be cf d3 dc bd 93 51 5a be
       0.06705178 -0.14348632 -0.10782587 -0.2132018
0002c0 15 27 33 be 43 29 ae 3e a5 48 fd bd 10 86 1a bd
       -0.17495377 0.34015855 -0.123673715 -0.03772551
0002d0 e4 43 ad bc 59 2c 52 3e 98 7a 5c 3d 17 1b a1 3c
       -0.021150537 0.2052473 0.053827852 0.019666238
0002e0 8d 77 cb bb 04 f2 1b be 6c c4 a8 3c 7f 13 8e bc
       -0.00620932 -0.1522904 0.020601474 -0.01734328
0002f0 2a 93 0c bd e0 b9 c1 bd c4 80 42 3e 54 eb 14 3e
       -0.034320034 -0.09459281 0.18994433 0.14542896
000300 70 b2 fc bd 99 92 d3 3d d4 34 36 3e 4b ac 1c 3e
       -0.12338722 0.10330696 0.1779359 0.153001
000310 df 6e 65 3c 22 e5 a5 bd eb bb 16 3e 36 df e1 3d
       0.0140034845 -0.08100344 0.14720123 0.11028902
000320 90 92 05 3e 90 48 42 3d 68 4a 3a 3e c3 77 a6 bd
       0.1304419 0.047432482 0.18192446 -0.081283115
000330 36 ae b4 bd 10 2f 8e bd 29 0a 13 3e 31 e5 2a be
       -0.088222906 -0.0694257 0.14359345 -0.16688992
000340 b6 cc 55 3b d7 8c 80 3d 82 02 ce ba 6d a7 0c 3e
       0.0032623238 0.06276863 -0.00157173 0.13735743
000350 3a c4 3e bd 34 ec 88 3c 9d 66 a9 3c 43 19 c3 bc
       -0.046573855 0.016714193 0.020678813 -0.023815757
000360 1e 70 b4 3d 6c af 8b 3d ad b0 56 3c 34 d0 29 be
       0.08810447 0.068205684 0.013103646 -0.1658333
000370 04 d5 cb bd 53 76 85 3d ce 2b 42 3e 3d 7d 26 3e
       -0.09952739 0.06516709 0.18962023 0.16258712
000380 ce dd 87 bc 84 11 f6 3d d8 3b 19 be e4 a7 4d be
       -0.016585257 0.120150596 -0.14964235 -0.20083576
000390 3b ea c2 3b ee dd 21 be d1 24 9b 3c 82 3e 86 be
       0.0059483326 -0.15807316 0.018938454 -0.26219565
0003a0 a5 14 21 be 61 53 94 3e 88 24 60 3e 17 77 56 be
       -0.15730532 0.28969863 0.21888936 -0.20943867
0003b0 c6 7a 84 bd fa d4 30 3e 57 52 b2 3e 64 17 af bd
       -0.0646873 0.17268744 0.34828445 -0.08549383
0003c0 a4 40 1f be 2c 20 89 bd 8d 42 d6 3d ce 03 cc bd
       -0.15552002 -0.066955894 0.10461912 -0.09961663
0003d0 04 de d5 3e c9 8c 5a 3e d8 1f 92 3d cf da f9 bd
       0.41770947 0.21342768 0.0713498 -0.121999376
0003e0 4d 57 8f bd 3e c0 20 3e ba 42 61 be bf 10 9a bd
       -0.06999073 0.15698335 -0.2199811 -0.07522725
0003f0 28 6a 5f 3e 7c 8b 84 3d 18 0c ce bd cb 1d bc 3b
       0.21817839 0.06471917 -0.100609004 0.0057408563

lstm.weight_hh_l1 f4 [128, 32]
000000 45 3e c3 bd 2a 87 9c bd 9a d6 1e bd 58 c5 b5 bd
       -0.09533361 -0.07642968 -0.03877888 -0.08875531
000010 f9 2b 12 be d1 a7 10 be de 9e 23 3d b8 16 60 be
       -0.14274587 -0.14126517 0.03994643 -0.21883667
000020 b7 07 2b 3e 4b a8 30 3d a4 bc 61 be ea 00 8a be
       0.16702162 0.043129247 -0.22044617 -0.26953822
000030 94 35 fe bb 33 77 25 be 1e 6b a3 3e 4d 80 f5 bd
       -0.007757852 -0.16158752 0.3191766 -0.11987362
000040 57 aa 35 3e 2a 0f a3 3d 34 8d 1e 3e 59 e6 05 3d
       0.1774076 0.07961877 0.15483552 0.03269038
000050 fa fd 88 bd c1 a0 6b be fe cc 84 bd 31 fa 07 3e
       -0.06689067 -0.23010541 -0.06484412 0.13279034
000060 a3 07 3f be 6e 17 8c bd ff 8e 98 be 60 d8 b0 be
       -0.18655257 -0.06840406 -0.29796597 -0.3454008
000070 ff 1b 79 be 26 19 de bd 39 c0 69 3e a5 7e a5 3e
       -0.24327086 -0.108446404 0.22827233 0.32323185
000080 ff ce 0f bd 5c 79 25 3d 88 23 46 3d 18 cf 95 3a
       -0.035109516 0.04039894 0.04837373 0.0011429517
000090 36 5e d7 3d e4 49 cc bd 24 4b df 3d 6b c0 a0 b9
       0.10516016 -0.09975031 0.10903004 -0.0003066094
0000a0 63 fc bd bc 6e de f2 bd b9 0b ee 3d 8b f7 51 3e
       -0.023191636 -0.11858831 0.1162333 0.20504586
0000b0 8e 58 fb bd 95 71 c2 bd 0d e1 90 bd a8 4d aa 3d
       -0.1227275 -0.0949432 -0.07074175 0.08315593
0000c0 38 7d 20 be ce fe e8 bd 84 c5 30 be 25 c5 ac bd
       -0.15672767 -0.11376725 -0.17262846 -0.0843604
0000d0 0e ea 31 3e 57 14 c1 3d fd cc c2 bd 58 df 2f be
       0.17374441 0.09427708 -0.09511755 -0.17175043
0000e0 8a 25 b8 3d 15 fb 3f 3e ce 3d 86 3c 42 67 86 bd
       0.08991535 0.18748124 0.016386893 -0.065626636
0000f0 85 da 05 be f9 87 c4 bd 15 37 9b bd 01 2e b8 bd
       -0.1307164 -0.09596247 -0.075788654 -0.089931495
000100 9c 07 1a bc e0 d2 b6 bb 36 da dc 3d f0 38 1c 3e
       -0.009401228 -0.0055793375 0.10783808 0.15256095
000110 f6 72 10 3e 52 5d 8c bc a8 85 d4 3d 1e ee e8 3d
       0.14106354 -0.017134342 0.103770554 0.11373542
000120 da 44 55 3c ff 6e 44 be b1 d8 65 3d 20 c0 65 3e
       0.013016904 -0.19182967 0.056114856 0.22436571
000130 80 b7 be bd be 40 e9 3d 51 97 cf 3d c6 f9 4c be
       -0.093123436 0.11389302 0.10136283 -0.20017156
000140 d7 b1 bd 3c 45 f9 25 be 10 74 24 be 56 61 16 bd
       0.02315609 -0.1620837 -0.160599 -0.03671392
000150 c3 54 a9 bc cd 73 0b be 1a b6 84 bd 7d fb 0c bd
       -0.0206703 -0.13618393 -0.064800456 -0.034419525
000160 76 8a 03 be 5a e9 8a 3d 1e 72 ec bd 18 17 61 bd
       -0.12845787 0.067827895 -0.115452036 -0.054953665
000170 a3 7a 85 3d 39 7b ee 3d da dd 0e be 3b c1 29 be
       0.06517532 0.116445966 -0.13951817 -0.16577618
000180 7c ce 77 3e d0 a4 c3 3d c1 f8 5e 3e d7 97 a5 3d
       0.24199861 0.0955292 0.2177458 0.08085602
000190 58 9d 25 3e dd e1 6c bd 61 a4 d4 bd 03 e4 50 3e
       0.16173303 -0.057832588 -0.10382915 0.2039948
0001a0 b4 f1 85 be df 6f 4c be 0d ab 6c 3e 77 83 69 3d
       -0.26160967 -0.1996455 0.23112126 0.05701014
0001b0 50 f8 d4 bd 98 27 68 be e6 c5 d4 bd 07 e3 c7 3d
       -0.10398924 -0.22671354 -0.10389309 0.09760099
0001c0 9d 36 76 bd 30 3a 60 bd 89 58 a1 be 7b da 18 be
       -0.060110677 -0.054742992 -0.3151286 -0.14927094
0001d0 b4 66 c9 3c 73 5a c5 bd 53 80 0c 3e 35 b2 42 3e
       0.024585105 -0.096363924 0.13720827 0.19013293
0001e0 68 49 01 3e 37 92 46 3d 9d 4c 88 3e 58 ae d8 3e
       0.12625659 0.048479285 0.2662095 0.42320514
0001f0 03 61 39 bd de 3e 8c 3d f5 19 c3 be 01 8e 12 be
       -0.045258533 0.068479285 -0.3810574 -0.14311983
000200 58 67 08 be 99 30 d4 bd 6d 8e a7 bb 54 34 09 bd
       -0.13320673 -0.10360832 -0.005113414 -0.03349717
000210 56 fc 43 3d 3e ba 7d bd 76 d0 aa 3b 83 33 31 3d
       0.04784807 -0.061945193 0.0052128388 0.043262016
000220 87 95 00 be 91 a0 34 3c 89 19 7c 3e df 3d cc bd
       -0.1255704 0.01102461 0.24619116 -0.099727385
000230 3c 17 bf bd ca 8c 58 bd 6b 01 00 be 3a 65 14 be
       -0.093306035 -0.052868642 -0.12500541 -0.1449174
000240 f6 94 c9 3d 54 f1 b7 ba a6 48 c5 bd 0c 6b 02 be
       0.09842865 -0.0014033713 -0.09632997 -0.12736148
000250 8a e1 d4 bd ac 0d bb bd 0a e5 28 3e 03 21 82 3e
       -0.10394581 -0.09133467 0.16493621 0.2541581
000260 4b 4e 02 3d 09 8f c8 3d 27 a3 ea bd b2 e9 86 3c
       0.031812947 0.09792907 -0.114569 0.016468856
000270 b6 bc 24 3e 61 08 cc bc 32 a9 84 be c0 f2 d0 bd
       0.16087613 -0.02490634 -0.25910336 -0.10202551
000280 9b 88 87 bc 5e 1d 8c bc 9b e5 af 3e e7 ea 5c 3e
       -0.01654463 -0.017103847 0.34354863 0.21573983
000290 6e fa 97 bd 85 2f e2 bd 74 01 ff bb c4 fb a5 bd
       -0.074208125 -0.1104422 -0.0077821556 -0.08104661
0002a0 b2 04 0d be 44 fb e7 bd 73 94 21 3e 24 a7 06 3d
       -0.13771322 -0.11327222 0.15779285 0.03287424
0002b0 14 3e 91 bd 4e 13 80 be e4 18 0e bb d7 89 9e bd
       -0.070919186 -0.25014728 -0.0021682316 -0.077411346
0002c0 33 fb 0c 3e 2a db f0 bd f5 45 0a 3e 7d 3e 97 3d
       0.137677 -0.11760552 0.13503249 0.073849656
0002d0 19 8c 54 3d f1 10 2a 3d c0 63 05 be d1 da 43 3d
       0.05189142 0.041520063 -0.13026333 0.0478161
0002e0 77 c3 7e 3e bd 35 95 3c 11 15 05 3e 9b 03 68 3e
       0.24879251 0.018214101 0.12996317 0.22657625
0002f0 c4 85 ce 3d 59 77 f2 bd 2b 47 bd be 6d 65 0d bd
       0.100841075 -0.1183917 -0.3696836 -0.034520555
000300 2a b5 06 3e d6 61 b6 3c 07 9c 52 3e cf 56 47 3e
       0.13155046 0.022263449 0.20567332 0.19466709
000310 8c b1 12 bd 81 42 10 3e cc 00 71 3d b0 5e 15 be
       -0.035813853 0.14087869 0.05883865 -0.14586902
000320 22 27 18 be 8c 0b 14 be 1f bb 00 bd 34 e1 fd bd
       -0.14858678 -0.1445753 -0.031428453 -0.1239647
000330 70 41 2b be c2 b0 28 3d cb 18 59 bd 68 36 c5 3d
       -0.16724181 0.041184194 -0.05300216 0.09629518
000340 8a 3e e5 bd 6a de ff bc de fb 66 bd 9a fc cb 3c
       -0.11193569 -0.031233985 -0.056392543 0.024900723
000350 88 06 19 be a8 22 ad bd 32 51 d9 bc 46 25 15 3c
       -0.14943898 -0.08453876 -0.026527975 0.009103125
000360 ff cc 8a bd 3a b8 ba 3d 8a 26 db bd cf ee 15 3e
       -0.06777381 0.0911717 -0.1070071 0.1464188
000370 d3 89 99 3d a7 3d 7c bc 5e 1f 9d 3d bf a3 79 3d
       0.07496991 -0.015395558 0.076719984 0.060947176
000380 c6 7a 7c 3d 76 c4 42 bb ed 99 fb 3d bb 81 0f 3e
       0.061640523 -0.002971915 0.122852184 0.14014332
000390 29 a0 25 be 74 20 d1 bd c4 89 da 3d 8b e2 ad bd
       -0.16174378 -0.10211268 0.10670808 -0.08490475
0003a0 f2 b9 3a 3e 87 ca 7c bb 74 59 a6 bd 37 d6 8d bd
       0.18234995 -0.0038572864 -0.081225306 -0.06925624
0003b0 e4 b1 a6 3c fc a1 0a be 78 7a e8 bd e2 b9 a9 bd
       0.020348497 -0.13538355 -0.11351484 -0.082874075
0003c0 4e 5d 9a 3d 1d 84 ac bd cf 00 ef bd 71 76 ac bd
       0.07537328 -0.08423636 -0.11670076 -0.084210284
0003d0 3e c0 c0 3b f9 b9 27 be 2e c9 5b bd fb d3 ee 3d
       0.005882292 -0.16379537 -0.053658657 0.11661526
0003e0 43 2e 32 be e5 49 29 3d f4 86 de bd b0 d7 95 3c
       -0.1740046 0.041330237 -0.10865584 0.018291324
0003f0 ff 4f 34 be cb 26 25 3c 45 e6 48 3e 02 a7 b1 3d
       -0.17608641 0.01008005 0.19619091 0.08674432

lstm.bias_ih_l1 f4 [128]
000000 c8 5f 84 be a5 20 c8 3b 58 a4 1c 3e 9a 94 65 3e
       -0.25854325 0.006107407 0.15297067 0.22419968
000010 a7 07 13 be e5 64 5f 3d 41 48 36 3e 16 82 c8 3d
       -0.14358388 0.05453958 0.17801 0.09790437
000020 c8 ef 09 3d 12 7c 64 3e 01 86 12 3e 6d ef a0 3d
       0.03367594 0.22312954 0.14308931 0.07858167
000030 ef b7 e7 3d 69 db 57 3d 90 61 3b 3e bc 4f a4 3d
       0.113143794 0.05269948 0.18298936 0.080230206
000040 7a a0 c3 bd f2 17 42 3e f8 a9 59 bc 9b 43 10 3e
       -0.09552093 0.18954447 -0.013285153 0.1408829
000050 01 4d df 3d 30 43 6a bc 46 7c ab bd 8d 50 d5 3e
       0.10903359 -0.014298245 -0.08373313 0.41663018
000060 22 a9 2b bd 90 53 54 bc 84 30 47 3e 3e de f5 bc
       -0.041909344 -0.012959376 0.19452101 -0.0300132
000070 47 56 2e 3e c6 eb ca 3d 20 c4 ea 3c f0 e8 ac 3c
       0.170251 0.099082515 0.028657973 0.021107167
000080 6c d8 80 bd bc 11 2b be 67 b6 f9 bd a1 af 02 bd
       -0.06291279 -0.16705984 -0.121929936 -0.031905774
000090 92 92 40 be c7 25 26 be 60 df c1 bd 5c a8 9d 3d
       -0.18805912 -0.16225348 -0.094664335 0.076981276
0000a0 53 20 c7 3d 92 6f 2a 3e 6a d1 07 bd 4f cd 89 bd
       0.09722962 0.16644123 -0.033158697 -0.06728613
0000b0 71 d7 f0 bd bf 0b 1f be 16 64 22 3d 18 96 50 be
       -0.11759842 -0.15531825 0.03964623 -0.20369756
0000c0 38 6d 86 3b a8 00 01 be d8 fe f6 3d c9 38 0a 3e
       0.0041023754 -0.12597907 0.12060326 0.13498224
0000d0 12 0f 35 be 45 57 f3 bd 37 3f 16 be 97 0c 32 3e
       -0.1768153 -0.1188188 -0.14672552 0.17387615
0000e0 d6 64 a7 bc 75 3a 31 be d4 54 b4 3d 47 77 66 bb
       -0.020433825 -0.17307456 0.08805242 -0.003516631
0000f0 59 bc 4f bd 75 51 0b bd 6c ac 15 3e 9f 95 1f be
       -0.05071673 -0.03401323 0.14616555 -0.1558442
000100 cd fa c3 bd 87 91 31 3d 24 61 f2 3d 18 93 1c 3e
       -0.09569321 0.043351676 0.11834934 0.15290487
000110 0c 2a c1 3c 95 d8 42 bd 09 49 0c be 05 ce d4 3d
       0.02357962 -0.04756983 -0.13699736 0.103908576
000120 be 52 1b bc 32 07 25 bd ae 86 96 3d 1c 3b b3 3d
       -0.0094801765 -0.040290065 0.07349907 0.087515086
000130 bf 2a 30 be 02 d3 7d bc b4 4d d6 ba 3d 00 34 bc
       -0.17203806 -0.015492203 -0.0016350062 -0.010986385
000140 dc 8f 10 be 48 35 14 3e 3f b3 e6 3d 41 b7 1b be
       -0.14117378 0.1447345 0.11264657 -0.15206625
000150 eb cb 2c be 5f a3 0e 3e bf e1 16 bd 50 99 5e bd
       -0.16874664 0.13929509 -0.036836382 -0.05434543
000160 68 25 8a 3d d6 c1 06 3e d7 6f e3 3c f8 19 0d 3e
       0.06745416 0.1315988 0.02776329 0.13779438
000170 18 88 4a 3c d2 19 13 be 38 dc 25 be 7d 59 df 3c
       0.012361549 -0.14365318 -0.16197288 0.027264351
000180 8f 64 9c be 01 38 45 bd 51 37 8e bd 22 69 19 3e
       -0.3054547 -0.048149113 -0.069441445 0.14981511
000190 30 a0 2b be 69 07 43 3e 7e 0d bf bd 20 e0 99 3c
       -0.16760325 0.19045796 -0.09328745 0.018783629
0001a0 69 90 8b bd 0c 7a 48 3e 6e 67 0b bd a2 2e 4e bd
       -0.068146534 0.19577807 -0.034034185 -0.05033744
0001b0 a0 5e 07 be c1 83 62 3c 34 89 5d 3e 0a 97 8f 3d
       -0.1321969 0.013825358 0.2163437 0.0701123
0001c0 4a 5b 85 3d 6a a1 2f bd 95 10 f7 bd 2e 2d 3d 3e
       0.06511553 -0.042878546 -0.1206371 0.18474266
0001d0 a3 77 65 3c d3 a7 b1 ba 5a 21 c4 3c 46 ed b3 3e
       0.014005574 -0.0013554044 0.023941685 0.35141963
0001e0 dc 1a 19 be 20 2a ea bd 4b e5 bf 3d 53 08 0b be
       -0.14951652 -0.11433816 0.09369906 -0.13577394
0001f0 f7 12 b5 bc 60 80 59 3e 52 1c 54 3d c8 1a a5 bd
       -0.02210377 0.21240377 0.05178482 -0.08061749

lstm.bias_hh_l1 f4 [128]
000000 06 95 0b be 16 ce 88 3d 67 2f e4 3d 1f fa 75 3e
       -0.13631067 0.06679933 0.11141854 0.24021195
000010 6b 3f 63 bd 1e 07 bb bd 38 72 e9 bd ba f1 f2 bd
       -0.055480402 -0.09132217 -0.113987386 -0.11862512
000020 21 86 3b 3e d0 78 b2 bd 5a b1 06 be 19 34 fd 3d
       0.18312885 -0.087144494 -0.13153592 0.123634525
000030 83 f0 0b bd 6e 4f 02 3c bf 4f 8a 3e cb 33 4f 3e
       -0.034164917 0.007953508 0.27013966 0.20234601
000040 c1 51 e3 bd 8f 38 3f 3e c9 f7 bc bc e3 de c0 3d
       -0.11099578 0.18673919 -0.023067372 0.09417512
000050 f2 10 67 3e 36 23 10 3e 72 0e 40 3e 08 a5 c3 3e
       0.22565058 0.14075932 0.1875551 0.38211846
000060 7a ac ec 3d d5 33 57 be e0 83 c8 3d fc c4 02 3e
       0.11556335 -0.21015866 0.09790778 0.12770456
000070 13 b0 2b 3e 4a f7 8e 3d f2 ee 73 bc 1b ee cd 3d
       0.16766386 0.069807604 -0.014888512 0.10055181
000080 3f 1c 04 be bf 0a 18 3e 6c b3 40 3c 40 4a 24 be
       -0.129014 0.1484785 0.0117615275 -0.16043949
000090 cd 7e 68 be 38 6b 66 3d 2a cc 19 be ff be 33 be
       -0.2270462 0.056254596 -0.15019289 -0.17553328
0000a0 b8 7c 28 be 5d 2a e9 bc a5 a2 44 be ad c2 b2 bc
       -0.16453826 -0.028462583 -0.19202669 -0.021821344
0000b0 ef 5b 99 3c 7e fc 56 be e8 c3 e9 bd f1 3a 1c be
       0.018720595 -0.20994756 -0.11414319 -0.1525686
0000c0 bc 0b 8d 3d 88 30 34 be da 62 c7 3d 09 9d 18 3e
       0.06887004 -0.17596638 0.09735651 0.14903654
0000d0 a0 e7 2c be 87 06 4c bd 82 68 1d be b2 d7 0e be
       -0.16885233 -0.049810912 -0.15371898 -0.13949469
0000e0 08 30 b7 bd c9 d5 33 3c 94 06 03 3e 19 37 5c be
       -0.08944708 0.010976263 0.12795478 -0.21505393
0000f0 d5 81 e3 3d 96 1e bc bd c3 33 51 3e 73 8a 24 3e
       0.11108748 -0.09185521 0.20429902 0.16068439
000100 d5 70 15 3d ef f0 9e bd c4 a8 ab 3d c7 d8 0a bc
       0.036484558 -0.07760798 0.08381799 -0.008474535
000110 f8 b0 5f 3d 3d d0 b7 3d ed 4c cb 3c 6b 9c 71 bc
       0.05461213 0.08975265 0.024816955 -0.014746766
000120 3b 12 d6 bd fa e3 f7 bd e4 9f df 3d 38 19 13 3e
       -0.10452696 -0.1210403 0.109191686 0.14365089
000130 6e d5 1d 3e 95 eb d2 bc 7a 67 89 bd af e9 21 bd
       0.15413448 -0.0257471 -0.0670919 -0.0395295
000140 79 dd b1 bd 63 e9 db bd 6b 37 30 be f9 e8 23 3d
       -0.08684821 -0.10737874 -0.1720864 0.040017102
000150 36 08 07 3e 98 27 f8 bd 7f 7f 01 3e 68 1d 4c 3d
       0.13186726 -0.12116927 0.12646292 0.04983273
000160 d6 1d 22 bd 8d 04 ee 3d 1e 16 24 3e 8f 39 d0 3c
       -0.039579235 0.11621962 0.16024062 0.025418071
000170 7a e8 47 3d eb f5 b9 3d 29 84 71 3d 78 b2 d8 bd
       0.04880569 0.09080108 0.05896393 -0.10580915
000180 eb ec 85 be c9 a9 82 bc ba a8 91 bd 35 f2 cb 3e
       -0.26157317 -0.0159501 -0.0711226 0.39833227
000190 17 a2 34 be 1e e0 2e 3e f3 d2 e6 bc 97 b0 16 3e
       -0.17639957 0.17077681 -0.02817676 0.14715801
0001a0 6b a8 f8 bd c5 9c 85 3d 09 46 93 bd 3b 2d d8 bd
       -0.12141498 0.06524042 -0.071910925 -0.10555502
0001b0 76 95 ad bd 0c 74 28 3e 20 2f 71 3e d6 c4 3e bd
       -0.08475773 0.16450518 0.23553133 -0.046574436
0001c0 a5 7e e8 bc 42 d3 da 3d 5e 8e e2 bb c2 c8 fd bc
       -0.028380701 0.106848255 -0.006913944 -0.030979518
0001d0 ab ef fb bb a4 e1 93 bd 9f 18 22 bd 0f 06 ce 3e
       -0.0076884828 -0.07220772 -0.03957426 0.40238997
0001e0 1e dd df 3d 52 91 55 3d b3 15 d8 bd a5 75 03 be
       0.10930847 0.05214054 -0.10551014 -0.12837847
0001f0 fc 8a 9e bd 77 8c d8 3c 1b c8 34 3e 0a 5b 79 bd
       -0.07741353 0.026434166 0.17654459 -0.060877837

fc.weight f4 [1, 32]
000000 fa 27 1b bd c3 55 00 be 64 76 2b 3e ab 97 93 3e
       -0.03787992 -0.12532715 0.16744381 0.2882665
000010 4d ae 8b bd 81 e4 e5 bd 8d 15 76 3e 55 a8 a6 bd
       -0.068203546 -0.11225224 0.24031658 -0.081375755
000020 40 86 3b 3e 2a 3d 2a 3e 2c b9 27 3e a9 88 38 be
       0.18312931 0.16624895 0.16379231 -0.18020882
000030 e2 81 ec 3d f5 aa 41 be 60 84 28 3e 68 1c da bd
       0.11548211 -0.18912871 0.16456747 -0.10649949
000040 36 2f 46 3e 52 38 3e be 81 70 05 3e c7 c8 64 3e
       0.19353947 -0.18576172 0.13031198 0.22342215
000050 9d 7c 53 be ff 0a 04 be ee 38 74 be 61 b2 91 3e
       -0.20653005 -0.1289482 -0.23849842 0.28456405
000060 13 99 d4 3d 02 cb 7e bd b1 65 52 be 98 76 44 3e
       0.10380759 -0.062205322 -0.20546605 0.19185865
000070 86 e0 a2 bd 30 3b fb bd c5 5a 93 be c5 94 58 3e
       -0.07952981 -0.122671485 -0.2878019 0.21150501
